logs/g1/exported/policies/policy_lstm_1.pt (torch, 145681 bytes, 10 tensors)

hidden_state f4 [1, 1, 64]
0	0x00000000	0.0
1	0x00000000	0.0
2	0x00000000	0.0
3	0x00000000	0.0
4	0x00000000	0.0
5	0x00000000	0.0
6	0x00000000	0.0
7	0x00000000	0.0
8	0x00000000	0.0
9	0x00000000	0.0
10	0x00000000	0.0
11	0x00000000	0.0
12	0x00000000	0.0
13	0x00000000	0.0
14	0x00000000	0.0
15	0x00000000	0.0
16	0x00000000	0.0
17	0x00000000	0.0
18	0x00000000	0.0
19	0x00000000	0.0
20	0x00000000	0.0
21	0x00000000	0.0
22	0x00000000	0.0
23	0x00000000	0.0
24	0x00000000	0.0
25	0x00000000	0.0
26	0x00000000	0.0
27	0x00000000	0.0
28	0x00000000	0.0
29	0x00000000	0.0
30	0x00000000	0.0
31	0x00000000	0.0
32	0x00000000	0.0
33	0x00000000	0.0
34	0x00000000	0.0
35	0x00000000	0.0
36	0x00000000	0.0
37	0x00000000	0.0
38	0x00000000	0.0
39	0x00000000	0.0
40	0x00000000	0.0
41	0x00000000	0.0
42	0x00000000	0.0
43	0x00000000	0.0
44	0x00000000	0.0
45	0x00000000	0.0
46	0x00000000	0.0
47	0x00000000	0.0
48	0x00000000	0.0
49	0x00000000	0.0
50	0x00000000	0.0
51	0x00000000	0.0
52	0x00000000	0.0
53	0x00000000	0.0
54	0x00000000	0.0
55	0x00000000	0.0
56	0x00000000	0.0
57	0x00000000	0.0
58	0x00000000	0.0
59	0x00000000	0.0
60	0x00000000	0.0
61	0x00000000	0.0
62	0x00000000	0.0
63	0x00000000	0.0

cell_state f4 [1, 1, 64]
0	0x00000000	0.0
1	0x00000000	0.0
2	0x00000000	0.0
3	0x00000000	0.0
4	0x00000000	0.0
5	0x00000000	0.0
6	0x00000000	0.0
7	0x00000000	0.0
8	0x00000000	0.0
9	0x00000000	0.0
10	0x00000000	0.0
11	0x00000000	0.0
12	0x00000000	0.0
13	0x00000000	0.0
14	0x00000000	0.0
15	0x00000000	0.0
16	0x00000000	0.0
17	0x00000000	0.0
18	0x00000000	0.0
19	0x00000000	0.0
20	0x00000000	0.0
21	0x00000000	0.0
22	0x00000000	0.0
23	0x00000000	0.0
24	0x00000000	0.0
25	0x00000000	0.0
26	0x00000000	0.0
27	0x00000000	0.0
28	0x00000000	0.0
29	0x00000000	0.0
30	0x00000000	0.0
31	0x00000000	0.0
32	0x00000000	0.0
33	0x00000000	0.0
34	0x00000000	0.0
35	0x00000000	0.0
36	0x00000000	0.0
37	0x00000000	0.0
38	0x00000000	0.0
39	0x00000000	0.0
40	0x00000000	0.0
41	0x00000000	0.0
42	0x00000000	0.0
43	0x00000000	0.0
44	0x00000000	0.0
45	0x00000000	0.0
46	0x00000000	0.0
47	0x00000000	0.0
48	0x00000000	0.0
49	0x00000000	0.0
50	0x00000000	0.0
51	0x00000000	0.0
52	0x00000000	0.0
53	0x00000000	0.0
54	0x00000000	0.0
55	0x00000000	0.0
56	0x00000000	0.0
57	0x00000000	0.0
58	0x00000000	0.0
59	0x00000000	0.0
60	0x00000000	0.0
61	0x00000000	0.0
62	0x00000000	0.0
63	0x00000000	0.0

weight f4 [32, 64]
0	0x3e57f82b	0.21090762
1	0xbe625b9a	-0.22105256
2	0x3d375658	0.04476008
3	0x3d4f2983	0.050576698
4	0x3e945ddf	0.28977868
5	0x3dcac86e	0.0990151
6	0xbe2430e5	-0.16034277
7	0x3e479252	0.1948941
8	0x3d6cfc5a	0.05785785
9	0x3eef8e59	0.4678829
10	0x3eb72be6	0.3577568
11	0xbe276c51	-0.16349913
12	0x3f02926a	0.5100466
13	0x3f13fd85	0.57808715
14	0xbe21ba7f	-0.15793799
15	0xbccbf949	-0.024899142
16	0x3e826e09	0.25474575
17	0x3e2069c2	0.15665343
18	0x3d4b4530	0.04962653
19	0x3d1f10eb	0.038834494
20	0x3c878b49	0.016545909
21	0x3e31a1ff	0.17346953
22	0x3ed99869	0.42499092
23	0x3d6c1c67	0.057644274
24	0x3d0e30d1	0.034714524
25	0x3ed963c1	0.4245892
26	0xbea260af	-0.3171439
27	0xbf16051b	-0.5860154
28	0x3d2f931e	0.04286491
29	0x3e947b34	0.29000247
30	0xbeaf793c	-0.34272182
31	0xbe8cb1f3	-0.27479514
32	0x3e6c9ef5	0.23107512
33	0xbe8e063c	-0.2773913
34	0xbe7c4f9f	-0.24639748
35	0x3db96c52	0.090538636
36	0xbeab30b9	-0.3343561
37	0x3e25f209	0.1620561
38	0x3e0c161b	0.13680308
39	0x3de5311e	0.11191009
40	0x3db9d80f	0.09074413
41	0xbdbfa276	-0.09357159
42	0x3f33cd6c	0.70235324
43	0x3e5f695e	0.21817538
44	0xbe4fdfad	-0.2030017
45	0xbd8b04c3	-0.067880176
46	0x3ddd520f	0.10806667
47	0xbe3fe568	-0.18739855
48	0xbd26b667	-0.040701296
49	0xbe8758ba	-0.2643488
50	0x3e16f408	0.14741528
51	0xbec962b5	-0.3933312
52	0x3eb14347	0.3462164
53	0x3db97129	0.09054787
54	0xbe9622b1	-0.29323342
55	0xbde2eefc	-0.11080739
56	0x3e88293c	0.2659396
57	0x3d409b54	0.047023132
58	0xbf2f25ea	-0.6841723
59	0x3d56f2fa	0.052477814
60	0xbdbd35cd	-0.09238777
61	0xbe461da0	-0.19347239
62	0xbe02918b	-0.12750833
63	0xbdad5d69	-0.08465082
64	0x3e0969bc	0.1341924
65	0x3e8b588d	0.27215996
66	0xbb051af0	-0.0020310245
67	0x3ea31648	0.31852937
68	0x3eaf3a87	0.3422434
69	0xbeaca218	-0.33717418
70	0x3da2346c	0.07920155
71	0xbf038fd0	-0.51391315
72	0xbe560836	-0.2090157
73	0x3e9f8783	0.31158075
74	0xbf0e947b	-0.55695313
75	0x3eb11d38	0.34592605
76	0xbc988d91	-0.018622192
77	0xbf11a5a5	-0.5689338
78	0xbe6f8aa3	-0.2339273
79	0xbe39cfc5	-0.18145664
80	0xbd9ca68e	-0.07648955
81	0x3e6ff7e2	0.23434404
82	0xbc7832f2	-0.015148865
83	0x3e5ab741	0.21358968
84	0x3dbd0451	0.09229339
85	0xbdd31d5c	-0.10308334
86	0x3e47859b	0.1948456
87	0x3ce9c218	0.028534934
88	0x3ee1f113	0.44129238
89	0x3e8d9dd2	0.2765947
90	0xbebe1890	-0.37128115
91	0xbd107d0b	-0.0352755
92	0xbdb6d418	-0.089271724
93	0xbe826b40	-0.2547245
94	0xbad4226d	-0.0016184576
95	0xbe1d44f1	-0.1535833
96	0x3e1e6adf	0.15470456
97	0x3beac978	0.00716513
98	0xbe623e45	-0.22094066
99	0x3f09d240	0.5383644
100	0x3e2b28e5	0.16714819
101	0x3d69296c	0.05692427
102	0x3d8cd7c4	0.068770915
103	0x3f01fc22	0.5077535
104	0x3ec565c8	0.38554215
105	0x3e087658	0.13326395
106	0x3e49ba59	0.19699992
107	0xbeb43e5e	-0.35203832
108	0x3f0f33a3	0.55938166
109	0x3a4896c2	0.0007651859
110	0x3ecfb81d	0.40570155
111	0xbe291d4d	-0.16515084
112	0x3e9c617a	0.3054312
113	0xbe256c59	-0.16154613
114	0xbe8e3be0	-0.27780056
115	0xbeb8367d	-0.3597907
116	0xbd313e59	-0.04327235
117	0xbf28274a	-0.6568495
118	0xbee7db61	-0.4528456
119	0x3bfcbab2	0.0077126855
120	0xbd8b8342	-0.06812145
121	0x3e9f6632	0.31132656
122	0x3ef8e173	0.48609504
123	0xbecce3cb	-0.40017542
124	0x3ee09618	0.43864512
125	0x3e828954	0.25495398
126	0x3eb07aa9	0.34468582
127	0x3ee01e16	0.43772954
128	0xbe3aea97	-0.18253551
129	0xbd959039	-0.07302899
130	0x3d9ec39e	0.07752155
131	0xbe737e64	-0.23778683
132	0x3e806694	0.2507826
133	0x3da45e93	0.08025851
134	0xbe64d993	-0.22348623
135	0x3e7bf38c	0.24604625
136	0x3e62eaf5	0.22159941
137	0x3e4d63d9	0.2005762
138	0x3cc98cae	0.024603214
139	0xbe8b8538	-0.27250075
140	0x3d758240	0.05993867
141	0x3d2be5b6	0.041967116
142	0xbe93b394	-0.28847945
143	0x3e9d0a7d	0.30672064
144	0xbed3dc43	-0.41378984
145	0x3e17e1b8	0.14832199
146	0x3d230db1	0.03980798
147	0x3e3e2fc3	0.18572907
148	0xbe405896	-0.18783793
149	0x3e43ec8c	0.19133204
150	0x3e66c577	0.22536264
151	0xbd5f7783	-0.054557335
152	0x3d8712c2	0.06595375
153	0x3d775c09	0.060390506
154	0xbf128ca5	-0.57245857
155	0xbe2f3f82	-0.1711407
156	0x3e12f138	0.1434983
157	0x3d0360f6	0.03207489
158	0x3d463773	0.048392724
159	0x3e9143ca	0.2837203
160	0x3d8643ff	0.06555938
161	0x3db27b11	0.08714879
162	0xbdf1ea6f	-0.11812293
163	0x3eb5fed1	0.35545972
164	0x3e56a52c	0.20961446
165	0xbd7aa0a7	-0.061188366
166	0xbd263921	-0.040581826
167	0x3f22e9e8	0.6363816
168	0xbe0e0e77	-0.13872705
169	0xbdb52fce	-0.08847009
170	0xbe50dfaf	-0.20397829
171	0x3d532c3e	0.051555865
172	0x3e91e8dd	0.28497973
173	0xbe4fc660	-0.20290518
174	0xbdd06af1	-0.101766475
175	0xbdfe418e	-0.12414847
176	0xbeba71e6	-0.36415023
177	0x3d4b8ae0	0.04969299
178	0xbedd8568	-0.43265843
179	0x3f1f6a20	0.6227131
180	0x3f2a342c	0.6648586
181	0xbdd79a42	-0.10527469
182	0xbd223619	-0.039602373
183	0x3f0169ef	0.50552267
184	0x3d8255ec	0.063640445
185	0xbe555371	-0.20832612
186	0xbd0f2169	-0.03494397
187	0xbe8c56c2	-0.2740994
188	0xbe7da595	-0.24770196
189	0xbf13b864	-0.5770323
190	0xbd99ce8c	-0.07510099
191	0xbe9a540c	-0.30142248
192	0x3e7f1300	0.24909592
193	0xbe131b3e	-0.14365861
194	0x3d79034f	0.06079417
195	0x3d42115e	0.047379844
196	0xbe642a2b	-0.22281711
197	0x3dc6410d	0.09680376
198	0x3e373738	0.17892158
199	0x3db5c064	0.08874586
200	0xbea1f6c5	-0.31633583
201	0xbee10caf	-0.4395499
202	0xbd205093	-0.03913934
203	0x3cdb570f	0.026774911
204	0xbe295228	-0.16535246
205	0x3e51d571	0.20491578
206	0x3d9c1c46	0.0762258
207	0xbe8eb2b9	-0.2787073
208	0xbce396e4	-0.027781911
209	0x3eb39a59	0.35078695
210	0x3efc5169	0.4928086
211	0xbe1365de	-0.14394328
212	0x3f1f498b	0.6222159
213	0x3d5141b5	0.051088054
214	0x3d477171	0.04869217
215	0x3dce0bb4	0.10060826
216	0x3e630ddd	0.22173257
217	0x3e6d669b	0.23183672
218	0xbc7fcfb9	-0.01561349
219	0xbd1b2b5d	-0.03788315
220	0xbf1e3320	-0.6179676
221	0xbdc63de7	-0.09679776
222	0xbd2f467c	-0.04279183
223	0xbe383453	-0.1798871
224	0xbea4db96	-0.3219878
225	0x3ea5c2a8	0.32375073
226	0xbe5098fa	-0.20370856
227	0xbd117f4e	-0.035521798
228	0xbe3febe4	-0.18742329
229	0x3e753bed	0.23948641
230	0x3d4f780e	0.050651602
231	0x3b86799e	0.0041038534
232	0xbe540565	-0.20705183
233	0x3e9d01e9	0.3066552
234	0x3e9701cf	0.29493567
235	0xbeaed7aa	-0.34148914
236	0xbe9f538f	-0.31118438
237	0x3dda508d	0.10659895
238	0x3e77c560	0.24196386
239	0xbdefc038	-0.11706585
240	0xbd2b81ca	-0.041871823
241	0xbe1cd46f	-0.15315412
242	0x3eb4357e	0.3519706
243	0xbd8cd007	-0.068756156
244	0x3e5f0db8	0.21782577
245	0xbf0c32a2	-0.5476476
246	0x3d7c6a39	0.06162474
247	0xbd2fcc68	-0.042919546
248	0xbe26247a	-0.16224852
249	0x3ee50a45	0.44734398
250	0xbe5a163d	-0.21297546
251	0x3e34ca7c	0.17655367
252	0xbe202842	-0.15640357
253	0x3c8af64d	0.016963148
254	0xbe588b1c	-0.21146816
255	0x3f0e7a18	0.5565505

bias f4 [32]
0	0xbe2d4ea1	-0.16924526
1	0x3d9821eb	0.07428344
2	0xbe53791e	-0.20651671
3	0xbd915db5	-0.07097951
4	0xbe7750c4	-0.24151903
5	0x3d35807e	0.044311993
6	0xbd871bf2	-0.06597127
7	0xbb696987	-0.0035615878
8	0xbdb6b9b1	-0.089221366
9	0x3d8bc3a7	0.06824427
10	0xbd293df8	-0.041318864
11	0x3e268d9a	0.16264954
12	0xbe304ff0	-0.17217994
13	0x3d169fc5	0.03677346
14	0x3d88f723	0.066877626
15	0xbc682265	-0.014168357
16	0xbe0dcbe4	-0.1384731
17	0x3cb4e4bb	0.022081723
18	0xbe838c97	-0.256932
19	0xbe90dc0e	-0.28292888
20	0xbdb3aaf7	-0.08772843
21	0x3e3bfaac	0.18357342
22	0x3cfff5bd	0.031245107
23	0xbe7e0852	-0.24807861
24	0xbdecdd74	-0.11565676
25	0x3d8d8a89	0.06911189
26	0x3d340a0c	0.043954894
27	0xbe2a1b49	-0.16611971
28	0xbe323877	-0.17404352
29	0x3e8b0cb2	0.27158123
30	0xbd8f1f83	-0.06988432
31	0xbdd92940	-0.10603571

weight f4 [12, 32]
0	0x3db0348e	0.08603774
1	0xbd71c5c4	-0.059026495
2	0x3e9a9a38	0.30195785
3	0xbe96f053	-0.29480228
4	0xbdbf4239	-0.09338803
5	0xbdbe1dd8	-0.09283036
6	0xbed4a833	-0.41534576
7	0x3ec80d64	0.39072716
8	0xbea13a19	-0.31489637
9	0x3e45e454	0.19325382
10	0x3e7fdd49	0.24986757
11	0xbdf228ee	-0.11824213
12	0xbe595acb	-0.21226041
13	0xbe69178d	-0.2276289
14	0xbbe8905f	-0.0070972885
15	0xbe249d19	-0.16075553
16	0xbebaa6f1	-0.3645549
17	0xbe556d63	-0.20842509
18	0x3da570b3	0.08078136
19	0xbe426864	-0.18985134
20	0x3cb77319	0.02239375
21	0x3e179f08	0.1480676
22	0x3e7c5b9a	0.24644318
23	0x3e926499	0.28592375
24	0x3d3ee9d7	0.046609726
25	0x3e20444d	0.15651055
26	0x3ae023f5	0.001710056
27	0x3df2f20e	0.118625745
28	0x3e2455b2	0.16048315
29	0xbec2dca9	-0.38058975
30	0x3e7c9124	0.24664742
31	0x3a959e31	0.0011414943
32	0x3de08834	0.10963479
33	0x3e4462cf	0.19178317
34	0xbc34faf4	-0.01104616
35	0xbeda51f2	-0.42640644
36	0xbe2fca2c	-0.17166966
37	0x3dc37274	0.095433146
38	0xbd872b7c	-0.06600091
39	0x3e25a7b7	0.1617726
40	0xbd2808e1	-0.041024093
41	0x3e759443	0.23982339
42	0x3e404874	0.18777639
43	0x3e55a982	0.20865443
44	0xbe242c84	-0.16032606
45	0x3d1f54b8	0.038899153
46	0xbd597ce8	-0.053097636
47	0xbd02ef43	-0.03196646
48	0x3e5c671b	0.21523707
49	0x3eea8d46	0.45810908
50	0xbebdaaf6	-0.37044495
51	0xbed456af	-0.41472384
52	0xbea4b25e	-0.32167333
53	0x3ec9c610	0.39408922
54	0x3edb9031	0.42883447
55	0xbf138456	-0.57623804
56	0x3e2b0441	0.16700841
57	0x3eaa46d6	0.3325717
58	0x3e74a5d0	0.23891377
59	0xbd97e1c3	-0.074161075
60	0xbe5128c7	-0.20425712
61	0x3ebcd1a1	0.36878684
62	0x3e3ace62	0.18242791
63	0xbe33e1b5	-0.17566569
64	0x3e314058	0.17309701
65	0xbd1274d2	-0.03575594
66	0xbdd6511d	-0.1046469
67	0x3e8ba1dc	0.27271926
68	0x3e864d97	0.2623107
69	0xbc0f4c5c	-0.008746233
70	0xbd172c25	-0.036907334
71	0xbbb29a11	-0.005450495
72	0xbb863960	-0.004096195
73	0xbe3eff51	-0.18652083
74	0xbde3c5b3	-0.111216925
75	0x3d17a510	0.03702265
76	0x3cbefead	0.023314798
77	0xbe5a65d6	-0.2132791
78	0x3e62cc8b	0.2214834
79	0xbd22c653	-0.039739918
80	0xbc66723b	-0.014065321
81	0xbdbfc89d	-0.09364436
82	0xbd092257	-0.033480015
83	0x3e13ddc6	0.14440069
84	0x3db669b3	0.08906879
85	0x39f0ec9f	0.00045952664
86	0x3dab7612	0.083721295
87	0xbe12c1bc	-0.14331716
88	0xbe3328e2	-0.17496064
89	0xbd5e9197	-0.054338064
90	0x3d339e94	0.043852404
91	0x3df0a1de	0.11749624
92	0xbd823fae	-0.06359802
93	0xbde6352f	-0.11240613
94	0x3e19a2b4	0.15003473
95	0x3e29bd72	0.16576174
96	0x3dff5b2c	0.124685615
97	0xbd7dbfc1	-0.06195045
98	0x3cd76b8a	0.026296396
99	0xbe1d6f6a	-0.15374532
100	0x3d462a5f	0.048380252
101	0xbe11644e	-0.1419842
102	0xbe13e6f3	-0.14443569
103	0x3e7f3f0d	0.24926396
104	0xbbf038b1	-0.007330977
105	0xbd8d7b5f	-0.06908297
106	0x3eadeb5f	0.33968636
107	0xbde8c10d	-0.113649465
108	0x3d2bffb0	0.04199189
109	0x3e50cc69	0.20390476
110	0x3d2fef3f	0.042952772
111	0x3d3269a6	0.043557785
112	0x3e1d2f2e	0.15350029
113	0x3e0706a3	0.13186125
114	0x3e98ff91	0.29882482
115	0x3e97d93a	0.29657918
116	0xbd375570	-0.044759214
117	0xbdcf5ce4	-0.10125139
118	0xbd10cb5c	-0.03535019
119	0x3dfa13d9	0.12210817
120	0xbda42134	-0.080141455
121	0xbca33558	-0.019922897
122	0x3e0442f2	0.12916163
123	0xbdfc8438	-0.12329906
124	0x3e22781f	0.15866135
125	0x3ded6e94	0.11593357
126	0x3d41fb0a	0.04735855
127	0xbe3b6f92	-0.1830428
128	0xbe31aadf	-0.17350338
129	0xbdb91dbd	-0.09038875
130	0xbde4f043	-0.11178639
131	0x3d0eed2b	0.03489415
132	0xbee81b98	-0.45333552
133	0x3e8483bc	0.25881755
134	0x3e7215ad	0.23641081
135	0x3e24e3f4	0.16102582
136	0xbedb1079	-0.42786005
137	0xbec003fa	-0.37503034
138	0x3ea46a6b	0.3211244
139	0xbe4922b1	-0.1964214
140	0xbf0bd9f2	-0.54629433
141	0x3e1c6e71	0.15276505
142	0x3bf4f42f	0.007475398
143	0x3f402597	0.7505736
144	0x3dbfdbdb	0.09368106
145	0x3be13c77	0.006873663
146	0xbeca4eee	-0.39513344
147	0xbe89dcae	-0.26926178
148	0x3eb53a6a	0.3539613
149	0x3eb533df	0.35391137
150	0xb9fb5e1a	-0.00047944562
151	0x3f1e70ce	0.61890876
152	0xbf22be73	-0.6357185
153	0x3f1b0051	0.6054736
154	0xbe3ab8d5	-0.1823457
155	0x3e407afe	0.18796918
156	0x3e840a70	0.25789213
157	0x3e9d3b8e	0.307095
158	0x3e3d6082	0.18493846
159	0xbe5fad3d	-0.21843429
160	0xbf01de53	-0.50729865
161	0x3e582ecc	0.21111602
162	0xbdaef12c	-0.08542094
163	0x3d411010	0.04713446
164	0x3de24cc1	0.11049796
165	0x3e59a512	0.21254376
166	0x3c635266	0.013874626
167	0x3d91cd3c	0.071192235
168	0xbdf2a9e9	-0.11848814
169	0xbc791ee9	-0.015205123
170	0x3e6792b5	0.22614558
171	0x3e001c27	0.1251074
172	0xbe44b0cc	-0.19208068
173	0x3e500904	0.20315939
174	0xbe1da906	-0.15396509
175	0xbcaa2b6b	-0.020772656
176	0xbd6b2064	-0.057403937
177	0xbd9e023f	-0.07715272
178	0xbd8db41d	-0.069191195
179	0xbc3af160	-0.011410087
180	0xbe1aaef6	-0.15105805
181	0x3e663c42	0.22483924
182	0x3d896eee	0.06710611
183	0xbe6c153d	-0.23054977
184	0x3e103564	0.14082867
185	0xbd990439	-0.074715085
186	0xbe32b72c	-0.17452687
187	0xbd9a4ff8	-0.07534784
188	0xbdb9bcff	-0.09069251
189	0xbe69ee7d	-0.22844882
190	0x3eb24450	0.34817743
191	0xbee75819	-0.451844
192	0xbdb38d28	-0.08767158
193	0x3e556ec2	0.20843032
194	0xbf0573ac	-0.52129626
195	0x3d69c501	0.057072643
196	0xbe8dbf65	-0.27685085
197	0x3e019f3e	0.12658402
198	0xbda26308	-0.07929045
199	0xbe0bf5ef	-0.13668035
200	0x3ea141da	0.31495553
201	0x3e371fa9	0.17883171
202	0xbe5fbb62	-0.21848825
203	0xbd4dbe96	-0.050230585
204	0x3d294173	0.041322183
205	0x3d6874bd	0.056751955
206	0x3ee0335f	0.43789193
207	0x3e6bf00b	0.23040788
208	0xbe15435a	-0.14576474
209	0xbe94ca01	-0.29060367
210	0x3ec2ac82	0.38022238
211	0xbe77cdac	-0.24199551
212	0xbe6d8541	-0.23195364
213	0x3afb40a2	0.0019169042
214	0x3e2b28c4	0.1671477
215	0xbe10d339	-0.14143075
216	0xbe3003ac	-0.171889
217	0xbea9ac90	-0.33139467
218	0xbb3528ef	-0.0027642807
219	0x3e392a04	0.18082434
220	0xbdf43ea0	-0.11926007
221	0x3e02882c	0.12747258
222	0xbd8bb243	-0.0682111
223	0xbd84e33a	-0.064886525
224	0xbd74a265	-0.059725184
225	0xbebccc38	-0.36874557
226	0x3d960902	0.07325937
227	0xbd722173	-0.05911393
228	0x3dfaa62e	0.122387275
229	0x3e0c981d	0.13729902
230	0xbe6bac3d	-0.23014922
231	0xbeb2897f	-0.34870526
232	0x3ec91d4c	0.39280164
233	0x3c81534d	0.015786791
234	0xbe34d795	-0.17660363
235	0xbeee0299	-0.46486357
236	0x3ec03930	0.3754363
237	0xbdcd2c5c	-0.100182265
238	0xbe33d12d	-0.17560263
239	0x3e94befa	0.29051954
240	0xbef95f05	-0.48705307
241	0x3e7436b3	0.23848991
242	0xbe846c4c	-0.25863874
243	0x3e4b4426	0.19850215
244	0x3e02c2fb	0.12769692
245	0xbebfc895	-0.3745772
246	0x3d862d75	0.06551639
247	0x3e39b125	0.18133982
248	0x3b4305c4	0.0029758075
249	0xbcf7cbe0	-0.030248582
250	0xbf01bcea	-0.50678885
251	0x3f00368e	0.50083244
252	0x3c853f94	0.016265668
253	0xbea1a961	-0.31574538
254	0x3dcb8b83	0.09938719
255	0x3dfeae20	0.124355555

bias f4 [12]
0	0x3d182d4d	0.037152577
1	0x3e82f5c3	0.25578126
2	0xbc03e5a1	-0.008050353
3	0xbe64d7fe	-0.2234802
4	0x3ead2601	0.33818057
5	0xbda2848a	-0.07935436
6	0xbe1950a7	-0.14972173
7	0xbe31170f	-0.17293952
8	0x3db00f3d	0.085966565
9	0x3cbc3971	0.022976609
10	0xbdf92f16	-0.12167184
11	0x3e015c1c	0.12632793

weight_ih_l0 f4 [256, 47]
0	0x3ef01fa7	0.4689915
1	0xbe344722	-0.1760526
2	0x3efdf8c0	0.49603844
3	0x3e0b333f	0.13593768
4	0xbf929e6e	-1.1454599
5	0x3e791263	0.2432342
6	0xbd4f420a	-0.05060009
7	0xbe758b54	-0.2397893
8	0x3eb53320	0.35390568
9	0xbe76d29a	-0.24103776
10	0xbf9b676c	-1.2140937
11	0xbec98301	-0.3935776
12	0xbeba3ea7	-0.36375925
13	0x3f048339	0.5176273
14	0xbe160152	-0.14648941
15	0xbe6e023a	-0.23243037
16	0x3f3bf2a0	0.7341709
17	0x3e96c8ed	0.2945017
18	0x3e21e411	0.15809657
19	0xbf58e909	-0.84730583
20	0xbda80bd7	-0.08205383
21	0xbee4243b	-0.44558892
22	0x3ebfba1f	0.37446687
23	0x3dbe0cc9	0.09279782
24	0xbe2a1ebe	-0.1661329
25	0xbe44f4f0	-0.19234061
26	0xbf02565c	-0.50913024
27	0x3e65ca00	0.22440338
28	0x3e0cd250	0.13752103
29	0xbcf86aec	-0.030324422
30	0xbeddf9bc	-0.43354595
31	0xbf098948	-0.537251
32	0x3e966146	0.2937109
33	0xbdd25629	-0.1027034
34	0x3da30671	0.07960213
35	0x3dee6aae	0.11641441
36	0xbe4ccf94	-0.2000106
37	0xbe40ffb8	-0.18847549
38	0x3b293ebe	0.002582475
39	0xbd26621c	-0.04062091
40	0x3db4c381	0.08826352
41	0x3e0dfabb	0.13865177
42	0x3e3cda2d	0.18442602
43	0xbebb644c	-0.36599958
44	0x3e8bd74b	0.27312693
45	0x3ebea17c	0.37232578
46	0x3daca774	0.08430377
47	0x3c3f1ef9	0.011665099
48	0x3d0d541a	0.034504034
49	0x3ee05cd4	0.43820822
50	0x3f80132b	1.000585
51	0x3f2eb50e	0.6824502
52	0x3ddaee8f	0.10690033
53	0x3e9e664b	0.30937418
54	0x3f20ce30	0.6281462
55	0xbf695d26	-0.9115776
56	0x3fece68c	1.8507857
57	0xbfdcd061	-1.7251092
58	0xbf7e5019	-0.9934097
59	0x3f079442	0.529606
60	0x3d81d85b	0.06340095
61	0x3f2f644d	0.6851242
62	0x3f758f7a	0.9592205
63	0x3f42ff93	0.76171225
64	0x3dc91030	0.09817541
65	0xbf87e99b	-1.0618166
66	0xbeac6f6c	-0.33678758
67	0x3e890265	0.2675964
68	0x3e2bfe18	0.16796148
69	0xbfbec6af	-1.4904383
70	0xbe3735af	-0.17891572
71	0xbf255d34	-0.6459534
72	0x3ea85a34	0.3288132
73	0x3e0c9bc0	0.13731289
74	0x3ef1d039	0.47229174
75	0x3d9da338	0.07697147
76	0xbd609852	-0.054832764
77	0x3ee243c7	0.44192335
78	0x3e9308dd	0.287177
79	0x3f1b69c1	0.6070824
80	0x3d010835	0.031501967
81	0xbea56bd9	-0.32308844
82	0xbf4411d7	-0.7658972
83	0x3e6fb006	0.23406991
84	0x3db6b2a0	0.08920789
85	0x3e003704	0.12520987
86	0x3eca333e	0.3949222
87	0xbe792748	-0.24331391
88	0x3dd03099	0.10165519
89	0xbe30b130	-0.17255092
90	0xbe639ae6	-0.22227058
91	0x3ed4c87b	0.41559204
92	0xbeb054a5	-0.3443958
93	0xbe3cb6d8	-0.18429124
94	0x3ec92eaa	0.39293414
95	0x3e3afd29	0.18260635
96	0xbea6cc22	-0.32577616
97	0x3e36f1c8	0.1786567
98	0xbe9294b5	-0.2862908
99	0x3daa6820	0.083206415
100	0xbdb30f51	-0.08743156
101	0xbd485fc1	-0.048919443
102	0xbf884705	-1.0646673
103	0xbeaec394	-0.3413359
104	0xbeb8b647	-0.36076567
105	0x3f94f051	1.1635839
106	0xbe26e5d1	-0.16298606
107	0xbf165d17	-0.58735794
108	0xbdb75304	-0.08951381
109	0xbf479058	-0.77954626
110	0x3dba2175	0.09088413
111	0xbd8e26aa	-0.06940968
112	0xbe9cd14b	-0.30628428
113	0x3d679ed6	0.056547962
114	0xbf533d0b	-0.8251502
115	0x3ef523aa	0.47878772
116	0x3e654a0c	0.22391528
117	0x3e1c6d59	0.15276088
118	0xbc9ceb10	-0.019155055
119	0xbf34f347	-0.7068371
120	0x3de50b95	0.1118385
121	0xbf743714	-0.9539654
122	0xbe53ff0b	-0.2070276
123	0xbf7509ff	-0.9571838
124	0x3e45c132	0.1931198
125	0x3e857522	0.26065928
126	0x3f145807	0.5794682
127	0x3f3a22bc	0.7270925
128	0xbdc14c0b	-0.09438332
129	0x3efa4255	0.48878732
130	0x3e6bfd4f	0.23045848
131	0xbdffd175	-0.12491123
132	0x3ec2817f	0.37989423
133	0x3ef1f702	0.47258765
134	0xbd4d1e4e	-0.05007773
135	0xbd9639ef	-0.07335269
136	0x3e332a01	0.17496492
137	0xbde90638	-0.11378139
138	0xbee31bdc	-0.44357193
139	0x3ef7c833	0.48394927
140	0x3e9df0c0	0.3084774
141	0xbf169b9a	-0.5883118
142	0x3f474520	0.7783985
143	0x3ec23408	0.37930322
144	0x3f23d910	0.64003086
145	0x3ebcec13	0.3689886
146	0x3e9ab141	0.3021336
147	0xbf00956c	-0.50228
148	0x3d92b302	0.07163049
149	0x3ee9ae5e	0.45640844
150	0xbed641eb	-0.41847166
151	0xbf41878b	-0.7559745
152	0x3d74e784	0.059791103
153	0xbe1998a1	-0.1499963
154	0x3f15891b	0.5841233
155	0x3f37d172	0.71803963
156	0xbed41362	-0.41421038
157	0xbe69b81f	-0.22824143
158	0xbe1f6926	-0.15567455
159	0xbf4db2fe	-0.80351245
160	0xbe96a736	-0.29424447
161	0xbe1b1d8f	-0.15147994
162	0xbdd7d1d9	-0.10538072
163	0x3f08ff91	0.53514963
164	0xbf277b3e	-0.6542243
165	0xbe586bdd	-0.21134897
166	0xbf0e59fd	-0.5560606
167	0xbf3d77b5	-0.74010783
168	0xbf29a5c4	-0.66268563
169	0xbee97d80	-0.4560356
170	0x3e81fbb3	0.25387344
171	0xbe350b2e	-0.17680046
172	0xbe248f88	-0.16070378
173	0x3eae1e60	0.3400755
174	0xbedd349d	-0.43204203
175	0xbd806e26	-0.06271009
176	0xbe9e1acc	-0.3087982
177	0x3ec32c2e	0.38119644
178	0x3dda68e2	0.10664536
179	0xbe4de97c	-0.20108598
180	0xbe2a8fa1	-0.16656353
181	0x3d155686	0.03645947
182	0xbca0ee93	-0.019645011
183	0x3dd45494	0.103676945
184	0xbe8fe4a1	-0.28104118
185	0x3e20f8bc	0.15719885
186	0x3e6fd8bd	0.23422523
187	0x3e083c88	0.13304341
188	0x3e3ee00b	0.18640153
189	0x3f0688af	0.5255231
190	0x3ee6d608	0.45085168
191	0x3eced2aa	0.403951
192	0xbeac5ad8	-0.33663058
193	0x3e08511d	0.13312192
194	0x3ea44495	0.32083574
195	0x3d8d7ae4	0.06908205
196	0x3f80aba4	1.005238
197	0x3f9a085a	1.2033799
198	0xbd456144	-0.048188463
199	0xbd8a9a4e	-0.067677125
200	0x3c56060f	0.013062968
201	0x3eff7fe2	0.49902254
202	0x3e251eab	0.1612498
203	0x3eca8e0d	0.395615
204	0x3dfe0dfa	0.124050096
205	0xbef018a5	-0.46893802
206	0x3f3ee5d4	0.7456944
207	0x3fa358fa	1.2761528
208	0x3f1493ca	0.5803801
209	0xbebc1952	-0.36738068
210	0x3f7857f6	0.9700922
211	0x3f8fdb6a	1.1238835
212	0x3e6cdd9f	0.23131417
213	0xbe3a9836	-0.18222126
214	0xbc35b74b	-0.011091064
215	0xbf0cafe3	-0.5495588
216	0x3f2ada2c	0.66739154
217	0x3da97232	0.08273734
218	0x3f8ba55a	1.0909836
219	0xbe25c74c	-0.16189307
220	0xbf0a9abf	-0.54142374
221	0xbcabd241	-0.02097428
222	0xbdc39431	-0.0954975
223	0x3f28c316	0.6592268
224	0x3e61801c	0.22021526
225	0x3ecf8a6f	0.40535304
226	0xbe9e7297	-0.309468
227	0x3e6f5bac	0.23374814
228	0xbedcedc4	-0.4315015
229	0x3bd4e1ee	0.0064966595
230	0x3ee9b6d1	0.4564729
231	0x3d999f17	0.07501047
232	0xbd96c675	-0.073620714
233	0xbe90f90d	-0.2831501
234	0xbe85dd1e	-0.26145262
235	0x3f42978d	0.760125
236	0x3e007924	0.12546211
237	0x3db70dd8	0.08938187
238	0xbe8ed0c7	-0.2789366
239	0xbf2a0c6d	-0.6642521
240	0xbebbaab7	-0.36653683
241	0xbeb70903	-0.35749063
242	0x3ea63140	0.3245945
243	0xbf01936f	-0.5061559
244	0x3cbf8c82	0.023382429
245	0xbf01ab26	-0.50651777
246	0x3f0b9a85	0.54532653
247	0x3dbdb08a	0.09262188
248	0x3ed52b26	0.41634482
249	0x3eba6332	0.36403805
250	0xbd3e5f5f	-0.04647767
251	0xbe48bc9c	-0.19603199
252	0x3e9e204f	0.30884025
253	0x3ee53e53	0.44774112
254	0x3f800725	1.000218
255	0xbed57699	-0.41692045

weight_hh_l0 f4 [256, 64]
0	0xbde09ab8	-0.1096701
1	0xbe289813	-0.16464262
2	0xbe2e7dcc	-0.17040175
3	0xbdc4f68e	-0.09617339
4	0xbbbc8ff7	-0.0057544666
5	0x3e2aac3f	0.16667269
6	0xbebd9fe2	-0.37036043
7	0x3eb2c848	0.34918427
8	0xbeda0b1c	-0.425866
9	0xbf6c4d2f	-0.9230527
10	0xbd1a50f5	-0.037674863
11	0xbee64381	-0.44973376
12	0xbe8ec859	-0.27887228
13	0xbf23461c	-0.63778853
14	0xbf887cc8	-1.066308
15	0x3e2ab488	0.1667043
16	0xbe859bf7	-0.26095554
17	0xbe057eee	-0.13036701
18	0xbf08f824	-0.5350363
19	0x3d859dc0	0.06524229
20	0x3f28dce7	0.6596207
21	0xbcd18f72	-0.025581095
22	0x3ed39a60	0.41328716
23	0xbf5a50c5	-0.85279495
24	0x3f49efff	0.7888183
25	0xbed9106a	-0.42395335
26	0xbe8a3111	-0.2699056
27	0x3f7481be	0.9551047
28	0x3ebd6c1e	0.3699655
29	0xbf068b3f	-0.5255622
30	0x3ee0b584	0.43888485
31	0x3ed57932	0.41694027
32	0x3dcc8a2d	0.099872924
33	0xbea30bc7	-0.31844923
34	0x3f1fd302	0.6243135
35	0xbf70265d	-0.9380854
36	0x3d69053a	0.05688975
37	0xbe2a1850	-0.16610837
38	0xbd0c3916	-0.03423413
39	0x3eb2e2bb	0.34938607
40	0x3f196e64	0.5993407
41	0xbe6c9c1f	-0.2310643
42	0xbf984b37	-1.1897954
43	0xbd4a8a28	-0.049448162
44	0x3ece610c	0.40308416
45	0xbe51a522	-0.2047315
46	0x3dc61a20	0.09672952
47	0x3c9e309e	0.019310292
48	0xbed0f50f	-0.40811965
49	0x3f0f7171	0.5603247
50	0xbf6f17b0	-0.9339552
51	0xbe891e54	-0.2678095
52	0x3e45fb74	0.19334203
53	0xbee31ba6	-0.44357032
54	0x3f156e71	0.58371645
55	0xbf992619	-1.1964751
56	0x3e48259f	0.19545601
57	0x3e9c709f	0.30554673
58	0x3f4db706	0.80357397
59	0xbe9c5876	-0.3053624
60	0x3e803c67	0.25046083
61	0xbf52fcd9	-0.82417065
62	0x3ca9e5d4	0.020739473
63	0xbe82b6b5	-0.2553002
64	0xbdc0d7de	-0.094161734
65	0x3ea61f37	0.3244569
66	0x3ea97dc9	0.3310378
67	0xbec46936	-0.3836152
68	0xbf186fc0	-0.59545517
69	0xbf2387e4	-0.6387923
70	0x3f5847e3	0.8448469
71	0xbf4dc9ee	-0.80386245
72	0xbf72f50d	-0.9490517
73	0x3f5cd480	0.8626175
74	0xbe2c4a4b	-0.16825216
75	0x3d9342c4	0.07190469
76	0x3e2d5707	0.1692773
77	0x3e6cac53	0.23112611
78	0xbc94276f	-0.01808521
79	0xbe210e90	-0.15728211
80	0x3d45a930	0.048257053
81	0x3f9f411d	1.2441746
82	0x3e88c397	0.26711723
83	0xbe9c7d8c	-0.30564535
84	0xbf35296b	-0.70766324
85	0xbe92fbf1	-0.2870784
86	0xbc665bf1	-0.0140600065
87	0xbd6537eb	-0.05596153
88	0x3f1a5447	0.6028485
89	0xbea51769	-0.32244423
90	0xbf778cce	-0.96699226
91	0xbec92479	-0.3928564
92	0x3eb69b66	0.35665435
93	0xbe60165d	-0.21883531
94	0xbe5b0ce6	-0.21391639
95	0x3f3e77f7	0.744018
96	0xbe3325ae	-0.17494842
97	0x3ed8e0ea	0.42359096
98	0x3e805ae2	0.25069338
99	0x3ebcb0fe	0.36853784
100	0xbe37567c	-0.17904085
101	0x3ed6322d	0.41835156
102	0x3dc26530	0.09491956
103	0xbecd5814	-0.4010626
104	0x3ed81168	0.4220078
105	0xbf873572	-1.0563185
106	0x3ec43381	0.38320544
107	0xbdb60b66	-0.08888893
108	0x3f6c87d1	0.9239474
109	0x3ed96598	0.42460322
110	0x3e911504	0.28336346
111	0x3c999a7c	0.018750422
112	0xbe886da6	-0.26646155
113	0xbe6aa726	-0.22915325
114	0x3d89e8b7	0.0673384
115	0x3f34d1fd	0.70632917
116	0xbcb803ff	-0.022462843
117	0xbe4d5254	-0.20050937
118	0xbf14e656	-0.58163965
119	0x3f1c8cc9	0.6115232
120	0xbd95e3ae	-0.07318817
121	0x3eb1754c	0.34659803
122	0xbf1dca61	-0.6163693
123	0xbefed2ae	-0.4977011
124	0xbe4f4646	-0.20241651
125	0x3ecbe601	0.39823917
126	0x3cebde8e	0.028792646
127	0xbed9fc3d	-0.42575255
128	0x3e66447a	0.22487059
129	0xbf2eec3d	-0.6832922
130	0x3eae7c23	0.34079084
131	0xbd0cac13	-0.03434379
132	0xbd53d36a	-0.051715292
133	0x3d5b2d08	0.053509742
134	0xbe73327c	-0.23749727
135	0x3f3372db	0.7009713
136	0xbe64342e	-0.2228553
137	0xbe84c42a	-0.2593091
138	0xbecd4628	-0.40092587
139	0x3e83a120	0.25708866
140	0x3f27754c	0.65413356
141	0xbe232486	-0.15931901
142	0xbf3224e8	-0.69587564
143	0xbe614b29	-0.22001328
144	0xbee13162	-0.4398299
145	0x3ccb7c1f	0.024839459
146	0x3eff5f66	0.4987747
147	0xbe634f0a	-0.2219812
148	0xbe7f37cd	-0.2492363
149	0x3f732d64	0.94991136
150	0x3f107617	0.5643019
151	0x3e0302e2	0.12794068
152	0xbefb7825	-0.491151
153	0x3f9b4d86	1.2133033
154	0xbd8ad370	-0.0677861
155	0xbf113bbf	-0.5673179
156	0xbe93ebb4	-0.28890765
157	0xbe99227b	-0.2990912
158	0x3f189553	0.5960285
159	0xbe028d92	-0.12749317
160	0x3f6ab39b	0.91680306
161	0xbe807064	-0.25085747
162	0xbf2cf2bb	-0.6755788
163	0xbe07a95e	-0.13248202
164	0x3fbca40d	1.4737564
165	0x3f1cbe6c	0.6122806
166	0xbe37f08b	-0.17962854
167	0x3ac19e3a	0.0014771887
168	0x3e1e72a9	0.15473427
169	0xbde19370	-0.110144496
170	0x3eec4750	0.46148157
171	0x3f05001c	0.5195329
172	0xbf379363	-0.7170927
173	0xbe1e019e	-0.15430304
174	0xbcc220aa	-0.023697216
175	0xbecd1c8b	-0.4006084
176	0xbe2a3530	-0.16621852
177	0x3ebd3296	0.36952657
178	0xbef0888c	-0.46979177
179	0x3e8c71b7	0.27430508
180	0x3e8d9208	0.27650476
181	0xbec3e841	-0.38263133
182	0x3eb0bf63	0.34521016
183	0xbd0c7ea9	-0.03430048
184	0xbe757540	-0.23970509
185	0xbee23cdc	-0.44187057
186	0x3b2a51da	0.0025988729
187	0x3e98cd50	0.2984414
188	0x3d8b9815	0.06816117
189	0x3e9a94ae	0.3019156
190	0xbf210e26	-0.62912214
191	0x3e7cc64f	0.24685024
192	0x3f42e1a2	0.7612554
193	0x3ee1db7a	0.4411276
194	0x3dd8061a	0.10548039
195	0xbe1c97f6	-0.15292343
196	0x3f4c2550	0.79744434
197	0xbea22b9e	-0.31673902
198	0x3d876c65	0.066124715
199	0x3f4827a1	0.7818547
200	0xbf332deb	-0.6999194
201	0xbf2df267	-0.67948
202	0x3ecfcf13	0.40587673
203	0xbe86e106	-0.26343554
204	0x3e523711	0.20528819
205	0xbf3fc1a7	-0.74904865
206	0x3e57fff7	0.21093737
207	0xbe5804b6	-0.21095547
208	0xbe1472ed	-0.14496966
209	0x3e484ed0	0.19561315
210	0x3c64a39d	0.013955024
211	0xbdc37380	-0.09543514
212	0x3f18a974	0.59633565
213	0xbf56886a	-0.838019
214	0xbe8651da	-0.26234323
215	0xbd569801	-0.052391056
216	0xbe20d89c	-0.1570763
217	0xbef5ccfc	-0.48007953
218	0xbeab0f5b	-0.33410153
219	0x3e12ce8c	0.14336604
220	0xbe37feb5	-0.17968257
221	0x3ee0ebae	0.4392981
222	0x3f1311ba	0.57448924
223	0x3da1ebf3	0.07906332
224	0xbef708f9	-0.48249033
225	0x3e79c11a	0.24390069
226	0xbf5c7747	-0.861195
227	0xbe8b7bb1	-0.27242807
228	0xbee8b293	-0.4544874
229	0x3e4e905e	0.20172259
230	0xbed7b76f	-0.42132136
231	0xbf4697cd	-0.7757538
232	0xbdc1453f	-0.09437036
233	0xbf4bdfd5	-0.79638416
234	0x3e83a413	0.25711116
235	0x3f0b3188	0.54372454
236	0xbe5a5921	-0.21323062
237	0xbec4762e	-0.38371414
238	0xbf4f02b0	-0.80863476
239	0xbf19b087	-0.60034984
240	0x3d87673f	0.066114895
241	0xbfa392e8	-1.2779207
242	0x3e1e188f	0.15439056
243	0xbeb8ee98	-0.36119533
244	0x3f643e60	0.89157677
245	0x3e8ed982	0.2790032
246	0xbe64ce1b	-0.22344248
247	0xbeeacaf1	-0.45857957
248	0x3f161831	0.58630663
249	0xbf6106f1	-0.87901217
250	0x3f1977ea	0.599486
251	0x3dba85b9	0.09107537
252	0xbe5854f4	-0.21126157
253	0xbf1ab701	-0.6043549
254	0xbe1a618a	-0.1507627
255	0x3f1dee10	0.6169138

bias_ih_l0 f4 [256]
0	0xbc55675b	-0.01302513
1	0x3deb43b4	0.11487523
2	0xbe35ab85	-0.17741211
3	0xbdbf994b	-0.0935541
4	0xbe21c413	-0.15797453
5	0x3df43ccb	0.11925658
6	0xbef65604	-0.481125
7	0xbe8360e5	-0.25659862
8	0xbd425132	-0.047440715
9	0x3db17488	0.08664805
10	0x3df929ee	0.121662006
11	0xbe511acc	-0.20420378
12	0xbe159c2d	-0.14610358
13	0xbdf4c327	-0.11951285
14	0xbee1f48f	-0.44131896
15	0xbe1a1f1c	-0.1505093
16	0x3e5f521b	0.21808665
17	0xbda71ed9	-0.081601806
18	0xbd2a3d53	-0.04156239
19	0xbdb65687	-0.089032225
20	0xbe90bb74	-0.28268015
21	0xbe4e85fd	-0.201683
22	0xbe7f172c	-0.24911183
23	0xbe49798b	-0.19675271
24	0xbe56896e	-0.20950863
25	0xbe611452	-0.21980408
26	0xbe6b7eb6	-0.22997555
27	0xbe68e3f9	-0.22743215
28	0xbd756dac	-0.059919044
29	0xbea6aa5c	-0.3255185
30	0xbc850a6a	-0.016240317
31	0xbcbdef4b	-0.023185393
32	0xbc697c5b	-0.01425084
33	0xbe729f85	-0.23693664
34	0xbedad38f	-0.4273953
35	0xbe8b8aa9	-0.27254227
36	0xbd7c6b06	-0.061625503
37	0x3e69bc78	0.22825801
38	0xbea3c4ef	-0.31986186
39	0x3dd5b88e	0.10435592
40	0xbe38c2dc	-0.18043083
41	0xbe0ea12c	-0.1392867
42	0xbea90a6f	-0.33015773
43	0x3d9dd22c	0.07706103
44	0xbe90b402	-0.28262335
45	0xbeb0f43d	-0.3456134
46	0x3ccfcf0f	0.025367288
47	0xbe4e30c3	-0.20135789
48	0xbd2765ad	-0.04086845
49	0xbe362677	-0.1778811
50	0xbe85293f	-0.2600803
51	0x3e1bdade	0.1522021
52	0x3e6c7fa2	0.23095563
53	0xbe76fc92	-0.24119785
54	0xbec02dab	-0.37534842
55	0x3bd7848a	0.006577079
56	0x3de95446	0.11393027
57	0x3da6f7d5	0.08152739
58	0x3db534aa	0.088479355
59	0xbe200783	-0.15627865
60	0x3ea3e4f3	0.32010612
61	0xbde328bd	-0.110917546
62	0xbeb0bdcf	-0.34519812
63	0xbcf5a23d	-0.029984588
64	0xbe22da81	-0.15903665
65	0xbea55994	-0.32294905
66	0xbe58ed64	-0.21184307
67	0x3ea372a3	0.31923398
68	0xbe4c3821	-0.19943286
69	0xbebdc747	-0.370661
70	0x3ee600b4	0.4492241
71	0x3e068d21	0.13139774
72	0xbeb1c9fc	-0.34724414
73	0xbe8e29e7	-0.27766344
74	0xbf2b0deb	-0.6681811
75	0x3dd1814c	0.102297395
76	0xbe24ccd5	-0.16093762
77	0xbef12578	-0.470989
78	0x3d5c3de9	0.05376998
79	0xbe798b21	-0.2436948
80	0xbe94dd47	-0.2907507
81	0xbce34600	-0.02774334
82	0xbe4709e9	-0.19437374
83	0xbdb6bcac	-0.08922705
84	0xbe130b5e	-0.14359805
85	0x3d93f70e	0.07224856
86	0xbc6672b6	-0.014065435
87	0xbeac0641	-0.3359852
88	0xbe5863e0	-0.2113185
89	0x3e028738	0.12746894
90	0xbea9c107	-0.3315508
91	0x3dd5cfe2	0.10440041
92	0xbe5f44bf	-0.21803568
93	0xbe01eaa8	-0.1268717
94	0xbe1fdeae	-0.1561229
95	0xbea4a376	-0.3215596
96	0xbdbd0a9d	-0.0923054
97	0xbdc0e735	-0.09419099
98	0xbd9c1116	-0.076204464
99	0xbda0e006	-0.07855229
100	0xbef3d6be	-0.47624773
101	0xbedae93d	-0.42756072
102	0xbe0230ad	-0.12713881
103	0xbf058eec	-0.52171206
104	0xba828c68	-0.0009960057
105	0x3db24db7	0.08706229
106	0xbe66254f	-0.2247517
107	0xbdd7ad2f	-0.10531079
108	0xbe96bb98	-0.29439998
109	0xbed88ecd	-0.42296448
110	0xbeac721c	-0.3368081
111	0xbe8c8f56	-0.27453107
112	0xbe4136c3	-0.18868546
113	0x3dcd5a4e	0.1002699
114	0xbe03ae71	-0.12859513
115	0xbe18b47c	-0.149126
116	0xbea5a79d	-0.3235444
117	0xbdb3ce14	-0.08779541
118	0x3d4d64fb	0.05014513
119	0x3d97fd14	0.07421318
120	0xbc5b8878	-0.013399236
121	0xbebf322e	-0.37342972
122	0xbf196af1	-0.59928805
123	0xbd095db1	-0.033536617
124	0xbde4bd05	-0.11168865
125	0xbeacd01f	-0.33752534
126	0x3dbc32c1	0.09189368
127	0xbf037f16	-0.5136579
128	0xbe096ccd	-0.1342041
129	0xbe6c6be3	-0.2308803
130	0x3d0ed014	0.034866408
131	0x3e139ee8	0.14416087
132	0xbe1f521a	-0.15558663
133	0x3cb07b49	0.021543162
134	0x3d84386e	0.064560756
135	0xbe29651d	-0.16542478
136	0x3e94d3b6	0.29067773
137	0x3e7b38b7	0.24533354
138	0xbdee6cd9	-0.11641855
139	0xbd3b69a6	-0.04575505
140	0xbda182d8	-0.078862846
141	0x3e66d118	0.225407
142	0x3e38bd0d	0.18040867
143	0x3dccaed1	0.09994281
144	0xbdd14f48	-0.102202
145	0xbe1ea05d	-0.15490861
146	0xbd23bb76	-0.0399737
147	0xbd35864d	-0.044317532
148	0xbe36d353	-0.17854051
149	0x3e27f247	0.16401015
150	0xbdc1ba09	-0.094593115
151	0x3d2ac56e	0.04169219
152	0xbe13ee5b	-0.14446394
153	0x3df7bcb5	0.1209654
154	0x3e3cde0e	0.18444082
155	0xbc80edd0	-0.015738398
156	0xbe64b6d1	-0.22335364
157	0x3e308428	0.17237914
158	0x3d810764	0.06300238
159	0xbb87954a	-0.0041376697
160	0x3e20fd5b	0.15721647
161	0xbd166056	-0.036712967
162	0x3d1cfd81	0.038327698
163	0x3d0a29f2	0.03373141
164	0x3e330b49	0.17484774
165	0x3d428ce7	0.047497656
166	0x3e22563d	0.1585321
167	0x3d9d99fa	0.07695384
168	0x3e3c744a	0.18403736
169	0x3eaeaf45	0.34118095
170	0x3e48d993	0.19614248
171	0xbc9545e1	-0.018221797
172	0x3db12857	0.08650272
173	0x39d0a688	0.00039796927
174	0x3d751ca3	0.059841763
175	0xbd130803	-0.035896312
176	0xbbbd037f	-0.005768239
177	0x3d2a643e	0.041599505
178	0xbd1067f6	-0.035255395
179	0x3df5624c	0.11981639
180	0xbd9892b6	-0.07449858
181	0x3cb27540	0.021784425
182	0x3d1934d8	0.03740391
183	0x3dae4f0f	0.08511173
184	0xbe84140a	-0.2579654
185	0x3c81f16e	0.015862193
186	0xbd543e9a	-0.051817514
187	0xbdb0ac97	-0.08626669
188	0xbd9630a5	-0.07333497
189	0x3dc293e2	0.09500863
190	0xba7d26ff	-0.0009656995
191	0x3d2b0fa3	0.04176296
192	0xbda3bc7e	-0.079949364
193	0xbd09973a	-0.033591487
194	0x3d6af18b	0.05735926
195	0xbe2c915e	-0.16852328
196	0xbe95bcea	-0.29245692
197	0x3e9950b6	0.2994439
198	0xbea02392	-0.31277138
199	0x3d286298	0.04110965
200	0xbec780c9	-0.38965443
201	0xbbd61e06	-0.006534341
202	0x3dcbbf0d	0.099485494
203	0xbe38acc0	-0.18034649
204	0xbf0119bb	-0.50429887
205	0xbe829797	-0.2550628
206	0xbf03c4c6	-0.5147213
207	0x3d965ce7	0.073419385
208	0xbdce8fe7	-0.10086041
209	0xbea5681c	-0.32305992
210	0xbe59f3fb	-0.21284477
211	0xbe9748a6	-0.29547614
212	0xbe9f56d5	-0.31120935
213	0xbe17f926	-0.14841136
214	0x3e6bd5cd	0.23030777
215	0xbe5da6c8	-0.21645653
216	0x3b5c8971	0.0033651257
217	0x3d52d863	0.051475894
218	0xbdc8d7b7	-0.09806769
219	0xbe851238	-0.25990462
220	0xbdd8e031	-0.10589636
221	0x3e062b8c	0.1310255
222	0xbd29f778	-0.04149577
223	0xbea3bacf	-0.3197846
224	0xbe6226e1	-0.22085144
225	0xbded68fb	-0.11592289
226	0x3e412f83	0.1886578
227	0xbccb9228	-0.024849966
228	0x3c2610be	0.010135828
229	0xbe85c459	-0.26126364
230	0xbe96534f	-0.29360434
231	0x3e06aa6d	0.1315095
232	0xbe6eb5cc	-0.23311538
233	0x3e79c7b3	0.24392585
234	0xbe0c08c9	-0.13675226
235	0x3dadad98	0.08480376
236	0x3e489453	0.19587831
237	0xbecbf6ee	-0.3983683
238	0xbdea4d29	-0.114404984
239	0x3cbbc511	0.022921117
240	0x3e1ddf70	0.15417266
241	0xbe1476e2	-0.14498475
242	0xbe862389	-0.26198986
243	0x3da2bd4c	0.07946262
244	0x3eac3ffc	0.33642566
245	0x3dd61859	0.10453863
246	0xbea546fe	-0.32280725
247	0xbdd5418d	-0.104128934
248	0xbde8ecf2	-0.11373319
249	0x3e2d03bc	0.16895956
250	0xbeb5526a	-0.3541444
251	0x3db7b9c9	0.089709826
252	0x3dcaaccf	0.09896242
253	0x3dea0212	0.11426176
254	0xbe52d57c	-0.2058925
255	0x3e3f3827	0.18673764

bias_hh_l0 f4 [256]
0	0xbd8e2879	-0.06941313
1	0x3df173e2	0.11789681
2	0xbe2f0b00	-0.1709404
3	0xbe0ed6f4	-0.13949186
4	0xbe6ef449	-0.23335375
5	0x3e71545c	0.23567337
6	0xbecdbf28	-0.40184903
7	0xbe0b4184	-0.13599211
8	0xbdcdf590	-0.10056603
9	0x3d18d43c	0.037311777
10	0x3e7b76f2	0.24557093
11	0xbe5f7f93	-0.2182601
12	0xbdb616ab	-0.08891042
13	0xbe4bc211	-0.19898249
14	0xbe9a53d1	-0.30142072
15	0xbdbf1248	-0.09329659
16	0x3e2b1eb4	0.16710931
17	0x3d41f72e	0.04735487
18	0xbdc78ac3	-0.097432636
19	0xbddd7f8a	-0.10815342
20	0xbe4c92cc	-0.19977874
21	0xbe5627fc	-0.2091369
22	0xbe47d678	-0.19515407
23	0xbe2b4e03	-0.16728978
24	0xbe0a0cb6	-0.13481411
25	0xbe89dd29	-0.26926544
26	0xbe975d5b	-0.29563412
27	0xbe72264d	-0.23647423
28	0x3b8bf739	0.0042714146
29	0xbe79fd2d	-0.24412985
30	0xbe2f2ad0	-0.17106175
31	0xbd2d0c28	-0.04224792
32	0xbe00b691	-0.12569644
33	0xbd232546	-0.03983047
34	0xbec6607e	-0.38745493
35	0xbe0326cc	-0.12807769
36	0xbdff4698	-0.124646366
37	0x3d9641ac	0.07336745
38	0xbe9d53f6	-0.3072812
39	0xbbf048c3	-0.0073328926
40	0xbd967130	-0.073458076
41	0x3d243cc8	0.040097028
42	0xbf04bd17	-0.5185103
43	0x3c382bec	0.011240941
44	0xbe8a2eae	-0.2698874
45	0xbef30091	-0.4746137
46	0xbcbdd106	-0.02317096
47	0xbe7ab80f	-0.24484275
48	0xbe271475	-0.16316397
49	0xbde64fe3	-0.11245706
50	0xbdd27d50	-0.10277808
51	0x3d32763b	0.043569785
52	0x3e49f9b2	0.19724157
53	0xbe509650	-0.2036984
54	0xbea507a7	-0.322324
55	0x3e1cf71d	0.15328641
56	0xbc84473a	-0.016147245
57	0xbc3077c7	-0.010770745
58	0xbd5e930b	-0.05433945
59	0xbe8d5c04	-0.27609265
60	0x3e91e730	0.28496695
61	0xbdde5a43	-0.1085706
62	0xbe7e6901	-0.24844743
63	0xbcff14ee	-0.03113791
64	0xbe891760	-0.26775646
65	0xbe8d7a4b	-0.27632365
66	0xbe246dce	-0.16057512
67	0x3e7fef82	0.24993709
68	0x3b2c5299	0.002629435
69	0xbe0d8327	-0.13819562
70	0x3ed6813a	0.41895467
71	0xbd340cba	-0.04395745
72	0xbe60cb3a	-0.21952525
73	0xbe53e4c9	-0.20692743
74	0xbee9cbe8	-0.4566338
75	0x3e0bb86c	0.1364457
76	0xbeba67fe	-0.36407465
77	0xbf313353	-0.6921894
78	0x3e6466b2	0.223048
79	0xbea05616	-0.31315678
80	0xbec7f1b2	-0.39051586
81	0xbd239d35	-0.039944846
82	0xbe5714b0	-0.21003985
83	0xbe01f4d6	-0.12691054
84	0xbe428c89	-0.18998922
85	0x3c0fa8ff	0.008768319
86	0x3d980157	0.074221306
87	0xbe49b497	-0.19697796
88	0xbd857718	-0.06516856
89	0x3e326513	0.17421369
90	0xbec9f4d3	-0.394446
91	0x3ddc83dd	0.107673384
92	0xbe174c6d	-0.14775248
93	0xbe051f9a	-0.13000336
94	0xbddd84d6	-0.10816352
95	0xbdb86933	-0.0900444
96	0xbe0b785b	-0.1362013
97	0xbe66d8ff	-0.22543715
98	0xbd4e80c8	-0.050415784
99	0xbe6ae3be	-0.22938439
100	0xbeb8253b	-0.35965905
101	0xbee8223f	-0.45338628
102	0xbe81f09a	-0.25378877
103	0xbeda3fa6	-0.42626685
104	0x3dc3d9d7	0.09563034
105	0x3e1d6c66	0.15373382
106	0xbe70b5ed	-0.23506899
107	0x3ce7ebdd	0.02831071
108	0xbe86eb3a	-0.2635134
109	0xbeb8492f	-0.35993335
110	0xbe900a48	-0.28132844
111	0xbed4c1b1	-0.41554025
112	0xbe3c1ed4	-0.18371135
113	0xbd147f8b	-0.036254447
114	0xbe3d3e1e	-0.18480727
115	0xbe41e104	-0.18933493
116	0xbec5e4a9	-0.38651016
117	0xbd98d21a	-0.07461949
118	0x3e56fba3	0.2099443
119	0xbe1a32ca	-0.15058437
120	0x3cee582c	0.029094778
121	0xbe9a4fc8	-0.30138993
122	0xbebb8e26	-0.36631888
123	0xbdd577de	-0.104232535
124	0xbdda454c	-0.106577486
125	0xbea7823d	-0.3271655
126	0x3e04d2a3	0.12970977
127	0xbf0bcc3c	-0.5460851
128	0xbdbd51ef	-0.09244143
129	0xbc7091c7	-0.0146831935
130	0xbba6e568	-0.0050932653
131	0x3df4f386	0.11960511
132	0x3d375b59	0.04476485
133	0xbe36edfa	-0.17864218
134	0x3e083b15	0.13303788
135	0xbd354d07	-0.044262912
136	0x3de17d97	0.110102825
137	0x3db27814	0.08714309
138	0xbd813287	-0.063084655
139	0xbe256aae	-0.16153976
140	0x3dbe2a70	0.09285438
141	0x3de1e1bc	0.110293835
142	0x3d802e9b	0.06258889
143	0xbdd67eca	-0.10473402
144	0xbd55c2d7	-0.052187767
145	0xbd91a74e	-0.07111989
146	0x3d532299	0.051546667
147	0xbdca3ff6	-0.09875481
148	0xbe032a56	-0.12809119
149	0x3dcf2674	0.10114756
150	0x3d64dc09	0.055873904
151	0x3dec5aaf	0.11540734
152	0xbe108112	-0.14111736
153	0xbca46d97	-0.020071788
154	0xbb9bf3e3	-0.004759298
155	0xbbc1bea3	-0.0059126182
156	0xbdda2ffb	-0.10653683
157	0x3e55e320	0.20887423
158	0xbd3b9d69	-0.045804415
159	0xbdc17ff3	-0.094482325
160	0xbd0ab900	-0.033867836
161	0xbd523c50	-0.05132705
162	0x3ab0def6	0.0013494182
163	0xbe1267e4	-0.14297444
164	0x3d5c5ec3	0.05380131
165	0x3cc67dcc	0.024229906
166	0x3de9eb63	0.114218496
167	0x3d31f8bc	0.043450102
168	0x3d6fa1c2	0.058503874
169	0x3eb5f2a7	0.35536692
170	0x3e9e3db1	0.30906442
171	0xbcda4843	-0.026645785
172	0x3dd6cb73	0.104880236
173	0xbc486232	-0.012230443
174	0x3d7aa51f	0.061192628
175	0xbd5b4a51	-0.05353767
176	0x3d67e43f	0.056614157
177	0x3ab71543	0.0013968128
178	0xbdd44e17	-0.10366457
179	0x3c6f0632	0.014588879
180	0xbd98f4d6	-0.07468574
181	0x3e4b6067	0.19860993
182	0xbdcf9fb4	-0.10137883
183	0x3d8b9bed	0.0681685
184	0xbe155839	-0.14584436
185	0x3d04638e	0.032321505
186	0x3d9ccebb	0.07656618
187	0x3cf10d07	0.029425157
188	0x3d207bdf	0.039180633
189	0xbde8a709	-0.113599844
190	0xbdaf891d	-0.08571074
191	0x3e54eda7	0.20793782
192	0x3d925930	0.071459174
193	0x3c093a8f	0.008375778
194	0x3dde5d92	0.10857691
195	0xbe2125c0	-0.15737057
196	0xbe673c52	-0.22581604
197	0x3e9a4198	0.3012817
198	0xbe5a50bf	-0.21319865
199	0x3c23ff47	0.010009593
200	0xbedb85df	-0.42875573
201	0x3c06f04e	0.008236004
202	0x3e392f37	0.18084417
203	0xbe239e0b	-0.15978257
204	0xbeaafbd2	-0.3339525
205	0xbec503c4	-0.38479435
206	0xbed5fa08	-0.4179232
207	0xbd051c0a	-0.032497443
208	0xbe014f57	-0.12627922
209	0xbea74979	-0.32673243
210	0xbda252a5	-0.079259194
211	0xbdc566d2	-0.09638752
212	0xbdd81a72	-0.10551919
213	0xbe8e9d32	-0.27854306
214	0x3e41f912	0.18942669
215	0xbec7e20e	-0.39039654
216	0xbcff412b	-0.031159004
217	0xbde3e672	-0.11127938
218	0xbe50f450	-0.20405698
219	0xbea587f3	-0.32330284
220	0xbe261a4b	-0.16220967
221	0x3e06f08f	0.13177703
222	0xbdc1818a	-0.09448536
223	0xbebf754e	-0.37394184
224	0xbcfb65c9	-0.030688183
225	0xbe34c3aa	-0.17652765
226	0x3dad6862	0.08467175
227	0x3db83f6a	0.0899647
228	0x3ca18eed	0.019721473
229	0xbe6a3dd2	-0.22875145
230	0xbd9e5df4	-0.07732764
231	0x3de79ee3	0.11309602
232	0xbe7654c6	-0.24055776
233	0x3e700e62	0.23442987
234	0xbeb0374f	-0.34417197
235	0x3d6b8445	0.05749919
236	0x3e4c4628	0.19948637
237	0xbe88416e	-0.2661242
238	0x3c6babd0	0.014384225
239	0x3e119b15	0.14219315
240	0x3df2b273	0.11850443
241	0xbe62a49a	-0.22133103
242	0xbd9e99b5	-0.07744161
243	0x3c81f161	0.015862169
244	0x3e9e0b90	0.30868196
245	0x3e4d2e5e	0.20037219
246	0xbe9dfbf3	-0.30856284
247	0xbe03aa12	-0.12857845
248	0xbe75016f	-0.23926328
249	0x3db69780	0.08915615
250	0xbee53c70	-0.44772673
251	0xbd0fe6b3	-0.03513212
252	0x3dbac961	0.09120441
253	0x3e2fb975	0.1716059
254	0xbe44c44d	-0.19215508
255	0x3e5dcb20	0.21659517
