logs/g1/Apr19_03-18-51_/model_550.pt (torch, 777504 bytes, 48 tensors)

std f4 [12]
00000000: a2af 053f 2219 2c3f c943 bb3e c91b f03e
00000010: 817d 6f3f 5a96 5b3f 0c91 083f 6a9f 273f
00000020: 03bb bd3e d3af fe3e 1243 6c3f 9a2f 613f
0.5222112 0.6722585 0.36575153 0.46896198 0.9355088 0.85776293 0.53346324 0.6547762
0.3705674 0.49743518 0.9228984 0.8796326

actor.0.weight f4 [32, 64]
00000000: 2090 ef3c d3b3 48be 4e90 4fbb 823e ad3d
00000010: 6576 983e 75c5 003e b9fd 8cbe f2c4 393e
00000020: 38f5 563d 3cf8 023f 925d 9d3e 2578 88bc
00000030: 5728 f93e 4110 f23e d4c1 a2bd c7d9 e43a
00000040: 27dc a53d e05e 303e 17e7 033e 83b7 e83d
00000050: 2de2 673a c59f 303d 4270 ee3e 74de 5d3d
00000060: 9a69 78bd 03d2 b53e fa67 8abe f435 dabe
00000070: 2a1a 1bbd 8bbf d03e f8bc 41be 319d 90be
00000080: 22d4 763e 9186 a2be 911e 7bbe 2a89 883d
00000090: f060 61be 6d28 553c 71c9 df3d 92c2 5b3e
000000a0: c0e6 283d 9b90 14be 797c 023f 71e3 523e
000000b0: d173 53be 8707 8d3c 35e2 ed3c 2726 93bd
000000c0: 216e 2abd 05b2 7fbe eb36 ff3d b3a9 afbe
000000d0: 485f c83e 3128 043c abeb 61be 39ae ff3d
000000e0: 629d 423e 55cc 923d 1ebe 37bf 46f1 0e3d
000000f0: 94b2 59bd 1cd6 bdbd 1879 eabd 5145 d7bd
00000100: 505b 783e 4ae2 8d3e c067 2fbc 701c 7e3e
00000110: 6351 b13e 3164 95be ec93 8a3d bde8 0ebf
00000120: 1105 34be 7de3 9a3e ea3a fabe 9ed3 bf3e
00000130: 40c9 fa3a 633e b8be 6bb4 23be 7ace 56be
00000140: 8864 2cbd 5477 9d3d ae65 99bd 762a fb3d
00000150: 93cc 003e d4df bdbd 4755 0f3e 9810 a23d
00000160: cdf4 803e 973f a73e 0580 b9be 626f 05bd
00000170: 3a6b dabd 16f7 81be ae20 63bd 5e52 37be
00000180: 6d15 3d3e b487 913a a51b 3dbe 7cc5 013f
00000190: 5db2 703e e967 f33d c6a2 c33d 75d9 f63e
000001a0: fd92 bf3e 5116 4d3e acee 033e b7b0 e5be
000001b0: 91a4 ff3e 527b 8a3d 1e8b a33e b5d5 3dbe
000001c0: 3c79 483e aec8 2fbe 31a5 82be efd7 acbe
000001d0: 0f0b 0bbd 3652 08bf e945 babe 4f55 813b
000001e0: 05ff bcbd 6e8b 853e bf4d 113f 3b52 acbe
000001f0: b53d b73e f0ab 7b3e 77db b23e 7172 943e
00000200: a1fc 24be c02d 9fbd 907e 963d 256b 4dbe
00000210: 3c0b 6d3e 4551 193e f7fa 6dbe c4c0 3a3e
00000220: 621d 6c3e bd7c 833e 780d 9d3c b309 a2be
00000230: c519 c3bd 62a4 b53c d253 65be 10c1 b03e
00000240: 17f0 8fbe c967 fd3d f793 7f3d 5dea 4d3e
00000250: 58db 6ebe 629e 323e 4b4e 343e 2859 2fbd
00000260: a5e7 073e adbc 783d a46a e6be 9544 48be
00000270: 1f68 193e 9598 2d3e c4ee 993c 732a 793e
00000280: fd42 1f3d 935d 493d 1609 b8bd d2fc 9c3e
00000290: a037 5a3e 8381 05bd 50da b2bd f934 1c3f
000002a0: 98ec 0dbe 388a 95bd 8fb8 1cbe 2768 803d
000002b0: fa7f 683e 84eb 2dbe 1e64 b5bd 594d 22bd
000002c0: 334f c7be e576 143d 154f f8be 4fac c03e
000002d0: 90d8 1e3f 5fe8 cabd c902 94b6 2893 b23e
000002e0: 5f33 82bb 45b0 2ebe f708 15bd 6d05 7fbe
000002f0: 43cb 70be 9236 f8be 57dd 10be bfd0 9abe
00000300: 069a 713e 3c61 b1bd 291d cf3d 6c17 ff3b
00000310: e4f9 68be 233c d13d 3711 423e 576c a63d
00000320: 9330 96be 3975 b4be c469 afbd 592c b23d
00000330: 3730 29be cd99 5e3e 3c7f 5e3e 0f8c 80be
00000340: b283 6fbd 6e6c a73e a501 e83e 9e42 84be
00000350: a713 143f cbb8 0e3e 2e06 803d 3ee6 de3d
00000360: 6498 413e ce55 183e 4408 82ba 5f7c a93c
00000370: e029 c8be 0c69 1fbe bad9 403c e712 41be
00000380: 44a2 9fbe 72e7 7d3e dbda 87be e954 4dbd
00000390: bba7 7ebe d6e2 a43e 27a8 7a3d 923d acbc
000003a0: 9ee0 51be ef0f b03e 5ec3 9e3e df25 b1be
000003b0: 32a1 94be 9b72 b23d 77b3 6d3e cabd 21bd
000003c0: c98c d2bc c8ff 27be 23d6 ba3e 3661 c4bc
000003d0: ddfc 3b3e 7f5f ffbe c5bb b93d 3e39 debb
000003e0: 04f5 c3bd 38d6 e93e 2a8e 0abe e19b 1b3e
000003f0: fa1e 00be 6e0d 0f3d 7d7f fabd b996 073f
0.029243529 -0.19599847 -0.0031671706 0.08459188 0.29777828 0.12575324 -0.27537325 0.18141535
0.052479953 0.51160026 0.3073545 -0.016658852 0.4866359 0.47278026 -0.07947126 0.0017459922
0.08098631 0.17223692 0.12881123 0.11363127 0.00088456535 0.043121118 0.4657002 0.054167226
-0.060647584 0.3551179 -0.27032453 -0.42619288 -0.03786675 0.40771136 -0.18919742 -0.28244928
0.2410436 -0.3174329 -0.24523379 0.06666787 -0.22009635 0.013010127 0.10927094 0.21460941
0.041235685 -0.14508288 0.5097118 0.20594575 -0.20649649 0.017215503 0.029038528 -0.07185011
-0.041608933 -0.24970253 0.12461647 -0.34309158 0.39135194 0.008066223 -0.22062556 0.12484402
0.1900535 0.071678795 -0.7177447 0.034898065 -0.05314882 -0.09269354 -0.11448878 -0.10511268
0.24253583 0.27711707 -0.010705888 0.24815536 0.34632406 -0.29178002 0.06766495 -0.5582388
-0.17580058 0.30251685 -0.48873073 0.3746614 0.0019133464 -0.35985097 -0.15986793 -0.20977202
-0.04208806 0.07688776 -0.07490097 0.12263958 0.12578039 -0.092712075 0.13997374 0.07913321
0.25186768 0.32665703 -0.36230484 -0.032576926 -0.10664983 -0.25383824 -0.055451088 -0.17902514
0.18465205 0.0011103065 -0.18467577 0.5069196 0.2350554 0.11885054 0.09552531 0.48212782
0.3741683 0.20028044 0.12884015 -0.44861385 0.49930242 0.06761803 0.31942075 -0.18538554
0.19577497 -0.17166397 -0.25516656 -0.33758494 -0.033946093 -0.53250444 -0.36381462 0.003946937
-0.092283286 0.2608294 0.56759256 -0.33656487 0.35789266 0.24577308 0.34933063 0.28993562
-0.16111995 -0.07772398 0.07348359 -0.20060404 0.23148817 0.14972408 -0.23240267 0.18237597
0.23058084 0.25681105 0.019171461 -0.31648025 -0.095263995 0.02217311 -0.22395256 0.34522295
-0.28112862 0.12373311 0.06239697 0.20108934 -0.2332586 0.17443231 0.17607991 -0.042809635
0.13271959 0.06072681 -0.45003235 -0.19557412 0.14981125 0.16952737 0.01879061 0.243326
0.038882244 0.049161505 -0.08986108 0.30661637 0.21310282 -0.032594215 -0.08733046 0.6101833
-0.13859785 -0.07301754 -0.15304779 0.062698655 0.22705069 -0.16984373 -0.088569865 -0.039624546
-0.38927612 0.0362462 -0.48497835 0.3763146 0.620492 -0.099076025 -4.411068e-06 0.34877896
-0.003973409 -0.17059429 -0.036385503 -0.24904414 -0.23515038 -0.48479134 -0.14146934 -0.30237386
0.23593912 -0.08661124 0.10112984 0.0077847745 -0.22751576 0.10216548 0.1895188 0.08126133
-0.29333934 -0.35245684 -0.08565095 0.08699865 -0.16522299 0.21738358 0.21728224 -0.25106856
-0.058475204 0.32699913 0.45313755 -0.25832075 0.5784249 0.1393768 0.06251179 0.10883759
0.18905789 0.14876482 -0.0009920676 0.020689188 -0.39094448 -0.15567416 0.01177066 -0.18854867
-0.31178486 0.2479532 -0.2653416 -0.050129805 -0.24868672 0.32204312 0.06119552 -0.021025453
-0.20495841 0.34387156 0.31008428 -0.34599206 -0.29029232 0.087132655 0.23212992 -0.039487638
-0.025701897 -0.16406167 0.36491498 -0.023972135 0.18358178 -0.49877545 0.09069017 -0.006781726
-0.095682174 0.45671248 -0.13530794 0.15196182 -0.12511817 0.034924917 -0.12231348 0.5296436

actor.0.bias f4 [32]
00000000: 9413 0dbe 0f12 9f3d 33e2 41be 9863 91bd
00000010: d8c1 88be 9bc0 913d 93ef 81bc f7ff cfbb
00000020: 1580 a6bd 8888 723d 51db 0cbd 5252 383e
00000030: 2834 17be 08f8 f43c 0628 603d d937 243c
00000040: 8636 c8bd 70d7 a83c 0f80 6dbe 6b6d 8bbe
00000050: 8eb7 bdbd 136a 333e 67c3 5f3d f46a 6fbe
00000060: ec0e b3bd 38d1 813d 15d1 673d 6a60 25be
00000070: 0c08 24be 6a93 843e 4983 81bd e4a1 98bd
-0.13777 0.07767116 -0.18933944 -0.07099074 -0.2671039 0.07116815 -0.015861308 -0.006347652
-0.081298985 0.059212238 -0.034388844 0.18000153 -0.1476599 0.029903427 0.05472567 0.010023081
-0.097760245 0.020610541 -0.23193382 -0.27231917 -0.09263526 0.17520933 0.05462971 -0.23380643
-0.087430805 0.063387334 0.05659588 -0.1615006 -0.16018695 0.25893718 -0.06323869 -0.07452753

actor.2.weight f4 [12, 32]
00000000: afb3 603d db59 00bb 0301 8a3e 5c68 6dbe
00000010: fa4b c9bc cad9 94bd 4084 b6be b5fc b23e
00000020: 31e3 91be f42a fa3d 1c16 523e 25d9 b2bd
00000030: 81e9 44be f8cd 74be 1fab 7abc e3c8 ddbd
00000040: 5c99 a5be 137c 28be f277 f93d 8444 2dbe
00000050: 1ef5 713c 0713 203e 338a 613e 54e1 873e
00000060: b763 2d3d 965b 223e 029f cb3b f52e cc3d
00000070: e439 463e 469c b4be 5217 6e3e 1db8 f13b
00000080: 5313 cc3d bce0 2e3e 6459 61ba 8c56 c5be
00000090: d69b 29be 6c4b 0b3e 8408 d9bd f49d 1c3e
000000a0: 161d 59bd 5412 563e 1507 423e baa6 773e
000000b0: 37d6 02be 9544 5e3d a257 1dbd eeb1 67bc
000000c0: b795 4f3e 9e86 cd3e 5a89 babe bec6 d0be
000000d0: 814c c1be eae0 b43e bf07 d13e 58b5 0dbf
000000e0: f997 613e 54e8 a93e e60a 713e 6698 91bd
000000f0: b306 47be 5f3e b63e 2c31 283e 1945 28be
00000100: 15d6 233e 79d6 1abd 1775 d8bd 41d4 8a3e
00000110: ef9b 803e 854b 5fbd 12aa 083c 5dc4 fd3c
00000120: a342 6d3b cbe5 1ebe 4a9a b0bd e274 813d
00000130: d46b c53c ea94 5fbe 5cd7 6d3e 20ef bfbc
00000140: 090c 423c 3308 e6bd cf14 dcbc 7332 193e
00000150: d117 d53d 02ac 98bc b6d0 a73d 457c 22be
00000160: 5bb6 06be bd8d 4dbd d4c6 3c3b f0b0 273e
00000170: 17a5 a4bd 54b4 f2bd 8f8e 2e3e 6fe2 1f3e
00000180: 4670 eb3d dd02 60bd 5b4c e1bc dd75 0abe
00000190: 6ad6 8c3d e37d 26be a0d5 45be c410 773e
000001a0: 8055 b93c 90c4 60bd 7c2c 9d3e 08cf 99bd
000001b0: abbd b23c f263 1e3e e39d 383d 1785 003d
000001c0: 232a 2d3e 81c0 9b3d 36f3 ae3e 6f7c 8a3e
000001d0: 817b b3bd 6d53 c4bd a039 45bd 7797 8c3d
000001e0: 9362 51bd 49a4 71bc 0f84 a53d 8bf6 c1bd
000001f0: 0f98 0f3e 4669 743d 3587 4e3d 9a67 53be
00000200: 2a73 4bbe aeb1 81bd f680 66be 3d6b 293d
00000210: 1424 f3be 56e3 303e 768f 673e 05aa 153e
00000220: 11f4 e4be 49c5 adbe bc3a a63e 4126 2abe
00000230: 8eba 06bf 3aad 713e c093 1b3d 2fba 233f
00000240: 986f 823d 64d4 f4bc 4e10 c6be b1ad 8abe
00000250: 0ede 923e 3139 853e 0f8b d63c 7a3f 0f3f
00000260: d28f 30bf bb84 183f 3c20 64be 884a 153e
00000270: b689 603e 2e49 823e f163 5a3e 6e51 60be
00000280: 44ad cdbe 49bc 473e 5375 c1bd 5a0b 263d
00000290: 79a9 553e 9802 293e e0a2 c83c edce d33d
000002a0: 32bc babd a9e7 74bb 6b16 833e baca 1d3e
000002b0: 4272 29be 7ed5 0f3e 5177 07be 9971 a8bb
000002c0: 899b aeba 02c4 84bd 4e6e 8cbd a039 8a3d
000002d0: e782 01be 4afa 793e 493e d63d f742 5cbe
000002e0: e2d6 e43d ea1d 03be 1e1e c7bd 4721 5ebd
000002f0: 05fa 24be 7010 3cbe 47d8 a23e 1095 ddbe
00000300: 06b9 bcbd b4b7 583e 5d1f d4be f70c 8f3d
00000310: 9969 8fbe 2201 f63d 1e94 97bd 6857 eabd
00000320: a725 943e 0f7c 293e b5c6 49be 253c 46bd
00000330: 661c 4c3d 838d 1a3d 645c b73e 2f1f 563e
00000340: 1e30 14be bc66 96be d9a9 a73e 802e 6fbe
00000350: a557 43be edd6 023c 221f 1f3e 6c90 f4bd
00000360: 0768 09be 6d38 a0be 10ef a83c 5101 4e3e
00000370: 4d41 03be 5700 263e c474 5ebd 4e48 85bd
00000380: 7b27 31bd a704 b5be 64da b03d 04f5 8bbd
00000390: e285 e63d fa31 ae3d e1f1 4cbe 4b87 aebe
000003a0: bef1 be3e d7d9 433d c90b 05be 988f e1be
000003b0: fd70 9b3e 3152 03be e823 2fbe 5518 663e
000003c0: 6169 e8be 5c63 503e 8bb7 6fbe 2cb5 2c3e
000003d0: 64a1 133e 302e cebe c079 063e e3c7 303e
000003e0: f472 703d 4436 b1bb 1ead e0be af4a e33e
000003f0: fd0e 123c 587a 94be 8768 e43d 1aac db3d
0.05485886 -0.0019584808 0.26953897 -0.23184341 -0.024572361 -0.072681025 -0.35647774 0.34958425
-0.28493646 0.12215224 0.20516247 -0.08732823 -0.192297 -0.23906696 -0.0152995875 -0.10829332
-0.32343566 -0.1645358 0.12181081 -0.16920668 0.014767913 0.15632258 0.22025375 0.265391
0.042331424 0.1585525 0.0062140236 0.09969894 0.19358021 -0.35275477 0.23251083 0.0073766843
0.09964623 0.17077917 -0.0008596389 -0.38542593 -0.16563353 0.1360299 -0.10597327 0.1529463
-0.053006254 0.20905429 0.18948014 0.24184695 -0.12777029 0.054264624 -0.03841365 -0.014141543
0.20271955 0.40141767 -0.36432916 -0.40776628 -0.3775368 0.35327846 0.40826222 -0.55354834
0.22030629 0.33185065 0.23539314 -0.07109146 -0.1943615 0.3559446 0.16425008 -0.16432609
0.15999635 -0.037802193 -0.10569208 0.27115062 0.25118968 -0.05451538 0.008341329 0.030977422
0.0036203049 -0.15517347 -0.08623178 0.06321122 0.024099268 -0.2183415 0.23226684 -0.023429453
0.01184369 -0.112320326 -0.026865391 0.14960651 0.10404933 -0.018636707 0.08194105 -0.15867718
-0.131555 -0.050184 0.0028805034 0.1637609 -0.08039301 -0.11850801 0.1704657 0.15613721
0.11496024 -0.05469023 -0.02750223 -0.13521524 0.06876834 -0.1625896 -0.19319773 0.2412749
0.022623777 -0.054874957 0.30698 -0.07510191 0.021818956 0.15467814 0.045072448 0.031376924
0.16910605 0.076050766 0.3416993 0.2704806 -0.08763791 -0.09586225 -0.04815066 0.06864827
-0.0511194 -0.014748641 0.08081829 -0.094708525 0.1402285 0.05967071 0.050421912 -0.2064499
-0.1986815 -0.06332718 -0.22510132 0.041362036 -0.47488463 0.17274222 0.2261332 0.14615639
-0.44717458 -0.3393958 0.32466686 -0.16616155 -0.5262841 0.23601237 0.037982702 0.6395597
0.06368941 -0.029886432 -0.38684314 -0.2708564 0.2868504 0.26020196 0.026189355 0.5595623
-0.6896945 0.5957753 -0.22277921 0.14579213 0.21927533 0.25446457 0.21327187 -0.21906063
-0.40171254 0.19505419 -0.09446206 0.04053817 0.2086543 0.16504896 0.024491727 0.10342202
-0.09117927 -0.0037369526 0.2560304 0.15409365 -0.16547492 0.14046285 -0.1322911 -0.005140495
-0.00133215 -0.06482698 -0.068569764 0.06749272 -0.12647592 0.24411884 0.10461099 -0.2150992
0.11173798 -0.1280438 -0.09722541 -0.054230954 -0.16111 -0.18365645 0.31805632 -0.43277788
-0.09214978 0.21163827 -0.41430178 0.06984895 -0.28010252 0.12011935 -0.07401298 -0.11442453
0.28934976 0.16551231 -0.19704707 -0.048397202 0.04983177 0.037732612 0.35812676 0.20910333
-0.1447148 -0.29375255 0.3274677 -0.23357582 -0.19076402 0.007985813 0.1553922 -0.11941609
-0.1341859 -0.3129305 0.020621806 0.2011769 -0.12817879 0.16211067 -0.054310575 -0.06507932
-0.043250542 -0.35355112 0.08635405 -0.068338424 0.11256005 0.08505626 -0.20014144 -0.34087595
0.3729381 0.04781517 -0.12992777 -0.44054866 0.3035964 -0.12824322 -0.17103541 0.2247022
-0.45392898 0.20350403 -0.2340986 0.16865987 0.14417034 -0.40269613 0.13132381 0.1726375
0.058703378 -0.0054080803 -0.43882078 0.44392917 0.008914706 -0.2899959 0.111527495 0.10726185

actor.2.bias f4 [12]
00000000: 87f8 093d 9a54 803e a729 5fbc 9ae5 81be
00000010: 53bb a03e d7ec bbbd 3001 1cbe 498b 26be
00000020: 1f5d 9f3d 81fd ebbb 0e04 09be cec7 0f3e
0.03368428 0.25064546 -0.013620771 -0.25370485 0.31392917 -0.09176033 -0.15234828 -0.1626407
0.07781433 -0.007201851 -0.13380453 0.14041063

critic.0.weight f4 [32, 64]
00000000: 2c88 59bd ed98 b6bc bc8c e43c a4f9 c73d
00000010: 75e5 d93b 7b21 f2bc b2c3 8cbd 9a7e 59bc
00000020: 9101 83bc e7d2 593c 16ae 37bc 565f 47bc
00000030: 52ce 743d 3bcd 92bb b728 6f3c bc7d 0ebd
00000040: 00f6 863c 64a4 2fbc 3f88 8e39 490b 39bd
00000050: 43e2 70bd 3569 aa3c beb4 b23d 8e47 84bd
00000060: 37c0 11bd 467f 463b 5797 883c 00e5 fb3c
00000070: 8e8b 723d 1f89 19bc dd66 a73d e4c8 be3d
00000080: 0a41 9fbd d7af aa3c c776 93bd d20f 073d
00000090: 99d8 a03c bac3 55bc 1a17 21be 6a22 093e
000000a0: 52de a1bc d105 2ebd e16b 6dbc 959f 2bbd
000000b0: d73a d7bd b917 9aba 4c70 14bc 6dd8 a2bd
000000c0: a640 5fbc 7726 473d 90ca 9fbc d450 a03d
000000d0: 385d d2bc 01bb d03d 2d7e 163c 6c0e 74bd
000000e0: 63a7 28bd 6b4d c3bc 6c20 993b 2baa 64bc
000000f0: 4508 a83c 7395 9fbc c13f 743c 198d f73c
00000100: 7241 11be fed4 a7bc 5b4e 063d 09ce e1bc
00000110: 484f 80bc ce43 053e bd2f 89bd 5ddf 683e
00000120: 1f2b 6bbc 41cc 303e f8c3 43bc 7861 29be
00000130: cd28 d4bd 5d7a dd3d cdf9 363e 5d65 c9bd
00000140: ec81 62be 6d8c 623e fca3 10be 6be9 ba3d
00000150: 8c31 e9bc 0c3b 5f3e bebf 16be 8193 29bd
00000160: 290d 4b3d 1189 9a3d b948 c1bd 743d ae3d
00000170: 22fb 143e c445 24be 6be1 293d 227b 343e
00000180: bc01 9a3d 4f89 3abe e9ac 673c e996 ac3e
00000190: fc63 133e 82e9 e3bd d28d bfbd d1d6 1bbe
000001a0: 79fa 273d d2a0 3e3e 8df2 253d 815b 06be
000001b0: ba12 3bbd 827b 0ebd 09c1 433e b85f 723e
000001c0: 41aa 0b3e 2a92 94be 1fbd 37be 5a27 dc3a
000001d0: 71b5 15be 210c 8a3e 9813 263e 5b1b dd3d
000001e0: 5416 973e 3139 2fbe 58f7 b2bb e554 4ebe
000001f0: a884 80bd 83ca 493e e1e2 a4bc 953c 603d
00000200: 73d1 a73d 4db6 1abd 98b0 01bc 5144 5d3e
00000210: 40fa 333e 7078 013e 278c 70bd 2d85 2e3e
00000220: dcc7 69bd 0afe 78bd 7342 cc3d ded7 d93d
00000230: baef 0339 09cd 243e 04d8 7ebc 0021 4ebe
00000240: eeeb c6bd 828f 873c 0854 163e f08c 973c
00000250: 5ec8 00be f982 f23d d9a6 bebd 4781 793d
00000260: c9a8 1f3d e293 c3bd ac0e fdbd 6133 4fbe
00000270: 4b90 8d3d 1307 76bd d151 08be 7fd5 19be
00000280: 7a31 e23d 7a51 8c3d 3e20 94bd 9489 95bd
00000290: af22 0abd b941 d7bd 67da 3d3d 7aab 54bd
000002a0: c1d4 3a3e 6776 723d 145e 28be ee2a 32be
000002b0: ce6f 793e 4cf4 34bd 3f77 14bc 78a8 87bd
000002c0: 6045 d4bc cff4 ac3d 9a44 f83d 7d10 483d
000002d0: 0292 f5bd fcb2 ebbd 654e 2fbd 6440 06bd
000002e0: 3729 123c 2516 babe 10ed 04bd cd0e 2abe
000002f0: 498f 363e 4821 afbd 4519 3fbe c165 8e3d
00000300: 8489 0b3d 688d 013d 8906 d33d 7d76 c23d
00000310: ac4b f13d b535 363d e7c3 2bbd 396a 213e
00000320: 5edc 973d 6b4d d73c 8ba8 fdbc 0fc3 023e
00000330: 184f 0abd 983b 213e c8ef 483e c915 2bbd
00000340: 7690 863c 571e 183e 9127 233e 6476 a8bd
00000350: 6a53 c13d f1dd 923d 0bfe c8bd fdb0 d93d
00000360: a662 be3d f148 b73d 523e 8dbe d511 3ebc
00000370: acf8 d0bd 9f01 56be 6233 493d 60ad f33b
00000380: 3375 79bd d09b 20be 9908 2ebd 0565 9f3e
00000390: b3b1 febd d0cd 6dbd c835 2abe 4af6 2dbd
000003a0: 6b3c 2a3e 24ac 173d 220b 5fbd fa9a f1bd
000003b0: 9aa8 b5bc f2a5 cbbd f297 de3c 5686 e33d
000003c0: ae1e 35be 990c f6bb d081 543d 6959 ebbd
000003d0: 6690 e0bd b47d 0b3e 30fb 4dbd 333f 9f3c
000003e0: 8933 11be 7ae0 dcbe babd 0dbe d69b f0bc
000003f0: da98 bc3c 4b41 863d 5084 803d a228 eabc
-0.05310838 -0.022289718 0.027899139 0.09764412 0.006649668 -0.02955698 -0.068732634 -0.013274813
-0.015991958 0.013294912 -0.011210939 -0.012168726 0.059767075 -0.004480032 0.0145971095 -0.03478788
0.016474724 -0.010720346 0.00027185862 -0.045176778 -0.05880953 0.02080212 0.0872588 -0.064589605
-0.0355837 0.0030288263 0.016673727 0.030748844 0.05921512 -0.009371071 0.081739165 0.093156606
-0.07776077 0.0208358 -0.07200389 0.03297407 0.019634532 -0.013047153 -0.15731469 0.13392034
-0.01975933 -0.042486016 -0.014491052 -0.041900236 -0.1050927 -0.0011756337 -0.009059977 -0.07951436
-0.013626253 0.048620667 -0.019505769 0.07827917 -0.025679216 0.10191918 0.009185356 -0.059584066
-0.041175257 -0.023840627 0.0046730544 -0.013956587 0.020511756 -0.019480443 0.014907778 0.030218648
-0.14185122 -0.020487305 0.03278957 -0.027564066 -0.015662804 0.13014147 -0.066985585 0.22741456
-0.014353543 0.17265417 -0.011948578 -0.16541088 -0.10359345 0.108143546 0.17868729 -0.09833787
-0.22119874 0.2212388 -0.14125055 0.09126552 -0.028466009 0.21799868 -0.14721581 -0.041400436
0.049573097 0.075456746 -0.09437699 0.08507815 0.14548925 -0.16042238 0.04147474 0.17625096
0.07519862 -0.18216442 0.014140346 0.33708885 0.1439361 -0.111285225 -0.09353222 -0.15218665
0.041010354 0.18616036 0.040514518 -0.13120843 -0.045672156 -0.034785755 0.19116606 0.23669326
0.13639165 -0.29017764 -0.17943238 0.0016796396 -0.14619996 0.2696238 0.16218412 0.10796233
0.29509223 -0.1711166 -0.0054616146 -0.20149572 -0.06275302 0.19706158 -0.020127716 0.054745276
0.08194246 -0.03777151 -0.007915638 0.21608092 0.17575932 0.126436 -0.05872741 0.1704299
-0.057075366 -0.060789146 0.09973612 0.106368765 0.00012582439 0.1609384 -0.015554432 -0.20129776
-0.09712969 0.016547922 0.14680493 0.018499821 -0.12576434 0.11841387 -0.093091674 0.060914304
0.038979325 -0.09549691 -0.12356314 -0.20234443 0.06912287 -0.06006534 -0.1331246 -0.15022849
0.11044593 0.06851478 -0.07232712 -0.073016316 -0.033724483 -0.105105825 0.046350863 -0.051921345
0.18245222 0.05919495 -0.16442138 -0.17399189 0.24359056 -0.044178292 -0.009061634 -0.0662393
-0.025911987 0.08445131 0.1212246 0.04884385 -0.119907394 -0.11508748 -0.042799372 -0.03277625
0.008920959 -0.3634502 -0.032452643 -0.16607209 0.17828096 -0.0855127 -0.18661983 0.06953002
0.034066692 0.031628996 0.10303981 0.09495256 0.117820114 0.044484813 -0.041934874 0.15763177
0.074150786 0.026282033 -0.030964157 0.12769721 -0.033766836 0.1574539 0.1962272 -0.041768823
0.016426306 0.14855324 0.15933062 -0.08225706 0.09439738 0.07171238 -0.0981408 0.10629461
0.092961594 0.08949459 -0.2758661 -0.011600931 -0.102036804 -0.20899056 0.049121268 0.0074364394
-0.060902786 -0.15684438 -0.042488668 0.3113176 -0.12436237 -0.058057606 -0.16622078 -0.042471208
0.1662461 0.0370294 -0.054453976 -0.117971376 -0.022175122 -0.09943761 0.027172063 0.11109607
-0.17687485 -0.007508826 0.05188161 -0.11491663 -0.10965042 0.1362217 -0.05028838 0.019439315
-0.14179815 -0.43140012 -0.13841906 -0.029371183 0.023022104 0.065554224 0.062752366 -0.028583828

critic.0.bias f4 [32]
00000000: 426f 343c 9029 86be 9374 51be 8cc9 3fbe
00000010: 6fd2 423d 9e02 41be b1b9 ac3b a612 fc3c
00000020: d7a5 363c 705a 48be d200 49bd 9dd2 4dbe
00000030: c313 0abe 0ae5 863d 648d 10bc 0241 9bbe
00000040: ae3b fa3d a5fd 0bbe d65f c33a 2a12 553e
00000050: f395 49b9 038a 2bbe 3bbf 013e 6387 493e
00000060: d3d2 243e 6fb8 2dbd 00cc d13c d0db 6fbe
00000070: 468c 04be ea42 523e 742e 3f3e af41 973d
0.011012854 -0.26203585 -0.20454626 -0.18729228 0.047563966 -0.18848655 0.0052711596 0.030770611
0.011147938 -0.19565749 -0.049073048 -0.20099874 -0.13484101 0.065866545 -0.008822773 -0.30323035
0.12218414 -0.13670976 0.0014905881 0.2080771 -0.00019224714 -0.16751866 0.12670605 0.19680552
0.16096048 -0.042412218 0.02560997 -0.23423696 -0.12944135 0.20533338 0.18670064 0.07385575

critic.2.weight f4 [1, 32]
00000000: 81ce b33a d1cd f2bd 3715 2abd 92d1 c5bc
00000010: 207e 9bba 6735 8bbd 4828 263b 9b16 c73a
00000020: 3634 db3b d8bd 03be 44ad e9b9 6208 c8bd
00000030: 374b 913e af7f 3c3b aa4a 37bb 2a9f 72be
00000040: cc7d f13a 4d61 0abb 9705 25bb 2b5d 833d
00000050: 9c08 43bb a8e2 f1bb e480 ce39 c321 b23d
00000060: 57a9 793e e1a1 4c3a 3915 f3b9 681e 74bd
00000070: 9ba6 03bb e3ad da3d a7fe 083d 6b74 033b
0.0013718159 -0.118556626 -0.04152414 -0.024147782 -0.001186315 -0.06797295 0.00253536 0.0015189232
0.0066895736 -0.12865388 -0.00044570316 -0.09767224 0.28377697 0.0028762629 -0.0027968087 -0.23693529
0.0018424331 -0.0021115125 -0.0025180334 0.06414255 -0.002975977 -0.007381756 0.00039387413 0.08697846
0.24381004 0.0007806104 -0.00046364384 -0.05959931 -0.0020088318 0.106776975 0.03344598 0.0020058404

memory_a.rnn.weight_ih_l0 f4 [256, 47]
00000000: 4bff f13e 5e56 adbd 494e 073d 3bd7 ca3d
00000010: f906 80bf 8164 613e ffed 90bd 11a5 65be
00000020: 4e93 583e 886e 1fbe ba31 79bf 0ff8 e4be
00000030: 7d18 e6be e209 f13e c744 8fbe a0bc 72be
00000040: b77a 343f 7353 5d3e 3498 d33c 0b1d 32bf
00000050: 9c93 11be 9cf4 aebe 8a50 893e 6741 d33d
00000060: e6c9 b1be d868 cdbe f838 93be 7116 6f3e
00000070: 2065 063e 70f5 b63e 3bbf f7be 97b1 b2bd
00000080: 0b68 323e 873d ecbd 5fcb e2bd b450 353e
00000090: 43cf 71be 78ba 7fbe c601 573e d430 88bb
000000a0: 6a0e 613e 3b7f 853e 203f 213d 1305 bfbe
000000b0: 94e7 873e 46e3 49bc 0929 8f3d 5ab8 d63c
000000c0: 260c 3f3d 7c50 ad3e ab50 453f e64b b63e
000000d0: 42a8 7f3d b445 823e 0c7a fc3e d8f6 7bbf
000000e0: 0dcd ec3f aa1d b3bf 69ff 88bf 3201 b93e
000000f0: 9fa7 c9bd 5bdd 263f 14c7 5a3f 0b18 523f
00000100: a271 5a3e ef6e 55bf 78d9 89be 0d06 7f3e
00000110: 43b5 3b3e 79ce 7abf 90ad a2bd 2809 38bf
00000120: c2d0 823e 2d84 593e 549f ff3e dcea 673e
00000130: a591 bcbd f3d5 ae3d b56f 923d 8fdb 1f3f
00000140: 8a14 74bb 4c03 9dbe 2889 54bf a68d c13d
00000150: 950c f73d 5ed7 f33e 062b c33e 878e 33be
00000160: 8c54 b03d 80c5 9dbd 1580 4bbe 5f69 033f
00000170: ac03 00bf b138 88be 6463 583e fec8 99be
00000180: dcad 13bf 2ae2 603e a304 bdbe 406f a73d
00000190: 6c68 64bd 44ff c0bd bee2 6cbf 8281 72be
000001a0: 2441 88be 54fd 7e3f 3a15 6abe 52a2 fabe
000001b0: fa7d 9dbe 90be 44bf 5fd9 d53c e8af b7bc
000001c0: 5fc3 9dbe 90f2 48bd dd96 38bf 7bba 783f
000001d0: 85e8 173e 385b 6d3e 34ea 9abd 5b1f 20bf
000001e0: abc6 fe3c c27b 24bf 7978 68be 6413 72bf
000001f0: 9392 c1bc 35ba fc3e e712 363f 8c4c 803f
00000200: dd59 2fbe ba03 133f 8fd7 1e3e dc6b 8ebc
00000210: b63b 7e3e 2a9f fb3e 5c0b ac3d 08fb 5bbe
00000220: bdfb ee3d 7078 81bd 5d6f 8ebe 1d7e 073f
00000230: 8297 843e 326b d4be 59a6 403f b948 843e
00000240: 8f84 213f d735 de3e 759c 7b3e 8566 e9be
00000250: 146d 3c3e b8bd 073f 072a ffbe 30a8 46bf
00000260: 7154 90bd 2523 b3bc ff53 d73e 725d 3e3f
00000270: 62f8 ebbe 1736 43be 1aae 9a3e 3730 4cbf
00000280: cd77 ae3b 8240 5fbd 6497 39be 0aa3 e53e
00000290: 10c4 05bf e0de 9dbe 7a2b 32bf 9cdc 45bf
000002a0: b4ae f6be 1b3a 88be 7b04 073e 0a33 123e
000002b0: f933 84be 36d2 9d3e 6899 c8be 6035 ccbd
000002c0: 9989 cfbe 102f a83e 8d94 833d 0eea fdbc
000002d0: 90bd 5ebe 49eb 583e ffef 483e 9b9c 193e
000002e0: 9ae9 66be 12aa 7a3e bd15 803e e52e fe3d
000002f0: 964f d63e 5bd8 e93e d47c 753f 7965 db3e
00000300: 9b87 6abe 9b4e fa3d 8b82 823e f2b2 333e
00000310: 09f8 323f 1e39 803f 75c0 9c3d 7a6b 39be
00000320: 1b78 24be dfd2 143f ec10 243e 49b9 b9bd
00000330: 7d48 413e 5f9f 4dbf 9ac7 503f 16c2 9f3f
00000340: 51d3 c23e 6167 bbbe b2d3 673f 145d 6c3f
00000350: 517c 133e 8da0 1cbe 8c56 75be e00b 00bf
00000360: 9b82 c33e bd2f 0d3d c3f4 603f fb29 0d3e
00000370: d34c d9be fea8 55be 2be8 36bd 8461 f13e
00000380: d74e d33d 5aee d13e 82f1 a5be c89b 7a3d
00000390: 5920 fcbe f077 8ebe d1ba 003f 20d7 b5bc
000003a0: 2766 70bd a626 93be 7e19 7cbe 38e5 453f
000003b0: 73c7 793e 148d da3d c196 0dbf a28d 17bf
000003c0: 6fc6 c8be c7ca 99be b9f2 973e d5da 5bbf
000003d0: 0f5f 303d d757 43bf 9cb1 c53e c76a df3d
000003e0: 978b ca3e e863 f93e 2c76 c93c 1180 9cbd
000003f0: 500b 9f3e f151 b43e 86cb 673f f28e 16bf
0.47265086 -0.08463739 0.033033643 0.09904333 -1.0002128 0.22010995 -0.07076644 -0.22426249
0.21149942 -0.15569508 -0.973415 -0.44720504 -0.44940558 0.47077852 -0.2798216 -0.23704767
0.7049975 0.21613865 0.025829412 -0.69575566 -0.14216465 -0.34170997 0.2681926 0.10315209
-0.3472435 -0.40119052 -0.287544 0.23348404 0.13124514 0.3573413 -0.48388085 -0.08725279
0.17422502 -0.11535173 -0.11073946 0.17706567 -0.2361422 -0.24973476 0.2099677 -0.0041562114
0.21978155 0.26073632 0.03936684 -0.3730856 0.26543868 -0.012322253 0.06990249 0.026210953
0.046642445 0.33850467 0.77076215 0.3560478 0.062416323 0.25443804 0.49311864 -0.9842353
1.8500077 -1.3993428 -1.0702945 0.36133724 -0.09846424 0.6518151 0.8546002 0.82067937
0.2133241 -0.83372396 -0.26923728 0.24904652 0.18330865 -0.979713 -0.07943261 -0.7188897
0.25549895 0.21241827 0.49926245 0.22648185 -0.09207467 0.08536901 0.07150213 0.62444395
-0.0037243688 -0.30666578 -0.83021784 0.094508454 0.12062947 0.4762525 0.38118762 -0.17534839
0.08609876 -0.07703686 -0.19873078 0.5133266 -0.500056 -0.26605752 0.21131665 -0.30036157
-0.57687163 0.21961275 -0.369176 0.08175516 -0.055763647 -0.09423688 -0.9253348 -0.23682216
-0.26612198 0.996053 -0.2285966 -0.48951966 -0.30760175 -0.76853275 0.026104627 -0.022422746
-0.3081312 -0.04905945 -0.721052 0.97159547 0.14834793 0.23179328 -0.07564202 -0.62547845
0.031100592 -0.6425134 -0.22702207 -0.9456084 -0.023629462 0.49360815 0.7112259 1.002336
-0.17124124 0.5742756 0.15511917 -0.017385416 0.24827465 0.4914487 0.08400604 -0.2148248
0.11669109 -0.063218 -0.27819338 0.5292681 0.2589684 -0.41488034 0.75253826 0.25836733
0.63092893 0.43400452 0.24571402 -0.4558603 0.18400985 0.5302386 -0.49836752 -0.77600384
-0.07047356 -0.021867344 0.4205627 0.74361336 -0.4608794 -0.19063602 0.30210954 -0.7976107
0.00532434 -0.05450488 -0.18124157 0.4485095 -0.5225229 -0.30834103 -0.6959759 -0.7728975
-0.48180163 -0.2660683 0.13185303 0.14277282 -0.25820902 0.3082444 -0.3917954 -0.09971118
-0.40534666 0.32848406 0.06424818 -0.030995395 -0.21752 0.21183504 0.19622801 0.15001146
-0.2255005 0.24478939 0.25016585 0.12411288 0.41857594 0.4567288 0.958936 0.42850855
-0.22903292 0.12222024 0.2549022 0.17548731 0.6990972 1.0017431 0.07653896 -0.18107405
-0.16061442 0.58134264 0.1602208 -0.090685435 0.18875308 -0.80321306 0.8155457 1.2481105
0.38051847 -0.3660231 0.90557396 0.92329526 0.14402892 -0.1529562 -0.23958796 -0.5001812
0.38185582 0.034469355 0.87873477 0.13785546 -0.42441425 -0.20865247 -0.044655006 0.4714471
0.10317772 0.4100216 -0.32410818 0.06118372 -0.4924343 -0.2782588 0.5028506 -0.022197306
-0.05869117 -0.28740424 -0.246191 0.77302885 0.2439249 0.1067144 -0.5530816 -0.5920049
-0.39213893 -0.3003752 0.2967737 -0.85880786 0.043059405 -0.7630591 0.38612068 0.10909038
0.39559624 0.48709035 0.024592482 -0.07641614 0.31063318 0.35218766 0.9054493 -0.5881187

memory_a.rnn.weight_hh_l0 f4 [256, 64]
00000000: baaa 3fbe 18b5 b5bc bcb9 abbe 960c 06be
00000010: 879a d83d 41c3 3b3e 4967 bbbe 2a9e 9e3e
00000020: b791 f8be 8ce0 64bf 3f24 f73b f928 d3be
00000030: 9f47 ccbe 5b59 24bf 8204 71bf 1222 9b3e
00000040: eed4 4fbe 9f5c 50be f508 ecbe 5aba 933d
00000050: 5170 d83e e3d5 0fbd 8b8d a43e cf37 ebbe
00000060: b03d 6a3f eb4e c2be 923c 5dbe 9a9d 5e3f
00000070: 9855 dd3e dcca c1be c779 2d3f 77b8 8d3e
00000080: 56cb e7bd 2ba2 abbe 6f8c b33e 6daf 51bf
00000090: e917 6f3e f869 abbd d98b 82be 8e42 6c3e
000000a0: e2b5 063f 9c2b 0ebe 120f 8abf 32af e53d
000000b0: bc45 f83e d292 0abe e723 173c b024 a9bc
000000c0: e81c adbe 0228 393f f672 77bf 0f13 88be
000000d0: 78bb fbbc 48e1 20bf f726 313f 58ce 89bf
000000e0: 28d8 903e 5a20 a13e f907 333f f917 cfbe
000000f0: 6542 b43c d1cc 21bf dc77 14be f311 f7bd
00000100: bf71 4ebe 2187 ad3e 6a77 ee3e 4d7b 20bf
00000110: 2051 23bf 1ce7 2ebf 1169 4d3f e713 5fbf
00000120: c705 83bf 340a 5d3f f740 33be cbb7 ba3d
00000130: f649 093e 4574 5d3e 5d2a ff3d 7325 4bbe
00000140: 211b d73d 019c 8f3f 2a22 ab3e 2357 9ebe
00000150: c001 40bf 036c c7be d3e1 d7bd ec45 f2bd
00000160: ee5d 2d3f 93aa 89be ed0a 63bf e16b 09bf
00000170: fcc2 ac3e b873 8cbe 011c b6bd e0af 3b3f
00000180: c837 05bf f5a2 8e3e 71fd 3f3d 92b5 743e
00000190: 9035 86be aa73 c13e 7ea8 abbb 5b7a c8be
000001a0: daf5 b93e 458d 92bf 4902 873e c984 ccbd
000001b0: 84e3 593f 617a 9e3e 98f1 dc3e cf7e c5bd
000001c0: 3042 a6be 6284 b4bd 9284 573e a468 473f
000001d0: 7ac1 b2bd 1505 32be 4413 ebbe 9759 ee3e
000001e0: 892b a73d 7446 f03e f797 fdbe 628c 6dbe
000001f0: 829f 19be 4b8d 943e 51be 523e 2358 e8be
00000200: 1a45 043e 951f 2fbf 20ab 553e b2ce 1fbe
00000210: 76e2 683c bb9c 913d a51e a6be 9609 7c3f
00000220: d059 95be 3db0 7ebe 386d 82be 573a 183e
00000230: d819 2f3f 3f83 f3bb db1c 36bf a86c 07be
00000240: 090f a8be c9a1 ef3d 2e17 113f ff30 53be
00000250: f025 b7be 9385 6d3f 3ecb f63e 6639 d63d
00000260: b441 07bf 3701 8b3f 1d73 f4bd 82e9 10bf
00000270: 1996 9bbe 83e8 acbe 12aa 313f e8df 81bd
00000280: 03e0 623f b99f 28be 6b8b 23bf 1c7f 0bbe
00000290: 91e5 af3f 2ed4 0d3f edae 4fbe bc7b 28be
000002a0: 8a6d 073e e06b 11be d287 d33e 669a 263f
000002b0: 10a4 48bf 6852 b5bd a2fa e6bd eeb6 a4be
000002c0: f3b5 00be 107f 223f 0314 0bbf 26af 9e3d
000002d0: 3a1f 983e abad d4be b179 743e 8a27 733d
000002e0: 58bb 75be 948f bfbe 4eef 6ebe d8b3 983e
000002f0: 3559 123e 9681 853e 6b09 05bf eb3a 713e
00000300: 7c2e 363f 39aa 0f3f d9c4 e7bc 30da 10bd
00000310: e2ab 5a3f 1e60 cebe 8728 16be 743a 2d3f
00000320: 8099 58bf f2ff d6be 75f7 8e3e c1a5 a4be
00000330: 7ed6 8b3e df40 20bf d16d 80bd 7caa a73c
00000340: b6fd 90be 3a97 e73d 0b84 a73d fc1e 963d
00000350: 2201 a43e dc04 4cbf 5370 f0be ef66 b5bd
00000360: 4773 03be 6919 dfbe ab62 51be 0d0b 753e
00000370: 44ae afbe c830 c23e fe2e 243f b694 143d
00000380: 779a d1be a625 703d 61e6 60bf c56a 97be
00000390: 58af f4be 3fb4 b83e e932 00bf b2fd 0fbf
000003a0: 7284 63be 3044 42bf f393 153f 953f cc3e
000003b0: 0cc6 52be f5d6 f4be 7616 40bf 9f54 1ebf
000003c0: ef90 5dbe 8d25 9dbf e0c6 babd 89bb c6be
000003d0: 3181 413f 7af0 1b3e 7ef1 1dbe e411 dbbe
000003e0: de0c d53e 2b3c 87bf 2f10 a63e d008 223e
000003f0: 1160 84be c54b 33bf 4ce1 dfbe 0b52 4a3f
-0.18717471 -0.022181079 -0.33540142 -0.13090739 0.10576349 0.18336202 -0.36602238 0.30980045
-0.48548672 -0.8940513 0.0075421627 -0.41242197 -0.39898393 -0.64198846 -0.94147503 0.3029943
-0.2029607 -0.20347832 -0.46100584 0.07213278 0.4227319 -0.035116088 0.3213924 -0.45941016
0.9150038 -0.37950835 -0.21605137 0.8695923 0.43229365 -0.37850082 0.6776394 0.27679798
-0.1131808 -0.33522162 0.3506808 -0.81908303 0.23348965 -0.08369821 -0.2549732 0.23072264
0.5262128 -0.13883823 -1.0785849 0.112150565 0.48490703 -0.1353257 0.009224868 -0.020647377
-0.33811116 0.7232667 -0.9665979 -0.2657704 -0.03072904 -0.6284375 0.6920008 -1.0766096
0.28289914 0.31469995 0.6993404 -0.40447977 0.022004316 -0.6320315 -0.14498848 -0.120639704
-0.20160578 0.33892158 0.4657548 -0.6268814 -0.6379566 -0.68321395 0.80238444 -0.87139744
-1.0236138 0.86343694 -0.17505251 0.09117087 0.1340712 0.21626385 0.12459252 -0.19838504
0.10503221 1.1219484 0.33424503 -0.30925855 -0.7500267 -0.38949594 -0.105411194 -0.11829743
0.6772145 -0.2688795 -0.88688546 -0.53680235 0.3374251 -0.27432036 -0.0889206 0.7331524
-0.5203824 0.278587 0.04687256 0.23897389 -0.2621274 0.37783557 -0.0052385917 -0.3915585
0.36320382 -1.1449362 0.2636893 -0.09986264 0.85112786 0.30952743 0.4315307 -0.096433274
-0.32472372 -0.088143125 0.21046665 0.77894044 -0.08728309 -0.17384751 -0.45913136 0.46552727
0.081626005 0.4692875 -0.49530002 -0.23198083 -0.15002254 0.29014048 0.20580412 -0.45379743
0.12916985 -0.68407565 0.2086606 -0.15606192 0.014214149 0.07109972 -0.32445255 0.98452127
-0.29170084 -0.24871917 -0.25473952 0.14866005 0.6839881 -0.0074314172 -0.7113778 -0.13225043
-0.3282397 0.1170078 0.56675994 -0.2062416 -0.35771132 0.92781943 0.48201936 0.10460167
-0.5283463 1.0859746 -0.119360186 -0.56606305 -0.30387953 -0.33771142 0.6940013 -0.06341535
0.88623065 -0.1646718 -0.6388461 -0.13622707 1.3741933 0.55401886 -0.20281573 -0.16453451
0.1322538 -0.14201307 0.4131456 0.65079343 -0.7837534 -0.08853608 -0.11278273 -0.32170814
-0.12569408 0.6347513 -0.5432741 0.07748251 0.29711324 -0.41538748 0.23874547 0.05936388
-0.23997247 -0.3741423 -0.23333475 0.2982471 0.14291842 0.2607543 -0.51967496 0.23557632
0.7116468 0.56119114 -0.028292106 -0.03536433 0.8541852 -0.40307707 -0.14663897 0.6766732
-0.8460922 -0.41992146 0.2792317 -0.3215771 0.27312082 -0.62598985 -0.06270946 0.020467035
-0.28318566 0.11308141 0.08179482 0.073301286 0.32032114 -0.79694915 -0.46960697 -0.08857524
-0.12836944 -0.43574074 -0.20447795 0.23929997 -0.34312642 0.37927842 0.64134204 0.036274634
-0.4093816 0.058629654 -0.8785153 -0.29573646 -0.47790027 0.36075017 -0.5007768 -0.56246483
-0.22218493 -0.75885296 0.5842888 0.3989226 -0.20583361 -0.4782025 -0.7503427 -0.6184787
-0.21637319 -1.2277085 -0.09119964 -0.38814953 0.75587755 0.15228453 -0.15424153 -0.42787087
0.4161138 -1.0565237 0.32434222 0.15823674 -0.25854543 -0.7003749 -0.43726575 0.7903144

memory_a.rnn.bias_ih_l0 f4 [256]
00000000: 2a40 7f3c d1b2 1a3e 0141 2dbe d8a4 24bd
00000010: bd5a 13be 6847 163e 3d75 ddbe fa35 66be
00000020: 2b78 4cbd d1c5 463d ece2 293e b0ff 32be
00000030: 56e3 66be f06f 14be 6cce bebe fe4d cbbd
00000040: 901f 863e b1f2 19bd e704 6bbd 8daa a7bd
00000050: e63b 77be 2347 18be 768a 5fbe 4d9d 33be
00000060: 6818 6abe 4498 53be 378e 83be 1989 20be
00000070: 5300 adbd 9a43 97be cc49 3fbd a495 8a3d
00000080: 12be 33bd 1b71 bfbe 69eb c1be 911a 92be
00000090: 0f50 4abd 0505 613e 56c5 8bbe a86d 923d
000000a0: 1b30 68be 3b8a 15be 3e6d b6be 3cd4 f33d
000000b0: d55c 5fbe 664a 95be 4975 da3d d6af 33be
000000c0: 2920 8b3c 1bce 5abe 240b 2fbe e332 0e3e
000000d0: f9dd 553e 79dc 7dbe 3f4d c8be b21b 43bc
000000e0: 573b 1f3e a500 ec3d 337b 943d a930 08be
000000f0: 835a 733e a85e 1fbc 6699 45be 1412 49bd
00000100: 144b d1bd c336 7bbe e4ef 91be 4ffb 873e
00000110: 2895 57be 0103 9abe e3c6 c73e 697b 4d3e
00000120: 624c aabe 994e 6fbe db48 22bf 0023 863d
00000130: b832 46be 6f20 cfbe 7498 3dbc 9327 6cbe
00000140: 2afb 8bbe 8b64 d9bc 5db3 15be 1676 20bd
00000150: 7802 cebd f0a3 b13d 118f bf3c fff9 97be
00000160: 51bf 47be 816c 143e f97f abbe a69d b93d
00000170: 71cc 4bbe ee4f 46be 9ac7 52be cf54 9ebe
00000180: 7a46 50bb 639e afbd 3b7c 3cbd 326a 9cbd
00000190: 620a dcbe 82f0 d6be 37bb 05be 5489 0fbf
000001a0: fcdb 2d3a f286 5d3c e357 b6bd 64d1 9bbd
000001b0: 82da 36be 52f8 c7be 5e84 a8be 3017 8ebe
000001c0: e032 e3bd 5492 b93d c1aa 79bd c1ee 4bbe
000001d0: 2ceb afbe 918c dcbd 8de7 6e3d 1953 883d
000001e0: 3baf b1bd 5c58 b3be d343 25bf b3cc 13bd
000001f0: 0a89 cdbd 2fdd a6be 8331 703d 2757 12bf
00000200: af1d 01be fc35 3abe ce55 ca3c 6043 2e3e
00000210: 3972 17be 48d6 1e3d d0c9 653d 31c9 44be
00000220: 5858 723e 9c3a 803e e6e1 01be 247c efbb
00000230: 2449 50bd 73fd 643e a8ae 3e3e 1128 913d
00000240: 925b 08be d6e6 21be c873 7ebd 4f2c 2dbd
00000250: 111f 2abe 9742 413e 19e0 ddbd 9369 083d
00000260: e545 e0bd d918 f03d 5fcf 213e 0cfb 63bc
00000270: a7c5 82be b55d 1a3e 504a 2a3d 6822 7bba
00000280: 1fcd 1a3e 1ae8 f3bc c238 233d ef85 883d
00000290: 4fb2 0e3e 965d 543d 305d 0f3e 2dad a23d
000002a0: e817 313e 97f4 9d3e 4e5a 1d3e 34b4 17bd
000002b0: 3fa3 873d 1132 263b f2a6 853d 22f0 69bd
000002c0: c333 f63b 1250 583d f2a2 ebbc d2f6 d63d
000002d0: 3691 a1bd dc05 733c 4bbf 7d3c fe96 b83d
000002e0: 58c0 91be 295e cf3b 320f b6bc 52d9 6cbd
000002f0: 654b 86bd 9331 c33d a09e a4bb dd69 073d
00000300: dcf3 aebd a4b2 e43b 5e8d bc3d 6743 fdbd
00000310: b061 94be 1f29 a53e 9b83 86be d6bf f23d
00000320: 7ab5 d0be f55d b7bd 3082 b13d 1961 3fbe
00000330: 6e81 e7be bed8 1fbe bba0 02bf 9884 013e
00000340: c87d 5cbd 61d7 9dbe 56e8 4bbe cf2a 99be
00000350: 28c5 84be ebf5 20be 98b8 733e 3c5c 4bbe
00000360: 6dd5 34bd 79e1 413d a2f9 48bd 4d1f 5abe
00000370: da55 a4bd 2980 8a3d 42cc 8ebd 1ca9 a6be
00000380: d59b 1fbe 177e cebd 94ad 6f3e d1d4 70bd
00000390: 1f4a d13c 6151 34be 6815 8cbe c5f6 f43d
000003a0: 8077 41be 05f7 5f3e 462e 3dbe e508 303d
000003b0: 331b 083e 7fa0 b6be ddab b9bd 6c13 933d
000003c0: a7bf 493e cb78 41bd bdff 91be 24bb 883d
000003d0: fa13 803e 3c6d be3d db6a 8fbe 5a07 ffbd
000003e0: 803c 0abd d7e3 563e a63e 82be f953 bc3d
000003f0: 723e 9f3d 78f1 ac3d dad1 19be 37f4 d43d
0.015579263 0.15107276 -0.16919328 -0.04019627 -0.14390083 0.14675677 -0.43253508 -0.22481528
-0.04991929 0.048528496 0.1659047 -0.1748035 -0.2254766 -0.14495826 -0.37266862 -0.09926985
0.26195955 -0.037584964 -0.057377722 -0.08186827 -0.24143943 -0.14870887 -0.21830162 -0.17540474
-0.22860873 -0.20663553 -0.2569444 -0.15677299 -0.084473275 -0.29543763 -0.046701238 0.06766823
-0.043882437 -0.3739098 -0.37874916 -0.28535894 -0.049392756 0.21974571 -0.27298993 0.071498215
-0.22674601 -0.14603512 -0.3563022 0.11905715 -0.21812756 -0.29158324 0.106669016 -0.17547545
0.016983109 -0.21367685 -0.17094094 0.13886599 0.20885457 -0.24791135 -0.39121434 -0.011908459
0.1554998 0.115235604 0.07250061 -0.13299812 0.23764996 -0.009727158 -0.19296798 -0.049089506
-0.10219398 -0.24532609 -0.28503335 0.2655892 -0.21052992 -0.30080417 0.39018926 0.20066608
-0.332614 -0.23369826 -0.6339242 0.065496445 -0.19355285 -0.40454432 -0.011571992 -0.23061971
-0.2734006 -0.0265372 -0.14619203 -0.039175116 -0.100590646 0.08673847 0.023383649 -0.2968292
-0.19506575 0.14494516 -0.33496073 0.09063272 -0.19902207 -0.19366428 -0.20583954 -0.3092408
-0.0031780289 -0.08575132 -0.046016913 -0.07637443 -0.4297667 -0.41980368 -0.13059698 -0.5606892
0.00066322065 0.013520943 -0.08903482 -0.076082975 -0.17856792 -0.3905664 -0.32913488 -0.27752066
-0.11093688 0.09061113 -0.06095386 -0.19915296 -0.3435911 -0.107689984 0.058326293 0.066564746
-0.08676001 -0.3502835 -0.64556617 -0.03608389 -0.10035904 -0.32590625 0.058640968 -0.57164234
-0.1260898 -0.18184656 0.024699118 0.17017889 -0.14789666 0.038778573 0.056100667 -0.19217373
0.23666513 0.25044715 -0.1268383 -0.0073085 -0.050851002 0.22362308 0.18621314 0.0708772
-0.13316181 -0.15810713 -0.062122136 -0.042278584 -0.16613413 0.18873058 -0.10833759 0.03330381
-0.10950831 0.11723489 0.15801762 -0.013914835 -0.25541422 0.15074809 0.041574776 -0.0009580017
0.1511731 -0.02977376 0.03984905 0.06666171 0.13935207 0.051847063 0.14000392 0.07943187
0.17294276 0.3085067 0.1536648 -0.03703709 0.066229336 0.0025359432 0.06525983 -0.057113774
0.0075134947 0.052810736 -0.028764222 0.10496296 -0.07889025 0.01483294 0.015487502 0.090131745
-0.2846706 0.0063283634 -0.022224043 -0.05782444 -0.06557349 0.0953094 -0.0050237924 0.033059943
-0.08542606 0.0069793034 0.09206651 -0.123663716 -0.2898078 0.32257935 -0.26272282 0.11852996
-0.40763456 -0.08953468 0.086674094 -0.18689384 -0.45215935 -0.15610024 -0.51026505 0.12648237
-0.05383089 -0.30828384 -0.19912848 -0.29915473 -0.25931668 -0.1571881 0.23800886 -0.19859403
-0.04414885 0.047334168 -0.049066193 -0.21301003 -0.080241874 0.06762726 -0.06972553 -0.32550895
-0.15586789 -0.100826435 0.23406059 -0.058796708 0.025548039 -0.17609169 -0.27360082 0.1196113
-0.18893242 0.21871574 -0.18474683 0.042977232 0.13291626 -0.35669324 -0.090659834 0.07181439
0.19702016 -0.047234338 -0.28515425 0.06676319 0.2501524 0.092981786 -0.28011212 -0.12452574
-0.033749104 0.20985352 -0.25438422 0.09195704 0.077755824 0.08444494 -0.15021458 0.10398143

memory_a.rnn.bias_hh_l0 f4 [256]
00000000: f826 27bd e5ca 1d3e 7ca0 26be e766 b0bd
00000010: 058b 60be b2be 863e 56de b4be 406b d5bd
00000020: 1609 d3bd 86b9 53ba 6862 943e 7764 41be
00000030: 9152 2cbe 66d0 65be 525b 6ebe 2e44 2cbd
00000040: af0b 583e 1e21 bb3d 7cee e7bd 83d3 cebd
00000050: c957 22be 20e9 1fbe c249 28be c571 15be
00000060: ac9b 1dbe 151f 83be 242c a5be 6dcb 29be
00000070: 7028 a6bc 942f 5bbe e55b 4ebe b416 473d
00000080: 540e 1fbe fb0b 35be 5878 adbe af46 10be
00000090: 1439 e6bd c5d2 843d 5c54 85be fb9e 24bd
000000a0: e14b f5bd b298 083d 7a6e 0bbf 460f 5a3d
000000b0: 2252 52be ba56 d7be ba1a 6e3d 3937 60be
000000c0: fead d7bd 81cf 17be e775 5fbc c2ac f73c
000000d0: 2f58 333e 6c76 57be 3b27 adbe 3409 0a3e
000000e0: 4a42 d03c 6fe7 bb3c ea02 90bd 9670 81be
000000f0: 155f 4f3e 06d6 f1bb 800d c5bd 66cb 4dbd
00000100: e1f9 57be 0478 4bbe 2360 6fbe fa00 493e
00000110: 4fbd 0abc 27f5 8bbd 6947 b83e bd58 cf3c
00000120: fccf 51be a4df 26be ca41 d8be 8612 cc3d
00000130: fa1a cbbe be30 20bf b77d 213e 4fa4 99be
00000140: 950f bfbe 77ac 1ebd 24be 25be fd67 9dbd
00000150: 5d82 16be 8d87 be3c 74b3 e43d 379c 21be
00000160: 265c 48bd 644a 443e c5b3 cbbe b451 c03d
00000170: 09d4 03be e784 49be 53ab 21be c92e 9fbd
00000180: 9bd0 40bd a234 5ebe 67b5 a5bc d0a8 68be
00000190: cf58 a0be 8429 e4be d1b5 83be 6634 eebe
000001a0: a03f c73d e43b a43d 1c79 cbbd 5cad 6b3d
000001b0: bc39 17be b4b2 a7be 8e1c 8cbe 8f49 d6be
000001c0: 0003 d9bd 550f 3cbd c7f4 efbd 491b 75be
000001d0: 3828 d0be 9790 c1bd 465c 5f3e d907 22be
000001e0: 4c50 35bd f675 8ebe fa3f d3be 4daf dabd
000001f0: 5111 c3bd 4d8f a1be 308b c53d 4da4 1abf
00000200: d8b3 acbd 4bb3 0c3d 5607 7abc 3b1e 153e
00000210: 7cda 563d c547 25be e522 ff3d 8d6e 91bd
00000220: 97be 653d 49f1 bc3d 4889 96bd 4d18 fcbd
00000230: b288 f73d a03a de3d 0612 8c3d c102 09be
00000240: 5d49 aabd 4634 98bd 7dd4 f03c e812 c6bd
00000250: 47ec ecbd 86e3 003e d38f 2c3d ca2c db3d
00000260: 666b d9bd c0fc c2bc 8b72 ffbc 85fd 85bb
00000270: 88ec 0dbe adbc 3f3e f0b0 89bd dbfc babd
00000280: fc79 23bd 06d0 35bd a824 3c3b ef5e e1bd
00000290: 8cf5 953c 5b1f ea3c 49f9 c33d 0f1f 3c3d
000002a0: 4330 423d f937 a53e 237e 883e 6535 3abd
000002b0: 5b46 ad3d c55a 25bc 2e6b 883d 4419 99bd
000002c0: a525 8f3d a791 4e3c d202 c7bd d3cb 8ab9
000002d0: 56f3 a1bd 1342 443e 3a82 fcbd dce3 953d
000002e0: f3b0 30be 40ad ba3c 496a d93d 6306 6d3d
000002f0: c446 403d 5809 e8bd c1d8 b7bd 3d04 4c3e
00000300: e221 873d 1e7c 483d 17b9 123e 286c e6bd
00000310: d885 64be 011a a63e aa10 27be 640e b33d
00000320: 90ba e4be 0a1e 99bd dd10 2c3e 6652 2abe
00000330: c749 90be 9c58 92be 0db2 d3be 3979 a83c
00000340: b04d a2bd beb8 9fbe 523b 86bd a4ef ccbd
00000350: b4a7 5bbd 9d1b 93be dddb 493e b1bc bebe
00000360: 641f a1bd dd61 ecbd c0c6 1ebe 6385 8dbe
00000370: 23d5 0bbe 2f0a 8c3d 1a52 fbbd 9b63 c2be
00000380: 1479 0c3d 1d4e 25be 3832 053e 0e73 653d
00000390: 4ee8 0f3d 8e06 13be e5cc 6abd b840 cf3d
000003a0: 7a16 49be b63d 563e 01ca c8be 0064 803c
000003b0: 06cd 0b3e 0ed6 65be 9e2d 1c3d 24ac 433e
000003c0: 6739 253e cd17 fdbd c20a cebd 3047 4f3b
000003d0: 2cbf 633e d058 413e d01f 88be 058d 18be
000003e0: 251a 23be c32b 053e a728 b2be 84b2 06bd
000003f0: 045b 8f3d 2d31 113e abc0 0bbe 1b0d 093e
-0.040808648 0.1540943 -0.16272157 -0.08613377 -0.21928032 0.26317364 -0.3532588 -0.10420847
-0.103044674 -0.00080766564 0.28981328 -0.1888598 -0.16828372 -0.22442779 -0.23277023 -0.04205721
0.21098207 0.09137176 -0.11324784 -0.100989364 -0.158538 -0.15616274 -0.16434386 -0.14594181
-0.15391415 -0.2560965 -0.3226024 -0.16581507 -0.020282954 -0.21404868 -0.20152242 0.048605636
-0.1553281 -0.17680351 -0.33880877 -0.14089464 -0.112413555 0.064855136 -0.26040924 -0.040190678
-0.119773634 0.033348747 -0.5446545 0.053237222 -0.20539144 -0.42058355 0.058130957 -0.21896066
-0.10531233 -0.1482525 -0.01363895 0.030233745 0.17514108 -0.21041268 -0.33818993 0.13480073
0.025422234 0.022937505 -0.07031806 -0.2528121 0.20251115 -0.00738025 -0.096217155 -0.050242804
-0.21091415 -0.19870001 -0.23376517 0.19629279 -0.008467986 -0.068338685 0.35991982 0.025310868
-0.20489496 -0.1629625 -0.42237693 0.099644706 -0.3966902 -0.62574375 0.15770613 -0.3000817
-0.37316576 -0.038738694 -0.16185814 -0.0768585 -0.14698167 0.023257995 0.111670405 -0.15782247
-0.048916005 0.19169003 -0.3978559 0.09390584 -0.12873854 -0.19679604 -0.15788011 -0.077725954
-0.04707394 -0.21699765 -0.020228101 -0.22720647 -0.31317756 -0.44562924 -0.25724652 -0.46524352
0.097289324 0.08019236 -0.09935209 0.057538375 -0.14768118 -0.32753527 -0.27365535 -0.41852996
-0.10596275 -0.04591306 -0.117166094 -0.2393619 -0.40655684 -0.094514064 0.21812543 -0.15823306
-0.04426603 -0.27824372 -0.41259748 -0.10677967 -0.09524787 -0.31554642 0.096456885 -0.60406953
-0.0843274 0.034350675 -0.015260538 0.14562313 0.052454457 -0.16140659 0.124578275 -0.07101164
0.056089964 0.09225709 -0.07350403 -0.123093225 0.120866194 0.108510256 0.06839375 -0.13379957
-0.08314774 -0.07431845 0.029398197 -0.09671575 -0.11568504 0.12586793 0.04212935 0.10701902
-0.10616188 -0.023802161 -0.031182548 -0.00408906 -0.13859761 0.18724318 -0.06723201 -0.091302596
-0.039911255 -0.04438784 0.0028708372 -0.11004435 0.018305562 0.028579405 0.09569032 0.045928057
0.047409307 0.32269266 0.26658735 -0.045461077 0.08460685 -0.010092442 0.06661068 -0.07475522
0.06989602 0.012607968 -0.09717335 -0.00026473272 -0.07907741 0.1916583 -0.12329526 0.07318851
-0.17255001 0.02278769 0.106159754 0.05786742 0.046942487 -0.11329907 -0.089768894 0.19923492
0.065982595 0.048946492 0.14328419 -0.11251098 -0.22316682 0.32441714 -0.1631495 0.08742979
-0.44673586 -0.074764326 0.16803308 -0.16632995 -0.28181288 -0.2858323 -0.4134678 0.020565616
-0.07924974 -0.31195635 -0.06554283 -0.10006645 -0.05362673 -0.28732005 0.19712777 -0.37253335
-0.078673154 -0.115421034 -0.15505505 -0.27640828 -0.13655524 0.0683788 -0.12271519 -0.37966618
0.034295157 -0.16143079 0.13007438 0.056017928 0.035133652 -0.14357969 -0.05732431 0.10119766
-0.1963748 0.20921978 -0.39216617 0.015672684 0.13652429 -0.22444937 0.03812944 0.19108635
0.16135179 -0.12358055 -0.10060646 0.0031628124 0.22240895 0.18881536 -0.2658677 -0.14897545
-0.15927942 0.13004975 -0.3479664 -0.03288509 0.06999782 0.14178915 -0.13647716 0.13383906
