logs/g1/Apr19_03-18-51_/model_300.pt (torch, 777504 bytes, 48 tensors)

std f4 [12]
00000000: e5b5 c43e 8cbc 063f b138 743e fcc1 b43e
00000010: c26d 443f 2408 3a3f 78b0 c23e 12d5 003f
00000020: e09e 813e 5163 c83e e3fd 4b3f dd1f 383f
0.38420025 0.5263145 0.23849751 0.35304248 0.7672998 0.7266867 0.3802526 0.5032512
0.25316525 0.39138272 0.79684275 0.7192362

actor.0.weight f4 [32, 64]
00000000: a6f8 193e e610 cebd 612c 353e 4f66 d43d
00000010: f377 4b3e f483 423e 3c2d bebe a1f6 c03d
00000020: de0a 313e e3f1 6d3e 8214 9a3e f968 273e
00000030: 3e38 6f3e adee ce3e e21f 1cbc 9efb 403e
00000040: a479 f43d 6307 eb3b 7fbe 0e3e 94bb b03d
00000050: a926 8abc e3ea f33d aa85 a43e 07cc 1f3e
00000060: a465 b3bd 5d04 df3e ffdc 80be 7b05 2e3c
00000070: f41b 513d 0101 ab3e 289f 21be 243e 56be
00000080: d63f 593e 1191 63be 5f65 2ebd 1b74 273e
00000090: caf6 873c 33a6 66be fab9 463e ba24 e13d
000000a0: d17c 6f3d 82cd 45be bf33 083e 55fc e83d
000000b0: b3ac 5fbe 5a4a 953d 6865 3cbe 0b96 cebd
000000c0: 6255 6bbd 6af3 0ebd 3f9c 403e 617e 5ebd
000000d0: 6d18 6a3e 5ae3 cfbd ae35 b1bd 8567 e83d
000000e0: d879 76bc 3a84 18b9 cfde d7be 27c7 98bd
000000f0: 5159 ef3d 1b5e 16bd a5fd 55be 8515 2dbd
00000100: 84cc 703e 74ec 9c3e 5d1e 67bd 712a 3b3e
00000110: e6de a93e ab6f 0bbe a803 63bb 9479 84be
00000120: eb3a 67be 0225 bb3e ff43 c3be 3b4f 523e
00000130: 38ad 2d3d b236 66be eef5 25be f0ff 45be
00000140: 622b b43d 3d47 62bd fe49 02be ae62 4b3d
00000150: 9d4c 45be 1a8d 503d d79a bf3d cfca 603b
00000160: 76ef f03c 8d09 153e 9e62 01be 3fbc 47bc
00000170: 5daa aa3c 2dec 01bd a2fe c2bc e9dd ecbd
00000180: 4cc0 b63e b1ca 4cbd 10eb 43be 5263 9b3e
00000190: 0c94 943e 699f 813c 8588 9fbd b94c dc3d
000001a0: 8966 b63e bbda 413e 55ac 193e ca8a f2be
000001b0: 773d ce3e e318 aa3d d52b 843e dd55 4dbd
000001c0: c916 8fbc a565 25be f980 9dbe 6f55 1abe
000001d0: 4e9b 183e 7084 62be 8c70 5ebe 8b6a ce3d
000001e0: 9a78 30be c53f 6e3e b2cd d03e f7af 4cbe
000001f0: dee9 453d f2c5 d43e bcda f23e ee7c 833e
00000200: 73fa 81bd 071f 6b3d 2a81 4b3e 8015 5dbd
00000210: 455d 703e a7fd 2b3e 2116 25be 6e9d 853e
00000220: 59ab 473e ebd1 a03e 78ff 913d 09b3 f5bd
00000230: db1d 823c 26c2 7c3d 1a82 80bd 5a74 9b3e
00000240: 2065 45be b153 b3bd 930b 943d 6a06 8b3e
00000250: 8363 3dbe 806b 033e ab4c e3bc 7955 443d
00000260: 652e f83d 9f1d 613d 383b b2be b360 ec3d
00000270: 0002 a13d 4862 cbbc e430 f5bd 21c8 783d
00000280: 750e 1a3e 8c42 e5bd 442e b93c e7aa 4b3e
00000290: f1e4 803e f90b c83c 5f10 043c 9113 ee3e
000002a0: e18a f6bd c337 cfbd c5bb 3bbd 589b d33d
000002b0: f712 203e ae21 89bd a9c6 08be d170 2dbc
000002c0: 1f59 a8be 6ff8 663d 5f05 0bbf 1eb1 933d
000002d0: d513 033f 7e02 0fbd b9f2 b7bd f588 823e
000002e0: a524 553d a798 74be b330 cfbd 47b2 75be
000002f0: 9553 05be efca 73be 943f bcbe 152a aebe
00000300: 03c7 0d3e 99ae 93bd 2340 11bd de15 68bd
00000310: 96d3 73be 5911 843d 411a 383e f760 263e
00000320: ffcc b9be 933a 3abe b87c 01be 6e75 90bd
00000330: beb3 aabd a39f bd3d 4fb6 c63d 005c 37be
00000340: 2fbd 04bd 7232 15bd 1b43 d53e f3d2 7dbe
00000350: 1ec8 ba3e 98bc 423e 5110 b23c 956b f03d
00000360: 9e18 4c3e f487 1c3e 432b 033e 0105 58bd
00000370: 2f09 58be 92e9 21be 397e c03d ee47 bf3d
00000380: 9dea 8cbe ab46 063e 2c25 4dbe 5714 4e3d
00000390: a48b 4ebe 2201 653e 7593 133e 517a efbd
000003a0: 9280 57be 4300 af3e 7e06 9fbd d1c9 83be
000003b0: 54e3 5abe 7763 3a3e 014e 3b3e d3d8 aabc
000003c0: d0af c13b a0fc 0bbe a7a5 803e 39b1 c93d
000003d0: caf1 543e e426 9dbe abfc 813d fbf3 613d
000003e0: 50fe a9bc 98f2 b83e 1799 25be 093f 5b3e
000003f0: 1822 31be 1bc8 70bd 23da 4e37 e068 f93e
0.15036258 -0.10061817 0.1769271 0.10371076 0.19869976 0.18995649 -0.37143886 0.09422041
0.17289302 0.23236804 0.3009377 0.16348638 0.23361298 0.4041647 -0.009529086 0.18845984
0.119372636 0.0071725114 0.13939856 0.08629528 -0.016864138 0.119100355 0.32133228 0.15605174
-0.08759621 0.43558016 -0.25168607 0.010621424 0.05105205 0.33399203 -0.1578337 -0.20922142
0.21215758 -0.22223307 -0.042577144 0.16352884 0.01659717 -0.22524337 0.19406882 0.10993333
0.058468644 -0.19316676 0.1330099 0.113762535 -0.21843223 0.07289572 -0.18398058 -0.10087212
-0.057454474 -0.034900106 0.18809603 -0.054319743 0.2286088 -0.10150786 -0.08652817 0.1134787
-0.015043698 -0.00014545108 -0.42162177 -0.0745986 0.11686958 -0.03671084 -0.20897539 -0.04225685
0.23515517 0.3064915 -0.05642544 0.18277909 0.3317787 -0.13616817 -0.003463963 -0.25874007
-0.22581069 0.36551672 -0.38137814 0.20538037 0.042401522 -0.22481802 -0.16207096 -0.19335914
0.08797337 -0.05524372 -0.12723538 0.049654655 -0.19267507 0.050915815 0.09355705 0.003430057
0.029411059 0.14554425 -0.12635276 -0.012190877 0.020833189 -0.031719375 -0.023803059 -0.115657635
0.35693586 -0.04999799 -0.19132638 0.30349213 0.290192 0.015823083 -0.07789711 0.10756821
0.35625103 0.18931095 0.15007146 -0.47371513 0.4028127 0.08305528 0.2581469 -0.050130714
-0.01746692 -0.16152056 -0.3076246 -0.15071653 0.14902994 -0.22120833 -0.2172262 0.10078915
-0.17233506 0.23266514 0.40781933 -0.19989 0.048318736 0.4155727 0.47432506 0.2568125
-0.063465975 0.057402637 0.19873491 -0.053975582 0.2347308 0.1679598 -0.16121723 0.26096672
0.19498958 0.31410155 0.07128805 -0.11997039 0.015883377 0.061708592 -0.06274815 0.30362207
-0.19276857 -0.08756197 0.0722877 0.2715333 -0.18494992 0.12833977 -0.02774652 0.047933076
0.12118224 0.05495989 -0.34810805 0.115418814 0.078617096 -0.024827138 -0.11972216 0.060737733
0.15044577 -0.111943334 0.022605069 0.19889413 0.25174668 0.024419772 0.008060544 0.46499303
-0.12038208 -0.101180576 -0.045833368 0.10332364 0.15632235 -0.06695877 -0.13357033 -0.01058598
-0.32880494 0.05638927 -0.5430507 0.07211517 0.51202136 -0.034914486 -0.089818425 0.25495115
0.0520369 -0.23886357 -0.101167105 -0.23993789 -0.13020165 -0.23807882 -0.36767256 -0.3401648
0.13845448 -0.07211036 -0.035461556 -0.05666148 -0.23811182 0.06448621 0.17978765 0.16247927
-0.36289212 -0.18186407 -0.12645233 -0.07053648 -0.08335064 0.09258964 0.09702741 -0.17906189
-0.032406982 -0.03642506 0.4165276 -0.24787502 0.36480802 0.19017255 0.021736296 0.1173927
0.19931266 0.15286237 0.12809472 -0.052739147 -0.21097253 -0.15811756 0.09399075 0.093398914
-0.27522746 0.13112895 -0.20033711 0.050312366 -0.20170456 0.22363713 0.14411719 -0.11693252
-0.2104514 0.34179887 -0.0776491 -0.2573991 -0.21375781 0.18202005 0.18291475 -0.020855343
0.005910851 -0.13670588 0.25126383 0.09848256 0.2079536 -0.30693734 0.06347021 0.05516432
-0.020751148 0.36122584 -0.1617168 0.21410765 -0.17298162 -0.058784585 1.2329346e-05 0.48712826

actor.0.bias f4 [32]
00000000: c3cf 9dbd 66c3 de3d 56ea d9bd 5c81 59bd
00000010: cc27 4ebe 3e4d 4b3d b6ef 84bc 47b4 d1bc
00000020: 9e24 93bd 4555 683d 35d9 93bc 681b 0e3e
00000030: bf2c 9ebd 1bb2 aa3b 406e fc3c 9757 2d3d
00000040: 41d9 d2bc 2018 c83b 70b6 0bbe f2f4 67be
00000050: 2147 e0bc d492 083e 3f4d 9e3d 1f48 1abe
00000060: 89fc 78bd b6a6 823d bd16 7c3d 16a4 edbd
00000070: 981c c2bd 6b90 7e3e 212f 8ebd 76e0 02bd
-0.07705643 0.10877113 -0.10640399 -0.053101882 -0.20132369 0.04963421 -0.016227584 -0.025598658
-0.071847185 0.056721944 -0.018047908 0.13877642 -0.077233784 0.00520922 0.03081429 0.04231986
-0.02573836 0.0061063915 -0.13643813 -0.22652033 -0.027377667 0.1333726 0.07729577 -0.15066575
-0.06078771 0.06379454 0.061545122 -0.116035625 -0.0947811 0.24859779 -0.06942583 -0.031952344

actor.2.weight f4 [12, 32]
00000000: 19dd 6a3d e0b1 a83c f2ec 313e 32d9 15be
00000010: 7f47 793d da11 ab3c 3b05 a1be 134c ac3e
00000020: 3ad9 20be cf6b 2e3d 904d 403e d8c5 92bd
00000030: 1f01 47be d952 35be f464 793c 7083 edbd
00000040: 1a49 7dbe 6e63 fdbd 87fa 4c3e cca8 2bbe
00000050: 9b86 c33d 5359 1d3e 02b7 243e 14ae 6e3e
00000060: 2f99 3d3d 92cd 373e 71ee f03c 5504 383d
00000070: f7a5 513e 0003 94be 14ca be3d 0e50 1abd
00000080: eb54 903d a933 0c3e 8d49 44bd 21a1 94be
00000090: 3204 d6bd 795c a13d a98a 3fbd 8766 563d
000000a0: b8e0 823c d754 3f3e 4c37 653d 09a9 7b3e
000000b0: 11b2 a3bd c9c0 2a3d 97e3 4bbd f721 8e3d
000000c0: 3a93 22bd 51cf a63e 5123 92be 33fb bcbe
000000d0: 2a58 96be 122c 823e 6b59 9c3e fb40 d1be
000000e0: b743 453e 978a b53e 56dd d93d c662 d43c
000000f0: 001b fcbd c5d1 833e 42ef ea3d c8ec 4ebe
00000100: 94ba cd3d 778b 0fbd c57f 41bd 6033 763e
00000110: 1888 493e afd3 73bd a2f0 003d 3cf2 d73d
00000120: b2b5 ee39 9ed7 f1bd 5351 5cbd 53d3 5c3d
00000130: d5dd 663c 4e43 19be 09a2 273e 6fe3 2dbd
00000140: 52da 4a3d cfeb 95bd 51d9 95bc 5870 193e
00000150: 0545 363e 708d 3dbc d20f 8c3d b9d5 06be
00000160: 6f9d 14be f0cb 4fbd 9cbb c83b 9004 fa3d
00000170: dfac 92bd 7f2b c9bd 85e4 1d3e 76c4 d63d
00000180: 25c9 843d ea62 023b b88e 6d3d bfc7 d9bd
00000190: 75b6 8c3d 45eb 07be dd6f 37be 357e 0a3e
000001a0: b751 85bc 7926 cbbd 37f8 463e 4c78 0fbe
000001b0: a1d3 c33d 088c 0d3e d83b 753d f705 813d
000001c0: f670 123e f5cc ef3c 9607 753e 2f4c 123e
000001d0: d33d 7cbd b9e9 89bd b5fa a2bd 2356 b23d
000001e0: e523 833c 4097 76bd cab8 99bc fd9c 86bb
000001f0: 8d7e 4a3d 78de 95bd f576 843d 3b9f bdbd
00000200: 5d59 c6bd db24 843c d525 86be 302a 913d
00000210: d183 aabe e619 bc3d a7ea 2f3d b633 523e
00000220: 7c14 e2be 53df 9dbe 1e8f d43e fed3 f4bd
00000230: 6b86 e9be 5666 803e 8896 73bd 5056 063f
00000240: 7897 113e 224a 843d 3ade c5be c109 6abe
00000250: 75ec 293e 7cde 943e 66aa 4e3d efe0 cd3e
00000260: 955f 0abf e8ed f33e 567b 16be fc77 213e
00000270: 7e02 863e 169e fb3d 1015 9c3e 0028 8fbe
00000280: f76e 75be b8d6 203e 1864 6dbd f485 363d
00000290: 4012 713e 84b7 6abd 11fb 343d cedc 613d
000002a0: 4672 fd3d 69cb 7d3c 67ee 463e f947 3e3d
000002b0: b687 21be 618b 4a3e 2646 9bbe c13e ca3c
000002c0: e19e c6bd f2ce f73d ea35 903d ba18 1f3e
000002d0: d1d5 25bd 7307 da3d 16f3 1abd e3df 22be
000002e0: e900 ddbd 3d11 76be 9219 06be 3c05 5e3d
000002f0: 4b7b dcbd 90b7 6bbe 8a88 333e 1714 38be
00000300: e752 edbd f8cc 303e b7bc 73be 36b6 783c
00000310: fb59 7dbe 0821 d93d 186c 253d 2c2f 67bd
00000320: 308f 9a3e 5231 2d3e cb33 14be 963b 9fbd
00000330: d65d ad3d bff1 083e 0df6 873e 7df8 513e
00000340: a4af d6bd a5ae 3dbe 8c2a 7d3e cadb 3abe
00000350: 0c7d 3dbc 561f 9b3d 9f83 d93d b0ba b73c
00000360: 085e eabd 27c5 87be f780 eabc 495d 143e
00000370: b459 abbd 7202 283e 50cc 1fbd eb99 dbbc
00000380: 37a9 1e3c cf9d 6dbe c242 dd3d 177c 8ebd
00000390: 6d73 ac3d 4fa9 8d3c 7640 1dbe 2d69 9ebe
000003a0: 6177 883e 70ec 3b3d 3083 4dbd 575d 95be
000003b0: 393e 5f3e de31 83bd 8e23 1bbe e19c 553e
000003c0: 44d0 83be 72a4 273e c57e 82bd 6b11 c03d
000003d0: b15e b43d f894 a2be fd70 1d3e c784 053e
000003e0: cdf1 be3d a5ab c43d 6888 53be ed41 a33e
000003f0: e46a 1ebd 44cc 65be 71a2 283e 9eb5 01bd
0.05733976 0.02059263 0.17375544 -0.14633635 0.0608592 0.020882536 -0.31449303 0.3365179
-0.15707865 0.042583283 0.18779588 -0.07166642 -0.19434021 -0.17707385 0.015221823 -0.11597335
-0.24734917 -0.1237248 0.20017444 -0.1676361 0.09547158 0.15366106 0.16085437 0.23308593
0.046288665 0.17949513 0.029410573 0.044926006 0.20473467 -0.2890854 0.09315887 -0.037674002
0.07047447 0.13691582 -0.047921706 -0.29029182 -0.10450019 0.07878966 -0.046763096 0.05234387
0.015976295 0.18684708 0.05596094 0.245762 -0.07992948 0.04168776 -0.049777593 0.06940072
-0.039691187 0.32580045 -0.2854257 -0.369104 -0.2936414 0.25424248 0.3053697 -0.4086989
0.19264112 0.35457298 0.106379196 0.025926005 -0.12309837 0.2574598 0.11471416 -0.20207512
0.100453526 -0.035045113 -0.04724099 0.24043036 0.19680822 -0.05952805 0.031479485 0.105442494
0.0004553027 -0.11808704 -0.053788494 0.053912472 0.014090975 -0.14967081 0.16370405 -0.042453226
0.049524613 -0.073203675 -0.018292101 0.14984262 0.17799766 -0.011569366 0.06838955 -0.13167466
-0.14513181 -0.0507316 0.0061258804 0.122079015 -0.07161879 -0.09822749 0.15419205 0.10486691
0.06483678 0.0019895383 0.057997435 -0.10633802 0.068707384 -0.13273342 -0.17913766 0.13524707
-0.016274316 -0.099194475 0.19430624 -0.14010733 0.095618494 0.13822949 0.059871525 0.06299966
0.14300904 0.029272536 0.23928675 0.14286874 -0.061582398 -0.06734032 -0.07957975 0.087078355
0.016008327 -0.060202837 -0.018764872 -0.00410807 0.049437094 -0.07317823 0.06468002 -0.092588864
-0.096850134 0.016130855 -0.2620074 0.07088125 -0.33303693 0.09184627 0.04294839 0.20527539
-0.44156253 -0.30834445 0.4151544 -0.11954497 -0.45610365 0.25078076 -0.05946973 0.5247545
0.14217937 0.06459452 -0.38646108 -0.22855283 0.16594107 0.29075992 0.050455473 0.40210673
-0.54052097 0.47642446 -0.14695486 0.15768427 0.26173776 0.12286012 0.3048482 -0.27960205
-0.23968111 0.15706909 -0.057956785 0.04456134 0.23542118 -0.05730392 0.044184748 0.055142216
0.123753116 0.015490391 0.19426881 0.046455357 -0.15774426 0.19779731 -0.30326957 0.024688127
-0.096982725 0.121000186 0.07041533 0.15536776 -0.040487114 0.10645952 -0.03782948 -0.15905719
-0.10791189 -0.24030013 -0.13095692 0.05420421 -0.10765704 -0.23019242 0.17532554 -0.17976414
-0.11588078 0.1726569 -0.23802458 0.015180161 -0.24741356 0.10602003 0.04038629 -0.05644147
0.30187368 0.16913345 -0.14472882 -0.07775037 0.084651634 0.13373469 0.2655491 0.20504947
-0.104827195 -0.18523653 0.24723262 -0.18247905 -0.011565458 0.07574336 0.10620808 0.022427887
-0.11443716 -0.26517603 -0.028625948 0.1448871 -0.08366719 0.16407183 -0.039013207 -0.026806792
0.009683899 -0.2320473 0.10803749 -0.06957262 0.08420453 0.017292647 -0.15356621 -0.30939618
0.2665358 0.04587978 -0.05017394 -0.29172775 0.2180108 -0.06405996 -0.15150282 0.20860626
-0.25744832 0.16371325 -0.063718356 0.09378322 0.088071235 -0.3175428 0.15375133 0.13038932
0.093234636 0.09603051 -0.20657504 0.31886235 -0.038676158 -0.22441202 0.16468216 -0.031667344

actor.2.bias f4 [12]
00000000: 6ed3 493d a4a3 4a3e 7aec a7bc 96f5 7abe
00000010: ac38 8b3e 6b7b 3cbe 693e 0ebe a063 efbd
00000020: 84bb ab3d f2c7 dbbd 0731 d2bd 3443 113e
0.0492739 0.19788986 -0.020498503 -0.24507746 0.27191675 -0.18406455 -0.13890995 -0.11688924
0.08385375 -0.10731496 -0.102632575 0.14185792

critic.0.weight f4 [32, 64]
00000000: aa46 6bbc 13ec 6e3d eae1 733d 3975 293d
00000010: 8b7c 273d 2fa5 aabd 7231 abbd 90c0 40bc
00000020: ca2f 4fbd e290 ca3c 9b8d be3c f88d ebbd
00000030: 5499 023d 4d02 003d dc6f 913d b266 853d
00000040: 3d9a 0cbc b5aa 81bc bb0a 49bd 30b0 13be
00000050: 99f6 9b3c 3f79 cd3c 8ff8 a63c ccee e7bc
00000060: b224 6fbc 2457 67bd ed7c c6bd 590a e6bb
00000070: 22b7 883d a81b b3bd 0246 373d ac2c c23d
00000080: bf2c b8bc c392 883d d235 4d3d 9007 66bc
00000090: 98e6 96bd 9947 133d 007f 7ebd c16c cb3d
000000a0: fcb2 65bd 9c3b 4bbd b444 e1bc 77d1 e1bb
000000b0: 122d 8a3c ab28 2bbd 6186 8bbd 066b 533d
000000c0: e473 0ebd bf17 a53d 653a 883b 7a5d d93d
000000d0: 0dae d0bd 29db 5e3d 5935 c13d e763 2ebd
000000e0: bd0b a1bd 02bc 9bbc b9f8 a73c c40a 4fbd
000000f0: d04e 53bc afad 58bb ed58 7dbc 278b 613d
00000100: 4eb5 18be 12e7 0abd 79f4 9abc 7bc2 61bd
00000110: 2743 13bc ddd8 1cbd 780f c4bd b1c1 043e
00000120: ac5e 703d 18c2 f53d 23b5 9cbd 7b9b 04be
00000130: 5a2e 173d 0114 c1bc 4b3c 393e 86df 943c
00000140: 418c 1bbe fa18 bf3d 20e9 c4bd 57dc c73d
00000150: f708 51bd 8b0d 023e 987f 9dbd 4823 00bc
00000160: 76b7 87bd dfd1 c8bb 63a6 cabd 891e 063e
00000170: 604c cb3d d9e9 d3bd 0454 293e 9144 103e
00000180: e212 353d 3b4f 2fbe 3252 283b 3864 553e
00000190: abf7 3e3e ab78 ccbd 8d45 a23d d57d f5bd
000001a0: 0233 4dbd 19a9 c43a d5e5 8e3d 3488 c1bd
000001b0: 08df 093d 7bb8 13bd 9072 0b3e e4bb 6f3e
000001c0: c07f 463e eb3a 3ebe 5747 f1bd dc8f ddbd
000001d0: 20bf 5dbd 5a85 003e d6f9 253e 0e0d cc3d
000001e0: c1b4 583e 1227 b5bd 3c2a 4abd c1a8 53be
000001f0: 796b 0cbd 3bcf 493e f612 d9bd d8a2 5c3e
00000200: 2bac 8f3d 5d45 0cbe 20b7 343b 3312 573d
00000210: 8906 d13d 67a8 aa3d d204 38bd 0ee5 a93d
00000220: 7e44 88bd 2f59 53bd aa1b a23c d237 5b3d
00000230: b2c6 9f3d b2bb aa3d 63a1 f8bc 9077 34be
00000240: 4a83 c1bd 7a5a c43c 08c3 f0bb 60d2 773c
00000250: 51df b7bd fef2 4c3d 4f44 f1bd c153 1e3d
00000260: 3fcf 1abd 8af3 69bd 4bb3 33bd b9c6 ccbc
00000270: 68b4 a13b 50e2 45bd 936b 9abd f94e d8bd
00000280: 5aec 9f3c 7e24 95bc 42cd d2bd 7050 9dbc
00000290: 5b8d a0bb 2122 acbc 19ca da3c dab4 c2bc
000002a0: 3cf6 c53d 18b9 0d3d 93a5 06be 43e9 02be
000002b0: 4e32 0f3e 35bc 56bb e0a8 2d3d ae27 7c3c
000002c0: d3f7 683d 2c87 683d 4f85 173d 6e1c d5bc
000002d0: 2d1f bfbb cf50 31bd b794 c1bc 955f 70bd
000002e0: 2209 b43b d852 82be e4fa a93c 235c d8bd
000002f0: 73f8 053e 46cf aabd 5beb 0bbe 5ffc 243e
00000300: c042 0939 802d 64bd f310 c03d d5c1 ae3d
00000310: df92 b33d 2b64 20bc 7edb 0dbc 2f03 e63d
00000320: 393a 103e b242 e6bc c586 94bb 302e a33d
00000330: 84ba aa3c f458 eb3c aca2 1e3e 5294 2abd
00000340: 13a1 be3c 61c4 e83d 7396 a33d 5be8 76bd
00000350: cb5a 0a3e 80f9 9e3c e550 cbbd b52c ea3d
00000360: 7018 93bd d844 0f3e 8ad2 f6bd 16ff ca3d
00000370: b120 d8bd 0f25 eabd 8e15 ee3d 4e65 b1bc
00000380: 66c3 15be 1c38 4cbe 74a9 e9bd 18c1 443e
00000390: 5c8d d5bd 25fe 923c ade5 6dbd 9afe 97bc
000003a0: 8491 a13d 9b5f 34bc 417e 76bd ac0e d7bd
000003b0: 42d6 4dbd a95e 0dbd 9792 853d f69b c63d
000003c0: 5df9 09be 4289 e33b 3b13 88bd 4835 18be
000003d0: d8a3 53bd 61fb 403e cc57 29bc 511a 04bd
000003e0: ab8a eabd c005 b1be 5814 b8bd 3187 2d3c
000003f0: d796 ed3c c38b 8ebc 6baa c43d e943 a33d
-0.014360109 0.058330607 0.05954162 0.041371558 0.040890258 -0.083322875 -0.0835904 -0.0117646605
-0.050582685 0.024727289 0.023260882 -0.11501688 0.031884506 0.031252194 0.071014136 0.06513728
-0.008581695 -0.01582847 -0.0490825 -0.14422679 0.019038485 0.025082229 0.020382194 -0.02831211
-0.014596151 -0.05647959 -0.096917965 -0.0070202765 0.06675555 -0.087455094 0.0447445 0.09481177
-0.022482274 0.066686176 0.050100155 -0.014039889 -0.07368201 0.035956953 -0.062132835 0.099328525
-0.056078896 -0.049617395 -0.02749858 -0.0068914252 0.016867194 -0.04178683 -0.0681274 0.051615737
-0.03477849 0.0806117 0.004157352 0.10613532 -0.101894476 0.054408226 0.094340034 -0.042575743
-0.07863567 -0.019010548 0.020504342 -0.050547376 -0.012897208 -0.0033062508 -0.015463096 0.055064347
-0.14912912 -0.033911772 -0.018915402 -0.05511711 -0.008988178 -0.038292754 -0.09573263 0.12964512
0.058684036 0.11999911 -0.076517366 -0.12949936 0.03690944 -0.023569109 0.18089406 0.01817299
-0.15190221 0.09330936 -0.096147776 0.09758823 -0.05103394 0.12700479 -0.07690352 -0.007820912
-0.06626789 -0.006128534 -0.09895017 0.13097586 0.09926677 -0.10347337 0.16535956 0.14088656
0.04420746 -0.17120068 0.0025683758 0.20839012 0.18649165 -0.09983953 0.07923422 -0.11986891
-0.050097473 0.0015004008 0.06977431 -0.09449807 0.033659965 -0.036064606 0.13617921 0.23411518
0.1938467 -0.18577163 -0.11781185 -0.108184546 -0.05413735 0.1255087 0.16208586 0.099634275
0.21162702 -0.08845343 -0.049356684 -0.20669843 -0.03428218 0.19707958 -0.1059932 0.21546495
0.0701526 -0.13698335 0.0027574971 0.05250759 0.102063246 0.083329014 -0.044926472 0.08295642
-0.06653689 -0.051598724 0.019788582 0.05352003 0.0780157 0.08336581 -0.030350393 -0.17623734
-0.094488695 0.023968924 -0.0073474683 0.015125841 -0.08978141 0.050036423 -0.11780607 0.038654093
-0.0377953 -0.057117023 -0.04387216 -0.024997102 0.004934836 -0.04831153 -0.075400494 -0.10561938
0.01952188 -0.018205877 -0.10293056 -0.019203395 -0.0048996634 -0.021012368 0.026707696 -0.023767877
0.09666106 0.034600347 -0.13149099 -0.12784295 0.13984033 -0.0032765989 0.04239738 0.01539032
0.05687697 0.056769535 0.036992367 -0.026014533 -0.005832574 -0.043289956 -0.023630483 -0.058684904
0.005494253 -0.2545383 0.020749517 -0.10564449 0.13083057 -0.083403155 -0.13664 0.16111897
0.00013090204 -0.055707455 0.09378233 0.08533064 0.08768248 -0.009789507 -0.008658288 0.11231076
0.1408471 -0.028107975 -0.0045326673 0.07967794 0.02084089 0.02872894 0.15491742 -0.041645356
0.023270166 0.11365581 0.0798768 -0.060280185 0.13511197 0.01940608 -0.09927539 0.114343084
-0.071823955 0.13991106 -0.12051876 0.09911935 -0.105531104 -0.114328496 0.11625205 -0.021654751
-0.1462532 -0.19943279 -0.11409274 0.19214284 -0.10427353 0.017943451 -0.058080364 -0.01855402
0.07889083 -0.011009122 -0.060179 -0.10500845 -0.05025316 -0.034514103 0.065221004 0.09697716
-0.13474031 0.0069438526 -0.06644293 -0.14864075 -0.051669925 0.18845893 -0.010335874 -0.03225166
-0.1145223 -0.345747 -0.08988255 0.010591314 0.02900259 -0.017400628 0.09602817 0.07971937

critic.0.bias f4 [32]
00000000: 47b2 0c3c ce74 8ebe 1c43 48be 9c32 25be
00000010: b0d8 8e3d 068c 48be 3383 433d ad84 943c
00000020: aa15 a63b bda3 57be cc1e 40bd 1e53 61be
00000030: 0540 37be 4f0a b03d 12c4 65bc 3922 9abe
00000040: 9c2f 0b3e 792b 04be f68d d7bc 37d8 753e
00000050: 4aa1 f6bb afcc 38be cceb 1e3e ed71 623e
00000060: ed8c df3d f62c 40bd 9cc5 913c b63f 6abe
00000070: fa34 eebd 0f4a 593e 2f97 633e 6b0b e33d
0.0085874265 -0.2782349 -0.1955685 -0.16132587 0.069749236 -0.19584665 0.047732543 0.018129671
0.0050685005 -0.21058555 -0.04690437 -0.22004363 -0.17895515 0.08595716 -0.014023798 -0.30104235
0.1359238 -0.12907209 -0.02631281 0.2400826 -0.0075265514 -0.1804683 0.15519637 0.22113772
0.10915551 -0.046917878 0.017794423 -0.22875866 -0.11631198 0.21219657 0.2222564 0.11086162

critic.2.weight f4 [1, 32]
00000000: 0cfd 4a3b 3d7e 23be d702 45bd 4058 18bd
00000010: ac71 34ba dc75 8fbd 2ac5 cebb b06b 1b3a
00000020: 8359 5e38 d547 21be 0168 a03b 3ec9 2abe
00000030: 93b0 e53e 3ba1 2dbb 9bbc 7d3b d68e 8ebe
00000040: c741 c23c ddde 2abc e4d9 9f3a c22e 0c3e
00000050: 18f7 c4b9 ac9c 18bd f63f 5d3c 8b5d 123e
00000060: a07a 7d3e f6b2 adba bd4e 1a3b e962 5ebd
00000070: d96f 6fbb a29e 383e c23e 123e b9fe f33a
0.0030973582 -0.15966125 -0.04809841 -0.037193537 -0.00068833935 -0.07004902 -0.006310125 0.00059288274
5.301229e-05 -0.15750058 0.0048952107 -0.1667833 0.44861278 -0.0026493806 0.0038717154 -0.2784335
0.023713006 -0.010429111 0.0012195674 0.13689712 -0.00037568132 -0.03725879 0.013504019 0.14293496
0.24753809 -0.0013252187 0.0023545467 -0.054293547 -0.0036535172 0.18029264 0.14281753 0.0018615342

memory_a.rnn.weight_ih_l0 f4 [256, 47]
00000000: 8a5e 0e3f c335 9abe abb0 0c3c bb10 103e
00000010: b6b8 6bbf 16f5 373e afc4 f7bd 09cc 993d
00000020: d656 653e 35e6 9ebd 5ec2 8fbf 764b 4dbe
00000030: c0e5 07bf 4b88 f73e 8fc9 72be f20c 22be
00000040: a61e 413f 50b1 543e 3589 16be 753b 41be
00000050: 1afc d73c c9f2 3e3c 15fd 90bd 4d5a 7b3d
00000060: 571d cfbe 0f3d 29bf 6d3f 8dbc 183e 903e
00000070: d559 853e a67b 0e3f 6c4a f7be f68b c63e
00000080: d6b9 95bc 56a3 57bd 1cca 81be b121 a23e
00000090: 42e1 59be ed98 5cbe 3ac4 debd fad0 903e
000000a0: 02ff df3d feb9 803e 333c 9e3d 36bf 57be
000000b0: 42e2 b03e 2fec b4be 874d 863c bc1a 413d
000000c0: e15a e6be d857 723d d1c8 7d3d e9b0 373e
000000d0: f880 803d 94df cf3d f7e6 9b3e da6f 60bf
000000e0: 27cc cb3f b2be 4bbf 0f6f 8dbf 614a 283d
000000f0: 8042 acbe ca06 613e 419d 073f b934 343f
00000100: 5ad8 ee3d fcf3 69bf 5f92 1abe 1d61 5e3d
00000110: 1f40 fd3e 828c 9bbf eccc 9dbe 2d97 69be
00000120: c301 0b3e 4b8e 203c 8d54 e83e a91e 8b3e
00000130: 5eb8 0d3e 2d11 74be 32ab c03e f628 513f
00000140: 7415 e4bd fad2 82be 73d1 56bf 03db 0b3d
00000150: df28 d33d 13d9 6b3d 18b5 093f bbb1 f2bd
00000160: f301 e13e ef45 e7be 1557 2bbe eb30 143f
00000170: 4318 b7be 9025 19be fa82 c53e 1e91 e3be
00000180: 20ca 2e3c 19c2 aa3e 5fcf 92be 9880 a9bd
00000190: 16f3 2d3d 7200 bbbd 868d 1abe 19c4 273c
000001a0: cb75 783e 4b5a 603e cf13 3dbe 240f b0be
000001b0: 7fd7 93be 4129 5cbf fd16 643d fc8f 713e
000001c0: cc25 adbe 6b14 503e 3824 cfbe 62e4 8c3f
000001d0: 14b7 233c 7cdf 86bd 2fed 0ebe 86b7 07bf
000001e0: ad4e 07bd 0adf 48bf 5585 9cbe 466d 4cbf
000001f0: 5e85 993e 4725 703f ad5f 053f 2b9a 823f
00000200: d5ff a8bd 5b51 343e 7b86 323d 5104 6e3c
00000210: 3693 8d3c bf64 2c3f 0894 8ebe 8d1c 4c3e
00000220: 5be0 d03e f961 8f3d 43c6 36be be35 a83e
00000230: 57b1 163e 6440 3cbf 9b30 223f b025 b43d
00000240: a501 093f 3e1c a03e cce1 933e 9b4a b5be
00000250: f050 ca3d 4d4f 163f 682a cfbe 7fe4 d6be
00000260: 61e3 2d3e ec72 713e 4268 5c3f 9823 293f
00000270: ca27 21bf 7a37 23bf d0ec dd3e eb21 2bbf
00000280: 60ef 88bc 477e e43d cf11 8bbe 0036 063f
00000290: 8584 84be d541 a2ba 9a98 07bf 69d3 3abf
000002a0: 56ec f5be db3e 9ebd 22b9 d8bd 7004 273f
000002b0: 8ee9 b3be d353 d2bd df5d 14bf 1293 febc
000002c0: 88af eebd 5497 fc3e 1294 b43d ff60 04be
000002d0: 98cd dc3d 6e6e c33e a0cc 383d 03da b83e
000002e0: 01a0 65be 6b14 9d3d 5a33 5f3e bd0b 523d
000002f0: 0021 6e3d 45d6 873e f8ec a83f 4f54 143f
00000300: a09c 48be 5414 953d e360 0fbd 639f 5b3e
00000310: 84fc 683f 3823 2c3f ca2d fb3e dd87 15be
00000320: 11ce 12bf cbf4 453d d44a 8f3d 8714 e6be
00000330: 0867 6a3e cb02 05bf 626c 413f 170a 7a3f
00000340: 5b02 183e dafe 41bf 4b4d 6c3f 3f72 3b3f
00000350: be40 fd3e ed76 8a3e 0957 b5bc 4d87 21bf
00000360: df39 c03e 0225 c0be cef2 f43e 1786 af3d
00000370: 3951 86be c75a 98be ea9e 88be 389a f93e
00000380: cf98 b63d c6c0 f03e e6f7 89be 9192 57be
00000390: e5cb b2be b399 9ebe a59e ce3d 9923 153d
000003a0: 78c1 163e 0202 c8be a8e0 69be 1abc 123f
000003b0: 0591 7c3e 1365 273e 30fc 02bf 9094 91be
000003c0: 4d5c c3be dab2 efbd 153c 963e a0a9 1abf
000003d0: 9a4d 31be f5ff a3be e34b 93bd 83fe c1bd
000003e0: 7695 793d 857a 4f3e eb0d bfbd 61d4 e7be
000003f0: a8ae b33e 927d 8d3e 84a6 0b3f 859b a3be
0.55613005 -0.30119142 0.008587043 0.14068882 -0.9207872 0.17964587 -0.12098061 0.0750962
0.22396407 -0.07758752 -1.1231191 -0.20048317 -0.53084946 0.4834617 -0.23709701 -0.1582525
0.7543739 0.20770764 -0.14700778 -0.18870337 0.026365329 0.011654564 -0.070795216 0.061365414
-0.40452072 -0.66108793 -0.017242158 0.28172374 0.260451 0.5565742 -0.48298967 0.38778657
-0.01827709 -0.052646004 -0.2534951 0.3166633 -0.21277335 -0.21542712 -0.10877271 0.28284436
0.10937311 0.251419 0.07726326 -0.21069035 0.3454762 -0.35336444 0.01639439 0.047144637
-0.4499121 0.059165806 0.06195909 0.1793858 0.06274599 0.10150066 0.3044965 -0.8767067
1.5921677 -0.7958785 -1.1049517 0.04108656 -0.33644485 0.21975246 0.52974325 0.7039295
0.116623595 -0.91387916 -0.15094899 0.054291833 0.49462983 -1.2152255 -0.30820405 -0.22811575
0.13574891 0.00979955 0.45377007 0.2717183 0.13839862 -0.23834677 0.37630612 0.81703126
-0.11136904 -0.25551587 -0.83913344 0.034144413 0.1031053 0.057580065 0.5379195 -0.11850306
0.439468 -0.45170543 -0.16732438 0.5788714 -0.35760698 -0.14955735 0.3857649 -0.44446653
0.010668308 0.3335121 -0.28673837 -0.082764804 0.042468153 -0.09130944 -0.1509305 0.010239624
0.24263684 0.21909444 -0.18464588 -0.3438655 -0.28875348 -0.8600045 0.055685986 0.23590082
-0.338179 0.20320289 -0.4045732 1.1007197 0.00999238 -0.06585595 -0.13957666 -0.5301441
-0.033034015 -0.7846533 -0.30570474 -0.7985424 0.29984564 0.9380688 0.52099115 1.0203298
-0.08251921 0.1760916 0.04358528 0.014527396 0.01728211 0.67341226 -0.27847314 0.19932766
0.4079617 0.07001109 -0.17849068 0.32853502 0.14716087 -0.7353575 0.63355416 0.08796251
0.53518134 0.31271547 0.28883207 -0.35408482 0.09878719 0.58714753 -0.4046204 -0.41971204
0.1698127 0.23578995 0.86096585 0.66069937 -0.6295134 -0.63756526 0.43344736 -0.6684863
-0.016715705 0.11156898 -0.27162024 0.5242615 -0.25882354 -0.0012379239 -0.52967227 -0.72978836
-0.48031873 -0.077268325 -0.10582186 0.65241146 -0.35139126 -0.102698945 -0.57955736 -0.031075988
-0.11654574 0.49334204 0.08817305 -0.12927626 0.107814014 0.3817019 0.04511702 0.3610383
-0.22424318 0.0766991 0.21796933 0.051280726 0.05813694 0.26530662 1.3197317 0.57941145
-0.19590998 0.07279268 -0.035004508 0.2144752 0.9101031 0.6724124 0.49058372 -0.14602609
-0.5734568 0.048329156 0.06996694 -0.44937536 0.22890866 -0.51957387 0.75556004 0.97671646
0.14844649 -0.757795 0.9230544 0.732212 0.49463457 0.27043858 -0.022136228 -0.6309708
0.37544152 -0.37528235 0.47841495 0.085704975 -0.26233843 -0.29756758 -0.26683742 0.48750472
0.08915865 0.47022074 -0.26946944 -0.21052004 -0.34921184 -0.30976638 0.10088853 0.0364109
0.1472224 -0.39064032 -0.22839606 0.5731827 0.24664696 0.1634715 -0.5116606 -0.28433657
-0.38156357 -0.11704035 0.29342714 -0.6041508 -0.17314759 -0.32031217 -0.071922086 -0.094723724
0.060933553 0.20261581 -0.093288265 -0.4527922 0.3509419 0.27634865 0.5455096 -0.3195459

memory_a.rnn.weight_hh_l0 f4 [256, 64]
00000000: a820 2cbc 7748 1f3e b0cc b9be 922b 90be
00000010: 79da 6c3e 22cf bd3c d7c4 ccbe 47fd 193d
00000020: d463 e3be ca3c 0dbf c5f9 643e d105 7fbe
00000030: 1a43 a7be 42d1 0bbf 54aa 44bf caaf be3e
00000040: 0e27 2bbe 207f 9fbe 5f86 00bf f7d3 263e
00000050: dd5d 6dbc bd5f 09be 2e12 943e 786b d8be
00000060: 10fe 1d3f 9017 1abf 7a32 ddbe 9027 fb3e
00000070: 21b0 a73e 0741 913d 3434 063f b701 b43d
00000080: 7fe0 31be f00d 0cbf ef97 f33d 9b2b 67bf
00000090: b674 523d 5164 4fbd deae c4bd 01bd eebe
000000a0: a7b4 833e 58e4 213d 5441 a7bf 358e f139
000000b0: 61ea 143f 6723 edbd ecee 02be e043 b0bd
000000c0: e609 abbe b32a 8b3e cbbf 63bf e1db cfbe
000000d0: 6125 383e a14f 30bf d572 713f 762f 95bf
000000e0: 3a38 c23d 96ee 843e 7660 2f3f fbd3 dabe
000000f0: 9e0e 133d 8f52 debe bfe6 213d 6b59 90be
00000100: 4c39 9c3c e7d0 b83e 94f5 2b3e 7de5 4ebf
00000110: 206c 36bf 4a42 1bbf 6632 7a3f c50b 03bf
00000120: e918 2bbf 77f4 ed3e 938c 10be 7c5e 6b3e
00000130: 0d79 f13d 0334 fd3d 4f4e dabe c71c a1be
00000140: f9d7 663e ebd4 5d3f cb2e a23e d2a0 dabd
00000150: 63d0 36bf f9c5 2fbf 2e5e 1fbe 0699 97be
00000160: 5acd e73e 0617 acbe 7c84 f6be 6c6a 23bf
00000170: 2918 a73e 01d6 04be 423f 333d 89db 183f
00000180: e3d3 25bf 5d38 533e 7676 92be 3aea dcbd
00000190: 90b9 01bf a863 253e 0502 11be 2d58 d1be
000001a0: de78 403e aa4a 74bf 8980 bfbd e944 7abd
000001b0: 2099 5e3f cee0 2e3e 4464 dd3e c5ab 08be
000001c0: c975 3ebe fe3e d7bd 292e a7be 5152 453f
000001d0: 1619 5fbe c627 e5bc 31c9 e5be e637 cf3e
000001e0: a806 9c3e 3260 a83e d5e5 92be 82e9 5fbe
000001f0: 0da1 e1be 84b3 d13d a976 393e dce4 fabe
00000200: b2a5 a33e c8c8 91be 1a55 6b3d d669 c5bd
00000210: 758b f63d c3d5 a9be 414a 87be 1acf 373f
00000220: 777e 13bf a86b 0a3e b7b3 abbe 5df1 023e
00000230: bde8 0e3f 3d1f b2bd 6622 f7be 1041 89be
00000240: 3cf9 14be 4378 a73e 878d c43e 8a94 95be
00000250: 7c6c 18bf 57e5 663f 751a b2bb 853a 1b3e
00000260: 8be8 eebe 0392 443f f434 36be 52cf 98be
00000270: c596 05bf 3ed2 b2be c3cd 193f 8d46 c23d
00000280: 671f 753f e367 cc3d 34a0 ddbe 899b 23be
00000290: 46ea 863f 5dcc f33e e4cb 0abf afb8 7cbe
000002a0: 9511 0dbe 1022 343e d058 d63e 1b86 1a3f
000002b0: fa49 58bf 14d0 233e c722 403d 24c8 a6bd
000002c0: 1de2 9dbd 93a8 e53e 86c8 0ebf 518c 243e
000002d0: 9628 ed3e e90b a6be 864d 9b3d cbc3 debd
000002e0: 66b9 11bf c13c 54bd 6616 2cbe 0eb0 a13e
000002f0: 0f07 0e3f 9b03 fc3d 03c5 2cbf 7edd fb3e
00000300: 04dd 173f b53c 983e 7233 07bc 9ec8 d53d
00000310: 3535 3d3f 5bfe 23bf 2a55 06bd ceb3 623f
00000320: 27b4 45bf b8e6 3cbf aa28 d0bd 345d a8be
00000330: f5cf 2f3e 2d0c 54bf f813 2fbf 8778 823e
00000340: 2470 adbe a8ed ccbd 208c aa3d 46db bc3e
00000350: e985 ea3e 0c91 6abf 46e6 6cbe d54e ecbd
00000360: 2507 b5be 9cee 06bf 10ce 83be ea9e 893e
00000370: 8efe 0ebf 3235 e1bc bff2 e83e 26cd 853d
00000380: ee7f 1cbe b078 29bd b966 6ebf dc56 c4be
00000390: 5cb2 79be 231a 87bd 764e 22bf 9ff6 69bf
000003a0: 11bc 99be 340a 39bf ba60 c83e e674 ef3d
000003b0: f73f ddbe 4879 14bf c9a2 28bf 514e 49bf
000003c0: 3561 b2be c3c7 83bf 39dd 0a3e fb3b 0abf
000003d0: 65ad 283f cc45 bdbc 029a 45be f565 1ebf
000003e0: 4879 6d3c 8854 72bf be44 93bd 286f 043e
000003f0: 0017 d5bd be92 08bf 9c02 5bbe b408 2c3f
-0.010505833 0.15554987 -0.36288977 -0.28158242 0.23130216 0.023170058 -0.39993927 0.03759506
-0.444121 -0.5517088 0.22360905 -0.24904563 -0.32668382 -0.5461618 -0.768224 0.3724349
-0.16714117 -0.31151676 -0.50205034 0.16291796 -0.014487711 -0.13415428 0.2892012 -0.42269492
0.61715794 -0.60192204 -0.43202573 0.4905362 0.32751563 0.07092481 0.52423406 0.087893896
-0.17370795 -0.54708767 0.118942134 -0.9030091 0.051380835 -0.05063278 -0.09603666 -0.46628574
0.25723764 0.039524406 -1.3066812 0.00046073055 0.58170134 -0.11579018 -0.12786454 -0.08606696
-0.3340599 0.27181014 -0.8896453 -0.40597442 0.17983009 -0.68871504 0.94315845 -1.1655109
0.094833806 0.25963277 0.6850656 -0.42739853 0.035902612 -0.43422362 0.039526697 -0.2819322
0.01907029 0.3609688 0.167929 -0.8081892 -0.71258736 -0.60648024 0.9773315 -0.51189834
-0.66834885 0.46475574 -0.14116125 0.22985262 0.11790667 0.12363436 -0.4263787 -0.31467268
0.22543325 0.8665301 0.31676325 -0.10675205 -0.7141172 -0.6866146 -0.1556327 -0.29608935
0.45273858 -0.33611315 -0.48147953 -0.6383426 0.3263562 -0.12972261 0.0437615 0.59709984
-0.6477644 0.2062697 -0.28606004 -0.10786863 -0.5067377 0.16151297 -0.14160927 -0.40887585
0.18796107 -0.9542643 -0.09350688 -0.061100874 0.869524 0.17077944 0.4324056 -0.13346775
-0.18599619 -0.10510062 -0.32652405 0.7707873 -0.21786913 -0.027973067 -0.4488006 0.40472335
0.30473828 0.3288589 -0.28690973 -0.2186642 -0.44068184 0.10239318 0.18111672 -0.4900273
0.31962353 -0.28473496 0.057454206 -0.09639327 0.12038318 -0.331709 -0.2642384 0.71800387
-0.57614845 0.1351763 -0.3353555 0.12787385 0.5582388 -0.086973645 -0.4826843 -0.2680745
-0.145482 0.3270894 0.38389227 -0.2921489 -0.59540534 0.90193695 -0.005435283 0.15159042
-0.4666179 0.76785296 -0.17793638 -0.29845673 -0.5218318 -0.34926027 0.6007959 0.09486113
0.9575104 0.09980752 -0.43286288 -0.159773 1.0540245 0.47616854 -0.5421736 -0.24679826
-0.13776238 0.17591119 0.41864634 0.6036088 -0.8448788 0.15997344 0.046908166 -0.081436425
-0.07709143 0.44855174 -0.55774724 0.16069151 0.46320027 -0.32430962 0.07583146 -0.10877188
-0.5692352 -0.051815752 -0.1680542 0.31579632 0.5547952 0.12305375 -0.67488116 0.49192423
0.5932162 0.29733816 -0.008252012 0.10438655 0.7390931 -0.6405999 -0.032796063 0.8855561
-0.77228016 -0.7378955 -0.10164006 -0.32883608 0.17169173 -0.8283108 -0.68389845 0.2548258
-0.3387462 -0.10006267 0.08327508 0.36886042 0.4580529 -0.91627574 -0.23134717 -0.115384735
-0.35357013 -0.5270784 -0.2574315 0.26879054 -0.5585717 -0.027491186 0.454977 0.065332696
-0.15283176 -0.041374862 -0.9312549 -0.38347518 -0.24384445 -0.06596782 -0.6340097 -0.9139194
-0.30026296 -0.72281194 0.39136297 0.116922185 -0.43212864 -0.5799756 -0.6587339 -0.78635126
-0.34839788 -1.0295337 0.13560952 -0.5399777 0.6588958 -0.02310457 -0.1929703 -0.61874324
0.014494248 -0.94660234 -0.07190846 0.12933028 -0.104047775 -0.5334891 -0.21387714 0.6720078

memory_a.rnn.bias_ih_l0 f4 [256]
00000000: 4862 833d e287 be3d d02f 5bbd 0e16 d9bd
00000010: 4712 93bd b573 3d3e 7292 45be 52bb 59bd
00000020: b5f6 df3c d253 513b f337 5f3e 882a 0fbe
00000030: 488b 3fbe b9fc 98be dab5 92be a5af d3bd
00000040: 3b46 8a3e 3827 89be 3a0e 0bbe 39a4 64bd
00000050: 8671 79be c743 5cbd 05f5 01be 42ce b1bd
00000060: 8563 6abe aaef 1bbe da92 a9be 241c 06be
00000070: c979 efbd 2243 74be 541c 0abc 5729 2c3e
00000080: 3272 eabb 8fdf aabe 3aab abbe a9e4 47be
00000090: ddfe 9a3c c50c 4c3e 27ae 9fbe 6aea 553d
000000a0: 49a4 94be 5af2 3fbe 247b b2be 5703 163e
000000b0: a401 3abe 030b b2be 9901 283e 90ed 22be
000000c0: 0c12 093e a660 04be 8703 08be dc70 433e
000000d0: 54ff cb3c b37b 80be be84 b5be ec76 803d
000000e0: fc5e 773e 40b5 203e d0b5 883e d626 8c3d
000000f0: 75e6 923d 4086 fd3d f10a d3bd 11d1 12be
00000100: 0564 98bd bed0 25be 31ff 62be a5be 7c3e
00000110: 0768 1dbe 8bd7 80be b398 c23e 9218 093e
00000120: 1a39 79be d17d 1bbe 954e dbbe 8ebf 8e3c
00000130: 6896 23be 8ff0 a6be f0a3 07be 86cf 58be
00000140: d2ab 40be 9059 c7bd b92e c5bd 02ef 663d
00000150: a7ab d8bd 6356 853d 9253 a53d 9be1 4ebe
00000160: f447 f2bd 16a1 293e 70a2 55be 0ca5 0838
00000170: dda0 3bbd 2530 aabe 6444 3dbe b276 88be
00000180: 8220 ec3c 2c98 04bd 2def 583c e4ab d23b
00000190: ea7c a2be e113 77be 1a30 68be 7c2d afbe
000001a0: 1dbd 3bbd bffb 883d 5e64 01be e0fe c4bd
000001b0: de94 28be 6b13 b5be 4ddf 9abe f025 36be
000001c0: 29f0 5fbd 907a 4a3d 221e 34bd a1dd 53be
000001d0: 9926 63be b475 cebd f545 503d 0b55 2f3b
000001e0: 6628 3fbd a7ed 97be 1dbd 3fbf 0559 2fbe
000001f0: 291d bebd 3c05 6fbe 9292 7cbd 6217 f1be
00000200: f4da 77bd 6919 08be e4e0 963d 736a f43d
00000210: 5224 06be 4498 b03d 11ea f83c e29c 58be
00000220: 44e5 ea3d 1eba 613e b98b f1bd 9d38 483b
00000230: 90dd d4bd cbac 5b3e 488d ce3d 5a4f 553d
00000240: b970 96bd 4b59 f4bd ed17 a7bd be27 c8bc
00000250: c527 c4bd 67ce 2e3e 9ca5 e3bd c46b 52bc
00000260: 9284 31bb a601 d23d ba6e 1c3e 491d 403d
00000270: 0f56 43be 2f41 2c3e 626e f8bb b3ec 5b3d
00000280: e66c 0e3e f75c dbbc 2c33 873c 8b14 933d
00000290: 684b f03d 5094 bb3d 20e9 9a3d 583d 6c3c
000002a0: d50e 043e 6a88 613e 1e8e 283d 3e62 27bd
000002b0: b646 5e3d 77d5 17bc a206 903d 665d 8d3c
000002c0: ba03 33bc 32d0 073d be54 69bc d7eb 043e
000002d0: 90ca 8dbd 776b f6bc 6689 04bd 34cb 5abd
000002e0: 1ae3 31be 52b8 a93c ca32 003d 6537 efbc
000002f0: 57c2 9abd 590a ca3d 732a ba3b 3f07 da3a
00000300: aef2 463d b745 47bd 2d33 893d 5299 09be
00000310: c902 20be 3e8e 853e 8956 85be 0a86 87bc
00000320: 3424 02be 8b92 c7bd e998 213e 53b3 41be
00000330: 6aef aabe e24c 7fbe 3359 ccbe 44c2 8d3d
00000340: bab9 343d 60e3 a7be e98d 50be 39f5 8bbe
00000350: b15c 89be cef5 e1bc 1189 ac3d b9a2 c1bd
00000360: abae 84bd f26d c73c 5e61 e1bd 454e acbd
00000370: b97a 2dbe f4f6 b2bc 05ed 94bd 29c1 b9bd
00000380: 34d1 a3bc dd94 d5bd cf57 f93d 5a8a bebd
00000390: e9ba 1e3a 896f afbd cfe2 acbe b7be e03d
000003a0: a1a9 14be 3947 1d3e b2fd c9bc 5d8b d53d
000003b0: 0f88 6f3e 2b0e 07be 7435 c9bd 7874 163b
000003c0: b9a3 163e 5cb9 39bd e269 35be 7bc3 3e3c
000003d0: 5a9a 7d3e 6475 063e 9d26 5fbe 25a8 58be
000003e0: d31a 813c 1677 263e d142 94bd 3d99 4d3e
000003f0: 4112 083e 6acd 053e 5a3b 09be 1834 81bd
0.0641523 0.09303261 -0.053512394 -0.1059991 -0.071812205 0.1850117 -0.19294146 -0.05315716
0.027339319 0.003194083 0.21798687 -0.13981068 -0.18705475 -0.29880312 -0.28654367 -0.10336236
0.27006707 -0.26787734 -0.13579646 -0.055820677 -0.24359712 -0.053775575 -0.12691124 -0.08681919
-0.22889526 -0.15228143 -0.3311985 -0.13096672 -0.116931506 -0.23853734 -0.0084296055 0.16812645
-0.0071547264 -0.33373687 -0.33529073 -0.1952082 0.018920356 0.19926746 -0.31187555 0.052225508
-0.2903159 -0.18744794 -0.34859574 0.14649712 -0.18164688 -0.34774026 0.1640686 -0.15910935
0.1338579 -0.12927493 -0.13282596 0.19086021 0.024902023 -0.25094375 -0.35452837 0.062726825
0.24157327 0.15694141 0.26701212 0.06843345 0.071728624 0.12379122 -0.10304821 -0.14337565
-0.07440952 -0.1619291 -0.2216766 0.246821 -0.15371715 -0.25164446 0.38007125 0.13388279
-0.24338189 -0.15184714 -0.4283339 0.017425325 -0.15975344 -0.32605407 -0.13246131 -0.21172914
-0.18815544 -0.097338796 -0.09628052 0.05638028 -0.10579615 0.065106176 0.080725804 -0.20203249
-0.1183013 0.16565356 -0.20862746 3.257864e-05 -0.045807708 -0.33239856 -0.1848312 -0.26653057
0.028824095 -0.032371685 0.013240618 0.0064291824 -0.31735927 -0.24128677 -0.226746 -0.3421439
-0.04583465 0.06688642 -0.12635943 -0.09618926 -0.16463038 -0.35366377 -0.3024849 -0.1778791
-0.054672394 0.04943329 -0.04397405 -0.20690013 -0.22182693 -0.10081044 0.050847966 0.002675357
-0.046669386 -0.29673502 -0.7489794 -0.17123802 -0.092829056 -0.2334184 -0.061663218 -0.47088152
-0.060511544 -0.13290943 0.07367113 0.11934366 -0.13099793 0.08622792 0.030385049 -0.21153596
0.1146951 0.22043654 -0.11794228 0.0030551322 -0.10393822 0.21452634 0.10085541 0.05207763
-0.07345719 -0.11931094 -0.0815886 -0.024433013 -0.09577898 0.17070924 -0.11115572 -0.012843076
-0.0027087075 0.10254221 0.15276614 0.04690293 -0.19075797 0.1682174 -0.007581518 0.05369253
0.13908729 -0.026777728 0.016503893 0.07181653 0.117331326 0.09159148 0.07563996 0.014418922
0.12896283 0.22024694 0.04115116 -0.040865175 0.054266654 -0.009267203 0.07032515 0.01725645
-0.010926181 0.033157535 -0.0142413955 0.12980591 -0.06923401 -0.03008054 -0.032357596 -0.053416446
-0.17371789 0.020717774 0.031298436 -0.029201219 -0.07556599 0.09865255 0.00568133 0.001663424
0.04857128 -0.04865047 0.06699214 -0.13437393 -0.15626062 0.26085085 -0.26042584 -0.016543407
-0.12709123 -0.09744748 0.15780987 -0.18916063 -0.33385783 -0.24931672 -0.39911804 0.06921819
0.044122435 -0.3279066 -0.20366634 -0.27335528 -0.2682853 -0.02758303 0.08424581 -0.09454865
-0.06478628 0.024344418 -0.110048994 -0.08413366 -0.16941346 -0.021846272 -0.072717704 -0.090700455
-0.019997217 -0.10428784 0.12174951 -0.09303732 0.00060550735 -0.085661955 -0.3376679 0.10973876
-0.14517833 0.153592 -0.024657104 0.10426972 0.23391746 -0.13188998 -0.098246485 0.0022957604
0.14710893 -0.045342788 -0.17716172 0.011643286 0.24765912 0.13130718 -0.21792074 -0.21157892
0.015759861 0.16256365 -0.07239307 0.20077987 0.13288213 0.1306664 -0.13401547 -0.06308764

memory_a.rnn.bias_hh_l0 f4 [256]
00000000: d66e fe3b 07b8 c43d d3ad 40bd 5195 1bbe
00000010: 80b9 16be c054 9a3e dfc9 e8bd 1523 8a3d
00000020: 953d d3bc 4dff 3cbd e40c af3e 4f8f 1dbe
00000030: a1fa 04be edac c1be 312a 16be 9807 3dbd
00000040: fa58 603e 3741 0ebe 5e44 44be 1b7b 99bd
00000050: 588d 24be a8cb 7abd 9568 95bd 15ee 6abd
00000060: bce6 1dbe 8b95 4ebe c230 cbbe 7d5e 0fbe
00000070: 2807 58bd 94eb 20be 3c2b 27be 2ea4 183e
00000080: dbe4 f2bd e2e8 0bbe 2e38 97be a8d8 4fbd
00000090: a2a2 34bd 56c4 353d 2d3d 99be f28f 73bd
000000a0: 76be 3bbe ed20 04bc 7775 09bf 373a a53d
000000b0: f1f6 2cbe 4217 f4be 0f9b ec3d e774 4fbe
000000c0: 0672 3d3c 2ac4 82bd c381 c83c 2567 a83d
000000d0: 365d 10bc 9691 5abe ba5e 9abe 6076 563e
000000e0: f757 e43d c363 843d eb58 fe3d 6b74 52bd
000000f0: 62df 153d 592a 013e 515e cebb 69ff 13be
00000100: 7486 3bbe fc23 ecbd 867f 2ebe e7c8 353e
00000110: fd04 463d d01c 9dbc 3919 b33e 5adf 29bd
00000120: c3e0 ecbd fe1d a6bd 3cfd 5dbe 963e 533d
00000130: 0acd b9be c918 0cbf e8cd 163d 35f8 8fbe
00000140: 556a 93be a856 e0bd 9144 e5bd 272a 993c
00000150: edd6 1bbe 5d17 d53a 9911 2d3e b613 81bd
00000160: b423 e43c 017f 593e ff04 8bbe 1ca4 583b
00000170: 0f81 c83c 9bca abbe 1628 0cbe 3e6d 0fbd
00000180: 05f0 76bc 4f8b 27be 5bdd 1f3d 44de 13be
00000190: be96 4dbe e7c2 88be 26f0 b4be 919e 7cbe
000001a0: d50a 503d 6ac3 083e 03f5 0bbe 8452 193d
000001b0: 22f4 08be cdcd 94be c7ee 7cbe 4245 a3be
000001c0: 8290 4bbd da5c b2bd 922e cdbd 210a 7dbe
000001d0: 6ad0 91be b879 b3bd d1b3 573e 1174 63be
000001e0: 63d2 88bb b316 66be 6119 04bf abbd 77be
000001f0: 5ea5 b3bd 9169 64be 3a5b c3bc d2d8 00bf
00000200: 7c97 99bc e292 aa3d 0215 0a3d 3620 c23d
00000210: 2109 8e3d 8d62 e9bd 8a78 ca3d d015 b9bd
00000220: 50ec 86bd 1cf6 7e3d 2d51 84bd bfde e6bd
00000230: c4cf 8a3d 9299 cb3d 39f8 8abc 0843 1cbe
00000240: 500b c0bc 5680 11bd 0eb8 223c a786 a1bd
00000250: c6ab 39bd ffde dc3d b604 213d 5655 793d
00000260: 692e 273a 14ad 1dbd 673b 15bd 465c 683d
00000270: 0c6e 97bd 27a0 513e 0b5d eebd 4720 16bd
00000280: ecfa 54bd 858a 29bd eeb9 a7bc 53d0 d6bd
00000290: 2075 73bb 57ed 8b3d 3350 003d 3158 9cbc
000002a0: d7c5 603b 410f 703e 89c5 1d3e 6ce3 49bd
000002b0: 8ec6 943d 7d5e b3bc e0ca 923d 7fbd c9b9
000002c0: bcc3 523d 7fda e6bb 8844 a9bd 7058 c93c
000002d0: b02c 8ebd 4644 163e 4d3f 2fbe c718 90bd
000002e0: 1a4d 7cbd 0047 183d a883 233e 1022 b13d
000002f0: ca58 173d 9230 e1bd 47ec a1bd bddd 2b3e
00000300: 6cc7 4c3e dbff dabb df17 f23d 685b fcbd
00000310: 308a b7bd 1f7f 863e 7db6 24be e225 43bd
00000320: 6e2e 2abe 9c52 a9bd a7e8 743e 98a4 2cbe
00000330: b66f 27be ce12 c2be a6c9 9abe 0d51 16bd
00000340: 7b38 993c bdc4 a9be e586 8fbd c318 98bd
00000350: 4f32 80bd 2480 21be 839f 313d 3677 89be
00000360: 7063 cbbd 88bb 0dbe 1439 5dbe 8212 17be
00000370: d424 67be e0ce acbc 64b9 00be ab55 14be
00000380: 0340 2e3e 82d9 28be 3c84 913c 7566 b23c
00000390: 94f8 263c 88b3 59bd a19b f8bd b708 bb3d
000003a0: 9b48 1cbe ea8d 133e 7aa5 6dbe f69f 9d3d
000003b0: e439 733e 140d b939 db34 fa3c adf8 f83d
000003c0: e13a e43d 2938 f9bd c202 f23b 1dd1 54bd
000003d0: 5e31 613e 9097 683e 9890 50be 73b1 71be
000003e0: 16cf e0bd 247e a93d 30f5 29be 5485 9b3d
000003f0: 9120 003e bb85 403e 6354 f6bd 311c 08bd
0.0077646775 0.09605413 -0.04704077 -0.15193678 -0.147192 0.30142784 -0.11366629 0.067449726
-0.0257862 -0.04614191 0.34189522 -0.15386699 -0.12986232 -0.37827244 -0.14664532 -0.04614982
0.21908942 -0.13892065 -0.19166705 -0.07494184 -0.16069543 -0.061229378 -0.07295338 -0.05735596
-0.1542005 -0.20174234 -0.39685637 -0.14000888 -0.0527412 -0.15714866 -0.16325086 0.1490638
-0.11860057 -0.13663056 -0.2953505 -0.05074373 -0.04410041 0.044376694 -0.29929486 -0.05946345
-0.18334374 -0.008064491 -0.5369486 0.08067744 -0.16891076 -0.47673994 0.115530126 -0.20259438
0.01156283 -0.063850716 0.024475938 0.08222798 -0.008811286 -0.21344599 -0.30150396 0.20943594
0.111495905 0.064643405 0.124193035 -0.051380556 0.036589988 0.1261381 -0.0062978645 -0.144529
-0.18313009 -0.11530301 -0.17040834 0.1775242 0.0483446 -0.019178778 0.3498018 -0.04147277
-0.115663074 -0.08111189 -0.21678632 0.05157336 -0.36289245 -0.5472532 0.03681746 -0.28119054
-0.28792062 -0.10954028 -0.11194719 0.018696858 -0.15218706 0.0016257573 0.16901244 -0.06302588
0.027849056 0.21239854 -0.2715225 0.0033056801 0.024475602 -0.33553013 -0.13687167 -0.03501629
-0.015071874 -0.16361736 0.03902946 -0.14440256 -0.20077035 -0.267112 -0.3533947 -0.24669863
0.05079158 0.13355795 -0.13667683 0.03743221 -0.1337438 -0.29063264 -0.24700461 -0.31888777
-0.04969836 -0.08709116 -0.10018648 -0.24710895 -0.2847932 -0.087634504 0.21064688 -0.22212245
-0.0041754707 -0.22469597 -0.51601225 -0.24193446 -0.08771776 -0.22305895 -0.023847211 -0.5033084
-0.018748991 0.08328797 0.03371144 0.094788 0.06935335 -0.1139575 0.09886272 -0.090373635
-0.06588042 0.062246427 -0.064607956 -0.11272954 0.067779094 0.099414006 -0.016964065 -0.15259945
-0.023442894 -0.03552278 0.009931577 -0.07887011 -0.04532983 0.10784721 0.039311133 0.0608724
0.000637746 -0.03849514 -0.036433604 0.056728624 -0.07394037 0.2047125 -0.1163884 -0.036651876
-0.05199711 -0.04139187 -0.0204744 -0.104889534 -0.003714867 0.06832378 0.031326484 -0.019085022
0.003429761 0.23443319 0.15407385 -0.049289152 0.07264434 -0.021895641 0.071676016 -0.00038478893
0.051456198 -0.0070450897 -0.082650244 0.024578303 -0.06942117 0.14674482 -0.17113991 -0.07035976
-0.061596967 0.037177086 0.15968192 0.08649075 0.03694991 -0.10995592 -0.079063945 0.16783805
0.19997948 -0.0066833324 0.11820959 -0.12322122 -0.08961904 0.2626886 -0.16085239 -0.04764355
-0.16619274 -0.082677096 0.23916875 -0.16859663 -0.16351208 -0.37904972 -0.3023197 -0.03669839
0.01870369 -0.33157912 -0.07008151 -0.07426598 -0.062595956 -0.15771538 0.043365013 -0.26848763
-0.099310756 -0.13841069 -0.21603805 -0.14753154 -0.22572643 -0.02109474 -0.12570721 -0.14485805
0.17016606 -0.16489223 0.01776325 0.021777371 0.010191102 -0.05314973 -0.12139059 0.091325216
-0.15262072 0.14409605 -0.23207656 0.07696526 0.23752552 0.00035295694 0.030542782 0.12156806
0.11144043 -0.12168915 0.0073855827 -0.05195724 0.21991488 0.22714067 -0.20367658 -0.23602848
-0.109769985 0.082760125 -0.16597438 0.0759379 0.12512423 0.18801014 -0.12027814 -0.03323001
