logs/g1/Apr19_03-18-51_/model_0.pt (torch, 777052 bytes, 48 tensors)

std f4 [12]
0.79712164 0.80001056 0.7968282 0.79117286 0.7988264 0.80285054 0.79696184 0.796797
0.7947514 0.7937912 0.8056466 0.79948497
00000000: 2a10 4c3f 7ecd 4c3f effc 4b3f 4e8a 4a3f
00000010: e37f 4c3f 9d87 4d3f b105 4c3f e3fa 4b3f
00000020: d474 4b3f e635 4b3f db3e 4e3f 0cab 4c3f

actor.0.weight f4 [32, 64]
-0.093714766 -0.05675654 0.014898455 0.05040167 0.04379792 0.034652308 -0.090133935 -0.09917608
0.10511616 -0.0867694 -0.040548246 0.07973417 0.09098576 0.08285542 -0.034216356 0.07038702
0.050437078 -0.08610941 -0.078618415 0.013392122 0.09720088 -0.06291748 0.036528725 0.087223254
0.071293235 0.05079454 -0.048889015 0.08055133 -0.1228461 0.010955215 0.001974886 -0.048025683
0.1302382 -0.12193775 -0.077114314 0.10297286 -0.033455517 0.021586956 0.014375589 0.101662554
0.0007235493 -0.029378546 -0.04184475 -0.042900637 -0.08311922 0.06567803 -0.0072046164 -0.07229322
-0.03460567 -0.03135989 0.04740737 -0.071483314 0.11915635 -0.1210014 0.11181775 0.0063003963
0.048651073 0.04362374 -0.10467021 -0.111024275 0.018295132 -0.03619582 -0.057326898 -0.05569396
-0.07887407 0.061013956 -0.09722355 -0.04455256 0.06291375 0.047279228 -0.031313736 -0.123646535
0.058754425 0.109084345 -0.07344912 0.11043978 -0.06396191 0.078279376 0.0654131 -0.1063184
0.01220026 -0.052923586 -0.037316687 0.0030591546 -0.07643515 0.031539444 0.086391784 -0.03774496
0.040627427 -0.10548654 -0.0047048638 -0.05314859 -0.0016640323 -0.033937152 -0.09500483 -0.05224067
-0.096032925 -0.054844614 -0.048457924 0.13652667 -0.059640728 -0.0067553865 -0.04243656 -0.103332356
0.033685718 -0.104122035 0.04184664 -0.053847168 0.059951875 0.07977015 0.10279903 0.12723608
-0.025606623 -0.13298362 -0.04620884 -0.13623878 0.024396433 -0.12851024 -0.020288222 0.106916174
-0.0029913986 0.004096133 0.12444246 -0.05208169 -0.11145137 0.07000818 0.058005773 -0.008387429
-0.10222545 0.02858529 0.043171685 -0.08891347 -0.048390765 -0.0030072483 0.08673055 0.009703537
0.116030715 0.12286957 0.027662992 -0.06453904 -0.048249073 -0.026607983 0.0040997528 -0.06125054
-0.13778499 -0.018849593 -0.09309853 0.04975622 -0.070580825 -0.048247248 0.051302776 0.017901821
0.0052484805 0.06635921 -0.08413541 0.03620483 -0.0036647434 -0.116341196 0.03670087 -0.06554071
-0.037337318 -0.06539474 -0.106010996 0.08245565 0.07643597 0.013176571 -0.08704019 0.11749873
-0.04215863 -0.07389761 -0.08601659 0.0116067035 -0.06849275 -0.033224825 -0.118079126 -0.02586078
-0.112833485 -0.09000378 -0.10731134 -0.056680553 0.10165863 -0.051981047 -0.0769134 0.122564524
0.015416604 -0.09525953 -0.09526361 0.009440855 -0.078682184 0.043300454 -0.11292846 -0.122937694
0.07634956 -0.003027483 0.032077756 -0.012205295 -0.089053325 0.078280166 -0.031785764 0.10107334
-0.05530182 -0.028471878 -0.026616512 -0.06153494 0.01914182 0.037918158 -0.062024698 -0.098851144
0.12417675 0.0068439115 0.013013523 -0.07127637 0.09121757 0.1059862 0.01569631 0.13404664
0.054761536 0.12006951 -0.047130335 -0.04396268 -0.030607045 -0.0653017 0.07168282 -0.07949695
0.03362145 0.07219983 -0.03406029 0.114323445 -0.061899427 0.05893251 0.086430766 -0.07044147
-0.012445811 0.09068071 -0.11289293 -0.069121584 -0.12720808 0.093220666 0.08391037 0.01908503
0.025848133 -0.12262531 0.059527747 -0.058063902 0.06887646 -0.10650089 -0.0805457 0.07557576
0.03462719 -0.041749004 -0.07479828 -0.10517231 0.088458605 -0.046616223 0.023151927 0.07714402
00000000: 87ed bfbd 8c79 68bd a618 743c fb71 4e3d
00000010: 7365 333d 94ef 0d3d 2498 b8bd d41c cbbd
00000020: 2447 d73d 28b4 b1bd eb15 26bd ab4b a33d
00000030: be56 ba3d 1ab0 a93d 7326 0cbd 1227 903d
00000040: 1c97 4e3d 215a b0bd b102 a1bd a26a 5b3c
00000050: 4111 c73d e1da 80bd 259f 153d 1ba2 b23d
00000060: 3002 923d f00d 503d d93f 48bd 18f8 a43d
00000070: bc96 fbbd 817d 333c 176d 013b 94b6 44bd
00000080: 2a5d 053e 80ba f9bd 1cee 9dbd 6fe3 d23d
00000090: a708 09bd 21d7 b03c 9787 6b3c 7534 d03d
000000a0: 92ac 3d3a 47ab f0bc 6765 2bbd 94b8 2fbd
000000b0: 693a aabd 3482 863d b414 ecbb 780e 94bd
000000c0: adbe 0dbd 3a73 00bd 3b2e 423d d865 92bd
000000d0: 3f08 f43d 95cf f7bd b400 e53d 8e73 ce3b
000000e0: 5946 473d cfae 323d 565d d6bd b260 e3bd
000000f0: acdf 953c 1142 14bd 9ccf 6abd 5a1f 64bd
00000100: ba88 a1bd c5e9 793d 241d c7bd bf7c 36bd
00000110: edd8 803d dda7 413d d542 00bd 653a fdbd
00000120: 7ba8 703d 9d67 df3d 7e6c 96bd 402e e23d
00000130: 76fe 82bd f050 a03d 4ef7 853d 76bd d9bd
00000140: 99e3 473c 67c6 58bd 62d9 18bd 197c 483b
00000150: 088a 9cbd 812f 013d 2dee b03d 769a 1abd
00000160: f268 263d 5409 d8bd 422b 9abb 56b2 59bd
00000170: a91b daba af01 0bbd e491 c2bd 50fa 55bd
00000180: e9ac c4bd bfa4 60bd d17b 46bd a6cd 0b3e
00000190: d649 74bd 4a5c ddbb f5d1 2dbd ea9f d3bd
000001a0: 09fa 093d ef3d d5bd 6267 2b3d d98e 5cbd
000001b0: 1990 753d 885e a33d 4c88 d23d 2d4a 023e
000001c0: fbc4 d1bc dc2c 08be 7b45 3dbd 2e82 0bbe
000001d0: 07db c73c 3098 03be 7c33 a6bc def6 da3d
000001e0: 570b 44bb db38 863b b0db fe3d 9c53 55bd
000001f0: 9e40 e4bd 7360 8f3d 7697 6d3d 6d6b 09bc
00000200: 945b d1bd b32b ea3c cbd4 303d 4418 b6bd
00000210: 6535 46bd 4115 45bb c99f b13d 96fb 1e3c
00000220: 83a1 ed3d 0ba3 fb3d 809d e23c 0b2d 84bd
00000230: d2a0 45bd fcf8 d9bc 3857 863b d9e1 7abd
00000240: 8217 0dbe 766a 9abc 71aa bebd 2ecd 4b3d
00000250: ae8c 90bd e89e 45bd dc22 523d d7a6 923c
00000260: 72fb ab3b 56e7 873d 304f acbd 844b 143d
00000270: 312c 70bb 4b44 eebd a753 163d 353a 86bd
00000280: 04ef 18bd aded 85bd 4b1c d9bd 82de a83d
00000290: 768a 9c3d 8be2 573c 2142 b2bd 2da3 f03d
000002a0: 87ae 2cbd a157 97bd 7729 b0bd 0b2a 3e3c
000002b0: ed45 8cbd c116 08bd 78d3 f1bd fdd9 d3bc
000002c0: 3e15 e7bd e753 b8bd 0cc6 dbbd de29 68bd
000002d0: 6632 d03d 14ea 54bd c684 9dbd 1c03 fb3d
000002e0: ec95 7c3c 6e17 c3bd 9119 c3bd d1ad 1a3c
000002f0: 2024 a1bd d15b 313d 0947 e7bd c2c6 fbbd
00000300: 285d 9c3d bc68 46bb f763 033d b8f8 47bc
00000310: 9761 b6bd 5a51 a03d ca31 02bd 8aff ce3d
00000320: 2984 62bd db3d e9bc df0a dabc 100c 7cbd
00000330: 4ecf 9c3c 1250 1b3d 9c0d 7ebd 7872 cabd
00000340: 6150 fe3d e442 e03b ac36 553c 58f9 91bd
00000350: 47d0 ba3d 4b0f d93d 8c95 803c 8643 093e
00000360: a24d 603d 01e7 f53d bd0b 41bd 3612 34bd
00000370: a0bb fabc e6bc 85bd 71ce 923d 4ccf a2bd
00000380: a5b6 093d 81dd 933d cd82 0bbd 6922 ea3d
00000390: 418a 7dbd 3763 713d 9d02 b13d 9e43 90bd
000003a0: 84e9 4bbc cfb6 b93d 6934 e7bd 9e8f 8dbd
000003b0: d642 02be 7aea be3d 33d9 ab3d 3558 9c3c
000003c0: 77bf d33c fb22 fbbd 5ed3 733d 6ad4 6dbd
000003d0: 1a0f 8d3d 231d dabd 25f5 a4bd 77c7 9a3d
000003e0: 3ed5 0d3d 0101 2bbd d72f 99bd 9464 d7bd
000003f0: c929 b53d a7f0 3ebd 1ca9 bd3c affd 9d3d

actor.0.bias f4 [32]
-0.042653065 -0.099768355 -0.09673917 0.018126912 -0.08964917 0.06927021 -0.015318829 -0.026651865
-0.096056 0.05179014 -0.06955388 0.084400654 -0.007010396 -0.09221986 0.09942944 0.09820683
-0.10467684 -0.075968325 -0.049814653 -0.09073671 0.016201448 -0.08746231 0.06816303 -0.098095894
-0.10734067 0.0057468596 0.0015796084 0.022418963 -0.09967468 0.11396875 -0.09578401 0.09566917
00000000: fbb4 2ebd 5a53 ccbd 301f c6bd e47e 943c
00000010: fc99 b7bd 8add 8d3d d3fb 7abc 0355 dabc
00000020: 02b9 c4bd e621 543d 4472 8ebd 40da ac3d
00000030: 77b7 e5bb c4dd bcbd aaa1 cb3d aa20 c93d
00000040: d060 d6bd 4895 9bbd 730a 4cbd 2bd4 b9bd
00000050: e6b8 843c 711f b3bd 0f99 8b3d 80e6 c8bd
00000060: 6dd5 dbbd 2750 bc3b dd0a cf3a f9a7 b73c
00000070: 3d22 ccbd 7368 e93d 682a c4bd 33ee c33d

actor.2.weight f4 [12, 32]
0.15226725 0.042521503 0.03748857 -0.109038524 0.055106673 0.14264476 -0.14769895 0.15107718
-0.081753254 0.048184335 0.08298718 0.010312832 -0.10295867 -0.10537119 0.010353521 -0.097453795
-0.13479275 -0.16719538 0.17158228 -0.16222154 -0.1323538 0.06721964 0.106807165 0.1614989
0.06496827 0.15026422 -0.096331894 0.06727415 0.017793572 -0.1594352 0.15016082 0.05768954
0.0729199 0.092517704 0.054146886 -0.09459966 0.10655109 0.0052369847 -0.0822656 0.09935374
-0.008147613 0.035866193 0.11191825 0.13934621 0.0073959185 0.0036929054 0.01598914 0.087086506
0.06446227 0.11923768 -0.05931777 -0.0849625 -0.061587013 0.09432954 0.14709595 -0.08239261
0.0849038 0.16427112 0.12805769 0.011006173 -0.035872858 0.17856672 0.05583461 -0.064088084
0.03215875 -0.1050041 -0.101632014 0.15435757 0.08645045 -0.12713715 -0.029167196 -0.003653302
-0.08321091 -0.09246834 0.10592075 0.11533393 -0.07019899 -0.17315456 0.13790318 -0.105016656
-0.013489996 -0.0917042 -0.07016611 0.11636795 0.13787992 -0.08667736 0.13852052 -0.10695634
-0.14803337 0.05559979 -0.0022430492 0.093249075 0.13242033 -0.06904729 0.03498098 0.06318537
0.00213161 -0.035567444 0.042173695 -0.15515116 -0.013734971 -0.10633129 -0.17250106 0.1515357
-0.12036802 -0.07299245 0.14137541 -0.10197609 -0.023200512 0.14383295 0.08123864 0.09039652
0.04972163 -0.015957851 0.1276159 0.14793293 -0.039955538 -0.06662729 -0.06702563 0.01680309
-0.13904446 -0.15068886 -0.15854932 0.079428576 0.027226815 0.08115772 -0.011924829 -0.10349711
0.036506746 -0.023219923 -0.056572985 0.11263503 -0.069288336 0.018310433 -0.08846401 -0.010565829
0.009225958 -0.10073064 0.07354751 -0.029648416 -0.11689061 0.11756461 -0.079640895 0.1649761
-0.03634311 0.15803453 -0.12886497 -0.056010727 0.1575196 -0.025722224 -0.07081443 0.057257436
-0.12725314 0.102718405 -0.057048127 0.13319546 0.12193057 0.15167175 -0.034563214 -0.032347966
-0.0037336443 0.09151001 -0.16991833 0.09921753 0.14880952 -0.07670674 0.13167106 0.13532564
0.08987438 0.005236641 0.14233103 0.06699686 -0.019416362 0.14264679 -0.15056114 -0.07185323
-0.15981983 0.10883853 0.12829661 0.17261653 -0.16995755 0.056071322 -0.09254198 -0.07850257
-0.10552494 -0.17668174 -0.050378557 0.0836885 0.012846113 -0.08626585 -0.020106902 -0.097919956
-0.083609074 0.14379264 -0.14025123 0.0708955 -0.1592284 0.0018861858 0.05541615 -0.011596728
0.1380099 0.05173347 -0.038126223 -0.14639442 -0.11289093 0.08435034 0.11918784 0.12776718
-0.04891198 -0.12714064 0.14826165 -0.15445109 0.05562644 0.08509115 0.07299858 0.13870776
0.0014834924 -0.1412736 -0.024418747 0.024958469 -0.040815156 0.07348659 0.07795599 -0.07159987
-0.038033996 -0.052507333 -0.06886562 -0.14915875 -0.061184436 -0.021950334 -0.14565422 -0.13207307
0.15241142 0.10838823 -0.1358412 -0.11654101 0.06060404 0.045576453 -0.12032719 -0.025458572
-0.13193475 -0.0017456285 -0.11480057 -0.024983123 -0.010033408 -0.10271525 0.15383717 -0.024458634
0.09788803 0.036492076 -0.07421399 0.104835995 -0.009077283 -0.083498344 -0.016178437 -0.13982591
00000000: f2eb 1b3e 072b 2e3d 9d8d 193d 974f dfbd
00000010: 89b7 613d 7811 123e 653e 17be fab3 1a3e
00000020: 406e a7bd f05c 453d 2ff5 a93d 27f7 283c
00000030: ffdb d2bd dacc d7bd d1a1 293c db95 c7bd
00000040: 1c07 0abe 4435 2bbe 44b3 2f3e 671d 26be
00000050: c187 07be 73aa 893d b7bd da3d f85f 253e
00000060: 160e 853d ddde 193e a849 c5bd 08c7 893d
00000070: d3c3 913c fb42 23be c2c3 193e de4b 6c3d
00000080: 0757 953d ec79 bd3d 20c9 5d3d 77bd c1bd
00000090: 7537 da3d 039b ab3b de7a a8bd f979 cb3d
000000a0: 917d 05bc 6ee8 123d 6535 e53d c6b0 0e3e
000000b0: 7659 f23b ac04 723b a8fb 823c 695a b23d
000000c0: cb04 843d e332 f43d 31f7 72bd d200 aebd
000000d0: aa42 7cbd d92f c13d 52a0 163e 75bd a8bd
000000e0: 0be2 ad3d b036 283e 8e21 033e 3c53 343c
000000f0: 6bef 12bd 32da 363e d5b2 643d 9d40 83bd
00000100: e5b8 033d 640c d7bd 7224 d0bd e90f 1e3e
00000110: ef0c b13d 3e30 02be 0bf0 eebc 3d6c 6fbb
00000120: 7b6a aabd 0b60 bdbd faec d83d 3234 ec3d
00000130: 7dc4 8fbd 6e4f 31be 7e36 0d3e f912 d7bd
00000140: 2505 5dbc 69cf bbbd 40b3 8fbd 5252 ee3d
00000150: 6530 0d3e e683 b1bd 53d8 0d3e ed0b dbbd
00000160: 0f96 17be 9bbc 633d 1f00 13bb 5ff9 be3d
00000170: 3299 073e aa68 8dbd 3748 0f3d 5567 813d
00000180: 7bb2 0b3b 2baf 11bd 53be 2c3d f2df 1ebe
00000190: a508 61bc 38c4 d9bd 1ea4 30be 2d2c 1b3e
000001a0: 8283 f6bd 117d 95bd b7c4 103e d7d8 d0bd
000001b0: 000f bebc f248 133e 7260 a63d d021 b93d
000001c0: e8a8 4b3d 0aba 82bc bead 023e bb7b 173e
000001d0: 6ba8 23bd e373 88bd bc44 89bd a2a6 893c
000001e0: ac61 0ebe 2e4e 1abe c15a 22be 73ab a23d
000001f0: c50a df3c 0536 a63d 5c60 43bc 4bf6 d3bd
00000200: 1988 153d b537 bebc 13b9 67bd 32ad e63d
00000210: 0be7 8dbd c3ff 953c 9e2c b5bd 4d1c 2dbc
00000220: 7928 173c de4b cebd 14a0 963d 3ce1 f2bc
00000230: 5864 efbd b7c5 f03d c41a a3bd 7fef 283e
00000240: 83dc 14bd ced3 213e 2ef5 03be 816b 65bd
00000250: d14c 213e 6ab7 d2bc 2807 91bd c686 6a3d
00000260: a64e 02be 075e d23d 4cab 69bd 6464 083e
00000270: bcb6 f93d d74f 1b3e 2892 0dbd 4d7f 04bd
00000280: 28b0 74bb 9a69 bb3d 12ff 2dbe 8f32 cb3d
00000290: 8661 183e 6c18 9dbd c7d4 063e ce92 0a3e
000002a0: 0f10 b83d 2198 ab3b 3abf 113e a635 893d
000002b0: 100f 9fbc 0012 123e b32c 1abe c927 93bd
000002c0: cfa7 23be bce6 de3d 3060 033e 63c2 303e
000002d0: 5a09 2ebe 0bab 653d a686 bdbd f5c5 a0bd
000002e0: 761d d8bd 0fec 34be bf59 4ebd e064 ab3d
000002f0: 8178 523c 26ac b0bd 3bb7 a4bc 428a c8bd
00000300: 3c3b abbd 613e 133e 059e 0fbe a931 913d
00000310: c50c 23be e539 f73a 0bfc 623d 3400 3ebc
00000320: 7852 0d3e 7ae6 533d 3e2a 1cbd 6be8 15be
00000330: 5c33 e7bd dfbf ac3d c118 f43d 66d5 023e
00000340: ee57 48bd 2831 02be e7d1 173e 6d28 1ebe
00000350: 8dd8 633d 4544 ae3d 4880 953d 6809 0e3e
00000360: bf71 c23a 07aa 10be d309 c8bc b475 cc3c
00000370: cb2d 27bd 2380 963d 64a7 9f3d f4a2 92bd
00000380: 89c9 1bbd ee11 57bd 6b09 8dbd 12bd 18be
00000390: 889c 7abd 30d1 b3bc 6126 15be 2a3e 07be
000003a0: bd11 1c3e a6fa dd3d f519 0bbe 0ead eebd
000003b0: f13b 783d 60ae 3a3d 1a6e f6bd 7f8e d0bc
000003c0: e719 07be 93cd e4ba 901c ebbd 68a9 ccbc
000003d0: 2a63 24bc 5f5c d2bd 7e87 1d3e 795d c8bc
000003e0: 8579 c83d b778 153d 81fd 97bd 41b4 d63d
000003f0: e2b8 14bc 2e01 abbd a488 84bc 862e 0fbe

actor.2.bias f4 [12]
0.07339859 -0.035459336 0.0521598 -0.100352205 0.12588316 -0.085510775 -0.16877566 0.039715677
0.06312488 -0.09545825 -0.05292772 0.14674284
00000000: 0052 963d cf3d 11bd 84a5 553d 7585 cdbd
00000010: 84e7 003e 4620 afbd 87d3 2cbe e8ac 223d
00000020: 9e47 813d 9d7f c3bd bdca 58bd c143 163e

critic.0.weight f4 [32, 64]
-0.020761454 0.0714906 0.114895985 0.0646052 0.078805074 -0.09865897 -0.058608286 -0.020615831
-0.022795644 -0.009774447 0.081113875 -0.11577127 0.078460105 0.1028272 0.07512983 0.09025869
0.09990931 -0.023968987 -0.043086648 -0.09355212 0.08869002 0.023884928 0.0017925187 -0.06594067
0.018115552 -0.081112154 -0.12241676 -0.043971334 0.035404183 -0.1123216 0.105939105 0.029025113
-0.05075164 0.0047241645 -0.040982664 0.089220054 -0.09381665 0.09595091 -0.05953113 0.10762949
-0.081325375 -0.099214606 -0.053201932 -0.009643749 -0.052255064 -0.109785244 -0.10554146 0.1263899
-0.12160481 0.020769218 -0.11035849 0.11337507 -0.08342355 0.11370104 0.088697575 -0.106799394
-0.055656698 -0.059028063 0.066636145 -0.019596614 0.021754246 -0.060489327 -0.03141632 0.089904696
-0.103836894 0.006698976 0.053148005 -0.020464672 0.042265978 -0.051608607 -0.08322944 0.08626817
-0.0044140466 0.06265211 -0.08666332 -0.12955464 -0.05343334 0.123172395 0.09324366 0.104073815
-0.1201393 0.08123185 -0.07245393 0.07767974 -0.025747955 0.118101105 -0.0764554 -0.083455436
-0.053963676 0.005672698 -0.016079113 0.08866452 0.08430661 -0.029810969 0.045827862 0.062160816
0.03576733 -0.008270749 -0.07393937 0.08207829 0.115007214 -0.0559717 0.09799383 -0.008724974
0.020986093 -0.022513177 0.0051635695 0.015040676 -0.0641982 0.03485553 0.052822918 0.08249076
0.07881156 -0.048509233 -0.12532347 0.018983975 -0.017405696 0.10761059 0.11903707 0.09079462
0.11238174 0.034004275 0.015410795 -0.09726466 -0.022786934 0.037054308 -0.122388065 0.071644634
0.0621227 -0.100770816 0.020982923 0.057829954 0.1132078 0.042389568 -0.06950624 0.079862736
-0.10115098 -0.056721404 0.025108427 -0.06547861 0.075270355 0.059919555 -0.04575381 -0.117052495
-0.10574169 0.011123668 0.013887316 0.011320454 -0.105163254 0.055025566 -0.10083498 0.021057475
-0.025115537 -0.06448682 -0.04870609 -0.03169845 -0.030433403 -0.059179988 -0.10721395 -0.07825651
0.038029596 0.07649896 -0.091927774 -0.07878177 -0.046381216 -0.031908166 -0.0009012938 0.043136917
0.085186355 -0.01780296 -0.080099046 -0.0833908 0.036659412 0.018205823 -0.059545245 -0.011790168
0.10782013 0.11173992 -0.017190842 0.086418964 -1.3333421e-05 -0.088442765 0.030112775 -0.0065545626
0.014876952 -0.07536566 0.0028468585 -0.0853256 0.1146795 -0.08722615 -0.11067716 0.048310872
0.0021643518 -0.02636224 0.06492164 0.09035858 0.106874615 -9.749622e-05 -0.02283356 0.07503726
0.11620659 -0.02039202 -0.026088664 -0.015891777 0.020305675 -0.07191568 0.121562004 -0.013976593
0.05131738 0.11448368 0.06010252 -0.049224257 0.107486345 0.036936574 -0.052387975 0.10442483
-0.11124104 0.06552773 -0.08644711 0.09906882 -0.11141782 -0.038319923 0.09862599 0.035075143
-0.13022892 -0.11556917 -0.0943555 0.07008431 -0.103949815 0.0019874228 -0.07750227 0.099109605
0.07693048 -0.04687593 -0.046079732 -0.06866904 -0.054543342 -0.056896985 -0.019349726 0.07301523
-0.10084479 0.04235056 -0.12409508 -0.04644922 -0.058937848 0.06667461 0.047466677 -0.04275839
-0.10876591 -0.068727314 -0.124988124 0.0023356134 0.06716762 -0.015499848 0.0671645 -0.043372408
00000000: ed13 aabc aa69 923d 964e eb3d bb4f 843d
00000010: 8e64 a13d b70d cabd 3e0f 70bd 88e2 a8bc
00000020: eebd babc 0125 20bc 081f a63d 7d19 edbd
00000030: b1af a03d 1197 d23d abdd 993d 8cd9 b83d
00000040: 419d cc3d 9c5a c4bc a07b 30bd 4198 bfbd
00000050: 1da3 b53d 53aa c33c f2f2 ea3a e70b 87bd
00000060: 1167 943c 211e a6bd a3b5 fabd 491b 34bd
00000070: fa03 113d de08 e6bd 9af6 d83d 13c6 ed3c
00000080: f4e0 4fbd 2acd 9a3b 70dd 27bd 01b9 b63d
00000090: f222 c0bd e981 c43d ead6 73bd da6c dc3d
000000a0: eb8d a6bd 0731 cbbd 45ea 59bd d100 1ebc
000000b0: 6809 56bd 16d7 e0bd 1f26 d8bd 5b6c 013e
000000c0: f10b f9bd 3524 aa3c a203 e2bd 3031 e83d
000000d0: f7d9 aabd 17dc e83d 13a7 b53d a4b9 dabd
000000e0: 47f8 63bd 69c7 71bd 8878 883d 1489 a0bc
000000f0: f635 b23c a8c3 77bd 66ae 00bd f41f b83d
00000100: 70a8 d4bd 1583 db3b b9b1 593d 87a5 a7bc
00000110: 171f 2d3d 8c63 53bd 3274 aabd 5ead b03d
00000120: b5a3 90bb c04f 803d 8a7c b1bd f9a9 04be
00000130: ebdc 5abd cf41 fc3d 88f6 be3d a724 d53d
00000140: 980b f6bd e25c a63d ba62 94bd 8e16 9f3d
00000150: 60ed d2bc fede f13d a694 9cbd afea aabd
00000160: 0409 5dbd 0ae2 b93b 58b8 83bc be95 b53d
00000170: f2a8 ac3d 2236 f4bc ffb5 3b3d 579c 7e3d
00000180: c480 123d 0982 07bc 866d 97bd aa18 a83d
00000190: e788 eb3d 9542 65bd fdb0 c83d 31f3 0ebc
000001a0: 07eb ab3c 8e6d b8bc 2933 a93b 2b6d 763c
000001b0: 597a 83bd acc4 0e3d d85c 583d eaf0 a83d
000001c0: f567 a13d 9eb1 46bd cc54 00be 4884 9b3c
000001d0: 6496 8ebc f162 dc3d b5c9 f33d 88f2 b93d
000001e0: 6628 e63d 1148 0b3d 8f7d 7c3c b232 c7bd
000001f0: aaab babc 42c6 173d 98a6 fabd 6cba 923d
00000200: 5f74 7e3d ee60 cebd 61e4 ab3c 1adf 6c3d
00000210: 7ed9 e73d afa0 2d3d 4a59 8ebd 138f a33d
00000220: 3f28 cfbd b454 68bd 30b0 cd3c a619 86bd
00000230: 5827 9a3d 356e 753d 5968 3bbd 38b9 efbd
00000240: 198f d8bd 0c40 363c a087 633c 6d79 393c
00000250: d55f d7bd 7d62 613d 9282 cebd ba80 ac3c
00000260: 19bf cdbc aa11 84bd 0980 47bd 3cd6 01bd
00000270: 794f f9bc b766 72bd fd92 dbbd f344 a0bd
00000280: ecc4 1b3d 7dab 9c3d a144 bcbd 5658 a1bd
00000290: 3bfa 3dbd 23b2 02bd ce44 6cba 56b0 303d
000002a0: 2f76 ae3d 83d7 91bc f80a a4bd ccc8 aabd
000002b0: 2e28 163d 6124 953c b7e5 73bd 8c2b 41bc
000002c0: cdd0 dc3d e6d7 e43d cfd3 8cbc 6dfc b03d
000002d0: 9bb2 5fb7 7b21 b5bd 11af f63c a8c7 d6bb
000002e0: 76be 733c 5059 9abd 5c92 3a3b 30bf aebd
000002f0: 16dd ea3d a0a3 b2bd b5aa e2bd 9fe1 453d
00000300: ccd7 0d3b a0f5 d7bc a3f5 843d eb0d b93d
00000310: 14e1 da3d e276 ccb8 720d bbbc 23ad 993d
00000320: b8fd ed3d 2a0d a7bc e5b7 d5bc 792f 82bc
00000330: 1658 a63c 8748 93bd 80f5 f83d 14fe 64bc
00000340: 2c32 523d 6b76 ea3d 0f2e 763d 609f 49bd
00000350: cd21 dc3d ce4a 173d c694 56bd afdc d53d
00000360: 58d2 e3bd 6733 863d 2f0b b1bd 98e4 ca3d
00000370: 072f e4bd 5af5 1cbd 6cfc c93d f4aa 0f3d
00000380: bb5a 05be 87af ecbd 753d c1bd 5d88 8f3d
00000390: a4e3 d4bd 6c3f 023b 83b9 9ebd faf9 ca3d
000003a0: ba8d 9d3d fa00 40bd 1abe 3cbd 5ba2 8cbd
000003b0: d768 5fbd d00c 69bd 5183 9ebc 0289 953d
000003c0: b787 cebd c877 2d3d 9025 febd 8a41 3ebd
000003d0: d068 71bd b38c 883d 6b6c 423d 6c23 2fbd
000003e0: a9c0 debd e8c0 8cbd c6f9 ffbd 1711 193b
000003f0: 2d8f 893d 13f3 7dbc 8b8d 893d 44a7 31bd

critic.0.bias f4 [32]
-0.011486646 -0.045353968 -0.047770232 -0.025777198 0.0437955 -0.0014445748 0.02441043 -0.008441582
0.062845014 -0.04470101 0.009600415 -0.010299071 -0.08005816 0.0038955214 0.021281295 0.016120011
0.031577136 -0.058079157 -0.090856455 0.047059767 0.006145098 -0.052951943 0.12036778 0.052255064
0.10030914 -0.101240866 0.02654653 -0.11246354 -0.06689598 0.034954727 0.054816864 0.04334505
00000000: 7c32 3cbc 15c5 39bd b8aa 43bd b42a d3bc
00000010: e962 333d e357 bdba 62f8 c73c 904e 0abc
00000020: e3b4 803d 6818 37bd 0f4b 1d3c 6fbd 28bc
00000030: 88f5 a3bd 014c 7f3b 1c56 ae3c 1d0e 843c
00000040: 0757 013d 69e4 6dbd f312 babd bec1 403d
00000050: d15c c93b 23e4 58bd 6283 f63d 6809 563d
00000060: e16e cd3d 5f57 cfbd 1c78 d93c 4953 e6bd
00000070: c200 89bd b02c 0f3d a687 603d 948a 313d

critic.2.weight f4 [1, 32]
0.07855649 -0.09844855 -0.061559595 -0.032655306 0.026371785 0.02081135 -0.07698421 0.10919299
-0.16504282 0.076614834 -0.13833661 -0.16579193 -0.0023358834 0.15605988 -0.0056993375 -0.002338121
0.12213179 0.05753725 0.14490694 0.13330251 -0.052635223 0.0525421 -0.11172436 0.14740942
-0.05559328 0.13574691 -0.1033956 0.04170655 0.007177905 0.15414175 0.13507533 -0.086489014
00000000: 3ae2 a03d 659f c9bd ea25 7cbd 92c1 05bd
00000010: a409 d83c 907c aa3c e6a9 9dbd 93a0 df3d
00000020: fc00 29be 3de8 9c3d 1da8 0dbe 5cc5 29be
00000030: 9f15 19bb 29ce 1f3e 82c1 babb 293b 19bb
00000040: 3b20 fa3d 2eac 6b3d 7c62 143e 7480 083e
00000050: 0898 57bd 6336 573d becf e4bd 7ff2 163e
00000060: c7b5 63bd 3d01 0b3e 13c1 d3bd 7dd4 2a3d
00000070: a234 eb3b 56d7 1d3e 3051 0a3e 2721 b1bd

memory_a.rnn.weight_ih_l0 f4 [256, 47]
-0.09787034 -0.09155513 0.014366089 -0.022394022 0.02219796 0.10633182 -0.07970549 -0.100746326
0.076093316 -0.08661964 -0.15249844 -0.09942815 0.018969147 -0.1457029 0.031404104 0.1253794
0.005915072 0.08901937 0.07593787 -0.11749077 0.048366603 0.07524928 0.035482578 -0.122485936
0.09580236 -0.08914223 0.10013605 -0.08609087 0.023057315 0.11080197 -0.02632867 -0.11410135
-0.050706934 0.099556744 0.008133318 0.06492577 0.0050867563 0.08856048 -0.01916696 0.09628614
0.005986152 0.075143 0.012280588 0.09911907 0.10538716 -0.1215705 0.064358376 0.012776603
-0.008245877 0.038178846 0.09567908 -0.027109327 0.12657385 0.08230044 0.06059946 -0.08524855
0.11166515 0.06713629 -0.02200649 -0.09696895 -0.013745578 0.09912938 -0.106662236 0.04454579
-0.08737467 -0.008412211 0.048982702 0.05808714 -0.06801848 -0.09940803 0.032477118 -0.037433248
-0.08227713 -0.025481232 -0.13459186 0.02265795 0.08606773 -0.026994986 0.02237707 0.06238121
-0.07567451 0.09574559 0.009148023 0.067122854 -0.08579003 0.033664912 -0.10960984 -0.010458293
0.029844776 -0.065379426 -0.10699855 -0.08367404 -0.05906598 0.08049174 0.0540169 -0.05739961
0.020619426 -0.09669016 -0.1062926 -0.02526485 -0.048799083 0.011568541 0.0035712835 -0.124284536
-0.0638372 -0.038673647 -0.09027268 0.06703536 0.021770611 -0.02651478 -0.047864806 0.14324689
-0.07571279 -0.060094617 -0.124441616 0.057994276 -0.06995894 0.04207782 -0.07661745 -0.090795144
-0.09317281 -0.043871794 0.049943563 -0.068656005 0.013426601 0.01748846 0.039380766 -0.082907446
-0.11266008 0.06947354 0.025090765 -0.01297822 0.06432968 0.09581939 0.05107997 0.05176458
-0.03047356 0.097853966 -0.03079592 0.102665186 -0.050707642 -0.07799287 -0.060452793 -0.0049515404
0.043129865 -0.0109210145 0.12852433 -0.14235955 0.027661862 0.15696765 -0.013292998 -0.09576126
0.049495086 -0.13423818 -0.09792046 -0.06809079 0.10374223 0.029685399 -0.068610765 0.060796138
-0.12455796 -0.090578906 0.009228578 0.009394904 0.10469971 0.075225115 0.10978282 -0.044496916
0.10536617 -0.0026396788 -0.081824325 -0.036505345 0.0071316073 0.0802303 0.10610699 -0.092500925
0.15133376 0.07984941 0.03371607 -0.11290732 0.023668027 0.01711979 -0.051942635 -0.058264803
-0.09997805 -0.0065668253 0.028617619 0.08001533 0.086612456 -0.024713205 0.015043384 0.13094328
0.07737787 0.00827114 0.071121514 -0.103401974 0.0041501746 0.03805084 0.061086353 -0.06264675
-0.11532815 -0.056028843 0.01635684 0.010681601 -0.11388372 -0.07235955 0.05953645 0.07287353
0.024208365 0.03831706 0.117631316 -0.09689755 -0.02313515 0.12915403 0.11578775 -0.010401669
0.015775083 -0.07330147 -0.012263555 0.07396682 0.018462664 -0.054228555 -0.14118472 0.0046919445
-0.108859494 0.042412583 -0.087461546 0.09648349 -0.11461367 0.047218625 0.049627747 0.10984432
0.082428075 -0.012230906 0.06376304 -0.02122776 0.069310784 0.10404329 -0.028254626 0.06986387
-0.03895031 0.073663644 0.12811819 -0.15665673 -0.11339697 -0.10196441 -0.06710969 0.08225527
0.041726917 -0.05640303 0.042739365 0.057600822 -0.089136735 0.039859526 -0.060467094 0.03678834
00000000: 3f70 c8bd 4281 bbbd bf5f 6b3c ab73 b7bc
00000010: 7fd8 b53c 7fc4 d93d a23c a3bd 1754 cebd
00000020: d0d6 9b3d a365 b1bd 8d28 1cbe fca0 cbbd
00000030: 2f65 9b3c 2433 15be 97a1 003d 7563 003e
00000040: 38d3 c13b ca4f b63d 5085 9b3d 009f f0bd
00000050: 0f1c 463d 4b1c 9a3d 2e56 113d e8d9 fabd
00000060: 0734 c43d 3490 b6bd 2114 cd3d 6950 b0bd
00000070: b2e2 bc3c 25ec e23d 39af d7bc f8ad e9bd
00000080: 13b2 4fbd 68e4 cb3d 9c41 053c cdf7 843d
00000090: ceae a63b 325f b53d 0704 9dbc ab31 c53d
000000a0: 7c27 c43b 93e4 993d 8534 493c f0fe ca3d
000000b0: 39d5 d73d f4f9 f8bd 53ce 833d f554 513c
000000c0: b719 07bc 6c61 1c3d 65f3 c33d 6114 debc
000000d0: 939c 013e 228d a83d 2437 783d cb96 aebd
000000e0: b3b0 e43d c07e 893d f446 b4bc a897 c6bd
000000f0: 2235 61bc 5804 cb3d bb71 dabd a575 363d
00000100: 7ef1 b2bd 5fd3 09bc 16a2 483d c8ec 6d3d
00000110: 464d 8bbd 7096 cbbd ba06 053d 9b53 19bd
00000120: e980 a8bd 04be d0bc 73d2 09be 2a9d b93c
00000130: 4744 b03d 9724 ddbc 1e50 b73c 7183 7f3d
00000140: 3dfb 9abd 4416 c43d 97e1 153c b577 893d
00000150: afb2 afbd 38e4 093d 207b e0bd 4359 2bbc
00000160: 087d f43c a6e5 85bd 0e22 dbbd 4c5d abbd
00000170: 2bef 71bd dad8 a43d d340 5d3d da1b 6bbd
00000180: 12ea a83c 7e05 c6bd efaf d9bd 3bf8 cebc
00000190: 8ce1 47bd fa89 3d3c 320c 6a3b e488 febd
000001a0: 14bd 82bd 4268 1ebd e2e0 b8bd d649 893d
000001b0: 4858 b23c 8635 d9bc e30d 44bd 50af 123e
000001c0: 4f0f 9bbd c625 76bd 3fdb febd 688b 6d3d
000001d0: a246 8fbd cb59 2c3d 9ce9 9cbd cef2 b9bd
000001e0: 63d1 bebd e9b2 33bd 9f91 4c3d 859b 8cbd
000001f0: 3ffb 5b3c f543 8f3c ba4d 213d 61cb a9bd
00000200: 54ba e6bd 2548 8e3d 268b cd3c 9aa2 54bc
00000210: 47bf 833d f53c c43d 3b39 513d 1907 543d
00000220: b0a3 f9bc a967 c83d ba47 fcbc 2042 d23d
00000230: d1b2 4fbd baba 9fbd 599d 77bd 8840 a2bb
00000240: f1a8 303d 0eee 32bc e29b 033e b4c6 11be
00000250: 219b e23c 21bc 203e e0ca 59bc 7b1e c4bd
00000260: 5cbb 4a3d bc75 09be 868a c8bd 2f73 8bbd
00000270: ce76 d43d cb2e f33c cd83 8cbd 5f05 793d
00000280: 3e18 ffbd 6f81 b9bd 7633 173c 15ed 193c
00000290: cd6c d63d a00f 9a3d d1d5 e03d 6642 36bd
000002a0: 38ca d73d 76fe 2cbb 8393 a7bd a186 15bd
000002b0: 42b0 e93b c94f a43d 9f4e d93d 2071 bdbd
000002c0: 3df7 1a3e 1688 a33d dd19 0a3d f43b e7bd
000002d0: 73e3 c13c cd3e 8c3c cdc1 54bd 13a7 6ebd
000002e0: 4bc1 ccbd 862e d7bb 7f6f ea3c 14df a33d
000002f0: df61 b13d 5973 cabc 8778 763c ff15 063e
00000300: 4a78 9e3d ad83 073c 28a8 913d 6ac4 d3bd
00000310: 30fe 873b 33db 1b3d af35 7a3d f04c 80bd
00000320: 2a31 ecbd 807e 65bd c8fe 853c e201 2f3c
00000330: de3b e9bd 3e31 94bd 7edc 733d b83e 953d
00000340: 9f50 c63c 59f2 1c3d b0e8 f03d 3972 c6bd
00000350: ed85 bdbc f440 043e 2122 ed3d c36b 2abc
00000360: bf3a 813c 151f 96bd 14ed 48bc eb7b 973d
00000370: 033f 973c c31e 5ebd ba92 10be e2be 993b
00000380: baf1 debd d1b8 2d3d 0a1f b3bd 2399 c53d
00000390: 92ba eabd 5168 413d 7746 4b3d 0ff6 e03d
000003a0: 0dd0 a83d 2364 48bc 3296 823d d7e5 adbc
000003b0: d0f2 8d3d a614 d53d 3f76 e7bc ca14 8f3d
000003c0: 5c8a 1fbd f7dc 963d 6a31 033e 9f6a 20be
000003d0: ac3c e8bd b7d2 d0bd ce70 89bd 7375 a83d
000003e0: d8e9 2a3d dd06 67bd 790f 2f3d d7ee 6b3d
000003f0: 528d b6bd be43 233d 58ac 77bd 5faf 163d

memory_a.rnn.weight_hh_l0 f4 [256, 64]
0.118866414 0.032789227 0.09854887 -0.0095656505 0.021396248 -0.11412233 -0.022127438 0.0051431563
-0.0066150175 -0.10926111 0.0055425074 0.08136215 -0.0044586235 -0.023957327 0.09014115 0.032285336
-0.061675467 -0.08571166 -0.07142376 0.056355245 -0.11393052 -0.03430388 0.0416331 -0.023226397
0.02631557 0.099209115 0.04199182 0.07349306 0.10647081 -0.078967266 0.009192063 0.027346162
0.022809362 -0.122667365 -0.07946144 -0.03045209 -0.12064312 -0.018681368 0.10870784 -0.08861251
0.0015419665 0.09183224 -0.010622548 0.037337728 0.0584315 -0.0044023725 -0.0075257393 -0.038411845
-0.12798345 -0.047397293 -0.08719017 0.056676287 -0.082771756 0.031941336 0.09479128 -0.047203526
-0.025523981 0.11149658 0.06994157 -0.0606565 0.08360822 -0.0004145241 -0.042599026 -0.025111333
-0.08283026 0.04705399 -0.11309209 -0.04978182 -0.123714045 0.0646442 -0.035305325 0.07312441
-0.013300614 0.06552443 0.07068558 -0.10828754 0.09625782 0.07558063 -0.078358635 0.032501917
-0.117100105 -0.065857865 -0.030566435 0.052485004 -0.07437694 0.12130928 -0.037006184 -0.030254463
0.11099473 0.023026174 -0.10815064 0.045980435 0.01806182 -0.03833019 0.12856828 0.04684432
-0.09015861 -0.049398858 -0.13014422 -0.04092372 0.01889669 0.082655415 -0.022309821 0.09930194
0.11381865 0.031453013 -0.074792415 0.087091625 0.0635349 -0.10542878 -0.07560212 0.095066115
-0.04378077 -0.120924555 -0.08145216 -0.003910966 -0.0516684 -0.07155728 -0.06808523 -0.04402779
0.03676356 0.10982682 -0.07493159 -0.06144851 0.0260305 0.13254867 0.047613658 -0.0978005
0.10360139 0.06014409 0.022948286 -0.074678995 -0.038756855 -0.08003115 -0.033412974 0.06283678
0.04070143 -0.0628872 0.016499689 -0.025743082 0.06958175 0.10788038 0.09233254 -0.072570056
0.0707393 0.059427116 -0.017440584 0.08465764 0.013347877 0.062936634 0.023134511 0.1107151
0.0794754 0.044497702 0.09852394 -0.04351088 -0.053590663 -0.11687107 -0.033086218 -0.061934065
-0.05992114 -0.09417088 -0.06489519 -0.06203624 0.113490395 0.06975516 -0.082802236 -0.06397674
0.037172653 -0.037508827 0.0935823 0.027759558 -0.10597556 -0.074916184 0.09493993 -0.060636405
-0.024114806 -0.09079343 -0.11156478 0.109545305 0.07439491 -0.013159409 -0.09549744 0.025782991
-0.102334134 0.04191347 -0.05361227 -0.019998265 0.08536055 -0.11402272 -0.06468356 0.020894667
0.05080954 0.005047854 -0.022524796 -0.08930878 0.057502978 -0.11481339 0.08451072 0.11150193
-0.09451489 0.15873718 -0.07838967 -0.06422967 0.032784842 -0.14509937 0.08172775 0.05361171
-0.092744924 0.095390275 0.0034225802 0.09215619 -0.03729061 -0.08499656 -0.12985241 0.11636488
-0.09109539 -0.08279024 0.021580283 0.148466 0.11607347 -0.016096406 0.07987098 -0.027214926
0.079764575 -0.032267675 0.0061939624 -0.07003671 -0.03518149 0.09247629 -0.0932916 -0.04714155
-0.033238944 -0.0682753 0.11373515 0.1261145 -0.117371 0.13310593 -0.11748276 -0.113138676
-0.017852496 -0.016684165 0.105014 0.09765066 0.073243365 -0.04730816 -0.0017304217 0.04929072
0.10022658 -0.13656831 0.07220309 0.13518764 -0.071445286 0.0048291753 0.104120016 -0.044171415
00000000: 3c70 f33d ff4d 063d fdd3 c93d 3fb9 1cbc
00000010: 2f47 af3c f8b8 e9bd 9a44 b5bc ec87 a83b
00000020: cac2 d8bb 4ac4 dfbd ec9d b53b 33a1 a63d
00000030: a519 92bb 2842 c4bc ec9b b83d a13d 043d
00000040: 6a9f 7cbd 9889 afbd 9f46 92bd c2d4 663d
00000050: 6854 e9bd 3a82 0cbd 7887 2a3d 4945 bebc
00000060: c093 d73c 262e cb3d 9dff 2b3d 8883 963d
00000070: 5e0d da3d 97b9 a1bd 4e9a 163c 0f05 e03c
00000080: b3da ba3c 0739 fbbd aebc a2bd a976 f9bc
00000090: bd13 f7bd ab09 99bc 37a2 de3d 7a7a b5bd
000000a0: cf1b ca3a 8b12 bc3d 320a 2ebc 72ef 183d
000000b0: de55 6f3d c741 90bb 7a9a f6bb bd55 1dbd
000000c0: 180e 03be aa23 42bd c390 b2bd 6525 683d
000000d0: 3d84 a9bd ebd4 023d ee21 c23d 7c58 41bd
000000e0: ab17 d1bc 5258 e43d 873d 8f3d f372 78bd
000000f0: c93a ab3d 7c54 d9b9 517c 2ebd 48b6 cdbc
00000100: e9a2 a9bd afbb 403d d39c e7bd 06e8 4bbd
00000110: ca5d fdbd 2e64 843d 519c 10bd 40c2 953d
00000120: d2ea 59bc ac31 863d 9ac3 903d dcc5 ddbd
00000130: d222 c53d 04ca 9a3d 7e7a a0bd bb20 053d
00000140: 2ed2 efbd 7de0 86bd 7666 fabc 84fa 563d
00000150: f052 98bd 0071 f83d cc93 17bd 35d8 f7bc
00000160: 3451 e33d 63a1 bc3c 157e ddbd fb55 3c3d
00000170: 62f6 933c 1e00 1dbd 67a7 033e d4df 3f3d
00000180: 14a5 b8bd 7556 4abd 8744 05be a19f 27bd
00000190: 3bcd 9a3c 3e47 a93d 16c3 b6bc d15e cb3d
000001a0: c119 e93d e0d4 003d c42c 99bd 185d b23d
000001b0: 961e 823d 0beb d7bd 49d5 9abd 06b2 c23d
000001c0: 7753 33bd 4ba7 f7bd 64d0 a6bd 9027 80bb
000001d0: 3fa2 53bd a08c 92bd 4570 8bbd 7c56 34bd
000001e0: 6395 163d e2ec e03d bc75 99bd 6fb1 7bbd
000001f0: ea3d d53c d7ba 073e 8a06 433d a14b c8bd
00000200: f72c d43d a659 763d 0bfe bb3c 4df1 98bd
00000210: 82bf 1ebd 5fe7 a3bd 0bdc 08bd 92b0 803d
00000220: 8bb6 263d 01cb 80bd 5b2a 873c 28e3 d2bc
00000230: e080 8e3d 63f0 dc3d d818 bd3d 9c9f 94bd
00000240: c4df 903d d969 733d 8edf 8ebc fc60 ad3d
00000250: 0eb1 5a3c ece4 803d 9684 bd3c 99be e23d
00000260: 00c4 a23d 3943 363d ebc6 c93d 7738 32bd
00000270: e281 5bbd 195a efbd 6a85 07bd 93ae 7dbd
00000280: df6f 75bd aadc c0bd c5e7 84bd b619 7ebd
00000290: a76d e83d cbdb 8e3d 3894 a9bd 3d06 83bd
000002a0: 5a42 183d dba2 19bd 14a8 bf3d 0368 e33c
000002b0: b709 d9bd a86d 99bd de6f c23d e15d 78bd
000002c0: 6a8c c5bc e8f1 b9bd 137c e4bd 4a59 e03d
000002d0: 5c5c 983d 909a 57bc 2994 c3bd da36 d33c
000002e0: 8f94 d1bd 75ad 2b3d 8a98 5bbd 67d3 a3bc
000002f0: 83d1 ae3d be84 e9bd d078 84bd 4b2b ab3c
00000300: aa1d 503d 7868 a53b ec85 b8bc 86e7 b6bd
00000310: 3e88 6b3d 4823 ebbd f513 ad3d 205b e43d
00000320: 0691 c1bd 008c 223e c38a a0bd d88a 83bd
00000330: 6649 063d ee94 14be e160 a73d f497 5b3d
00000340: 0df1 bdbd fa5b c33d 5e4d 603b 62bc bc3d
00000350: 0abe 18bd ad12 aebd 08f8 04be b650 ee3d
00000360: 3890 babd ee8d a9bd 22c9 b03c 7907 183e
00000370: edb7 ed3d 9cdc 83bc 6593 a33d d6f1 debc
00000380: 9c5b a33d 1c2b 04bd b9f6 ca3b 686f 8fbd
00000390: 771a 10bd 3664 bd3d ab0f bfbd 7f17 41bd
000003a0: 8f25 08bd ecd3 8bbd f9ed e83d 2924 013e
000003b0: 3560 f0bd ec4c 083e cd9a f0bd 40b5 e7bd
000003c0: 663f 92bc 3bad 88bc 9411 d73d 12fd c73d
000003d0: 9e00 963d 34c6 41bd 51cf e2ba 11e5 493d
000003e0: 9843 cd3d 90d8 0bbe 37df 933d a16e 0a3e
000003f0: e851 92bd 0f3e 9e3b e03c d53d 16ed 34bd

memory_a.rnn.bias_ih_l0 f4 [256]
0.060997836 -0.027706904 -0.013384695 0.01639672 -0.012358255 -0.05461314 -0.10559444 -0.040603008
0.083245814 0.10625254 -0.0019850207 -0.062632695 -0.06290911 -0.023147874 -0.0660536 -0.08137787
0.10461025 -0.024295988 0.04892411 -0.036962826 -0.055162065 -0.07442563 0.0008449054 -0.08199375
0.027250523 0.04688068 0.13581963 -0.02383362 -0.025408592 0.010046238 0.038428616 0.11086022
0.009704748 -0.11975505 -0.10951522 -0.08315817 0.109686345 0.05796427 0.07263281 -0.0010981212
-0.12146191 -0.064152405 0.08268805 0.040357023 -0.11051477 0.023842255 0.078371085 0.0032739458
0.054449946 0.05376919 -0.09733144 -0.0057026814 -0.06513982 0.021467967 -0.07336422 -0.11112226
0.107899696 0.12039855 0.04776018 0.016768454 -0.051038943 0.0045342827 -0.0042589805 -0.07914781
0.029258352 -0.0035403336 0.017151471 0.080149636 -0.091512784 -0.13442059 0.07794168 0.066800885
-0.06242244 -0.028713284 -0.13060777 -0.011836904 0.07226345 0.1024261 -0.10078737 -0.025548557
0.032717954 -0.0052445964 -0.03858995 0.0017706178 0.012173418 0.06744795 0.043399163 -0.13666695
-0.035830036 -0.022397384 -0.042923335 -0.027463153 0.037649397 -0.09781595 -0.025765898 -0.10935717
-0.04829175 0.10396319 -0.085704915 0.074344195 -0.092116855 -0.009466198 0.089647345 0.0005445122
-0.015550253 0.03450853 0.08877981 -0.062444013 0.08287306 -0.08647319 -0.10901616 0.007569405
0.08448076 0.10396419 0.060463347 0.046698738 0.08584609 0.11777797 -0.111178465 0.114583984
-0.06751379 -0.034011256 -0.12761343 0.024409162 -0.009382211 -0.04836631 -0.039679665 0.013970069
0.012554751 -0.096289374 0.0935083 0.081442095 -0.0943482 0.0891548 0.016656363 -0.05903361
0.07089214 0.11442766 -0.10634086 0.06789692 -0.07691509 0.08532081 0.07388887 0.08064596
-0.07114955 -0.09363311 -0.1013291 0.029671682 -0.09947857 0.07151199 -0.052482277 -0.09707911
0.032111865 0.04400826 0.091191776 0.047283165 -0.10489403 -0.035703547 0.0073400293 0.013385086
0.10495453 -0.067390285 0.08812785 0.0677527 0.06654305 -0.037838914 0.019567048 -0.05773013
0.017497476 0.024530327 -0.07199074 -0.10849613 0.06521051 0.009968105 0.057653017 -0.020479325
0.033917848 0.011140815 0.099959366 0.070276804 0.012270617 -0.11511825 0.03455958 -0.035457548
0.012062104 0.06413029 -0.08429652 -0.080098465 -0.019127224 0.11103435 -0.026094759 -0.1218694
-0.07003732 0.034699105 -0.08245857 0.050570503 -0.051554285 0.019888423 -0.05150552 0.05960296
-0.010755773 -0.021978924 0.0348695 0.051789854 -0.090708874 0.0050788377 -0.135197 0.10187566
0.10246018 -0.05436765 -0.047257084 -0.11203695 -0.12012003 0.012180774 0.037493728 0.09613454
0.0879286 0.061898142 0.09100676 0.050696313 -0.057650782 -0.03029443 -0.09029588 0.04453494
-0.09795061 0.062449936 0.096290685 -0.059935987 0.050308246 -0.048754122 -0.09279866 -0.02411992
0.036856372 -0.0038562447 0.089300096 0.0042545376 0.082903415 -0.08105389 -0.08754469 -0.032297675
-0.026768586 0.11871591 -0.099390715 0.0017657466 0.09875915 0.025760392 0.09140745 0.02313248
0.036277287 0.082417764 0.01787114 0.11137443 0.07448532 -0.013225838 0.066959985 -0.014244747
00000000: ded8 793d 97f9 e2bc 7b4b 5bbc 6a52 863c
00000010: 477a 4abc 07b2 5fbd e641 d8bd 574f 26bd
00000020: c87c aa3d ef9a d93d 1f17 02bb 9245 80bd
00000030: 7ed6 80bd 9ca0 bdbc 1c47 87bd 71a9 a6bd
00000040: e63d d63d 6108 c7bc a664 483d 5566 17bd
00000050: 9ef1 61bd 776c 98bd a47c 5d3a 57ec a7bd
00000060: 7d3c df3c f505 403d 4d14 0b3e b93e c3bc
00000070: ae25 d0bc fa98 243c 5367 1d3d af0a e33d
00000080: aa00 1f3c 2342 f5bd 8449 e0bd d54e aabd
00000090: 3ca3 e03d f16b 6d3d 83c0 943d d5ee 8fba
000000a0: 06c1 f8bd 5662 83bd 5a58 a93d 684d 253d
000000b0: 9155 e2bd d550 c33c 0581 a03d b28f 563b
000000c0: e806 5f3d 153d 5c3d b555 c7bd 8fdd babb
000000d0: 0768 85bd 97dd af3c fb3f 96bd 1194 e3bd
000000e0: 84fa dc3d 8493 f63d 2ea0 433d ff5d 893c
000000f0: 360e 51bd 5294 943b eb8e 8bbb 3f18 a2bd
00000100: 36af ef3c f104 68bb 3e81 8c3c 7e25 a43d
00000110: 0e6b bbbd 8da5 09be e39f 9f3d e7ce 883d
00000120: acae 7fbd 1f38 ebbc 0bbe 05be 93ef 41bc
00000130: dcfe 933d c6c4 d13d 9c69 cebd 354b d1bc
00000140: 4303 063d ddda abbb 7f10 1ebd 1314 e83a
00000150: 0473 473c 2722 8a3d 52c3 313d 6cf2 0bbe
00000160: 84c2 12bd b87a b7bc 61d0 2fbd 68fa e0bc
00000170: 4136 1a3d bb53 c8bd 0113 d3bc a7f6 dfbd
00000180: 92cd 45bd a7ea d43d 0f86 afbd c541 983d
00000190: c3a7 bcbd 1d18 1bbc 0799 b73d 98bd 0e3a
000001a0: 7dc6 7ebc d158 0d3d 30d2 b53d 4bc5 7fbd
000001b0: 5ab9 a93d db18 b1bd dd43 dfbd c508 f83b
000001c0: 4004 ad3d 2deb d43d 6aa8 773d 2d47 3f3d
000001d0: 13d0 af3d 9435 f13d 89b1 e3bd 02ab ea3d
000001e0: ac44 8abd 634f 0bbd 18ad 02be b9f5 c73c
000001f0: d8b7 19bc c01b 46bd 2587 22bd b7e2 643c
00000200: 71b2 4d3c 5d33 c5bd 4881 bf3d 1dcb a63d
00000210: a139 c1bd cb96 b63d ed72 883c 3acd 71bd
00000220: e62f 913d 0d59 ea3d 3dc9 d9bd 8a0d 8b3d
00000230: a985 9dbd adbc ae3d 0c53 973d b629 a53d
00000240: dbb6 91bd b7c2 bfbd a285 cfbd 0712 f33c
00000250: 6cbb cbbd e174 923d a8f7 56bd 6ad1 c6bd
00000260: bb87 033d 0142 343d c1c2 ba3d feab 413d
00000270: aed2 d6bd e23d 12bd a184 f03b 1f4d 5b3c
00000280: 67f2 d63d eb03 8abd 607c b43d edc1 8a3d
00000290: b947 883d fafc 1abd 134b a03c 6e76 6cbd
000002a0: de56 8f3c d3f3 c83c e26f 93bd 3833 debd
000002b0: 168d 853d 4351 233c 9225 6c3d 42c4 a7bc
000002c0: 71ed 0a3d f787 363c 7fb7 cc3d 49ed 8f3d
000002d0: b30a 493c 1ec3 ebbd 598e 0d3d ef3b 11bd
000002e0: 22a0 453c be56 833d a7a3 acbd aa0a a4bd
000002f0: b2b0 9cbc fa65 e33d adc4 d5bc aa96 f9bd
00000300: ba6f 8fbd a620 0e3d 0ae0 a8bd 0423 4f3d
00000310: 962a 53bd 0ced a23c 74f7 52bd 3c22 743d
00000320: fb38 30bc 250d b4bc 52d3 0e3d 9921 543d
00000330: 93c5 b9bd 616c a63b 1571 0abe 30a4 d03d
00000340: a5d6 d13d 9db0 5ebd a590 41bd a173 e5bd
00000350: 7e01 f6bd de91 473c 0693 193d 30e2 c43d
00000360: e913 b43d e888 7d3d c161 ba3d f0a6 4f3d
00000370: 3a23 6cbd 062c f8bc 0ced b8bd 456a 363d
00000380: 549a c8bd 81cb 7f3d 0d34 c53d 707f 75bd
00000390: 0510 4e3d 67b2 47bd 390d bebd 2397 c5bc
000003a0: b5f6 163d 0db9 7cbb f8e2 b63d a669 8b3b
000003b0: 44c9 a93d 95ff a5bd a14a b3bd 914a 04bd
000003c0: cb49 dbbc 5421 f33d 5c8d cbbd a070 e73a
000003d0: 3d42 ca3d 7507 d33c d433 bb3d 5480 bd3c
000003e0: 7e97 143d a5ca a83d 7f66 923c 4718 e43d
000003f0: c28b 983d 2fb1 58bc 5122 893d cd62 69bc

memory_a.rnn.bias_hh_l0 f4 [256]
0.0046102707 -0.024685336 -0.006913047 -0.029541057 -0.087737694 0.061801527 -0.026318965 0.08000381
0.030120112 0.056916438 0.12192308 -0.076688975 -0.0057169544 -0.1026171 0.073845096 -0.024165276
0.053632457 0.104659826 -0.0069462997 -0.056083966 0.02773989 -0.081879355 0.0548031 -0.0525308
0.10194529 -0.0025802436 0.07016231 -0.03287596 0.038782015 0.09143468 -0.11639259 0.09179746
-0.10174096 0.07735083 -0.069574505 0.061305944 0.046665467 -0.09692644 0.08521328 -0.11278712
-0.014489276 0.115230605 -0.10566497 -0.02546221 -0.09777916 -0.10515682 0.029832313 -0.040211227
-0.06784576 0.11919289 0.05997051 -0.114335515 -0.09885329 0.05896576 -0.0203402 0.035586365
-0.022177372 0.028100697 -0.09505853 -0.10304546 -0.08617761 0.0068813935 0.092491254 -0.08030113
-0.07946229 0.04308545 0.06841994 0.01085184 0.110549 0.098044984 0.047672287 -0.10855501
0.06529609 0.04202183 0.080939874 0.022310903 -0.13087408 -0.118772924 0.06849155 -0.09500999
-0.06704727 -0.01744619 -0.054256737 -0.035912547 -0.03421744 0.0039680353 0.131686 0.0023397584
0.11032026 0.024347752 -0.10581885 -0.024190122 0.10793275 -0.10094755 0.022193903 0.12215724
-0.09218759 -0.027282875 -0.05991588 -0.07648761 0.024472298 -0.03529023 -0.037001204 0.095989674
0.08107592 0.10118007 0.078462124 0.07117766 0.11375961 -0.02344188 -0.053536177 -0.13343936
0.08945477 -0.032560598 0.0042512 0.006489893 0.022879202 0.13095403 0.048620164 -0.110213265
-0.025019988 0.038028277 0.105355024 -0.046287056 -0.004270874 -0.038006753 -0.0018636097 -0.018456785
0.054317366 0.11990843 0.05354855 0.05688642 0.10600329 -0.11103038 0.08513387 0.062129177
-0.109683365 -0.043762367 -0.053006582 -0.04788777 0.09480216 -0.02979163 -0.04393079 -0.12403111
-0.021135554 -0.009845107 -0.00980932 -0.024765646 -0.049029212 0.00865003 0.09798506 -0.023363577
0.035458382 -0.09702896 -0.0980076 0.057108976 0.011923264 0.0007914888 -0.10146681 -0.07695933
-0.086129956 -0.082004346 0.051149517 -0.10895304 -0.05450287 -0.061106436 -0.024746304 -0.091234036
-0.10803576 0.038716495 0.040931996 -0.116920084 0.08358826 -0.0026603462 0.059003856 -0.038120657
0.09630051 -0.029061805 0.031550456 -0.034951176 0.012083444 0.061707336 -0.104222536 -0.052400853
0.124183185 0.08058961 0.04408716 0.035593383 0.09338848 -0.097574055 -0.110839866 0.044305146
0.0813708 0.07666644 -0.031241337 0.061723053 0.015086965 0.021726273 0.048068315 0.028502958
-0.049856912 -0.0072085117 0.11622908 0.07235389 0.07963709 -0.124653764 -0.03839894 -0.004040933
0.077041484 -0.058039814 0.08632785 0.08705295 0.08556932 -0.11795188 -0.0033872214 -0.077804565
0.053404193 -0.100856684 -0.014981885 -0.012702012 -0.11396378 -0.029542949 -0.14328538 -0.009622061
0.092212975 0.0018455343 -0.0076952833 0.054878768 0.059893686 -0.016241666 0.123478875 -0.042533632
0.029414019 -0.013352279 -0.11811948 -0.023049833 0.086511284 0.051188894 0.041244376 0.086974986
-0.062437043 0.042369455 0.08515623 -0.0618343 0.07101535 0.12159487 0.10565151 -0.0013169615
-0.08925236 0.0026145447 -0.0757098 -0.013467149 0.066727445 0.044117786 0.0806972 0.015612744
00000000: c111 973b e738 cabc d786 e2bb 1600 f2bc
00000010: d2af b3bd 9923 7d3d df9a d7bc 0ad9 a33d
00000020: 74be f63c 3621 693d cfb2 f93d 1c0f 9dbd
00000030: 4a55 bbbb ea28 d2bd 193c 973d 42f6 c5bc
00000040: b5ad 5b3d e457 d63d c99d e3bb 4db8 65bd
00000050: c43e e33c 5db0 a7bd 3779 603d 892a 57bd
00000060: b1c8 d03d 4e19 29bb 42b1 8f3d f1a8 06bd
00000070: e4d9 1e3d 1b42 bb3d 3d5f eebd 4f00 bc3d
00000080: 905d d0bd 1d6a 9e3d 147d 8ebd f11b 7b3d
00000090: 4a24 3f3d 5f81 c6bd 4d84 ae3d effc e6bd
000000a0: 6e64 6dbc 06fe eb3d e066 d8bd 2096 d0bc
000000b0: 7140 c8bd 755c d7bd e562 f43c 87b4 24bd
000000c0: b8f2 8abd 671b f43d a3a3 753d bd28 eabd
000000d0: 9873 cabd 1586 713d 7ea0 a6bc 02c3 113d
000000e0: 52ad b5bc 6f33 e63c 0cae c2bd 8009 d3bd
000000f0: e37d b0bd 507d e13b 0e6c bd3d eb74 a4bd
00000100: 20bd a2bd 5e7a 303d c11f 8c3d eacb 313c
00000110: 8467 e23d cfcb c83d 0444 433d 1752 debd
00000120: f5b9 853d 151f 2c3d cec3 a53d 5bc5 b63c
00000130: db03 06be 383f f3bd 4c45 8c3d 9994 c2bd
00000140: 1450 89bd 50eb 8ebc 503c 5ebd 0919 13bd
00000150: 9627 0cbd 4b06 823b b2d8 063e a256 193b
00000160: 97ef e13d f074 c73c 8eb7 d8bd 5d2a c6bc
00000170: d80b dd3d 97bd cebd fdcf b53c 932d fa3d
00000180: d9cc bcbd 5680 dfbc 5b6a 75bd 89a5 9cbd
00000190: 217a c83c 7d8c 10bd 938e 17bd 3c96 c43d
000001a0: 220b a63d 7f37 cf3d c0b0 a03d 98c5 913d
000001b0: ccfa e83d 2f09 c0bc c048 5bbd 54a4 08be
000001c0: 1034 b73d 435e 05bd a64d 8b3b 2ba9 d43b
000001d0: 2a6d bb3c d018 063e f025 473d 7eb7 e1bd
000001e0: b8f6 ccbc 8ac3 1b3d 60c4 d73d 7f97 3dbd
000001f0: b0f2 8bbb f8ac 1bbd 5d44 f4ba af32 97bc
00000200: e37b 5e3d 8d92 f53d b955 5b3d bc01 693d
00000210: 4118 d93d e563 e3bd ab5a ae3d 2a7b 7e3d
00000220: aca1 e0bd 2b40 33bd 6e1d 59bd f725 44bd
00000230: a327 c23d 940d f4bc c6f0 33bd 0604 febd
00000240: 7824 adbc 5f4d 21bc 45b7 20bc 53e1 cabc
00000250: dbd2 48bd dbb8 0d3c 64ac c83d f964 bfbc
00000260: cf3c 113d 1fb7 c6bd 35b8 c8bd 1aeb 693d
00000270: cb59 433c ea7b 4f3a d5cd cfbd da9c 9dbd
00000280: e764 b0bd e5f1 a7bd 2882 513d c522 dfbd
00000290: 673e 5fbd be4a 7abd c3b8 cabc e9d8 babd
000002a0: da41 ddbd 3095 1e3d 4fa8 273d cc73 efbd
000002b0: 5230 ab3d 3459 2ebb 07ae 713d 6824 1cbd
000002c0: 3439 c53d 0613 eebc 0d3b 013d f728 0fbd
000002d0: a3f9 453c d5c0 7c3d a072 d5bd 47a2 56bd
000002e0: c153 fe3d 2a0c a53d bd94 343d 5eca 113d
000002f0: 7642 bf3d e8d4 c7bd 0300 e3bd 5079 353d
00000300: bca5 a63d 4b03 9d3d d5ed ffbc 50d1 7c3d
00000310: 512f 773c 4cfb b13c 48e3 443d 097f e93c
00000320: c336 4cbd 6135 ecbb 8309 ee3d 472e 943d
00000330: c518 a33d 794a ffbd 3548 1dbd ce69 84bb
00000340: edc7 9d3d 28bb 6dbd a8cc b03d d148 b23d
00000350: f83e af3d c190 f1bd 25fc 5dbb 0058 9fbd
00000360: 5bbe 5a3d f38d cebd 9576 75bc 1a1c 50bc
00000370: d865 e9bd 0e04 f2bc 67b9 12be d9a5 1dbc
00000380: 28da bc3d dbe5 f13a b728 fcbb 8fc8 603d
00000390: 1553 753d 3e0d 85bc 7ee2 fc3d bf37 2ebd
000003a0: abf5 f03c 84c3 5abc a0e8 f1bd 01d3 bcbc
000003b0: d42c b13d 72ab 513d ddef 283d f11f b23d
000003c0: fcbd 7fbd 988b 2d3d 6466 ae3d f745 7dbd
000003d0: 7f70 913d bb06 f93d d25f d83d e59d acba
000003e0: f1c9 b6bd c858 2b3b bd0d 9bbd 51a5 5cbc
000003f0: 66a8 883d dab4 343d 9344 a53d 98cc 7f3c
