logs/g1/Apr19_03-18-51_/model_250.pt (torch, 777504 bytes, 48 tensors)

std f4 [12]
00000000: a373 b43e 9574 f83e 7a9d 593e c322 a43e
00000010: 3d6f 343f c6f9 263f a826 b73e 0529 ed3e
00000020: f006 693e 8489 b53e 3da8 323f 5c35 2a3f
0.35244474 0.48526445 0.21251479 0.3205777 0.70482236 0.65224874 0.3577168 0.46320358
0.22756553 0.3545648 0.6978796 0.6648767

actor.0.weight f4 [32, 64]
00000000: 8f9d d73d bea0 8bbd ca90 ea3d d09f 8b3d
00000010: 9c44 6a3e 09eb f83d bbdc c5be da0e cd3d
00000020: f54f 713e 0f6b 933e 93d7 963e 5efd 2e3e
00000030: b1a5 843e b9d2 c83e 3dca bfbc f0db 453e
00000040: fabd 123e 0e56 8dbd 2183 033e 3594 273d
00000050: 970e abbb 3d21 023d fdab 843e 16a8 903e
00000060: a839 8dbd b5f4 be3e 8141 80be 7725 9fbb
00000070: 1899 a5bb 8e0d 993e eaa3 65be 2bed 83be
00000080: a8fb 503e 1e63 b8bd 1b34 51bd 7aff 493e
00000090: 92fc c43d ade4 24be ffec 873e c2db 053e
000000a0: 0769 b0bc c77e 39be f012 fc3d f17c ae3d
000000b0: 1c36 2dbe f682 953d 24a4 39be 78da e6bd
000000c0: a675 3abd e3d2 0cbe 63b5 403e 8e1c b43b
000000d0: 799d 5e3e cff9 88bd 5a8a 21bd 86eb 893d
000000e0: b99c 59bc cc12 923d 9cc8 f0be 57fc a5bd
000000f0: 5093 0c3e f159 12bd 9594 2ebe 5c6e 7bbd
00000100: 1da4 893e 0521 b13e 3c3b 8abd f101 a83d
00000110: 26e3 a33e 1d9e ebbd 0abe 7b3c 56c2 9cbe
00000120: e08b 8fbe b602 e23e c0bf c3be d5bb 813e
00000130: eaef 903d 2109 85be 27e4 d0bd 9def 62be
00000140: dca2 8c3d b41e d9bd aac6 ffbd 45c4 163c
00000150: 4941 1cbe b52d 053e 233f 163e 8003 113c
00000160: be2f 08bb 6b91 c03d 4673 09be f86c 053b
00000170: 9ce2 cb3d 4635 52bd 9e3b 7fbd 6835 e3bd
00000180: 6e45 9e3e 23d8 89bb 821c 35be 8ff3 713e
00000190: 65b6 9d3e d1e7 ba3c 353d 4ebd 0e49 c63d
000001a0: eaba b53e 8467 2b3e c5bd ae3d 28b9 d8be
000001b0: 6dfc c33e 5990 bb3d dd32 8f3e d437 d9ba
000001c0: c76c cfbc 3b94 29be cf5e 98be 1ed0 2fbe
000001d0: b90e 283e dc6a 49be 0edf 5fbe 7818 283e
000001e0: 214e 28be 5936 2e3e dd06 923e dbed 2cbe
000001f0: 537f 443d b8b0 dc3e dbf1 fd3e 5d85 583e
00000200: 8116 5fbd bc88 b03d 52c9 523e 9ed9 2bbd
00000210: 4806 733e 9efe d53d 7cfb eabd b8cf 723e
00000220: a6a1 3c3e a6ce a43e 2288 f53d 323a 11be
00000230: 3630 d33c 8ded c33d f4be 60bc d8cf 863e
00000240: ab44 25be 2cbe 22be e16f 383d 6982 7c3e
00000250: 72e9 14be 162f 153d e9ce b0bc 199d d43c
00000260: 238b 193e 61f5 db3c d1ce aabe b409 df3d
00000270: 9f2b 0d3d e724 d43c 0db8 2fbe 20c0 19bc
00000280: 09dd 003e 751a 56be d71e 083d 52b1 753e
00000290: bc54 4f3e 6e1b 163d c88b 0b3c d3e7 e23e
000002a0: 6720 03be 959e f0bd 4061 26bd 162b a33d
000002b0: 92a9 263e 1160 f4bc 7f62 cabd a515 72bc
000002c0: 5c93 9dbe 41e9 85bc 59e1 01bf 9d2c c63d
000002d0: 347b fa3e cc26 3dbd 8f88 13be de03 8a3e
000002e0: abae c03c 6619 53be 63c1 46be 8228 30be
000002f0: af6d cdbd 3388 8ebe e069 babe 96f4 a3be
00000300: b03b f13d 6ae9 0dbd ddc2 0bbd a7d9 30bd
00000310: e1ab 75be 2104 223d fafd 2f3e 8e92 0e3e
00000320: 49fa a9be 8c44 43be 8ede 23be c1b4 f5bd
00000330: 986c 82bd 075c bd3c c67f bd3d 61de 0cbe
00000340: 5169 22bd 3659 75bc 952c db3e 8dbb 67be
00000350: b4e5 b03e 6170 143e 70e8 043c b25d 133e
00000360: 94c6 2e3e a18d f43d 8b77 e33d 5d8b d8bd
00000370: 44e5 43be 4c80 3dbe cda0 a23d 0641 9d3d
00000380: 2144 77be 8893 473e cdea 58be f988 453d
00000390: 76fd 36be c1fe 3f3e e68d 483e a995 2fbe
000003a0: 8d8a 60be cbef af3e 7931 2cbd db6f 8fbe
000003b0: d1c3 64be 8746 393e 1ce0 4c3e 3e82 9bbd
000003c0: cdbf 0e3d 8d6f 29be d1e1 6e3e 8d7f cb3d
000003d0: 2d34 483e c35f 8ebe d707 f5bb 19f9 5e3d
000003e0: d479 04bd 46d1 a83e 3697 03be fed7 513e
000003f0: 869c 0abe a045 56bd 7133 d3bc f50b f53e
0.10528099 -0.068177685 0.114533976 0.06817591 0.22877735 0.121542044 -0.38644966 0.10012598
0.23565657 0.28792617 0.29461345 0.1708884 0.25907663 0.3922327 -0.023411864 0.19322181
0.14330283 -0.06901179 0.1284299 0.040912826 -0.005220245 0.03176998 0.25912467 0.2825324
-0.06895763 0.37296072 -0.25049976 -0.004856761 -0.0050536506 0.29893154 -0.2242581 -0.25766882
0.20408499 -0.0900328 -0.051075082 0.19726363 0.096184865 -0.16102858 0.26548 0.13072112
-0.021534456 -0.18114768 0.123082995 0.085199244 -0.16915172 0.073003694 -0.18129021 -0.11272138
-0.045522355 -0.13752322 0.18819194 0.005496568 0.21739759 -0.06688272 -0.039438583 0.06734376
-0.0132819945 0.071324915 -0.47028053 -0.08104771 0.1372807 -0.035730306 -0.17048867 -0.061384544
0.2688302 0.34595504 -0.06749579 0.08203495 0.32009238 -0.11504767 0.015365133 -0.30617017
-0.28036404 0.44142693 -0.3823223 0.25338617 0.0707701 -0.25983527 -0.101997666 -0.22161718
0.068670005 -0.10601559 -0.12489064 0.009202068 -0.1525928 0.13005717 0.14672522 0.008850932
-0.002078041 0.09402736 -0.1342288 0.002035914 0.09955332 -0.051320337 -0.062312715 -0.11094171
0.30912346 -0.0042066737 -0.17686656 0.23628066 0.30803218 0.022815617 -0.05035134 0.09681903
0.35494167 0.16738707 0.085322894 -0.42328763 0.38278523 0.091583915 0.27968493 -0.0016572424
-0.025320424 -0.16560452 -0.29759833 -0.17169234 0.16411866 -0.1966967 -0.21862432 0.16415584
-0.16436054 0.1701292 0.2852086 -0.1688761 0.04797299 0.43103576 0.49598584 0.21144624
-0.05446482 0.0861983 0.2058461 -0.041955583 0.23732865 0.10448955 -0.11473748 0.23712051
0.18421039 0.3218891 0.11988856 -0.14182356 0.025779825 0.095667936 -0.013717402 0.26330447
-0.16139476 -0.15892857 0.04502857 0.24659123 -0.14542177 0.036421858 -0.021583037 0.025953816
0.14994483 0.026850404 -0.33360913 0.108905226 0.03446543 0.025896503 -0.17160054 -0.009384185
0.12584318 -0.2090853 0.033232536 0.23993424 0.20247167 0.036647253 0.008517213 0.44317493
-0.1280533 -0.11748997 -0.04062009 0.07967202 0.16275623 -0.029830964 -0.09882068 -0.014775668
-0.3077649 -0.016346576 -0.5073448 0.09676478 0.48922122 -0.046179578 -0.14407562 0.26956075
0.023520788 -0.20615157 -0.19409709 -0.17202953 -0.10030686 -0.27838287 -0.364089 -0.32022542
0.117789626 -0.03464643 -0.034121383 -0.04317632 -0.23991348 0.03955472 0.17186728 0.13923094
-0.33198765 -0.19069117 -0.16002867 -0.11997367 -0.06368369 0.023115171 0.092528865 -0.13756706
-0.03965122 -0.014974883 0.4280745 -0.22630139 0.3455025 0.14495994 0.008112058 0.1439121
0.17067939 0.11941076 0.111067854 -0.105734564 -0.19130427 -0.18505973 0.079408266 0.07678418
-0.24147083 0.19489872 -0.2118332 0.04822633 -0.17870125 0.18749525 0.1958538 -0.17146935
-0.21927853 0.34362635 -0.04203937 -0.28015026 -0.22340323 0.1809331 0.20007366 -0.07593201
0.034850884 -0.1654646 0.2332833 0.09936438 0.19551153 -0.27807435 -0.007477741 0.054436777
-0.032342747 0.32972163 -0.12850651 0.2049255 -0.13536271 -0.052312493 -0.025781365 0.47860685

actor.0.bias f4 [32]
00000000: 6cdf 89bd 75fd af3d b158 9bbd 46d0 30bd
00000010: 1da4 37be 1873 6a3d aea6 33bc 2515 07bd
00000020: f14b a8bd fb95 463d 7ff0 5bbc ec09 f03d
00000030: 3d6a abbd 1c63 f33b cc93 0b3d d2af 4d3d
00000040: 9968 30bd 01e4 523c 30cc 10be e7dc 5bbe
00000050: 0879 243a 3f4a f93d a271 7f3d 7dc5 18be
00000060: 499a 87bd c22f 693d 544a 3e3d 7aca bfbd
00000070: 7f82 90bd 67c8 663e 12ea 86bd 5bde c8bc
-0.067320675 0.08593265 -0.07585276 -0.043167375 -0.17933698 0.05723867 -0.0109650325 -0.03297915
-0.0821761 0.048482876 -0.013424038 0.117206424 -0.08369873 0.0074275862 0.034076497 0.050216503
-0.043068502 0.012871743 -0.14140391 -0.21470986 0.00062741386 0.121723644 0.062364228 -0.14919086
-0.066212244 0.05693031 0.046457604 -0.09364791 -0.0705614 0.22537385 -0.06587614 -0.02452009

actor.2.weight f4 [12, 32]
00000000: 0442 e33d 7c13 993c 5b87 503e 1cad 0fbe
00000010: 10af 863d 4abb fc3c 7dc0 8ebe 5d8b ad3e
00000020: fe69 0dbe fdba 133c e918 423e 6a8e 4fbd
00000030: 39e7 30be f592 32be d3ac 073d 0b9b e9bd
00000040: 8856 75be 490b cabd 71e3 583e 5481 31be
00000050: 3055 d33d e23b 193e e0f9 213e 9c01 4b3e
00000060: 3bd8 803d e105 333e 1144 6b3d d4b0 003d
00000070: 5781 573e b74f 8abe 0a37 e83d d205 16bc
00000080: a025 943d 1afc 253e d8f3 b1bc 58e1 85be
00000090: 95a9 78bd e82b 873d 05b4 aebd 82be 0c3d
000000a0: 9cb9 c43c 11c6 373e 4166 363d 72db 803e
000000b0: f39d 4bbd 07d6 3a3d 88f0 aabc 2c93 ac3d
000000c0: f98b 2ebd c252 ab3e 8fcc 7ebe d7b1 a9be
000000d0: e9a6 96be fdf3 643e ae07 a63e dd6e cdbe
000000e0: 6314 453e 1751 a03e 8887 c53d 165d 593d
000000f0: 102a f6bd 1e05 7e3e 01cd ce3d 6fdf 63be
00000100: 2c32 af3d f544 2ebd b2a8 37bd 5480 7a3e
00000110: 5a95 3d3e d8bc 06bd b06b 073c ff0a d13d
00000120: 800b 84bb 5637 e6bd a902 3abd 11d1 303d
00000130: b0f2 693c 0181 27be fd88 123e a66f 33bd
00000140: 9f2f 273d 2e5d bfbd ce8c 43bc 3b26 0f3e
00000150: 8aa7 323e bcf7 d5bb 4467 bd3d 2e5e edbd
00000160: da16 10be aac4 23bd 8a97 623c 3733 f23d
00000170: 89bf 91bd f758 e3bd 111b 103e 2b7c bc3d
00000180: fe96 a93d bcb5 a13a 1c77 153d be5b c8bd
00000190: cc63 9e3d f5c0 eebd 20d8 1bbe 8a8c 0f3e
000001a0: 0eaa 26bc 6aa7 a0bd a732 463e a074 f6bd
000001b0: 6cf5 c43d ff06 cd3d 5ed5 4e3d 7e80 b73d
000001c0: b103 183e b6a0 4b3d 59a9 523e 5bdc 303e
000001d0: f7b3 cebc ca3c 67bd b3ee 4abd 0690 503d
000001e0: 08cc 8e3c 8b33 6ebd 4cb0 95bc aafa d23b
000001f0: b5f2 f73c 7a14 73bd 26cc b13d 4111 e1bd
00000200: de2a b6bd 04ae 2f3d 1f59 89be ef83 6d3c
00000210: 0f11 a5be a183 f73d e824 9cbc 4a7f 473e
00000220: bbb8 c8be 55e7 9dbe 11f1 d13e 2ccd 04be
00000230: ef7c e6be a44e 733e 476e 84bd 7eae fd3e
00000240: a951 c83d 2c74 683d 7e67 adbe 5b1d 78be
00000250: 1d87 153e 2c63 9b3e 43a4 993d d3ff be3e
00000260: f015 f2be d3db ee3e c133 ffbd 0af0 1e3e
00000270: a678 8b3e 815c fe3d 3436 a43e 4f6f adbe
00000280: eb3f 71be cec7 3b3e 995f a7bd ae5c 9a3d
00000290: 68ba 5d3e 9082 b5bd 645f 5b3d 4c20 a13d
000002a0: 60d0 043e 9f17 a03d 0c81 303e 5ac7 2a3d
000002b0: f904 15be 72b2 1e3e 4868 87be 3653 2abd
000002c0: d1a0 b0bd 707a d43d ca5e d23c 921d 243e
000002d0: bd9b 3bbc 80cc ba3d de3c 8bbc b33d 17be
000002e0: f6f1 0ebe 188d 79be 8e09 b2bd 0e23 f73c
000002f0: ddc1 acbd 0754 63be 94cc 013e 9477 23be
00000300: 1b08 edbd 51ca 223e be05 6fbe 9c29 833c
00000310: e92c 72be 6e5a 043e a73d 793d b854 bbbc
00000320: c346 9f3e 8fa1 463e 7121 00be 9db3 9cbd
00000330: b453 c73d 2247 1a3e 5696 923e 6d25 623e
00000340: ca4c c8bd 7a88 4abe c6ef 8c3e 72d4 41be
00000350: 812e a0bc cd22 b23d f8d2 e73d 7ca8 863d
00000360: d369 f1bd f396 82be b1c8 d4bc 259f 223e
00000370: ba9c c4bd 54b6 0a3e 0e17 1dbc f268 78bb
00000380: f23f 4fbc 54e5 47be dabc de3d 0270 85bd
00000390: bcc0 a23d b94a 97bb 9421 33be f0ff 89be
000003a0: ee6e 5b3e aa9c 533d 1b84 76bd 17a6 8bbe
000003b0: 46a2 523e 6615 70bd 8b14 00be 7d6b 433e
000003c0: 19f6 4abe d2ac 383e e881 3fbd e781 023e
000003d0: 1c0c b93d 591b 9ebe 36c0 143e 44d9 0d3e
000003e0: 8457 a93d 53c0 c23d 36c7 63be 9018 9c3e
000003f0: 84d2 41bd d113 4fbe ea5d 253e ef4a 7abd
0.11096576 0.018686049 0.20364134 -0.1403088 0.06576359 0.030851025 -0.27881232 0.33895388
-0.13809964 0.009016749 0.18954815 -0.050672926 -0.17275704 -0.17438872 0.033123802 -0.11406525
-0.2395879 -0.09865434 0.21180512 -0.17334491 0.103189826 0.1496425 0.15817976 0.19824833
0.06291243 0.17482711 0.05743796 0.031418636 0.21045433 -0.27013943 0.11338623 -0.009156661
0.07233739 0.1620945 -0.02172272 -0.26148486 -0.0607086 0.06600171 -0.0853043 0.03436137
0.024014287 0.1794665 0.04453111 0.25167423 -0.04971118 0.04561427 -0.020866647 0.08426508
-0.042613957 0.33461577 -0.2488272 -0.33143494 -0.29424217 0.22358699 0.32427734 -0.40123644
0.19246058 0.31311867 0.09644991 0.05306729 -0.120197415 0.2480664 0.10097695 -0.22253202
0.085544914 -0.04254623 -0.044838615 0.24463016 0.18514004 -0.03289494 0.008265421 0.102071755
-0.004029691 -0.11241023 -0.045412693 0.04316813 0.014279053 -0.16357805 0.1431007 -0.043807648
0.0408169 -0.093439445 -0.011935426 0.13979428 0.17446724 -0.0065297764 0.09248212 -0.11590229
-0.14071217 -0.039982475 0.013830075 0.11826175 -0.071166106 -0.11100953 0.14072825 0.09203371
0.082807526 0.0012337486 0.036490545 -0.097831234 0.077338785 -0.116578974 -0.15219164 0.14018455
-0.01017238 -0.07844432 0.1935526 -0.12033963 0.09617123 0.100111 0.05049645 0.08960055
0.14845158 0.049713813 0.20572414 0.17271559 -0.025232298 -0.056454457 -0.049544048 0.0509186
0.017431274 -0.058154624 -0.018272541 0.006438573 0.030267099 -0.0593457 0.08681516 -0.10989619
-0.08894895 0.042890564 -0.26825806 0.014496787 -0.32239577 0.12085653 -0.019060567 0.1948215
-0.39203438 -0.30840555 0.41004232 -0.12968892 -0.45017192 0.23760468 -0.06466346 0.4954719
0.097812004 0.056751415 -0.3386802 -0.24229948 0.14602323 0.303491 0.075020336 0.37304553
-0.47282362 0.46652088 -0.12461043 0.15521255 0.27240485 0.124199875 0.32072604 -0.33873984
-0.23559539 0.18337938 -0.08172531 0.075372085 0.2165314 -0.088627934 0.05355777 0.07867488
0.12970114 0.07817005 0.17236727 0.041694023 -0.14552678 0.15497759 -0.26446748 -0.041583262
-0.08624423 0.103749156 0.025679965 0.16026905 -0.011450705 0.091210365 -0.016996797 -0.1476963
-0.13959488 -0.24370229 -0.08693229 0.030168083 -0.08435414 -0.22200023 0.12675697 -0.15963584
-0.115738116 0.1589749 -0.23342034 0.016011052 -0.23649944 0.12925121 0.060849812 -0.022867545
0.31108674 0.19397567 -0.12512757 -0.07651446 0.09732762 0.15066198 0.28630322 0.2208459
-0.09780271 -0.19778624 0.27526683 -0.18928698 -0.019553425 0.08698044 0.11319536 0.065751046
-0.117877625 -0.2550579 -0.025974603 0.15881021 -0.09600206 0.13546115 -0.009588016 -0.003790435
-0.012649523 -0.19521075 0.10875864 -0.065155044 0.079469174 -0.004617062 -0.17493278 -0.26953077
0.21429035 0.05166308 -0.06018458 -0.27275154 0.20569715 -0.058614157 -0.12507837 0.19083972
-0.19820441 0.18034676 -0.046754748 0.12744866 0.09035513 -0.3088024 0.14526448 0.13852412
0.082686454 0.09509339 -0.22243962 0.3048749 -0.047319904 -0.20222403 0.16149107 -0.06110662

actor.2.bias f4 [12]
00000000: 35a3 403d bc97 313e 57f4 a5bc c354 7ebe
00000010: 4cb6 8b3e 0199 2dbe a606 14be 185e aabd
00000020: 89a1 b63d eef4 f9bd c422 b1bd d16c 2b3e
0.047030646 0.17343038 -0.020258112 -0.24837022 0.2728752 -0.16952898 -0.14455661 -0.08318728
0.08917529 -0.1220492 -0.08649209 0.16740729

critic.0.weight f4 [32, 64]
00000000: 4832 943c d6d6 aa3d dfcc bd3d 1e23 8f3d
00000010: 0b91 743d 2749 e0bd 3655 debd 45d0 dfbb
00000020: b8fe 02bd 7f04 113d ad9c 7b3d 8912 16be
00000030: e41b 363d 5e10 873d b7a8 943d fade bf3d
00000040: c0ad 383d 273a d4bb 5726 25bd 66b0 23be
00000050: 60eb e83c 93f7 123d 53ef b03c a991 4ebd
00000060: 0ecd 3fbc 6f75 83bd 0147 f6bd 0f85 ccbb
00000070: 67db 8a3d b836 e0bd 57ad 793d 6c2f 8c3d
00000080: e188 c7bc 4e9e d53c 6b71 c93c d80b 083d
00000090: 600c 90bd ea91 2e3d 99de 9ebd 227d e83d
000000a0: eef7 68bd da9b 57bd db99 ddbc ca94 ddbb
000000b0: 8056 10bd 9dea 83bd afe6 9cbd 9db8 a53d
000000c0: 7bbf 58bd 2471 0b3d 3368 f3bc 04d6 fd3d
000000d0: 1ec8 a7bd ab18 013e 2671 be3d c569 56bd
000000e0: 17b3 bebd 5575 f8bc f08a cd3b cd6e a6bc
000000f0: 01a8 233c f27f c1bb 26e6 573c fe55 843d
00000100: ea55 1cbe de25 c4bc cc0f cbbc 8dee 99bd
00000110: 6b2d 6bbc bb40 61bd 84ab e0bd 834b e63d
00000120: 8a63 663d 2d6a db3d a554 96bd f597 0abe
00000130: fa31 123d 021f 8cbc 9634 2d3e 2e5b 113d
00000140: 5964 1cbe da7b 8f3d 6022 b5bd 7b87 d53d
00000150: 135e 2fbd a191 d23d 37b0 a6bd 654d 6bbc
00000160: cb93 bbbd 009d 0aba 98a2 b1bd eda5 0e3e
00000170: 973b d23d 2229 9abd 633f 263e bac8 093e
00000180: b718 3a3d 1fe7 23be 7824 01bd e7aa 323e
00000190: d259 263e 0581 dbbd cffa ab3d d142 e1bd
000001a0: 150f 40bd cf58 d8bc e8fc 5d3d e085 87bd
000001b0: cb59 a33c 4a5a eabc e667 ee3d c4b1 543e
000001c0: ea49 3b3e 5216 34be e9d9 d9bd c8d4 c0bd
000001d0: 3f14 25bd dd8a e13d c576 203e 84b7 bc3d
000001e0: a87c 433e c74c 88bd ed4e 57bd 7a9f 54be
000001f0: 9384 bcbb b1df 3d3e c52c 03be 3e9e 613e
00000200: e884 803d 4ea7 18be c599 483c e9d5 0d3d
00000210: 84c3 b93d f36d 873d bb4d 8ebd fac2 6a3d
00000220: 759f 93bd 5d40 37bd ac1c 8d3b 862d 133d
00000230: 1dcb aa3d 7545 783d 893f d4bc ff78 37be
00000240: c52c d6bd 5085 283b 6d68 a7bb 1270 e33b
00000250: b750 abbd 91a7 a43c 282d ecbd d19a 223d
00000260: 7e70 31bd 7910 3ebd 3b11 7cbd afaf 4dbc
00000270: 6f6d 79bc 8412 44bd 07ae 89bd 7bbc a9bd
00000280: 0f0d b83c ded6 8ebc 5f34 d4bd 691d 9cbc
00000290: 81ea 55bc fdb8 03bd 538a 013c f120 003a
000002a0: b85f c03d 5dfb b33b 2800 07be 49ea e7bd
000002b0: 9eaf eb3d b312 c93a 898c 2b3d 20e7 f43c
000002c0: 2cb3 9d3d ae65 613d a0a8 233d 3cb3 b4bc
000002d0: d215 273b 221e 87bd 6c1c 7bbc f5e5 4cbd
000002e0: d6b2 1e3a 0997 61be c7c4 703c 4aa5 f2bd
000002f0: f10f 0a3e 038c 85bd af10 16be fbdb 233e
00000300: 87bb febb 201c 86bd 1459 bd3d 2b87 913d
00000310: fd7b af3d eb04 41bc 9dc9 f4bc cca1 b23d
00000320: 0870 0c3e d897 d6bc ff09 3f3b a5b2 633d
00000330: 9c74 cf3c 88e0 123c 6212 193e 5681 84bd
00000340: d9f5 bf3c ce39 a83d b63a ac3d b670 12bd
00000350: f4c1 103e 4357 04bd 8921 a8bd 5a85 f03d
00000360: 0114 c9bd 867f 093e 6bcf 05be 7c64 e73d
00000370: 9e08 e6bd 55b2 b6bd 735e f03d 4285 e1bb
00000380: 03a2 13be 78b8 4bbe dd67 00be 215f 3c3e
00000390: 9ea1 cbbd 7690 1e3c c29b 83bd bfe2 603c
000003a0: 6003 af3d 484f 42bd 8e88 8abd 27ab acbd
000003b0: 124a 55bd b6f1 36bd ab5d 853d f28d ca3d
000003c0: c12a f4bd c720 ca3c 5c98 8ebd 0bce 06be
000003d0: 5a23 16bd 3812 0f3e 0a62 64ba 0985 dcbc
000003e0: 2fbe e7bd 6f41 97be 4af5 f4bd 8b3e a7bb
000003f0: 2a3e 823d 44b5 88bc 218b a33d 9168 a93d
0.018090382 0.08341758 0.09267592 0.0698912 0.059708636 -0.10951453 -0.108560964 -0.0068302476
-0.0319812 0.03540468 0.061428715 -0.14655508 0.044460192 0.06594919 0.07258742 0.09368701
0.045087576 -0.006476659 -0.040319767 -0.1598526 0.028432548 0.035880636 0.021598494 -0.05043188
-0.011706604 -0.06418883 -0.12025262 -0.0062414478 0.06780129 -0.10947937 0.060956325 0.068449825
-0.024357261 0.026076462 0.024590215 0.03321442 -0.0703361 0.042619623 -0.07757301 0.11351992
-0.05687707 -0.052638866 -0.027050903 -0.006762122 -0.035238743 -0.06441233 -0.07661187 0.08091853
-0.052916985 0.034043446 -0.029712772 0.12394336 -0.08192466 0.12607066 0.09298925 -0.052346963
-0.093115024 -0.030329386 0.006272666 -0.020316506 0.009988786 -0.005905145 0.01317743 0.06461714
-0.15267149 -0.023943838 -0.024787806 -0.07516203 -0.01435409 -0.054993372 -0.10970214 0.112448715
0.05624727 0.10713611 -0.073403634 -0.1353453 0.035692193 -0.01710463 0.16914591 0.035487346
-0.15272655 0.07006045 -0.08844447 0.104262315 -0.042814326 0.10281683 -0.08139079 -0.014361714
-0.09159049 -0.0005287677 -0.086735904 0.13930483 0.10265272 -0.07527377 0.16235118 0.13455477
0.045433726 -0.16006134 -0.03152892 0.17448007 0.16245201 -0.10717968 0.08397447 -0.10999072
-0.046889383 -0.026409535 0.05419627 -0.066173315 0.019940278 -0.028607506 0.11640911 0.20770937
0.18289915 -0.1758664 -0.10637266 -0.09415585 -0.04030251 0.11012814 0.15670307 0.0921469
0.19090521 -0.06655269 -0.052565504 -0.2076396 -0.0057531088 0.18542363 -0.12810047 0.22033021
0.0627535 -0.14907572 0.012243693 0.03462783 0.09070495 0.06612768 -0.0694842 0.05731485
-0.072081484 -0.044739116 0.0043063965 0.035932086 0.08339522 0.060613114 -0.025909202 -0.1791725
-0.10457758 0.0025714226 -0.005108884 0.00694085 -0.083650045 0.020099433 -0.1153205 0.039698426
-0.04332017 -0.04640243 -0.06153987 -0.012554093 -0.015223845 -0.04786922 -0.06722646 -0.08287903
0.022467164 -0.017436441 -0.103615515 -0.019056993 -0.013056398 -0.03215884 0.007906514 0.0004887721
0.09393257 0.0054926113 -0.13183653 -0.11323983 0.11508106 0.0015340656 0.04188207 0.029895365
0.0770019 0.05502861 0.039955735 -0.022058122 0.0025495184 -0.06597544 -0.0153266005 -0.05002399
0.00060538703 -0.22030272 0.014695353 -0.11847933 0.13482644 -0.06520846 -0.14654802 0.16001885
-0.00777382 -0.06548333 0.09245506 0.07105859 0.08568571 -0.011780958 -0.029881293 0.087222666
0.13714612 -0.026195452 0.0029150245 0.05559029 0.025324158 0.008964665 0.14948419 -0.06469981
0.023432659 0.0821415 0.08409636 -0.03575202 0.14136487 -0.03230978 -0.08209521 0.11744185
-0.098182686 0.13427553 -0.13067405 0.11298463 -0.11232112 -0.08920733 0.11736765 -0.0068823406
-0.14417271 -0.19894588 -0.1253962 0.18395664 -0.099429354 0.009677997 -0.06426193 0.0137259355
0.085455656 -0.04743889 -0.06764327 -0.08431082 -0.052072592 -0.044664107 0.06512006 0.09890355
-0.11922217 0.024673833 -0.06962654 -0.13164537 -0.036654808 0.13971794 -0.0008712119 -0.026918905
-0.113155715 -0.2954211 -0.11960848 -0.0051038912 0.06359513 -0.016687997 0.07985521 0.082718976

critic.0.bias f4 [32]
00000000: c260 253c 5f03 87be a6c2 40be 7073 1bbe
00000010: 2d09 9a3d c7e0 3bbe 1404 613d bfc9 963c
00000020: 3663 ec3b 1b8f 4cbe 2693 3ebd fb44 53be
00000030: 5d33 21be 4f38 ae3d 8642 5bbc 30b0 91be
00000040: cbf0 0a3e 4ae4 f4bd 595a ecbc 55d5 6d3e
00000050: 71b1 d43b f0f5 31be 867b 203e 9c8a 593e
00000060: ea79 c73d 1213 40bd 14eb a93c edbd 62be
00000070: 1382 ddbd 9e85 523e 6637 5c3e 44ed e63d
0.01009387 -0.2636976 -0.18824252 -0.15180755 0.075212814 -0.18347465 0.05493553 0.018406747
0.0072139753 -0.19976465 -0.04652705 -0.20631783 -0.1574225 0.08506834 -0.01338256 -0.28454733
0.13568418 -0.11957605 -0.028851675 0.23225911 0.006490879 -0.17378974 0.1567212 0.21244282
0.0974005 -0.046893187 0.020741977 -0.22142763 -0.10815825 0.20558783 0.21505508 0.112757236

critic.2.weight f4 [1, 32]
00000000: 50b1 fd3a 724b 21be 2442 56bd 666f 1bbd
00000010: 0180 c439 40f0 91bd 4274 55ba 09a7 9c3a
00000020: c97c 2eba 0baa 23be a938 00ba 7793 29be
00000030: 9804 e13e 5889 d43a 3d25 d4b8 79f3 8abe
00000040: 3f0e 1c3d 9788 83bc 99bf 4c3a 345d 153e
00000050: 16e2 503a 3be8 42bd df9a be3c b2a1 1c3e
00000060: 7356 6a3e c501 c63a 4653 0bbb a024 69bd
00000070: 44c1 81bb e9ce 433e 124c 203e 4acd 973c
0.0019355211 -0.15751436 -0.05230917 -0.037948035 0.00037479404 -0.07125902 -0.0008142629 0.0011951636
-0.00066561677 -0.15982835 -0.00048912555 -0.1656016 0.43948817 0.0016215248 -0.00010115884 -0.2713888
0.038099524 -0.016056342 0.00078105327 0.14586335 0.000796826 -0.047584753 0.023267208 0.15296057
0.2288454 0.0015106729 -0.0021259352 -0.056919694 -0.0039598066 0.19121899 0.15654019 0.018530507

memory_a.rnn.weight_ih_l0 f4 [256, 47]
00000000: d178 1f3f 6251 aabe 8552 a0bd 0398 313e
00000010: 8001 86bf c4aa 3c3e 40f1 81bd 9c6d 033e
00000020: 7480 7f3e e680 89bd 2647 98bf ae5e a1be
00000030: 2d37 07bf e0d7 093f ec59 66be f551 11bb
00000040: 2cf9 243f 4413 373e 7f40 1fbe 5475 b9be
00000050: 214f 6b3d 5e87 8d3e 031a 42bc 3f5b 763e
00000060: 932c b2be bda8 eebe fc85 cbbc ec37 923e
00000070: cbce a1bb 1601 d53e 9b38 9abe 060a 233f
00000080: 134c 503c 185f 85bd 9f34 6dbe 6a56 663e
00000090: f2c2 96be 9cf6 79be 140b febd 57f5 e33e
000000a0: fa2b 2cbd 7b21 3c3e 8652 2e3e b63b 2ebe
000000b0: 1ed0 c03e 58ca a9be 5ce4 823d 3e9e df3d
000000c0: 1bb8 b3be ff36 103e 3bda 7b3d f49b aa3d
000000d0: 9866 ad3d 4ebb bf3d 32fa 9e3e 5625 60bf
000000e0: 8906 ca3f 024e 35bf 7d53 95bf 319e 113d
000000f0: 2ae4 9ebe 394e 843e 4e66 b33e 39c1 0e3f
00000100: 659c 1f3e df54 33bf 3b84 e0bd 510d 603e
00000110: 50d0 f83e 2ebb 83bf 2e00 45be c727 64be
00000120: 083c 303c e13f 9a3d ad66 913e 524e 2e3e
00000130: 6b73 293e 1461 87be da0d f93e b499 3d3f
00000140: 6b9f e9bd 6d72 9fbe 4d40 31bf 22a9 433d
00000150: 333d ef3d 665d fe3c ff05 f63e c9f0 44bd
00000160: bcb7 b23e 8e20 98be f6b8 3cbe 1d09 1d3f
00000170: b62a 82be 291a 42be 6a1e d93e a19b c9be
00000180: d7a5 a03d 3198 d53e 7159 a3be e31b b6bd
00000190: 3973 a0bd 780f bd3c 85e5 f5bd 4f7c 0a3e
000001a0: 0b28 cc3e 05e4 5e3e f005 60be 4909 9dbe
000001b0: ce30 abbe 4302 67bf 3937 db3d 3966 953e
000001c0: 61c0 95be b8e7 923e a6d9 05bf cdd5 943f
000001d0: dec0 3f3c 0655 873d 9caf 85be 5fdc 11bf
000001e0: eba8 823d 15bc 36bf 7625 b0bd 9ebd 11bf
000001f0: 7c6c b53e ad50 683f 7a07 083f 03d6 8c3f
00000200: 0149 313d 73bd 183e 1502 c6bc 480c ed3c
00000210: 8801 02bd 58c8 253f 2d40 4bbe 01a7 533e
00000220: 284f c83e 4985 be3a 66f8 4fbe b2e5 773e
00000230: bc61 4c3e 3fa8 39bf 01da d93e b728 f13d
00000240: ebee db3e ab3a 853e e993 a83e 0181 e6be
00000250: f018 c13d 3fd8 2a3f f8a3 bfbe fe9e a8be
00000260: d6ba 0a3e 9969 813e 9805 553f 563d 0b3f
00000270: 7e35 25bf a686 3abf 076e fc3e 28fc 32bf
00000280: beff af3c b6a5 073e 85c0 97be c1bc 2d3f
00000290: f045 90be 020a 023e 1372 17bf 9e8b 27bf
000002a0: 7d44 edbe 8642 b2bb 2212 a43d f594 0e3f
000002b0: 752d c0be 5730 29be 0316 f0be c08e 19bd
000002c0: 519b c1bd 3c9f 0e3f 35c8 a3ba 18e3 31be
000002d0: 7fd6 013e 7ca4 c43e cf08 053e 3eec b13e
000002e0: 863a 2cbe 582f a33d 2136 363e 964f be3c
000002f0: aca5 1a3e 2dc5 d83d 2431 923f 5bb7 003f
00000300: 357e 97be 443c ca3d 60eb b03c 7c0c 433e
00000310: 3f70 283f 6cdb 3b3f 12b4 113f 476d 50be
00000320: 2b65 f9be f88c 153e f3c1 913c 1a40 abbe
00000330: 6d61 953e 11ef d5be 4a65 263f 1acf 443f
00000340: ff67 e73a 79b1 3bbf eb6f 2e3f ee6b 1a3f
00000350: c40d da3e 571c 9a3e 3e2a 56bd 6f4b e6be
00000360: 7727 5a3e 8dcc c9be 52b8 a63e d4ae bd3d
00000370: b12b c3be c71d 83be bc9e cabe 4662 043f
00000380: d2f8 003e e126 063f f24d 8dbe 831a dcbd
00000390: 7686 e9be c28e e3bd 7801 05bd 5873 fbbc
000003a0: 9969 d43c 40f1 c5be 405d aabe efb5 e23e
000003b0: 7a92 923e 08b1 f73c 02a1 dabe 2dd3 19be
000003c0: a311 dbbe c058 2ebe 5bec 5e3e 34c0 40bf
000003d0: d3cf 3abe ec8d 99be adfa 613d 1003 11be
000003e0: aa81 3c3e ba05 ad3e 33cb b3bd 7028 2bbf
000003f0: 5f72 a93e 7e03 af3e ebc1 ea3e 43fe 8cbe
0.62293726 -0.33265215 -0.07828239 0.17343144 -1.0469208 0.18424517 -0.06344843 0.12834781
0.24951345 -0.067140386 -1.1896713 -0.31517547 -0.52818567 0.53845024 -0.2249524 -0.0022174094
0.64442706 0.17878443 -0.15551947 -0.36222327 0.05744851 0.2764234 -0.011847022 0.24058245
-0.34799632 -0.46613112 -0.024844162 0.2855829 -0.0049379817 0.4160239 -0.30121312 0.6368717
0.01271345 -0.06512278 -0.23164605 0.22493902 -0.29445606 -0.2441048 -0.12404457 0.44523117
-0.042034127 0.18372147 0.17023668 -0.17014965 0.3765878 -0.3316219 0.06391212 0.10918854
-0.351014 0.1408348 0.061487418 0.08330527 0.08466834 0.093618974 0.3105026 -0.8755697
1.5783244 -0.70822155 -1.1666104 0.035551254 -0.3103345 0.2584093 0.3503899 0.55763584
0.15587004 -0.7005138 -0.10962721 0.2188008 0.4859643 -1.0291498 -0.1923835 -0.22280799
0.0107565 0.07531715 0.28398648 0.17022064 0.16547935 -0.26441252 0.4864338 0.7406266
-0.1140736 -0.31141987 -0.6923874 0.04776872 0.11681595 0.031050395 0.4805145 -0.048081193
0.34905803 -0.29712337 -0.18429932 0.6134203 -0.2542321 -0.18955292 0.42406017 -0.39376548
0.078441314 0.41717675 -0.31904176 -0.08892038 -0.07834477 0.023078665 -0.12006668 0.13523982
0.398743 0.2176667 -0.21877265 -0.30671147 -0.33435673 -0.90237826 0.10703892 0.29179552
-0.29248336 0.28692412 -0.5228523 1.1627747 0.011703698 0.06608014 -0.26110542 -0.56976885
0.06379875 -0.7138074 -0.08600895 -0.5692996 0.3543433 0.907481 0.5313641 1.1002811
0.043282513 0.14916019 -0.024170915 0.02893652 -0.03173974 0.64758825 -0.198487 0.20669176
0.3912289 0.0014535572 -0.203096 0.24208716 0.19959158 -0.7252235 0.42549136 0.11775344
0.42955717 0.26021323 0.32925346 -0.45020297 0.094285846 0.66736215 -0.37429786 -0.329338
0.13547835 0.25275877 0.8321166 0.54390466 -0.6453475 -0.7286171 0.49302694 -0.6991601
0.021484252 0.13246807 -0.29639068 0.6786614 -0.28178358 0.1269913 -0.5915844 -0.65447414
-0.46341315 -0.005440059 0.08011271 0.5569604 -0.3753468 -0.16522346 -0.46891794 -0.037489653
-0.094534524 0.5571172 -0.001249558 -0.17371786 0.1267948 0.38406742 0.12991641 0.3475055
-0.168192 0.079680145 0.17794086 0.023231309 0.15102261 0.10584483 1.1421247 0.5027978
-0.29588476 0.09874776 0.02159661 0.19047731 0.65796274 0.73381686 0.5691539 -0.20354186
-0.48709998 0.14604557 0.017792678 -0.33447343 0.29175892 -0.41783956 0.64998305 0.7687851
0.0017654895 -0.73317677 0.68139523 0.6032094 0.42588627 0.30099747 -0.05228638 -0.44979426
0.21304117 -0.39413872 0.325625 0.092618614 -0.3811927 -0.25608656 -0.3957423 0.51712453
0.12594917 0.52403075 -0.2759853 -0.10747244 -0.45610398 -0.11111213 -0.032472104 -0.030694649
0.02592926 -0.38660622 -0.3327427 0.4427943 0.28627378 0.030235782 -0.42700964 -0.15021963
-0.42786893 -0.17026043 0.2176985 -0.7529328 -0.18243341 -0.2999109 0.055170704 -0.14161325
0.18408838 0.33793432 -0.087789916 -0.6685858 0.3309507 0.34182352 0.45851073 -0.27537736

memory_a.rnn.weight_hh_l0 f4 [256, 64]
00000000: e33e 353d c2e5 543e 8f12 adbe 9b48 a5be
00000010: 3bf9 663e 5c60 12bd a10d 5ebe f6cc 1dbd
00000020: 144a 72be ee3a 23bf 00d0 f83d 9e99 9cbe
00000030: cf46 e2be 667c 28bf e8c3 48bf 363e c83e
00000040: 79ea 90be e66b a4be 371b 08bf 8c7f 6a3e
00000050: f081 92bd addb 26bd 00db 0f3e 7fbf 8bbe
00000060: d05a 273f 966f 0ebf 44a8 f0be 9e0a 113f
00000070: e195 c83e d464 f73d 74c0 013f f9d4 893d
00000080: f9c6 05be b160 ffbe 8cff ce3d 7d7f 59bf
00000090: 66f4 b83d a92e c53a e9e0 903d 6e3b 02bf
000000a0: 4867 c53e efa4 d8ba 876f 94bf 38a2 e6bc
000000b0: abeb 133f 1a76 23be 1ad7 86bd 4c5e 55bd
000000c0: 1acd 43be c2df 283e 0355 69bf 7cd2 a8be
000000d0: 2c4a 0a3e f479 40bf 75dc 683f 37c6 8ebf
000000e0: 5ab8 e93a 65bb 873e 2b1c 2a3f ebe2 edbe
000000f0: 2ec7 083d f16e e0be d8ea 5abc 430b 1fbe
00000100: c68c d1bd b09e a23e 3e03 603e 3435 52bf
00000110: 9df1 3ebf ebd9 1bbf 5d0d 7a3f 7b79 cebe
00000120: 0c44 25bf 7b27 963e f651 2cbd 134a 2d3e
00000130: 48d3 3c3e 592d c33e e284 f8be ee68 b5be
00000140: 72b0 273e 8565 643f 6ab0 9b3e e72b 88bd
00000150: 4729 42bf 299e 2dbf ee57 b6be 23f2 8dbe
00000160: 542d 093f c491 9fbe e9bf dabe 50a0 28bf
00000170: fa7d ba3e d297 27be 47cc 803d 3a15 033f
00000180: 5f31 2fbf 11f3 1c3e ca3b 97be c5d1 43be
00000190: 26ff 16bf 2b89 ec3d 6381 a63c 40b8 bebe
000001a0: d93c 4d3e 5a59 77bf 5f3c 23be 430e 45bd
000001b0: 9f6e 3b3f 7c3b 2e3e 1240 e63e 1339 2ebe
000001c0: 1e0a 90be a2b5 3dbe bccb 04be a5ca 6a3f
000001d0: 2fc0 26be 9c1e 213e 4e80 a9be 512f c73e
000001e0: 1c59 bb3e e50f 893e a182 c9be 21ad aabb
000001f0: 308e e0be b3d1 1d3c b6e6 853d 9687 0dbf
00000200: 61b5 c93e 58ec 7fbe 5e50 fa3c b4d3 3c3c
00000210: 8cf1 a23c 2442 eebe ba7a cdbe 446d 163f
00000220: 2a86 22bf 1bf9 023e c757 a9be 7c4a 53bd
00000230: 7c06 103f 779e 23be fbc8 3dbe ab88 1f3b
00000240: e78c 14be 443b 963e 18cb d33e f15c 43be
00000250: 4e16 2ebf 25cc 603f bb82 ec3a 6e23 553e
00000260: eccf d2be 4c92 473f a93c 28be 6905 82be
00000270: 7628 28bf a3e5 86be 078a 0b3f d6e9 633d
00000280: 5926 523f 58b0 e53c 93d8 f8be 1431 43bd
00000290: bc14 8c3f 15fd bf3e c93c 21bf 5a96 57be
000002a0: 5767 5bbe b106 073e 29bc c23e 6b5e 133f
000002b0: 1b86 3dbf d3f4 d73d df07 e23c 4ffb 9cbd
000002c0: a5b3 dabc 4c59 9f3e bef8 07bf ff0c 183e
000002d0: 0b56 de3e 82a0 a1be 2cf3 0d3e f213 2bbe
000002e0: e45f 1bbf e4b1 26bd b8f4 5dbe bdb5 873e
000002f0: cd63 a63e 1080 ca3d 2664 36bf b06e 1b3f
00000300: fe41 193f bcad 8f3e 8f85 fe3d 05c1 ef3d
00000310: 0865 233f e192 29bf 2c40 15bc ac8a 653f
00000320: 5fee 43bf 42df 39bf 6187 eebd ab43 aebe
00000330: c44e 873e 0d16 92bf eee9 25bf ee1a 8e3e
00000340: 6486 a7be 304d 503b 60e6 903d 79b2 9d3e
00000350: 31d8 bb3e 9356 6ebf 2882 83be 2214 0fbe
00000360: ce57 60be 974c c1be 38d0 97be f16e 673e
00000370: 1309 0ebf 9383 91bd 1e55 e73e 3949 f2ba
00000380: cba2 ccbd 7c2f e6bc 8093 61bf 07dd d4be
00000390: 0d8c 8dbe b349 25bc 67d7 15bf e7df 64bf
000003a0: d738 8cbe 656c 4bbf 3726 eb3e b626 703d
000003b0: 234e cdbe a386 1abf d52b 22bf cf4b 52bf
000003c0: 78b4 debe 1fe9 85bf 4fe7 bf3d 2d0b 0dbf
000003d0: a156 373f 45b9 ddbd 82ad 76be 9fd1 f5be
000003e0: b737 6f3c 5884 4fbf 227b 09bd 5cc0 5a3e
000003f0: 153d 7e3b dfc3 07bf f254 2ebe 13bd 293f
0.044249427 0.2079077 -0.33803222 -0.32281956 0.22556011 -0.035736427 -0.21684887 -0.038525544
-0.23661071 -0.63761795 0.12149048 -0.3058595 -0.44194648 -0.65814817 -0.7842393 0.39109963
-0.28303888 -0.3211357 -0.53166527 0.22900218 -0.0715369 -0.040736843 0.14048386 -0.27294537
0.65372944 -0.55639017 -0.47003376 0.56656826 0.3917685 0.12079778 0.50684285 0.067300744
-0.13064183 -0.49878457 0.101073354 -0.84960157 0.0903099 0.0015043813 0.07074148 -0.5087193
0.3855536 -0.0016528646 -1.1596535 -0.028153524 0.57781476 -0.15963021 -0.06583996 -0.05209188
-0.19121209 0.16491607 -0.9114534 -0.32973087 0.13504857 -0.75186086 0.9096139 -1.115424
0.001783143 0.26510158 0.6644923 -0.46462187 0.033393078 -0.43834642 -0.013361655 -0.1553164
-0.102319285 0.31761694 0.21876237 -0.8211243 -0.7458742 -0.6087939 0.9767664 -0.40327057
-0.64556956 0.29326996 -0.04207035 0.16922788 0.18439972 0.38120535 -0.48538882 -0.35431617
0.16375902 0.89217407 0.3040803 -0.06648999 -0.75844234 -0.6781946 -0.3561396 -0.27723798
0.5358479 -0.31165898 -0.4272454 -0.6586962 0.36424237 -0.16366509 0.06288963 0.51204264
-0.6843471 0.15327097 -0.29537803 -0.1912299 -0.58983076 0.115496 0.020325368 -0.37249947
0.20042743 -0.96620715 -0.15940998 -0.048109304 0.7321567 0.17014879 0.44970757 -0.1701396
-0.2813272 -0.18526319 -0.12968343 0.9171546 -0.1628425 0.15734333 -0.331057 0.38903287
0.36591423 0.2676994 -0.39357474 -0.005208627 -0.4385848 0.009632516 0.06538145 -0.5528501
0.39396194 -0.24992502 0.0305559 0.011525083 0.01989057 -0.46534836 -0.40132695 0.58760476
-0.6348597 0.12790339 -0.3307478 -0.051584706 0.56259894 -0.15978418 -0.18533699 0.0024342935
-0.14506875 0.2934209 0.41365886 -0.19078423 -0.68002784 0.878115 0.0018044332 0.20814297
-0.41174257 0.77957606 -0.1642939 -0.25394753 -0.6568674 -0.26347074 0.5450749 0.055642925
0.82089764 0.028038189 -0.48602733 -0.047654226 1.0943828 0.37497774 -0.62983376 -0.21053448
-0.2142614 0.13186146 0.3803418 0.57565945 -0.74032754 0.105447434 0.027591644 -0.07665121
-0.02669699 0.31122816 -0.53113925 0.14848708 0.4342502 -0.3156777 0.13862294 -0.16706827
-0.6069319 -0.040696993 -0.21675384 0.26505843 0.32498017 0.09887707 -0.71246564 0.6071577
0.5986632 0.28062236 0.12427818 0.117067374 0.63826036 -0.66239744 -0.009109538 0.8966472
-0.765356 -0.7260629 -0.11646915 -0.34036002 0.2642728 -1.1412979 -0.64810073 0.2775492
-0.3271972 0.0031784289 0.070751905 0.30800226 0.36688378 -0.9310085 -0.2568524 -0.13972524
-0.21908495 -0.37753746 -0.29651046 0.22600915 -0.55482596 -0.07105174 0.45182127 -0.0018484957
-0.09991988 -0.028098814 -0.8811569 -0.4157488 -0.27645913 -0.010088372 -0.585318 -0.8940415
-0.27387115 -0.7946227 0.45927593 0.058630668 -0.40098676 -0.6036169 -0.6334813 -0.82146925
-0.43497062 -1.0461768 0.093702905 -0.5509518 0.7161656 -0.10826353 -0.24089625 -0.4801149
0.014600686 -0.81061316 -0.033564694 0.21362442 0.0038793732 -0.5303325 -0.17024592 0.6630413

memory_a.rnn.bias_ih_l0 f4 [256]
00000000: f436 5f3d 2b30 8c3d 3dad 25bd 1c2f 17be
00000010: dd35 e8bd 64b8 513e f5ff 63be e6f2 5fbd
00000020: 582c bb3c 84b4 903d b0ec 803e 0af0 21be
00000030: 8352 1fbe 8ca8 8fbe bb9c 62be 2045 01be
00000040: f715 a23e 68cf 77be 69c8 28be 2a2a 10bd
00000050: dfc8 8dbe 3601 d3bd 485e 25be 40bc 90bd
00000060: 489b 6bbe b65d 22be 02bb 94be 8593 e9bd
00000070: 5511 8cbd 2e58 48be 10f5 153a 1f16 113e
00000080: 9ed1 223c 5682 9ebe dc83 97be 4aa5 1abe
00000090: 9973 0eba 51ea f43d d4b5 7ebe eccc bf3c
000000a0: 8148 5fbe f350 52be 2ca7 8ebe 7241 1a3e
000000b0: a82b 58be 6fbf 98be 475c 513e 9dce babd
000000c0: 533d 1a3e 95a7 0ebe 21f9 19be 90dc 4b3e
000000d0: 598e e63d 6412 85be f5ba a0be 7c70 213d
000000e0: 333e 6b3e 865d 353e 33f9 843e 95cd 4e3d
000000f0: 518a 973d e2b5 3c3e e95f b4bd caab f7bd
00000100: 12e4 9cbb 4cfd 1cbe 4539 4bbe 4c3b 943e
00000110: 46b2 d4bd c9bd 79be 0e32 c03e 273c ff3d
00000120: 8eaa 73be 53e0 0bbe 66c7 c3be c936 35bb
00000130: 6420 64be 44e6 91be d0d6 0ebe c0ad 5cbe
00000140: 356c 23be 34a2 fabd 249f 96bd 05df 883d
00000150: 1732 e5bd 2f5d c83d 54b7 bb3d 7003 47be
00000160: 4480 55bd cbdb 213e 168c 5ebe 73a5 9c3c
00000170: 4abf 85bd 2f8d 7abe 0609 47be 9c6d 83be
00000180: 6a69 6b3d aab4 1fbd fd07 033d 2c2f 40bb
00000190: 4729 9ebe 5adb 53be 96c7 65be 7ad9 99be
000001a0: 20e9 c5bd 168d 993d 7fc3 77be 7b9d 67bd
000001b0: 46af 28be f6b5 9cbe bbea bfbe eb05 fcbd
000001c0: 9529 64bc 2813 8ebc 6569 83bd 7658 47be
000001d0: 8f39 7bbe df52 36bd 5d3e 2a3d 9a1c 373d
000001e0: 3073 c1bd 03d0 8dbe 366d 24bf e809 1abe
000001f0: bf4c b4bd 399e 3abe 9bab 67bd cd20 efbe
00000200: 2fda 74bd ae2e f3bd 11f4 7e3d ca81 083e
00000210: 2a18 04be ec69 bd3d 665a ef3c 8380 3ebe
00000220: c8f1 733d 7cec 573e f82f e8bd 6001 34bb
00000230: 83a5 c1bd b1ea 3b3e fcb2 cb3d 82dd 583d
00000240: 1b66 8bbd 5cbc edbd a0b6 8fbd ea54 c0bc
00000250: 94fa 9ebd 847d f23d eeae d5bd cb72 04bd
00000260: 22df bd3c f379 d13d 9f9e 193e f5a9 453d
00000270: 5ec9 53be cc60 083e 9745 cd3b 439a 2f3d
00000280: 7434 0b3e e49c 01bd c6f4 a33c 436a 903d
00000290: 0c24 083e fc59 b13d 756b 923d 4e8b 00bc
000002a0: bbdd c93d dadf 633e a3cd e73c 694f 06bd
000002b0: f54a 303d c2da 72bc 737a 853d 85f4 683c
000002c0: 45f0 a5bc 3ac5 923c 2f63 b8bc d328 0f3e
000002d0: 8e86 91bd c453 1cbd a26d abbc efcc 5e3b
000002e0: bb88 31be 4f41 f93c 8062 323a 2746 e0bc
000002f0: ef10 babd 3300 e13d 418d 0dba d5ac 27bc
00000300: dbca 433c 198a 9fbc 531c 4a3d 8839 f4bd
00000310: 5609 3fbe aed4 8a3e ff40 8fbe 0f57 07ba
00000320: a1e6 ecbd d119 94bd 6cc5 1d3e ac28 6abe
00000330: 98e3 93be 851d 4bbe 8949 cdbe 2327 3c3d
00000340: 29d4 e33c 6a46 9bbe 78f8 64be 21e9 97be
00000350: 9c46 96be 694d 3abd b14b d43d a049 2dbd
00000360: 1dfb 89bc 5a2f 263c 645e c7bd b924 6bbd
00000370: 1c8d 1abe f582 493c 77bb 7bbd a608 c2bd
00000380: 722a ebbc 3289 a4bd 59ae 0f3e 2f49 01be
00000390: cb44 4d3b ff44 f7bd a0d9 96be ae9e 103e
000003a0: c730 16be d808 053e 679c 52bd 57b9 ac3d
000003b0: 1599 763e e6df 03be f2ac 97bd b252 16bc
000003c0: b895 4e3e ce1c 3f3b 5b86 1abe 14c7 4d3c
000003d0: e79b 8f3e ad11 033e 30b0 49be 7022 69be
000003e0: 45b6 643c e36a 2e3e 9b68 6dbd 55ad 503e
000003f0: 7fbb 153e 6e21 a73d dfc0 f4bd 8c8a 10bd
0.054495767 0.06845125 -0.040448416 -0.14764065 -0.113383986 0.20480496 -0.22265609 -0.054675005
0.022848293 0.070656806 0.25180578 -0.15814224 -0.1555882 -0.2805828 -0.221301 -0.12624025
0.31657383 -0.24200213 -0.164827 -0.03519646 -0.27692315 -0.10302965 -0.16149247 -0.07067156
-0.23008454 -0.1585606 -0.29048926 -0.1140509 -0.06839243 -0.19564888 0.0005720416 0.14168595
0.009937672 -0.30958813 -0.29592788 -0.15102115 -0.00054340955 0.11958755 -0.2487405 0.023413144
-0.21805002 -0.20538692 -0.27861917 0.15064028 -0.21110404 -0.29833552 0.20445357 -0.091214396
0.15062456 -0.13931115 -0.15036441 0.19908357 0.112576194 -0.25990593 -0.31392637 0.039413914
0.22972946 0.17711458 0.25971374 0.050489027 0.07399429 0.18428758 -0.08807356 -0.12093313
-0.0047879303 -0.15331 -0.19846065 0.2895149 -0.103855655 -0.24388804 0.3753819 0.12462645
-0.2379553 -0.13659792 -0.38238066 -0.0027651063 -0.22277981 -0.2849599 -0.13949132 -0.21550655
-0.15959246 -0.12237969 -0.073545724 0.066831626 -0.111911945 0.09783398 0.091658264 -0.19434905
-0.052124277 0.158065 -0.21733126 0.019121861 -0.06530626 -0.2446792 -0.19437036 -0.25669563
0.057473578 -0.038990654 0.03199004 -0.0029324992 -0.30890867 -0.20689145 -0.22439417 -0.30048734
-0.09663606 0.07497613 -0.2419567 -0.05654667 -0.16473112 -0.30607575 -0.37483773 -0.12305816
-0.01392593 -0.017343119 -0.06416587 -0.19467339 -0.24533676 -0.044512626 0.04156338 0.04470501
-0.094457984 -0.27697763 -0.6422914 -0.15042841 -0.08803701 -0.1822442 -0.05656014 -0.46704713
-0.05977839 -0.11874138 0.06224448 0.1333076 -0.12899843 0.092487186 0.02921791 -0.18603711
0.059556752 0.21086305 -0.11337274 -0.002746664 -0.09455397 0.18351246 0.09946248 0.05294562
-0.068065844 -0.11608192 -0.07017255 -0.02347799 -0.07762638 0.118403465 -0.10433756 -0.032336038
0.023177687 0.10228338 0.15001915 0.048257787 -0.20682284 0.13318175 0.0062643993 0.042871725
0.13594228 -0.031643763 0.020014178 0.07051518 0.13295001 0.08659741 0.07149402 -0.007845713
0.09856745 0.22253361 0.028296297 -0.032790575 0.043040235 -0.014822664 0.06517496 0.014218454
-0.020256171 0.01791631 -0.022508232 0.13980417 -0.071057424 -0.038165823 -0.0209263 0.0033996662
-0.17337315 0.03042665 0.0006804839 -0.027377201 -0.09085261 0.10986366 -0.00053997716 -0.010234077
0.01195022 -0.01947503 0.04934342 -0.11925036 -0.18655905 0.27115387 -0.27979276 -0.0005162814
-0.115674265 -0.072314866 0.15407342 -0.22867078 -0.28884578 -0.1983548 -0.40095165 0.04593576
0.027811127 -0.3032716 -0.22360408 -0.2967005 -0.29350746 -0.04548398 0.103659995 -0.042306542
-0.016843373 0.010143125 -0.097348005 -0.05740807 -0.15092891 0.012299289 -0.061458077 -0.09474306
-0.028706763 -0.080339804 0.14031352 -0.12625574 0.0031321521 -0.12073707 -0.2946291 0.14123031
-0.14667045 0.12991655 -0.05141869 0.08433788 0.24081834 -0.12878379 -0.074060336 -0.00917499
0.201743 0.0029161456 -0.15090315 0.012559671 0.28048632 0.12799712 -0.19696116 -0.22767043
0.013959472 0.17032962 -0.057961088 0.20378621 0.14622305 0.08160673 -0.1195085 -0.03528838

memory_a.rnn.bias_hh_l0 f4 [256]
00000000: 03f7 f7ba 5260 923d 462b 0bbd 6839 46be
00000010: 3d4b 41be 0577 a43e 73d2 12be 5307 873d
00000020: e807 f8bc cba8 ae3c a55d c03e d154 30be
00000030: d083 c9bd c058 b8be 45b6 a6bd 695e 8dbd
00000040: 1ffc 873e 6b84 e7bd 8dfe 61be 3e7c 5ebd
00000050: 82ad 46be 2345 e2bd 133b dcbd 16ca 28bd
00000060: 7f1e 1fbe 9703 55be ea58 b6be 3818 fcbd
00000070: 0db2 89bb 4401 eabd 83f3 1dbe fb21 fb3d
00000080: 78e3 cfbd cb5c e6bd ce10 83be ead9 d6bb
00000090: ec2d 82bd 319a 10bd d9d3 71be e7c9 b4bd
000000a0: e77c e3bd c004 d5bc ef16 efbe 7cb6 ad3d
000000b0: f520 4bbe aecb dabe 33a8 1f3e a8ee 09be
000000c0: af12 e83c 1052 97bd 8d53 e33b 4b3e b93d
000000d0: dd82 a13d eebe 63be eb94 85be 0397 3e3e
000000e0: 5d16 cc3d 54b4 ad3d 7f66 ef3d 3afa 8dbd
000000f0: 0b27 1f3d 1e1d 3f3e 5129 0e3c 7808 fabd
00000100: 1377 e8bd 477d dabd 9ab9 16be d480 613e
00000110: 4120 c93d 5626 3bbc 94b2 b03e 99c9 4fbd
00000120: cec3 e1bd 06e3 86bd f2ee 2ebe 658b 003d
00000130: 0612 dabe a693 01bf 1b05 f43c 4ce7 91be
00000140: 86ca 84be a3cf 09be fcb4 b6bd 31c8 ee3c
00000150: 281a 22be 3bb6 0c3d 8b43 383e aaae 62bd
00000160: be90 c03d b6b9 513e da79 8fbe a375 b73c
00000170: 7d16 a33b 22c2 7dbe b8ec 15be f148 cebc
00000180: ae74 5e3c 7e52 2ebe a0a9 6c3d 6074 1dbe
00000190: 5def 44be 354d 6ebe e7bb b3be 9af6 51be
000001a0: c2cf 23b7 120c 113e 142a 81be 62d9 9d3d
000001b0: 8b0e 09be ace0 78be d082 a3be c533 87be
000001c0: f2aa 12bc 768f 1dbe d788 f6bd f684 70be
000001d0: ddd9 9dbe e25a 00bd ef31 4e3e 2c6a 38be
000001e0: 53d8 54bd 73db 51be f592 d1be 8e6e 62be
000001f0: f4d4 a9bd 8e02 30be 438d 99bc 0ebb ffbe
00000200: 2d96 93bc 1897 c73d 658e b63c 40b9 de3d
00000210: 6b21 923d e590 dcbd a414 c83d 01dd 84bd
00000220: abd8 f7bd c3bf 573d dcea 75bd 8ec0 f2bd
00000230: d107 9e3d 6215 8c3d af61 96bc 845f 1bbe
00000240: f1e0 93bc 6746 04bd c2e0 ae3c f691 9fbd
00000250: 76a2 debc 3d7f 633d 1ef2 3c3d 7c7d 293d
00000260: 2949 d93c 73bc 1ebd b87b 20bd f2e8 6d3d
00000270: c154 b8bd c6bf 2d3e cb01 d2bd b772 42bd
00000280: 89dc 61bd dc78 3dbd 57f8 8abc 9b7a d9bd
00000290: fa07 433c ffb2 813d efa9 de3c 455e 29bd
000002a0: d7e6 dcbc b366 723e b49b 103e 97d0 28bd
000002b0: 6f91 7b3d 2ae1 e0bc b13e 883d 1151 60bb
000002c0: 8f8c 2c3d cf91 b6bc b932 babd 3ea0 0d3d
000002d0: aee8 91bd cbfc 0d3e a38a 23be 2be6 5dbc
000002e0: 79e3 7abd 740b 403d 6229 043e 63de b43d
000002f0: 0a77 b13c b83a cabd 1daa aebd d2ae 1f3e
00000300: 6e47 273e 7541 b83c d9f2 cd3d 5a62 ddbd
00000310: 5a97 f5bd 8fc5 8b3e 608b 38be 4680 01bd
00000320: 8e7d 1ebe beb3 6bbd 2a15 713e f119 55be
00000330: 11b0 f2bd 14fb a7be fcb9 9bbe 72ae 75bd
00000340: bdc9 1c3b c727 9dbe dc5b b8bd 2ae8 c7bd
00000350: f3d9 b3bd c2d4 33be 6692 803d 796f 5dbe
00000360: 0e67 52bd 5846 1cbe 9437 50be 1e69 f7bd
00000370: 3737 54be 19d3 553c 8163 eabd 7279 18be
00000380: e554 253e b753 10be cecb 143d b772 3bbc
00000390: 2b5e 503c 2daf b4bd e676 a0bd 5287 fb3d
000003a0: c1cf 1dbe 109f f63d 7086 84be ea9b 693d
000003b0: e94a 7a3e 00b4 623b 5c2b 603d c37a e13d
000003c0: 710f 2a3e 9862 96bd 29ce 093d 3010 51bd
000003d0: 7367 813e db33 653e 2b1a 3bbe dd15 81be
000003e0: e97e e4bd b065 b93d e52d 1bbe 9cad a13d
000003f0: cac9 0d3e 0749 0e3e 879e d8bd d1f4 b1bb
-0.001891822 0.07147278 -0.033976816 -0.19357836 -0.18876357 0.32122055 -0.14338093 0.06593194
-0.030277207 0.021320721 0.37571445 -0.17219855 -0.09839594 -0.3600521 -0.08140234 -0.06902773
0.2655954 -0.113045536 -0.2206976 -0.054317705 -0.19402125 -0.11048343 -0.10753455 -0.04120835
-0.15538977 -0.2080215 -0.3561471 -0.12309307 -0.0042021335 -0.11426023 -0.15424924 0.12262341
-0.10150808 -0.112481676 -0.25598758 -0.006556739 -0.06356415 -0.0353033 -0.2361597 -0.08827572
-0.111078076 -0.026003242 -0.46697184 0.08482072 -0.19836791 -0.4273352 0.15591507 -0.13469946
0.028329222 -0.07388699 0.0069374503 0.090450846 0.07886288 -0.22240803 -0.26090178 0.18612294
0.09965203 0.084816605 0.116894715 -0.069324926 0.038855594 0.18663451 0.008676843 -0.122086465
-0.113508366 -0.10668426 -0.14719239 0.220218 0.09820605 -0.011422714 0.34511244 -0.050729368
-0.11023675 -0.0658627 -0.17083338 0.031382937 -0.42591876 -0.5061592 0.02978759 -0.28496778
-0.25935763 -0.13458113 -0.08921239 0.029148193 -0.1583029 0.034353476 0.17994516 -0.055342354
0.094026074 0.20481 -0.28022653 0.02239496 0.004977046 -0.24781087 -0.14641082 -0.025181266
0.013577623 -0.17023656 0.057778955 -0.15376425 -0.19231935 -0.2327164 -0.35104296 -0.20504227
-9.7639295e-06 0.1416476 -0.25227416 0.07707478 -0.13384454 -0.24304456 -0.3193574 -0.26406685
-0.008951889 -0.15386757 -0.12037819 -0.2348822 -0.3083028 -0.031336673 0.20136236 -0.18009251
-0.051964115 -0.2049387 -0.40932432 -0.22112486 -0.08292571 -0.17188475 -0.018744117 -0.499474
-0.018015945 0.09745616 0.022284696 0.108751774 0.0713528 -0.10769824 0.09769562 -0.06487466
-0.12101873 0.052673113 -0.060038432 -0.11853133 0.077163346 0.06840016 -0.018357126 -0.15173155
-0.018051596 -0.032293703 0.021347407 -0.07791512 -0.027177077 0.055541266 0.04612934 0.041379437
0.026524143 -0.038753938 -0.039180487 0.058083482 -0.090005405 0.16967687 -0.10254248 -0.04747268
-0.05514196 -0.04625784 -0.01696412 -0.10619088 0.011903757 0.06332969 0.02718064 -0.041349668
-0.026965542 0.23671989 0.14121896 -0.04121455 0.061417993 -0.027451117 0.066525824 -0.0034228007
0.042126235 -0.022286324 -0.09091706 0.034576647 -0.07124458 0.13865964 -0.15970854 -0.013543646
-0.06125209 0.046885923 0.12906411 0.088314794 0.021663208 -0.09874481 -0.0852854 0.15594032
0.16335842 0.02249215 0.10056085 -0.10809775 -0.11991759 0.27299163 -0.18021917 -0.03161647
-0.15477583 -0.057544462 0.2354323 -0.20810677 -0.11849988 -0.32808745 -0.30415332 -0.059980817
0.0023923956 -0.3069441 -0.09001896 -0.09761079 -0.08781805 -0.1756163 0.06277923 -0.21624555
-0.05136781 -0.15261209 -0.20333701 -0.120805964 -0.20724188 0.013050818 -0.1144476 -0.14890078
0.16145666 -0.14094435 0.036327176 -0.011440924 0.012717764 -0.08822475 -0.07835178 0.1228167
-0.15411283 0.120420575 -0.25883818 0.057033457 0.24442638 0.0034592152 0.05472885 0.11009743
0.16607453 -0.07343024 0.033643875 -0.05104083 0.25274238 0.22383063 -0.18271701 -0.25211993
-0.11157019 0.090525985 -0.15154226 0.078944415 0.13846508 0.13895045 -0.10577112 -0.0054307957
