logs/g1/Apr19_03-18-51_/model_400.pt (torch, 777504 bytes, 48 tensors)

std f4 [12]
0.45992905 0.6256635 0.29416618 0.4165305 0.84967613 0.82128567 0.4729004 0.60429585
0.3058308 0.46619377 0.8906254 0.8043896
00000000: d27b eb3e 7c2b 203f f39c 963e 7c43 d53e
00000010: 6084 593f c73f 523f 0020 f23e 22b3 1a3f
00000020: db95 9c3e f3b0 ee3e 0700 643f 7aec 4d3f

actor.0.weight f4 [32, 64]
0.13556822 -0.16537856 0.08246261 0.1647905 0.13756533 0.24340953 -0.46716577 0.16343234
0.101778224 0.42349872 0.33061224 0.10461587 0.42477724 0.4943971 -0.107544184 0.1990648
0.10528594 0.10669189 0.10941292 0.1566767 -0.020326296 0.04990843 0.3202736 0.06717546
-0.16203953 0.3548486 -0.23900706 -0.28892654 0.030567184 0.49338055 -0.17391746 -0.29344693
0.21865846 -0.33015937 -0.20633763 0.109177575 0.04815199 -0.20654151 0.21652894 0.14335898
0.058622517 -0.20881294 0.060089484 0.14899112 -0.2503729 0.15099484 -0.028150475 -0.23457628
-0.001401392 -0.086290196 0.17491195 -0.13066103 0.32392308 -0.09941434 -0.23205261 0.0042065354
-0.0006392494 0.10234623 -0.5128148 -0.031574626 0.10228256 -0.09273139 -0.20231518 -0.054166645
0.1990225 0.26837084 0.0066886637 0.15619963 0.3519986 -0.18880795 0.009495099 -0.22690293
-0.2885427 0.33089262 -0.37761396 0.297585 0.01487587 -0.25306773 -0.22839712 -0.29204828
0.019459588 -0.014323024 -0.1444709 0.030391654 -0.07121734 -0.029330285 0.10725712 0.09839242
0.051329006 0.24756213 -0.23697808 -0.05748019 0.04004556 -0.107244484 -0.053896073 -0.14420195
0.35963562 -0.030168995 -0.20663273 0.3899691 0.19892758 0.14987835 0.081914574 0.27013153
0.46059784 0.20239606 0.07173588 -0.6194574 0.40422878 0.20306692 0.32136968 -0.14880843
-0.03614879 -0.11201854 -0.24211423 -0.16993232 0.11338865 -0.3263828 -0.22411638 0.07186546
-0.089010686 0.18285382 0.43565667 -0.25665596 0.1534761 0.43988034 0.49280775 0.20518285
-0.104166865 -0.053958327 0.14120771 -0.1583356 0.25540495 0.09905791 -0.2214063 0.24413261
0.29342481 0.32906738 0.033926092 -0.27858284 -0.036069207 0.079615146 -0.25024486 0.30693933
-0.20433246 -0.037498306 0.095684 0.26769057 -0.21738115 0.060605217 0.07965155 0.079653956
0.12664874 0.07867423 -0.3471334 0.01795032 0.016210772 0.12097357 -0.12606104 0.2298564
0.20993827 -0.06027752 -0.052121125 0.22360505 0.24168368 -0.0005700315 -0.018188652 0.5310532
-0.13264123 -0.115021974 -0.13085178 0.079461604 0.18008679 -0.15386367 -0.16689292 -0.012958482
-0.36436045 0.0884754 -0.47784385 0.100334644 0.5588961 -0.04533992 -0.0031679582 0.23239139
-0.0016075697 -0.25960377 -0.021688314 -0.28024068 -0.17528954 -0.30552158 -0.32386336 -0.27677006
0.19401878 -0.03759118 -0.019490788 0.0044494993 -0.1901728 0.13532396 0.19075668 0.09305559
-0.2668293 -0.22048101 -0.12716968 -0.037534866 -0.047550853 0.077745944 0.16792937 -0.20750536
-0.019109206 0.110059425 0.39567986 -0.2618337 0.40979674 0.25863227 -0.0047093695 0.08393429
0.18168426 0.092593394 0.08275944 -0.05348555 -0.16634758 -0.13549365 0.047993585 0.055917174
-0.2667713 0.19644442 -0.19291276 0.04681085 -0.2302775 0.27094007 0.14844556 -0.1803401
-0.20578285 0.37985706 0.14830673 -0.31998485 -0.22743724 0.21103542 0.27718583 -0.04572608
0.016733605 -0.20872566 0.27218437 0.04921663 0.17907906 -0.32863867 0.054258835 0.078803934
-0.015117327 0.350024 -0.19872844 0.1799739 -0.22300069 -0.035223544 -0.027873205 0.48206225
00000000: 65d2 0a3e ff58 29be 28e2 a83d d7be 283e
00000010: eddd 0c3e 5940 793e 5a30 efbe cf5a 273e
00000020: 1a71 d03d d3d4 d83e 0246 a93e d840 d63d
00000030: 677c d93e 9e21 fd3e 2040 dcbd a5d7 4b3e
00000040: 28a0 d73d 4781 da3d e213 e03d db6f 203e
00000050: 5583 a6bc c86c 4c3d e7fa a33e 4a93 893d
00000060: b1ed 25be b7ae b53e 44be 74be 2eee 93be
00000070: 0868 fa3c 609c fc3e 6b17 32be ad3e 96be
00000080: 01e8 5f3e a60a a9be 2c4a 53be 7e98 df3d
00000090: 053b 453d 9e7f 53be c3b9 5d3e b2cc 123e
000000a0: 2a1e 703d 0fd3 55be 6420 763d 2191 183e
000000b0: e030 80be 649e 1a3e d39b e6bc c434 70be
000000c0: eaae b7ba eab8 b0bd 1e1c 333e 01cc 05be
000000d0: 3fd9 a53e bf99 cbbd 339f 6dbe fad6 893b
000000e0: 4d93 27ba e69a d13d d547 03bf 6554 01bd
000000f0: 8579 d13d f4e9 bdbd b62b 4fbe d8dd 5dbd
00000100: 8ecc 4b3e e767 893e 942c db3b ccf2 1f3e
00000110: 2939 b43e df56 41be 5591 1b3c 3e59 68be
00000120: debb 93be c26a a93e 9e56 c1be 105d 983e
00000130: ecb9 733c 1892 81be efe0 69be 5a87 95be
00000140: b769 9f3c 1eab 6abc 2ef0 13be ebf7 f83c
00000150: 66da 91bd 1146 f0bc 9fa9 db3d f781 c93d
00000160: 5d3e 523d ed80 7d3e 62aa 72be 5970 6bbd
00000170: d006 243d ffa2 dbbd 21c2 5cbd ada9 13be
00000180: 2922 b83e f824 f7bc 8897 53be 08aa c73e
00000190: acb3 4b3e b679 193e d4c2 a73d ae4e 8a3e
000001a0: 7bd3 eb3e ea40 4f3e 43ea 923d c394 1ebf
000001b0: 13f7 ce3e c6f0 4f3e 918a a43e 3d61 18be
000001c0: c110 14bd fa69 e5bd cbec 77be bd02 2ebe
000001d0: 4f38 e83d a51b a7be c47e 65be 332e 933d
000001e0: 3c4b b6bd 083e 3b3e 640e df3e 6968 83be
000001f0: d728 1d3e ff37 e13e 4c51 fc3e 741b 523e
00000200: 7055 d5bd 6803 5dbd c198 103e ba22 22be
00000210: 70c4 823e e0de ca3d 55b8 62be e6fd 793e
00000220: c73b 963e 857b a83e 16f6 0a3d 69a2 8ebe
00000230: 4ebd 13bd 440d a33d 1820 80be 2727 9d3e
00000240: 873c 51be d397 19bd f9f5 c33d bd0e 893e
00000250: 2a99 5ebe 2d3d 783d 5a20 a33d 9d21 a33d
00000260: 35b0 013e f41f a13d 78bb b1be 8d0c 933c
00000270: 74cc 843c fec0 f73d 2516 01be 7a5f 6b3e
00000280: 0ffa 563e 90e5 76bd f67c 55bd b9f8 643e
00000290: ed7b 773e 2b6e 15ba 5e00 95bc 1af3 073f
000002a0: 1ad3 07be a490 ebbd 02fe 05be c4bc a23d
000002b0: ac68 383e 708e 1dbe fae5 2abe d04f 54bc
000002c0: 748d babe 9732 b53d f3a7 f4be 407c cd3d
000002d0: d113 0f3f 5ab6 39bd 859d 4fbb 02f8 6d3e
000002e0: 17b5 d2ba c9ea 84be b1ab b1bc b57b 8fbe
000002f0: 1a7f 33be 536d 9cbe 6bd1 a5be ceb4 8dbe
00000300: dcac 463e 36f9 19bd 25ab 9fbc 1bcd 913b
00000310: a9bc 42be 5d92 0a3e b855 433e ee93 be3d
00000320: da9d 88be c6c5 61be c538 02be 29be 19bd
00000330: afc4 42bd 4439 9f3d adf5 2b3e 497c 54be
00000340: e98a 9cbc d666 e13d 8d96 ca3e 110f 86be
00000350: e1d0 d13e 736b 843e 0e51 9abb bee5 ab3d
00000360: 700b 3a3e 9ba1 bd3d c87d a93d aa13 5bbd
00000370: 0557 2abe d9be 0abe ec94 443d 6809 653d
00000380: 3f96 88be ba28 493e ec8a 45be bcbc 3f3d
00000390: ddcd 6bbe a8b8 8a3e 1d02 183e 13ab 38be
000003a0: bdb8 52be a07c c23e b8dd 173e 0ed5 a3be
000003b0: 4fe5 68be ab19 583e 4deb 8d3e 454b 3bbd
000003c0: ea14 893c 2ebc 55be c05b 8b3e 6197 493d
000003d0: 8060 373e 5443 a8be 833e 5e3d f563 a13d
000003e0: aaae 77bc 5936 b33e 787f 4bbe 144b 383e
000003f0: 4b5a 64be 9046 10bd 5956 e4bc ddd0 f63e

actor.0.bias f4 [32]
-0.108068824 0.088481136 -0.12142181 -0.073021166 -0.23866709 0.052179344 -0.024790509 -0.01446558
-0.07973527 0.061433613 -0.011582413 0.1618407 -0.10825877 0.011461544 0.05059163 0.026045028
-0.044545364 0.020185407 -0.17811602 -0.26198584 -0.044619936 0.15487926 0.077932835 -0.17547426
-0.06347677 0.07469654 0.075012624 -0.13099691 -0.10723341 0.25722444 -0.07452409 -0.053323984
00000000: 3053 ddbd 9935 b53d ffab f8bd 1f8c 95bd
00000010: 2565 74be 02ba 553d 7715 cbbc 0a01 6dbc
00000020: 3f4c a3bd d0a1 7b3d 29c4 3dbc 92b9 253e
00000030: c6b6 ddbd 33c9 3b3c 2b39 4f3d 625c d53c
00000040: 3375 36bd de5b a53c 0c64 36be 0223 86be
00000050: 65c3 36bd ab98 1e3e 409b 9f3d 86af 33be
00000060: 1c00 82bd 80fa 983d 38a0 993d 0e24 06be
00000070: 319d dbbd ecb2 833e 16a0 98bd 406a 5abd

actor.2.weight f4 [12, 32]
0.04803414 0.05738554 0.16652375 -0.14157753 0.0072569083 -0.02197188 -0.33446553 0.33324742
-0.2117203 0.02326189 0.19428249 -0.07645104 -0.17742811 -0.18928242 0.013086372 -0.12011029
-0.19032668 -0.15540606 0.18312818 -0.15408853 0.081532314 0.15827383 0.22010231 0.24776433
0.01800876 0.14448859 0.027502427 0.053507276 0.18270464 -0.31184483 0.12477406 -0.02118878
0.089941524 0.0923556 -0.06017154 -0.274636 -0.20107624 0.12675738 -0.05876346 0.07371329
-0.034648042 0.19903195 0.112295784 0.24685077 -0.06798814 0.09608085 -0.046394788 0.08880364
0.05885252 0.35912952 -0.31486854 -0.36426786 -0.34561884 0.27508718 0.29224634 -0.46358645
0.18831356 0.351438 0.121529326 -0.0021078095 -0.18515255 0.26405847 0.1582223 -0.16067433
0.113040775 -0.032344878 -0.047649115 0.24383608 0.2241094 -0.06660343 0.04475699 0.06077316
-0.017067403 -0.13014649 -0.065580785 0.051730365 0.017830538 -0.190667 0.1707581 -0.022760877
0.034407176 -0.089925975 0.0019896966 0.13283151 0.17968738 0.0039623966 0.063778736 -0.12859139
-0.14569399 -0.064320646 0.026787907 0.15293166 -0.06759259 -0.13716088 0.18516234 0.1301292
0.13548632 -0.032931887 0.049469568 -0.07424598 0.056310523 -0.202247 -0.22445104 0.16162692
0.031009896 -0.07131195 0.24166396 -0.12652574 0.07821832 0.17757188 0.0328656 0.03940733
0.14503036 0.04862647 0.30180278 0.20298009 -0.113530934 -0.104378276 -0.079222195 0.07596683
-0.012418488 -0.051618684 0.0014002493 0.013258494 0.07861144 -0.032480273 0.055927996 -0.17485225
-0.15145202 0.033104647 -0.25039 0.011570448 -0.37371323 0.1082264 0.1111516 0.2067256
-0.49984682 -0.32867596 0.413854 -0.1845029 -0.46486527 0.2012983 -0.09911853 0.5334884
0.10571638 -0.028859964 -0.36081034 -0.18400931 0.23597473 0.26893684 0.05929783 0.46502018
-0.6421908 0.5154795 -0.14501071 0.114380725 0.24678622 0.11627822 0.25439537 -0.2568786
-0.3113732 0.17714326 -0.074753225 0.01913346 0.2146212 -0.02602821 0.014487185 0.108912975
0.017033638 -0.0136005785 0.27453467 0.06989607 -0.16130598 0.17160438 -0.3039069 -0.008461372
-0.057881728 0.11776991 0.030078838 0.11037882 -0.052095108 0.1178769 0.12016748 -0.16476485
-0.043878302 -0.18300147 -0.14387116 0.005964477 -0.12536378 -0.21256709 0.21627556 -0.35552296
-0.06793172 0.1566958 -0.29940715 0.022701383 -0.2482705 0.081711896 -0.05907177 -0.10819116
0.2740685 0.17307833 -0.15953882 -0.07523334 0.05137768 0.12980604 0.30612922 0.23229787
-0.2005184 -0.21301149 0.27679685 -0.27681732 -0.11616933 0.045778267 0.09147029 0.0024634216
-0.09165963 -0.29504752 -0.023780383 0.1884707 -0.09094493 0.15187326 -0.03562837 -0.05642272
-0.0482831 -0.29151604 0.08791824 -0.08043288 0.12595299 0.065407045 -0.21357977 -0.31871712
0.3160218 0.051629927 -0.078104325 -0.31812876 0.20196804 -0.11035445 -0.15049657 0.2543251
-0.35220724 0.21188736 -0.11977445 0.10805674 0.17087142 -0.36554283 0.1312084 0.14611986
0.10766443 0.02649346 -0.2573191 0.40662155 -0.023214186 -0.2595846 0.14581741 0.034715466
00000000: 72bf 443d 1a0d 6b3d 3485 2a3e b3f9 10be
00000010: 5ccb ed3b 5ffe b3bc 113f abbe 689f aa3e
00000020: 35cd 58be b88f be3c fdf1 463e 5d92 9cbd
00000030: b7af 35be 40d3 41be 3968 563c 62fc f5bd
00000040: ffe4 42be c422 1fbe f485 3b3e 62c9 1dbe
00000050: 6afa a63d 8912 223e 8062 613e efb5 7d3e
00000060: 1b87 933c d1f4 133e c54c e13c 722a 5b3d
00000070: ed16 3b3e 20aa 9fbe 8b89 ff3d 1894 adbc
00000080: 4333 b83d ef24 bd3d 6f76 76bd 179d 8cbe
00000090: eee6 4dbe b0cc 013e f4b1 70bd fef6 963d
000000a0: 1beb 0dbd 08cf 4b3e 55fb e53d 73c6 7c3e
000000b0: 5e3d 8bbd 09c6 c43d 7608 3ebd afde b53d
000000c0: 570f 713d d3df b73e 7336 a1be 5181 babe
000000d0: f4f4 b0be 3ad8 8c3e 50a1 953e 345b edbe
000000e0: 45d5 403e aeef b33e 5ee4 f83d 2d23 0abb
000000f0: a198 3dbe ac32 873e 0705 223e d087 24be
00000100: ec81 e73d 107c 04bd b82b 43bd 2ab0 793e
00000110: ef7c 653e 6167 88bd 1b53 373d 47ed 783d
00000120: f0d0 8bbc 1f45 05be 384f 86bd 38e3 533d
00000130: 5911 923c 363e 43be 36db 2e3e 0575 babc
00000140: 8aee 0c3d 1c2b b8bd 9265 023b fc04 083e
00000150: f8ff 373e fed6 813b 6d9e 823d 76ad 03be
00000160: ce30 15be 8bba 83bd 5072 db3c 1e9a 1c3e
00000170: fc6d 8abd e773 0cbe 329b 3d3e 9740 053e
00000180: edbc 0a3e 96e3 06bd 9aa0 4a3d 470e 98bd
00000190: dda5 663d d619 4fbe 7ed6 65be 8781 253e
000001a0: 7708 fe3c 000c 92bd c276 773e f78f 01be
000001b0: ed30 a03d 67d5 353e 149e 063d 9569 213d
000001c0: d782 143e 8d2c 473d e585 9a3e 03da 4f3e
000001d0: e882 e8bd 47c4 d5bd 3f3f a2bd 7f94 9b3d
000001e0: ea76 4bbc 1d6e 53bd 9288 b73a 283a 593c
000001f0: 09ff a03d 090a 05bd c114 653d 780c 33be
00000200: 3d16 1bbe bd98 073d 1e33 80be fa91 3d3c
00000210: 5757 bfbe cea5 dd3d 73a3 e33d e0af 533e
00000220: eceb ffbe 3748 a8be ace4 d33e 54ee 3cbe
00000230: d202 eebe 2421 4e3e a8fe cabd b292 083f
00000240: d481 d83d bb6b ecbc 22bc b8be f06c 3cbe
00000250: 5ca3 713e 17b2 893e 48e2 723d 2017 ee3e
00000260: 9e66 24bf 77f6 033f b07d 14be 7140 ea3d
00000270: 87b5 7c3e 4723 ee3d 1c40 823e 9885 83be
00000280: 4f6c 9fbe 0b65 353e 3818 99bd c6bd 9c3c
00000290: a9c5 5b3e 1d39 d5bc a85b 6d3c c40d df3d
000002a0: 218a 8b3c f6d4 5ebc cf8f 8c3e ac25 8f3d
000002b0: 652d 25be 0fb9 2f3e af99 9bbe 91a1 0abc
000002c0: 6415 6dbd 5a31 f13d e567 f63c 4a0e e23d
000002d0: ae61 55bd 7269 f13d 5e1a f63d 1eb8 28be
000002e0: bcb9 33bd bd64 3bbe f652 13be a971 c33b
000002f0: 5d5f 00be 30ab 59be 5777 5d3e 1b07 b6be
00000300: c91f 8bbd dd74 203e e54b 99be 40f8 b93c
00000310: 9f3a 7ebe 9158 a73d 3ef5 71bd 5493 ddbd
00000320: b552 8c3e 723b 313e 255e 23be f013 9abd
00000330: 6771 523d e0eb 043e f8bc 9c3e 7edf 6d3e
00000340: b254 4dbe af1f 5abe 51b8 8d3e 00bb 8dbe
00000350: 30ea edbd fe81 3b3d c754 bb3d 5b71 213b
00000360: 0bb8 bbbd 7810 97be 14cf c2bc 77fe 403e
00000370: 5641 babd aa84 1b3e 0eef 11bd 831b 67bd
00000380: 80c4 45bd 9741 95be 7a0e b43d feb9 a4bd
00000390: d2f9 003e 21f4 853d a8b4 5abe e42e a3be
000003a0: 9ccd a13e e779 533d 29f5 9fbd c6e1 a2be
000003b0: b6d0 4e3e 8401 e2bd c61b 1abe e636 823e
000003c0: 8254 b4be 00f9 583e 4f4c f5bd da4c dd3d
000003d0: ebf8 2e3e 6e28 bbbe 7f5b 063e 72a0 153e
000003e0: 2b7f dc3d d008 d93c 54bf 83be b330 d03e
000003f0: ad2b bebc 46e8 84be 2951 153e ce31 0e3d

actor.2.bias f4 [12]
0.052666288 0.23339018 -0.034530185 -0.25174168 0.29135832 -0.18400921 -0.15845484 -0.13029525
0.097716406 -0.07656969 -0.113804236 0.13611299
00000000: 9bb8 573d d6fd 6e3e 866f 0dbd 49e4 80be
00000010: eb2c 953e e96c 3cbe fc41 22be 1e6c 05be
00000020: 8a1f c83d 92d0 9cbd 3212 e9bd 3461 0b3e

critic.0.weight f4 [32, 64]
-0.0007350486 0.03843966 0.070150204 0.093160436 0.034115676 -0.022063978 -0.07182672 -0.032557126
-0.085202985 0.04835223 -0.011692706 -0.03530948 0.054120902 0.022793232 0.04273731 0.0025046894
0.002378563 -0.026652787 -0.0424082 -0.08879969 -0.0057892124 0.010639267 0.07914066 0.017058596
-0.044211842 -0.030849302 -0.076407425 0.00546705 0.060994383 -0.011837454 0.04684003 0.09399781
-0.043402385 0.099709235 -0.034935124 -0.007761517 0.016123103 -0.0043209917 -0.06564962 0.120117284
-0.050098374 -0.0033189282 -0.028033072 -0.019547854 -0.042659774 -0.0012801456 -0.08131223 -0.04591159
-0.014562395 0.09204779 -0.00018779571 0.082792714 -0.02593044 0.05511601 0.026857965 -0.048288792
-0.06999592 -0.017869797 0.0041718706 -0.03278397 0.03500499 0.009624332 -0.0034197296 0.018620329
-0.1767757 -0.07580443 0.0064208363 -0.044476792 0.007919937 0.014758149 -0.07816059 0.1963734
0.051774576 0.13396667 -0.0505898 -0.14503068 -0.04902989 -0.0017217426 0.16834316 -0.059072558
-0.19535114 0.14621127 -0.1179171 0.10122238 -0.058101855 0.14868042 -0.07229332 5.2037885e-05
-0.025773061 0.03740322 -0.09801983 0.12894987 0.10705575 -0.10598884 0.12812202 0.14544328
0.069106095 -0.190808 0.0033582707 0.28317377 0.20284379 -0.094667524 0.057289757 -0.10958724
0.006905496 0.09408485 0.05718516 -0.09312454 0.018287247 -0.03973286 0.1727165 0.24660423
0.17710067 -0.23172161 -0.13583504 -0.06270473 -0.094527975 0.18536818 0.17831305 0.116001055
0.26108176 -0.13787465 -0.032231376 -0.21318182 -0.09104778 0.20080307 -0.08177424 0.17176406
0.06489096 -0.104881756 0.010207938 0.100520134 0.11766622 0.1007507 -0.021482438 0.16738951
-0.059193987 -0.07693105 0.06464578 0.0935572 0.031592406 0.11382303 -0.038625218 -0.19286843
-0.07350676 0.05679943 0.010592596 0.025725272 -0.1020515 0.1184006 -0.12136785 0.043193463
-0.06284498 -0.052150007 -0.041083176 -0.09468623 0.04950296 -0.013675342 -0.10660859 -0.14373328
0.027600674 -0.011045383 -0.09611248 -0.039382223 -0.010261513 -0.047568746 0.054311354 -0.029688818
0.11383586 0.06586323 -0.14170788 -0.18094197 0.14214419 -0.007633514 0.03090055 -0.02256202
-0.0064441254 0.07503621 0.07367873 0.010748571 -0.017407058 -0.061970223 -0.027826795 -0.078005776
0.011607089 -0.3327545 -0.00924671 -0.12745985 0.16691937 -0.10871333 -0.1393644 0.1596164
0.004657434 -0.045428526 0.10865683 0.06701573 0.09744864 0.0078035733 -0.008176339 0.16618045
0.13821636 -0.013464964 -0.008401606 0.10946526 -0.017469559 0.05184148 0.16706334 -0.044959646
0.02102878 0.1540342 0.07709872 -0.061619796 0.1080282 0.0688995 -0.1114013 0.12670746
-0.027734054 0.13181186 -0.15153408 0.04915708 -0.107274674 -0.15292193 0.093453154 -0.0064957775
-0.12704094 -0.20058961 -0.08241295 0.22984745 -0.1422283 -0.012463805 -0.07433357 -0.028222738
0.11012379 0.020283774 -0.05135381 -0.14243619 -0.05338171 -0.045760036 0.04985021 0.1209663
-0.16964725 -0.0034271346 -0.020632539 -0.1394736 -0.072833754 0.17591844 -0.005213476 -0.03028381
-0.12567292 -0.4075449 -0.092289776 -0.030338734 0.020060582 -0.00915529 0.073509425 0.05872461
00000000: 47b0 40ba e872 1d3d e9aa 8f3d e6ca be3d
00000010: e1bc 0b3d 84bf b4bc e319 93bd 9f5a 05bd
00000020: e77e aebd fd0c 463d c392 3fbc aca0 10bd
00000030: e1ad 5d3d dfb8 ba3c 510d 2f3d b725 243b
00000040: aae1 1b3b f256 dabc 39b4 2dbd 9ddc b5bd
00000050: 6fb3 bdbb 5250 2e3c 8014 a23d 78be 8b3c
00000060: 7a17 35bd adb7 fcbc 7f7b 9cbd f024 b33b
00000070: 3fd5 793d e1f1 41bc 55db 3f3d ec81 c03d
00000080: b3c6 31bd 5b34 cc3d 2218 0fbd 5354 febb
00000090: 9914 843c 1b97 8dbb 4f73 86bd 0d00 f63d
000000a0: f433 4dbd 6082 59bb 9da5 e5bc d222 a0bc
000000b0: 04bc 2ebd 8fca a7ba 0787 a6bd cb0d 3cbd
000000c0: 1d97 6ebc 8d83 bc3d 07eb 44b9 3a8f a93d
000000d0: 136c d4bc 53c1 613d 3c05 dc3c 78ca 45bd
000000e0: 055a 8fbd ae63 92bc 30b4 883b 7c48 06bd
000000f0: 6461 0f3d 60af 1d3c 8b1d 60bb a989 983c
00000100: b004 35be 5a3f 9bbd e165 d23b 4c2d 36bd
00000110: a0c2 013c 2acc 713c a912 a0bd 1c16 493e
00000120: 9411 543d 8f2e 093e 4037 4fbd ec82 14be
00000130: 91d3 48bd 18ac e1ba 2662 2c3e 11f6 71bd
00000140: 210a 48be 68b8 153e 857e f1bd ae4d cf3d
00000150: 36fc 6dbd ae3f 183e 850e 94bd 4143 5a38
00000160: 0722 d3bc 1e34 193d 9fbe c8bd 6f0b 043e
00000170: 0c40 db3d ad10 d9bd 6b32 033e 15ef 143e
00000180: 7f87 8d3d 2c63 43be 6f16 5c3b 27fc 903e
00000190: 48b6 4f3e 0ce1 c1bd aaa8 6a3d 466f e0bd
000001a0: 8047 e23b 8faf c03d fd3a 6a3d 14b8 bebd
000001b0: 23cf 953c ecbe 22bd 98dc 303e d285 7c3e
000001c0: e159 353e 6e48 6dbe 5718 0bbe 566b 80bd
000001d0: e297 c1bd 28d1 3d3e b297 363e f691 ed3d
000001e0: 82ac 853e 032f 0dbe 0c05 04bd 564c 5abe
000001f0: 4277 babd 529f 4d3e 4179 a7bd ebe2 2f3e
00000200: 8de5 843d 3fcc d6bd 323f 273c 80dd cd3d
00000210: fdfa f03d 6256 ce3d f0fb afbc 2868 2b3e
00000220: 6575 72bd 078e 9dbd 0265 843d eb9a bf3d
00000230: 0a67 013d 0c1c e93d 7a35 1ebd 4d7f 45be
00000240: b68a 96bd 85a6 683d 918c 2d3c cebd d23c
00000250: 6000 d1bd 047c f23d b58f f8bd a1eb 303d
00000260: deb4 80bd 3f9b 55bd d546 28bd dbea c1bd
00000270: 9ec3 4a3d 8b0e 60bc 9b55 dabd d12e 13be
00000280: cf1a e23c b2f7 34bc 9fd6 c4bd 414f 21bd
00000290: e81f 28bc 72d7 42bd 9575 5e3d f735 f3bc
000002a0: c622 e93d 4de3 863d df1b 11be da48 39be
000002b0: 3f8e 113e 8e22 fabb 2623 fd3c fcd3 b8bc
000002c0: 3e29 d3bb 96ac 993d e0e4 963d c61a 303c
000002d0: 3f99 8ebc 7dd4 7dbd 05f5 e3bc 7ec1 9fbd
000002e0: a92b 3e3c cc5e aabe 837f 17bc d684 02be
000002f0: e9ec 2a3e 18a5 debd 8bb5 0ebe 7b72 233e
00000300: 639d 983b 4313 3abd 7987 de3d 8b3f 893d
00000310: 2793 c73d 1eb5 ff3b 0df6 05bc 352b 2a3e
00000320: 9788 0d3e 279c 5cbc e4a6 09bc 522f e03d
00000330: 521c 8fbc bb57 543d a712 2b3e 9b27 38bd
00000340: 8c44 ac3c 24bb 1d3e efe5 9d3d 0a65 7cbd
00000350: e43d dd3d 2e1b 8d3d 5d26 e4bd 9abf 013e
00000360: 8732 e3bc b0f9 063e c02b 1bbe ef58 493d
00000370: d3b2 dbbd 9197 1cbe 5e64 bf3d 88da d4bb
00000380: 0517 02be 5d67 4dbe 1fc8 a8bd 215d 6b3e
00000390: 4ca4 11be fd34 4cbc 333c 98bd 5f33 e7bc
000003a0: 9588 e13d 282a a63c 5f58 52bd cbda 11be
000003b0: c8a6 5abd e06e 3bbd bc2f 4c3d 2ebd f73d
000003c0: 02b8 2dbe c799 60bb 9205 a9bc 2bd2 0ebe
000003d0: dd29 95bd f723 343e ced5 aabb c115 f8bc
000003e0: 67b0 00be baa9 d0be 6c02 bdbd f088 f8bc
000003f0: 1756 a43c 1200 16bc 1c8c 963d 3789 703d

critic.0.bias f4 [32]
0.003931322 -0.26711205 -0.18404968 -0.16620652 0.051605903 -0.1820212 0.024719419 0.02581522
0.00825426 -0.20346758 -0.041138243 -0.21038996 -0.18307018 0.07943107 -0.011582104 -0.29295462
0.1233741 -0.13152485 -0.01680469 0.22472626 -0.0019229555 -0.16019084 0.133243 0.20892905
0.1270545 -0.039490134 0.017375195 -0.21608101 -0.12779097 0.20076975 0.20857929 0.09129384
00000000: 52d2 803b e9c2 88be 8577 3cbe 0b32 2abe
00000010: b660 533d c463 3abe 6180 ca3c 717a d33c
00000020: e03c 073c ce59 50be 9380 28bd 7770 57be
00000030: c076 3bbe c2ac a23d ddc2 3dbc 26fe 95be
00000040: 8fab fc3d 73ae 06be fda9 89bc a41e 663e
00000050: ae0b fcba 1109 24be da70 083e 7ff1 553e
00000060: 931a 023e 68c0 21bd 6d56 8e3c 5744 5dbe
00000070: a3db 02be 9696 4d3e cf95 553e 44f8 ba3d

critic.2.weight f4 [1, 32]
0.0020237055 -0.14335892 -0.0415823 -0.03212156 0.0013076274 -0.06044411 -0.0012603515 0.0015740055
0.0015720432 -0.13380086 0.0011138291 -0.14467488 0.37594616 0.0023894033 -0.00031339808 -0.2642371
0.0037312263 -0.0015115949 -0.0027690546 0.10167337 -0.0057739643 -0.012415085 -0.0005131208 0.10555819
0.25753385 -0.0018755329 0.0029932042 -0.03197878 -0.0040216553 0.13756624 0.07972443 -0.0052422294
00000000: 25a0 043b aecc 12be 3452 2abd e691 03bd
00000010: b264 ab3a 3e94 77bd 6132 a5ba dc4e ce3a
00000020: 040d ce3a 1803 09be e7fd 913a a725 14be
00000030: 047c c03e 8997 1c3b 944f a4b9 164a 87be
00000040: 9787 743b b520 c6ba 0779 35bb 213a d03d
00000050: 8633 bdbb a468 4bbc f482 06ba e42e d83d
00000060: 7adb 833e 71d4 f5ba a229 443b 2efc 02bd
00000070: 17c8 83bb 2ade 0c3e 9046 a33d 02c7 abbb

memory_a.rnn.weight_ih_l0 f4 [256, 47]
0.55259717 -0.18569985 0.07429075 0.24375553 -0.9179648 0.15802081 -0.0722662 -0.09283955
0.44842744 -0.066123456 -1.1173077 -0.49411964 -0.5557993 0.5807223 -0.54053396 -0.13745552
0.5632418 0.14169873 -0.01997056 -0.38386634 0.030131774 -0.28436425 0.00045737595 -0.22504844
-0.20877299 -0.3177559 -0.26481363 0.44706947 0.3063335 0.6972151 -0.7712297 0.2650038
0.23255865 -0.030670255 -0.22827895 0.024660226 -0.10222637 -0.16418886 -0.091948055 0.14141218
0.09563643 0.25112486 -0.08307734 -0.33053562 0.51256317 -0.19020773 0.021002887 -0.1161901
-0.37887517 0.34524557 0.18113343 0.27760074 0.07859146 0.11954612 0.34330618 -0.9110195
1.5218594 -0.9644335 -1.1232064 0.09581713 -0.36816415 0.34467643 0.645801 0.8401714
0.25540307 -1.0094402 -0.09615016 0.052510902 0.17198327 -0.89995086 -0.34179404 -0.37863356
0.18865651 0.2892039 0.3334109 0.10150578 0.21843162 0.07148766 0.25507212 0.8682384
-0.16238084 -0.26645404 -0.844759 0.12394583 0.21087453 0.3405464 0.4248382 -0.21969844
0.45915776 -0.34541625 -0.1736101 0.63873595 -0.36495033 -0.12678418 0.52833444 -0.54445773
-0.232215 0.15948702 -0.3903215 -0.0070977896 -0.02109865 0.0010276348 -0.24223268 -0.091213025
0.23378536 0.4420122 -0.17317559 -0.46992016 -0.22962894 -0.8552042 0.06302113 0.33711517
-0.3464789 0.22065291 -0.4538094 1.1215196 0.006326392 0.1019894 -0.18392295 -0.63144386
0.096017785 -0.6338288 -0.33354053 -1.001452 0.21250917 0.859858 0.6863348 1.1153561
-0.20328166 0.44384876 0.12289482 0.0825148 0.04300324 0.55032796 -0.14177316 0.1407071
0.20965745 0.08249601 -0.26364496 0.5687503 0.22728127 -0.5935122 0.67222744 0.33061644
0.62321264 0.2908058 0.23577848 -0.31918326 0.10475697 0.5868735 -0.26147476 -0.46401185
0.07387191 -0.040207908 0.6926812 0.40468785 -0.66822064 -0.43578377 0.39424896 -0.68904763
0.07238181 0.11624924 -0.38652158 0.5528976 -0.48666865 -0.048356295 -0.5680539 -0.8150777
-0.7132279 -0.1866542 -0.109393954 0.5585286 -0.16361961 0.12245077 -0.43469036 -0.052338313
-0.16694415 0.35314777 0.13753863 -0.25550318 -0.13275778 0.26915166 0.10751494 0.30743
-0.09659937 0.25321394 0.41643593 0.22211984 0.09659343 0.3212051 1.1527447 0.50492406
-0.09276712 0.074670024 -0.045986827 0.087006025 0.7521098 0.8175819 0.49566713 -0.14291184
-0.50561833 0.2745508 0.05241807 -0.508565 0.12843132 -0.5754322 0.9022938 0.95778406
0.2434274 -0.74827766 1.3119274 1.1138977 0.4204385 0.38350418 -0.084893964 -0.5499497
0.4057282 -0.24478422 0.4844303 -0.099106066 -0.3005433 -0.18023217 -0.17815416 0.49640998
0.09543487 0.5631754 -0.25237155 -0.19680649 -0.32216775 -0.26295176 0.28346112 -0.04028829
0.16560172 -0.15842558 -0.13715376 0.71874166 0.4424189 0.17692474 -0.42882192 -0.37388152
-0.2867622 -0.2664049 0.18071938 -0.6916635 0.11103529 -0.39765355 0.063331276 -0.007492404
0.11616083 0.17728151 -0.26873994 -0.24632572 0.38524684 0.28319505 0.79092306 -0.5521838
00000000: 0277 0d3f 1a28 3ebe c025 983d 0d9b 793e
00000010: beff 6abf 35d0 213e 4d00 94bd a922 bebd
00000020: 4898 e53e bc6b 87bd f003 8fbf 40fd fcbe
00000030: dd48 0ebf 37aa 143f 6f60 0abf 24c1 0cbe
00000040: 9d30 103f 7919 113e 4d99 a3bc 218a c4be
00000050: e9d6 f63c 3198 91be f6cb ef39 1973 66be
00000060: 96c8 55be e7b0 a2be a795 87be 4ae6 e43e
00000070: bfd7 9c3e b07c 323f 4f6f 45bf 94ae 873e
00000080: db23 6e3e 3040 fbbc f5c1 69be 3e04 ca3c
00000090: 0f5c d1bd 2021 28be 434f bcbd 5bce 103e
000000a0: 08dd c33d 7093 803e 7424 aabd f73b a9be
000000b0: 5737 033f d1c5 42be 3f0e ac3c 13f5 edbd
000000c0: edfb c1be 07c4 b03e 0b7b 393e af21 8e3e
000000d0: 8ff4 a03d 99d4 f43d d4c5 af3e 9338 69bf
000000e0: 4acc c23f 1de5 76bf 3ac5 8fbf c53b c43d
000000f0: 0380 bcbe 6e79 b03e 3753 253f 7915 573f
00000100: 31c4 823e 5635 81bf 60ea c4bd ac15 573d
00000110: 621c 303e 2e63 66bf a1ff aebe 42dc c1be
00000120: 2c2f 413e 8912 943e d5b4 aa3e 43e2 cf3d
00000130: 8aac 5f3e 1f68 923d d098 823e df44 5e3f
00000140: 2a47 26be aa6c 88be 2042 58bf 50d7 fd3d
00000150: 7eef 573e 195c ae3e 6484 d93e a1f8 60be
00000160: ba16 eb3e 66da b0be d9c6 31be 3384 233f
00000170: c5da babe b6d3 01be ed40 073f 9561 0bbf
00000180: c5c9 6dbe 9150 233e 38d8 c7be 9394 e8bb
00000190: 13d7 acbc b4b1 863a d80b 78be e5cd babd
000001a0: 6e65 6f3e 6c4f e23e f154 31be 6099 f0be
000001b0: d923 6bbe aaee 5abf 3911 813d 5c9a ac3e
000001c0: af65 b1be d6f2 613e b559 e8be f48d 8f3f
000001d0: 9f4d cf3b d2df d03d 4c56 3cbe 4ea6 21bf
000001e0: f9a4 c43d 9b42 22bf d3c5 aabe 942f 80bf
000001f0: 019c 593e a71f 5c3f a3b3 2f3f fdc3 8e3f
00000200: 1129 50be 2540 e33e 48b0 fb3d 85fd a83d
00000210: 2a24 303d 4be2 0c3f fc2c 11be 8615 103e
00000220: 71b0 563e abf3 a83d 79fc 86be 9f99 113f
00000230: 6cbc 683e 6af0 17bf 1917 2c3f 8f46 a93e
00000240: dd8a 1f3f 7fe4 943e ea6f 713e fd6b a3be
00000250: d38a d63d 573d 163f 05e0 85be f692 edbe
00000260: 284a 973d 0cb1 24bd 8e53 313f 3f33 cf3e
00000270: 8210 2bbf 0d1f dfbe 00db c93e 6d65 30bf
00000280: ea3c 943d 1514 ee3d 28e6 c5be b28a 0d3f
00000290: a22c f9be 4011 46bd fb6b 11bf efa8 50bf
000002a0: 1b96 36bf 4722 3fbe f009 e0bd bbfb 0e3f
000002b0: e68b 27be 78c7 fa3d bc8f debe b360 56bd
000002c0: 68f3 2abe c9cf b43e edd6 0c3e 50d1 82be
000002d0: a8f1 07be 3fce 893e cb30 dc3d 7767 9d3e
000002e0: e4d5 c5bd 42a5 813e 1737 d53e 6273 633e
000002f0: c7d2 c53d ff74 a43e 238d 933f b442 013f
00000300: b0fc bdbd 99ec 983d af5c 3cbd 3730 b23d
00000310: 458a 403f 0c4d 513f 15c8 fd3e 7b57 12be
00000320: 3470 01bf ec91 8c3e 55b4 563d 5131 02bf
00000330: 8083 033e 864f 13bf bafc 663f 5631 753f
00000340: 0845 793e 208f 3fbf 3ded a73f 3394 8e3f
00000350: b743 d73e a95a c43e e3dc adbd 81c9 0cbf
00000360: 9bbb cf3e b7a8 7abe 4007 f83e 1ff8 cabd
00000370: d0e0 99be c88e 38be 0b6e 36be 7329 fe3e
00000380: 5b73 c33d 432c 103f d836 81be a487 49be
00000390: 2cf3 a4be 9da1 86be d121 913e 5505 25bd
000003a0: 7f93 293e 513a 22be 0972 0cbe 74ff 373f
000003b0: bb84 e23e c22b 353e 8c8e dbbe 666d bfbe
000003c0: 7fd2 92be 3966 88be 800e 393e dc10 31bf
000003d0: 7866 e33d 3f99 cbbe d4b3 813d d782 f5bb
000003e0: bbe5 ed3d 4989 353e 4898 89be cf3c 7cbe
000003f0: 133f c53e f1fe 903e ef79 4a3f eb5b 0dbf

memory_a.rnn.weight_hh_l0 f4 [256, 64]
-0.0013373031 0.14237362 -0.25219515 -0.11225059 0.20655686 -0.06867488 -0.4256042 0.100728475
-0.34883276 -0.608798 0.100692615 -0.3008698 -0.51604545 -0.36198226 -0.7570393 0.41071725
-0.14639466 -0.32326815 -0.40374473 0.25752926 0.17317425 -0.09670922 0.21976382 -0.5054936
0.6017395 -0.6473818 -0.31382164 0.7116001 0.42844197 -0.21366529 0.5764562 0.05494782
-0.05282131 -0.4759999 0.12593628 -0.7654467 0.17314637 -0.23206599 -0.2583159 -0.3595717
0.4637703 8.569232e-05 -1.2003568 0.08989537 0.5493661 -0.08307205 -0.057641413 -0.104882635
-0.35937488 0.3835623 -0.8801837 -0.2720417 -0.055493828 -0.63297355 0.6428677 -0.9938744
0.24465908 0.292252 0.74635315 -0.44804654 0.005483858 -0.52359915 -0.19770439 -0.14192547
-0.09067605 0.34066355 0.18837316 -0.78405464 -0.6546976 -0.64540863 0.88933563 -0.5633774
-0.9807679 0.58063835 -0.099775106 0.09631793 0.09762996 0.17442282 -0.33277312 -0.41147846
0.19757104 1.0270673 0.3045545 -0.15454024 -0.7190782 -0.5605442 -0.06200204 -0.24129805
0.5731335 -0.20431754 -0.5962259 -0.6190603 0.22226667 -0.26239312 0.008042601 0.74465656
-0.54051554 0.33069056 -0.18014894 0.0051563466 -0.20463397 0.26318154 -0.016078308 -0.37514234
0.17911421 -1.1118928 0.0001423718 0.011150354 0.9001917 0.26292107 0.4358868 -0.22192764
-0.33123058 -0.121933125 -0.23438232 0.82697695 -0.12302182 -0.24258943 -0.4218775 0.626905
0.09304804 0.46413684 -0.22625026 -0.23628399 -0.41590023 0.21065494 0.23919764 -0.40107352
0.1681618 -0.46029642 0.14062648 -0.34183833 0.08619217 0.106403746 -0.20058495 0.94339806
-0.5324126 0.08197095 -0.1905251 0.17633818 0.70640105 -0.066956736 -0.66565055 -0.27592522
-0.09427703 0.16962986 0.38796818 -0.26695156 -0.30092782 0.8713349 0.32240593 -0.06979977
-0.48616877 0.8829852 -0.19071464 -0.4580138 -0.60906655 -0.47118607 0.6252632 0.03828137
0.7297537 0.18747984 -0.4957645 -0.2530095 1.0518668 0.6427969 -0.46660033 -0.1895043
-0.00929972 0.20421772 0.6005923 0.6170631 -0.5804024 0.110329226 -0.18189113 -0.15201606
-0.12385945 0.2864743 -0.85329664 -0.04706775 0.54637504 -0.31440789 0.16475731 -0.1650191
-0.5279324 -0.25126576 -0.15890385 0.45191455 0.24616198 0.14940804 -0.41800123 0.41358614
0.7442571 0.27620715 0.12968113 -0.10386464 0.8107713 -0.6795251 -0.1207689 0.94590414
-0.8096577 -0.39254916 0.15486333 -0.31421196 0.2853404 -0.76889277 -0.13638763 0.22183307
-0.4325056 -0.11474806 0.14771013 0.49818492 0.41313532 -1.016001 -0.3466106 -0.07581072
-0.40972212 -0.45563012 -0.19103985 0.11707301 -0.52040374 -0.07441058 0.5668183 0.030469777
-0.23030156 0.09456932 -1.0600733 -0.40123808 -0.2562556 0.2496229 -0.47980744 -0.8151373
-0.20856567 -0.64870876 0.49929094 0.044970714 -0.3903287 -0.5906373 -0.6766497 -0.61514413
-0.29295993 -1.156285 0.22094017 -0.58078355 0.80548465 0.12350335 -0.28821903 -0.6102651
0.1127068 -0.91105676 -0.06695807 0.13544516 -0.12742648 -0.66333747 -0.39321578 0.6650385
00000000: 7248 afba 64ca 113e b91f 81be a3e3 e5bd
00000010: a483 533e 6aa5 8cbd cbe8 d9be bb4a ce3d
00000020: 359a b2be 30da 1bbf ee37 ce3d 9b0b 9abe
00000030: 8e1b 04bf bd55 b9be 54cd 41bf 8849 d23e
00000040: 7be8 15be 6783 a5be a1b7 cebe e0da 833e
00000050: 9754 313e 7c0f c6bd c409 613e 0768 01bf
00000060: 9a0b 1a3f d0ba 25bf 3bad a0be 6d2b 363f
00000070: bf5c db3e 13cb 5abe a292 133f f710 613d
00000080: 285b 58bd 42b6 f3be 71f5 003e 51f4 43bf
00000090: 484d 313e b5a2 6dbe fb41 84be c819 b8be
000000a0: 4d73 ed3e b7b5 b338 4ba5 99bf 101b b83d
000000b0: 42a3 0c3f ae21 aabd 6719 6cbd b5cc d6bd
000000c0: fcff b7be 4762 c43e b853 61bf 0d49 8bbe
000000d0: 7f4d 63bd 8e0a 22bf fa92 243f 8d6e 7ebf
000000e0: e987 7a3e 0ea2 953e 0011 3f3f 5b66 e5be
000000f0: efb1 b33b 980a 06bf 0573 4abe e954 11be
00000100: 5db4 b9bd 746b ae3e e5e4 403e ceb7 48bf
00000110: 439a 27bf 8039 25bf 80ab 633f 8039 10bf
00000120: 9b13 7bbf b7a4 143f e456 ccbd 5642 c53d
00000130: 37f2 c73d e59b 323e 3d61 aabe 4ead d2be
00000140: 1050 4a3e f176 833f 91ee 9b3e cc3f 1ebe
00000150: 8215 38bf d37f 0fbf daf5 7dbd d616 77be
00000160: e1b8 123f 9e38 51be 43a2 18bf bc7a 1ebf
00000170: e099 633e 6458 86be 1dc5 033c d0a1 3e3f
00000180: 3a5f 0abf 4650 a93e f778 38be 92f6 a83b
00000190: 918b 51be bbbf 863e a8b6 83bc a812 c0be
000001a0: b769 373e 8152 8ebf a449 1539 f9af 363c
000001b0: f772 663f 979d 863e 8e2c df3e 0041 63be
000001c0: 0e97 a9be 13b8 f9bd eb01 70be c3b4 533f
000001d0: ddf2 fbbd 5d69 78be 5400 d8be d97c 203f
000001e0: f98f be3d 58a3 ed3e 26ae 67be 6ef4 71be
000001f0: e0f0 d4be eeb5 573e 3af0 743e 8259 cdbe
00000200: 9b32 2c3e f9ab ebbe 6300 103e 6f05 afbe
00000210: 8585 b03d 35ea d93d 2466 4dbe 8982 713f
00000220: 314c 08bf 63e0 a73d 0319 43be ff91 343e
00000230: b3d6 343f 9d20 89bd 1368 2abf 1246 8dbe
00000240: 5114 c1bd 73b3 2d3e c4a3 c63e e0ad 88be
00000250: 3613 9abe ce0f 5f3f 6412 a53e 2ff3 8ebd
00000260: 1deb f8be 510b 623f b34a 43be c980 eabe
00000270: c9eb 1bbf 4d3f f1be 4011 203f edcc 1c3d
00000280: 23d1 3a3f b7fa 3f3e d8d4 fdbe 768a 81be
00000290: 92a3 863f 568e 243f 3de6 eebe 6a0d 42be
000002a0: da5d 18bc 731e 513e 6bc0 193f d9f7 1d3f
000002b0: 4095 14bf 4af4 e13d ab41 3abe 19aa 1bbe
000002c0: 06aa fdbd c2ac 923e a671 5abf 1dca 40bd
000002d0: 3cdf 0b3f 12fa a0be 24b6 283e c4fa 28be
000002e0: 9426 07bf e8a5 80be b1b7 22be 5861 e73e
000002f0: e311 7c3e 6cfe 183e 4204 d6be 90c1 d33e
00000300: a287 3e3f 066b 8d3e 21cb 043e fcb6 d4bd
00000310: b58e 4f3f 5bf5 2dbf af55 f7bd c626 723f
00000320: ba45 4fbf 34fc c8be 7e94 1e3e 64e0 a0be
00000330: 2318 923e 28d6 44bf 33a9 0bbe 3528 633e
00000340: 6071 ddbe 0801 ebbd 5341 173e 1812 ff3e
00000350: 7986 d33e 520c 82bf f276 b1be a742 9bbd
00000360: 19c7 d1be 5a48 e9be f39f 43be f9c3 ef3d
00000370: 2e39 05bf 9364 98bd 011b 113f c19b f93c
00000380: 2cd4 6bbe 8fad c13d 7bb0 87bf 146f cdbe
00000390: ef33 83be 259d 7f3e 52a9 f5be d7ac 50bf
000003a0: 3d92 55be c711 26bf 10a3 ff3e 3633 383d
000003b0: 2ad9 c7be 0234 17bf ea38 2dbf 167a 1dbf
000003c0: d8fe 95be 2601 94bf 243e 623e 3bae 14bf
000003d0: 3e34 4e3f 53ef fc3d 7291 93be 553a 1cbf
000003e0: d3d2 e63d 043b 69bf 5021 89bd 23b2 0a3e
000003f0: 167c 02be 7cd0 29bf 9453 c9be f73f 2a3f

memory_a.rnn.bias_ih_l0 f4 [256]
0.083311036 0.10359507 -0.11367853 -0.036049053 -0.09868987 0.06419625 -0.30139896 -0.092505544
0.032997668 -0.014127849 0.18385851 -0.17483321 -0.20113136 -0.229305 -0.32504472 -0.047282264
0.31437337 -0.23579253 -0.09136775 -0.02572335 -0.2596151 -0.07260681 -0.16949075 -0.12775433
-0.20370801 -0.17637491 -0.27863553 -0.12870778 -0.1163732 -0.24495241 -0.0065587317 0.07860946
0.01769038 -0.3755954 -0.35946807 -0.26874694 -0.03379672 0.20651239 -0.2944368 0.08455853
-0.1951991 -0.16317575 -0.39290032 0.12831052 -0.16239385 -0.39011413 0.14703646 -0.16914871
0.07152423 -0.13712178 -0.19729008 0.16696776 0.14217494 -0.25235063 -0.4197901 -0.011721845
0.1821876 0.14758755 0.21922648 0.005751257 0.16240989 0.05147958 -0.08856422 -0.09406853
-0.06469867 -0.20869918 -0.2605694 0.27153695 -0.13622373 -0.19738619 0.45192555 0.11287502
-0.31429633 -0.22348452 -0.55053127 0.051889688 -0.15595056 -0.3546378 0.029661762 -0.24106239
-0.25310183 -0.06920232 -0.109996095 -0.00071797176 -0.06481863 0.08721964 0.13822402 -0.22444507
-0.10056333 0.18337606 -0.2139469 0.100760736 -0.065079376 -0.26958495 -0.19688341 -0.32273096
0.009507899 -0.08381132 0.020394461 -0.03696795 -0.34794968 -0.31671205 -0.18701242 -0.4419469
-0.042844042 0.07602953 -0.105768494 -0.09919032 -0.1959254 -0.38129467 -0.30717257 -0.21151797
-0.13239154 0.058387283 -0.05372711 -0.17610638 -0.26734495 -0.08156259 0.028026631 0.044828583
-0.10870346 -0.3192655 -0.7617916 -0.18206285 -0.13458005 -0.29629946 -0.094208434 -0.48119652
-0.06147793 -0.07139145 0.06487325 0.14797248 -0.13942079 0.07063153 0.037578493 -0.19974571
0.13587402 0.22729425 -0.10026747 0.011558363 -0.08264985 0.21982259 0.16959964 0.06510899
-0.11057196 -0.14919448 -0.06713835 -0.03532793 -0.12813945 0.17503653 -0.11544059 -0.0056741554
-0.05394809 0.11895067 0.17128228 0.023697179 -0.22615133 0.1950284 0.013919492 0.021946464
0.13668366 -0.059464406 0.038113642 0.08410226 0.10610249 0.01495763 0.10278966 0.03296445
0.15622328 0.22779101 0.061523322 -0.029925765 0.031046832 -0.0013043215 0.07254555 -0.015575337
-0.017120982 0.046932127 -0.040221814 0.11660844 -0.07013327 4.506026e-05 -0.023901507 0.047346883
-0.21562721 0.011819408 0.01709275 -0.061176248 -0.06414569 0.11351961 0.013067367 0.0128725385
0.0064787054 -0.028593637 0.04923006 -0.1583017 -0.21848103 0.2847914 -0.27493975 -0.014544097
-0.25934142 -0.11106619 0.18131799 -0.215793 -0.32223055 -0.17614155 -0.49256876 0.12865649
0.023981275 -0.35489398 -0.20567732 -0.32012486 -0.2699345 -0.06484601 0.14472508 -0.10578926
-0.0758334 0.0016858879 -0.079820156 -0.07158451 -0.18960527 0.0026554759 -0.06800837 -0.23767084
-0.0067121633 -0.1059452 0.15322196 -0.06746195 -0.01197872 -0.10454458 -0.30662644 0.121594965
-0.15263021 0.21385261 -0.10385454 0.07068452 0.17476118 -0.20662971 -0.1283089 0.0445636
0.16186741 -0.1087274 -0.17510611 -0.029731905 0.31497607 0.11777456 -0.23204674 -0.1681479
0.008315602 0.17319469 -0.12541929 0.13144948 0.11753355 0.117891334 -0.06265639 -0.0018518189
00000000: fa9e aa3d a729 d43d 4ad0 e8bd 2ca8 13bd
00000010: ea1d cabd 5379 833d f750 9abe 8c73 bdbd
00000020: 9028 073d 7e78 67bc 6845 3c3e 7a07 33be
00000030: 61f5 4dbe eece 6abe 436c a6be 0cab 41bd
00000040: 8cf5 a03e 9973 71be 041f bbbd c6b9 d2bc
00000050: 45ec 84be e1b2 94bd fc8e 2dbe 08d2 02be
00000060: d598 50be a09b 34be 51a9 8ebe f9cb 03be
00000070: 1355 eebd ced4 7abe a1ea d6bb fffd a03d
00000080: 6aeb 903c 0a4e c0be 330c b8be 3399 89be
00000090: 6e6e 0abd fc77 533e 6cc0 96be 062d ad3d
000000a0: 46e2 47be 8b17 27be 3b2a c9be d563 033e
000000b0: 934a 26be 0abd c7be ba90 163e 5235 2dbe
000000c0: 4c7b 923d a769 0cbe 6906 4abe 99f9 2a3e
000000d0: 4f96 113e 1a34 81be baee d6be fb0c 40bc
000000e0: 638f 3a3e 3121 173e e87c 603e 0a75 bc3b
000000f0: c74e 263e 41dc 523d 2861 b5bd 00a7 c0bd
00000100: bc80 84bd 3db5 55be 5a69 85be e406 8b3e
00000110: 3c7e 0bbe 9b1f 4abe c962 e73e 052b e73d
00000120: 73eb a0be 20d9 64be 9eef 0cbf 488a 543d
00000130: 81b1 1fbe 1693 b5be 39fd f23c 0fd9 76be
00000140: 9096 81be f2b9 8dbd a245 e1bd 4536 3cba
00000150: a1bf 84bd 36a0 b23d 998a 0d3e eed4 65be
00000160: 26f4 cdbd efc6 3b3e e514 5bbe a55b ce3d
00000170: 5648 85bd 0a07 8abe ce9b 49be fe3c a5be
00000180: 05c7 1b3c 45a5 abbd 4912 a73c b56b 17bd
00000190: 7626 b2be 1528 a2be 2f80 3fbe dd46 e2be
000001a0: 3c7d 2fbd 5fb5 9b3d 279d d8bd 4b24 cbbd
000001b0: aba0 48be 0e39 c3be b945 9dbe 2b98 58be
000001c0: a691 07be 8127 6f3d f510 5cbd 3b55 34be
000001d0: 70e1 88be 4a0a a7bd 1b98 e53c 2d9e 373d
000001e0: eb9f debd c576 a3be c604 43bf af6e 3abe
000001f0: 5acf 09be 90b4 97be 5af0 c0bd 645f f6be
00000200: 48d0 7bbd ae35 92bd 44dc 843d 1986 173e
00000210: 53c4 0ebe 43a7 903d e8eb 193d 248a 4cbe
00000220: 8f22 0b3e d3bf 683e 0859 cdbd 4a5f 3d3c
00000230: 5344 a9bd 2c19 613e 87ab 2d3e dd57 853d
00000240: 8d73 e2bd 70c6 18be d57f 89bd 05b4 10bd
00000250: fd36 03be c73c 333e 1e6c ecbd 44ee b9bb
00000260: acf8 5cbd 699c f33d 9f64 2f3e 9620 c23c
00000270: 3794 67be 86b5 473e 950e 643c 12c9 b33c
00000280: cdf6 0b3e f390 73bd 0d1d 1c3d ce3d ac3d
00000290: 434c d93d d910 753c 6383 d23d bb05 073d
000002a0: fff8 1f3e 0c42 693e e1ff 7b3d e126 f5bc
000002b0: ed55 fe3c c4f5 aaba c392 943d b32f 7fbc
000002c0: 4d41 8cbc e73b 403d a1bf 24bd 68d0 ee3d
000002d0: 08a2 8fbd 16ff 3c38 18cd c3bc ceee 413d
000002e0: 61cd 5cbe 31a6 413c 1806 8c3c f293 7abd
000002f0: d15e 83bd f87c e83d 8218 563c 57e7 523c
00000300: 524b d43b 343d eabc 76a5 493d d719 22be
00000310: 7eb9 5fbe 2ed0 913e e7c4 8cbe 5d4a 6ebc
00000320: 66c8 84be ac76 e3bd 6cab 393e d7f8 5cbe
00000330: 67fb a4be 735e 34be f931 fcbe 87be 033e
00000340: 6174 c43c aab4 b5be 139d 52be 68e7 a3be
00000350: db34 8abe fccd 84bd d032 143e 0aa8 d8bd
00000360: 8b4e 9bbd 03f9 dc3a c078 a3bd e69a 92bd
00000370: e227 42be 7e07 2e3b f947 8bbd fc5f 73be
00000380: b5f1 dbbb ccf9 d8bd 38e6 1c3e 7e29 8abd
00000390: 6542 44bc 781b d6bd 24fe 9cbe c806 f93d
000003a0: 184b 1cbe 2efc 5a3e b0b1 d4bd 0cc3 903d
000003b0: 98f4 323e bd96 53be 6963 03be 5288 363d
000003c0: 92c0 253e 79ac debd 044f 33be 5390 f3bc
000003d0: 8b44 a13e ca33 f13d a99d 6dbe f72e 2cbe
000003e0: 2a3e 083c f359 313e ea6d 00be b19a 063e
000003f0: 6eb5 f03d 0371 f13d fe51 80bd bbb8 f2ba

memory_a.rnn.bias_hh_l0 f4 [256]
0.026923286 0.10661659 -0.10720691 -0.08198658 -0.17406942 0.1806129 -0.22212332 0.028101329
-0.020127732 -0.0634639 0.30776677 -0.18888952 -0.14393863 -0.30877453 -0.18514654 0.009930312
0.2633962 -0.10683581 -0.14723839 -0.044844486 -0.17671324 -0.08006062 -0.11553297 -0.09829129
-0.12901324 -0.22583582 -0.3442934 -0.13774988 -0.052182976 -0.16356362 -0.16138016 0.059546914
-0.09375532 -0.17848952 -0.31952783 -0.12428235 -0.096817456 0.051621363 -0.28185612 -0.027130347
-0.08822661 0.016207948 -0.5812544 0.06249085 -0.14965773 -0.5191136 0.09849826 -0.21263374
-0.05077081 -0.07169741 -0.039988194 0.058335613 0.10846152 -0.21485268 -0.36676568 0.13498758
0.052110117 0.055289432 0.07640775 -0.1140629 0.12727119 0.053826485 0.008186066 -0.09522186
-0.17341919 -0.16207296 -0.20930123 0.20224026 0.06583799 0.035079744 0.4216561 -0.062480614
-0.1865775 -0.152749 -0.33898282 0.08603781 -0.35908896 -0.5758367 0.19894023 -0.3105239
-0.35286698 -0.08140379 -0.12566231 -0.038401436 -0.111209564 0.023739045 0.22651057 -0.085438654
0.045586985 0.23012093 -0.27684233 0.10403385 0.0052040825 -0.27271655 -0.14892398 -0.09121664
-0.034388077 -0.21505731 0.04618328 -0.1877999 -0.23136051 -0.3425376 -0.31366175 -0.34650165
0.053782113 0.14270087 -0.11608591 0.03443116 -0.16503866 -0.31826353 -0.2516919 -0.35252738
-0.12741747 -0.07813686 -0.10993948 -0.21631531 -0.3303107 -0.06838666 0.1878256 -0.17996894
-0.066209435 -0.24722572 -0.5288243 -0.25275883 -0.12946886 -0.28593963 -0.05639256 -0.5136236
-0.019715384 0.14480567 0.024913607 0.123416916 0.060930185 -0.1295539 0.106056236 -0.078583516
-0.044701405 0.06910389 -0.046933055 -0.104226284 0.08906747 0.10470978 0.051779956 -0.13956831
-0.060557693 -0.065405995 0.024381973 -0.08976525 -0.077690326 0.11217423 0.035026237 0.068041235
-0.050601635 -0.022086646 -0.017917864 0.033522934 -0.109333836 0.23152348 -0.09488735 -0.06839787
-0.054400623 -0.07407856 0.0011353678 -0.0926038 -0.0149437925 -0.008310051 0.058476057 -0.000539506
0.030690128 0.24197757 0.1744458 -0.038349748 0.049424414 -0.013932716 0.073896416 -0.03321658
0.045261454 0.0067294575 -0.10863069 0.011380826 -0.07032043 0.17687035 -0.16268408 0.030403648
-0.103506275 0.028278729 0.14547639 0.05451572 0.04837029 -0.09508886 -0.07167776 0.17904712
0.15788732 0.013373511 0.10044756 -0.14714903 -0.15183976 0.2866292 -0.17536648 -0.04564425
-0.29844272 -0.0962958 0.26267716 -0.19522911 -0.15188383 -0.30587408 -0.39577043 0.022739882
-0.0014374387 -0.3585665 -0.07209214 -0.12103614 -0.0642448 -0.19497833 0.10384442 -0.27972797
-0.110357784 -0.161069 -0.18580894 -0.13498244 -0.24591821 0.003407009 -0.120998025 -0.2918282
0.18345088 -0.16654968 0.049235605 0.047352824 -0.0023931332 -0.07203242 -0.09034959 0.10318159
-0.1600726 0.20435666 -0.3112738 0.043380033 0.17836924 -0.07438679 0.00048018858 0.16383593
0.12619914 -0.18507385 0.009441408 -0.0933324 0.28723213 0.21360794 -0.21780258 -0.19259746
-0.11721444 0.09339102 -0.21900098 0.0066075334 0.10977565 0.17523512 -0.04891902 0.028005866
00000000: 398e dc3c cc59 da3d 4c8f dbbd 94e8 a7bd
00000010: 413f 32be 97f2 383e 4c74 63be c234 e63c
00000020: eae2 a4bc 5cf9 81bd 9b93 9d3e 416c 41be
00000030: a664 13be b217 9ebe 0e97 3dbe bfb2 223c
00000040: dedb 863e bccc dabd a9c5 16be daae 37bd
00000050: 51f4 34be d3f6 a3bd 8d9c ecbd f24c c9bd
00000060: 0c1c 04be 8141 67be 3947 b0be 4e0e 0dbe
00000070: d1bd 55bd 397d 27be d740 25be 77e7 733d
00000080: ca02 c0bd f5c5 36be 2799 a3be bf87 febd
00000090: 3b48 c6bd ec70 533d 724f 90be 7640 debc
000000a0: 27b0 b4bd 88c6 843c 17cd 14bf 68f6 7f3d
000000b0: e03f 19be a1e4 04bf 75b9 c93d a9bc 59be
000000c0: 0ef5 4fbd 17d6 92bd a9ca 23bd 53f1 6e3d
000000d0: 1321 de3d 5702 5cbe b6c8 bbbe 2f3a 0a3e
000000e0: 6b71 553d 2c77 623d ab7b 9c3d cf99 e9bd
000000f0: 6153 023e 2979 5c3d d91e 063c ae03 c3bd
00000100: cd94 31be 74f6 25be 1053 56be 1218 4f3e
00000110: 11d6 863d c7af 0f3d 4fe3 d73e aceb 7fbd
00000120: 2c0e 3fbe 3c6a 1cbe 288f adbe 9734 b03d
00000130: 82da b7be 096a 13bf fdb6 4b3e fdfc 9ebe
00000140: fbaa b4be 08b7 a6bd 9fad 00be d34a 1dbd
00000150: d7c1 e3bd 6378 c23c 63f2 673e 76fa aebd
00000160: 6bb9 3a3d d2a4 6b3e 47be 8dbe b30f d53d
00000170: 0287 aa3b 81a1 8bbe 877f 18be cacf babd
00000180: 83da 0cbd fc37 5cbe ae2a 3d3d 9e4e 40be
00000190: c5e9 6cbe 1761 afbe 4698 a0be aa68 b1be
000001a0: a24a 5c3d 2d20 123e 73be edbd b007 0d3d
000001b0: e5ff 28be 70f3 a2be c3dd 80be 787e b4be
000001c0: ba79 02be 3806 a0bd f327 e1bd c381 5dbe
000001d0: 7c1e a9be 4e0e 8cbd 5b55 403e c749 38be
000001e0: d098 87bd bd28 7dbe 0861 07bf 9b69 81be
000001f0: 7c93 04be ae66 92be e3fb 66bd d67c 03bf
00000200: 2882 a1bc f047 143e 9f17 cc3c 02c2 fc3d
00000210: ee91 793d c7a9 04be 0334 d93d 65f0 a0bd
00000220: d218 37bd 5786 8d3d e03c 40bd 9774 d5bd
00000230: 0169 b63d 1572 d63d 3817 543d ffea 0ebe
00000240: 580b 78bd 94f3 85bd b4bc c73c d8d6 b7bd
00000250: 1b1c 9fbd 9abb e53d ac77 0f3d 3459 8b3d
00000260: a943 4fbd 0eef b4bc 7cc8 92bc 584f 093d
00000270: 6bea dfbd 7e14 6d3e 4d54 c2bd 2f14 8cbd
00000280: 30d3 5ebd 80b6 97bd 9fd0 943a 10a7 bdbd
00000290: cfd6 74bc e126 08bc 9784 6f3d a36d 0dba
000002a0: dd69 fb3c f8c8 773e eba1 323e a014 1dbd
000002b0: 4171 4a3d 0c46 64bc 0157 973d 1c0e 08bd
000002c0: 1364 393d c882 dc3b c479 debd a576 3a3c
000002d0: 2804 90bd 801d 353e a896 26be 1211 f93c
000002e0: 19fb d3bd cba8 e73c c3f7 143e e04b 5f3d
000002f0: ed1f 463d f3bd c2bd cacb 92bd 2158 373e
00000300: 37ad 213e 921c 5b3c 73b7 cd3d 3cae 16be
00000310: e27b 1bbe 10c1 923e 4593 33be 77f5 3abd
00000320: 7ccd 98be bb36 c5bd 9f7d 863e 24ea 47be
00000330: 6f87 1bbe 879b 9cbe 6ca2 cabe fd48 ba3c
00000340: 7068 bcba 0796 b7be 0ba5 93bd cce1 f7bd
00000350: c792 83bd 66a8 47be 62ac d43d 8138 8fbe
00000360: 4303 e2bd 46ef 24be b344 3ebe d638 0abe
00000370: fcd1 7bbe 2048 5f3b d0cd f7bd 816a 95be
00000380: 8cda 3b3e 008c 2abe 46ab 493d 09f5 413d
00000390: 1dd6 1cbb bc85 93bd 3509 b9bd df50 d33d
000003a0: 12ea 23be df42 513e 485f 9fbe 43af 313d
000003b0: 6da6 363e 1a58 98bd d2c1 fb39 9bc4 273e
000003c0: 593a 013e 0084 3dbe 23b0 1a3c 0f25 bfbd
000003d0: 1710 933e 0abc 5a3e a407 5fbe 4538 45be
000003e0: 200e f0bd cb43 bf3d cb41 60be 0284 d83b
000003f0: 0ed2 e03d d670 333e 4f5f 48bd 8f6c e53c
