logs/g1/Apr19_03-18-51_/model_600.pt (torch, 777504 bytes, 48 tensors)

std f4 [12]
000000 67 90 08 3f 77 6b 27 3f ed fd bd 3e aa fa ef 3e
       0.5334534 0.65398353 0.37107792 0.4687093
000010 6f 75 6f 3f f9 96 5e 3f 25 6e 0c 3f 01 fa 29 3f
       0.93538564 0.86949116 0.5485557 0.663971
000020 9a 7b bd 3e 68 d6 02 3f 88 5d 6d 3f 9d 3d 5f 3f
       0.37008363 0.5110841 0.9272084 0.8720339

actor.0.weight f4 [32, 64]
000000 c6 30 b7 3d 9e 7e 64 be 90 7d 21 3d 71 c1 27 3d
       0.0894485 -0.22313926 0.039426386 0.040955964
000010 f8 39 95 3e 72 95 60 3d 3b de 89 be 95 e7 74 3e
       0.2914579 0.054830022 -0.2692736 0.23916467
000020 63 83 95 3d 72 22 f3 3e 1d 0b 9d 3e ab 67 59 bd
       0.07300451 0.47487217 0.3067254 -0.05307738
000030 e0 fa 05 3f 68 b1 ed 3e d2 0b 14 bd 8f 19 ad bc
       0.5233593 0.46424413 -0.036144085 -0.021130351
000040 0a 5c 4c 3e 5e cd 1b 3e d5 59 be 3d 98 7c ad 3d
       0.19956985 0.1521506 0.09294478 0.0847103
000050 80 35 af bc 7c dd f1 3d fb 23 e2 3e 7a 76 8c 3d
       -0.021387815 0.11809823 0.44168076 0.06858535
000060 d6 8f 42 bc 94 51 dd 3e 18 4a 68 be b2 4d 00 bf
       -0.0118751135 0.43226302 -0.22684515 -0.50118554
000070 78 e2 22 3d 49 dc b1 3e 2a 5e 5e be 6f 31 7d be
       0.03976676 0.34738377 -0.21715608 -0.24725889
000080 2b be 80 3e ff 1a bc be ed 4f 63 be 2d 10 d0 3d
       0.25145087 -0.36739346 -0.22198458 0.10159335
000090 2b 80 a2 be b0 74 d8 3d 9b 78 17 3e a2 67 bf 3d
       -0.3173841 0.105691314 0.14792101 0.09345938
0000a0 cd 2f 5b 3d 91 16 de bd ee ab 0c 3f c6 2a 6c 3e
       0.053512383 -0.10844148 0.54949844 0.23063192
0000b0 d9 1b 55 be e4 12 8c bd c8 06 31 3c 92 5b d3 bd
       -0.20811404 -0.068395406 0.010804839 -0.103202
0000c0 6a 6f 9c bc 64 20 82 be a2 d0 76 3c 2d 06 cc be
       -0.019096095 -0.25415337 0.01506439 -0.39848462
0000d0 84 28 ce 3e b2 a9 65 3d 0f 46 8a be 7e 91 8e bd
       0.40265286 0.056070037 -0.27006575 -0.06961344
0000e0 08 63 78 3e 5b ab be 3d a6 df 34 bf 33 e5 dc 3d
       0.24256527 0.09310027 -0.7065376 0.10785904
0000f0 b0 40 ff bd c1 41 18 be 0c eb 00 be be 37 86 bd
       -0.1246351 -0.14868833 -0.12589663 -0.06553601
000100 d5 76 37 3e ed ce 6a 3e dc a4 e6 3c ce f9 78 3e
       0.17916425 0.22930498 0.028154783 0.24314043
000110 6f d9 ba 3e ec 04 9e be a4 3a ae 3c be de 05 bf
       0.36494014 -0.3086313 0.021268196 -0.52293
000120 b3 7f 3d be 3b d7 91 3e 7b 14 04 bf ca 7d c1 3e
       -0.18505745 0.2848452 -0.5159375 0.37791282
000130 73 95 00 3c 94 f5 0a bf 0c f4 17 be 9d 3c 46 be
       0.0078481315 -0.5428097 -0.1483919 -0.1935906
000140 ee e9 4c bd e3 fe 25 3e d0 25 93 bd a5 33 33 3e
       -0.05002778 0.16210513 -0.071849465 0.1750017
000150 07 1f d0 3d 05 61 ef bd 62 44 27 3e 0c e8 90 3d
       0.10162168 -0.11688427 0.1633468 0.070755094
000160 a8 a3 af 3e ce 40 89 3e b6 02 c4 be ab 48 c1 bc
       0.34304547 0.26807255 -0.38283318 -0.023594221
000170 e3 dd ce bd 81 c3 6f be 72 4b 0c bd f8 e3 1e be
       -0.10100915 -0.23414423 -0.034251638 -0.1551665
000180 43 17 44 3e 63 47 24 3d 86 47 57 be ee 0f f7 3e
       0.19149499 0.040107142 -0.21023378 0.4825434
000190 ad 03 39 3e 3f f2 b7 3d ec 02 22 3d 48 87 04 3f
       0.18067808 0.08981752 0.039553568 0.5176892
0001a0 fb 05 b8 3e 7a 71 1e 3e 0d dc 86 3d 53 9b bb be
       0.35942063 0.15472975 0.0658494 -0.3664194
0001b0 be 08 08 3f fc 21 ba 3d ec a2 d0 3e 4c 27 3c be
       0.5313834 0.09088513 0.407493 -0.18374366
0001c0 6c 65 84 3e 3b bb 2e be 9c 99 72 be 02 c5 a6 be
       0.2585863 -0.1706361 -0.2369141 -0.3257218
0001d0 91 cf 41 bd 5d b1 19 bf 64 03 c7 be 06 50 45 3d
       -0.04731709 -0.6003626 -0.38869774 0.04817202
0001e0 87 0a 57 bd 2e 54 8c 3e 36 dd f1 3e 6a 80 ab be
       -0.052500274 0.27407974 0.47239083 -0.3349641
0001f0 fc 2f e4 3e 2d ea 80 3e 8d 71 c4 3e d1 c8 c7 3e
       0.4456786 0.25178662 0.38367882 0.39020398
000200 d8 b2 37 be b0 64 ba bd 91 f8 71 3d 74 73 6f be
       -0.17939317 -0.09101236 0.059074942 -0.23383886
000210 df cc 81 3e 21 b6 c9 3d b9 5f 4c be c3 96 58 3e
       0.25351617 0.098491915 -0.1995839 0.21151261
000220 a3 19 60 3e e3 29 46 3e 22 4c 8b bc f5 9e 9a be
       0.2188478 0.19351916 -0.017004076 -0.301994
000230 da fd 6d bc 4c 31 22 3d 25 b2 67 be 4a 01 b0 3e
       -0.014525855 0.039597794 -0.2262655 0.34375983
000240 88 c9 c5 be b9 b5 f1 3d 7b b3 cf 3c 81 af 33 3e
       -0.3863032 0.11802239 0.025354138 0.17547418
000250 df 0f 56 be 0d 51 45 3e d4 11 70 3e 5e 72 28 bd
       -0.20904492 0.192692 0.23444301 -0.041124694
000260 d4 67 a2 3d 9b 62 49 3d 8e 05 ff be f6 c0 19 be
       0.0792996 0.049166303 -0.49808925 -0.15015015
000270 37 be 11 3e 78 9a 30 3b 91 4a f1 3c 06 4b 80 3e
       0.14232717 0.002694754 0.029454501 0.25057238
000280 67 2c 74 3d ab 5d fd 3d 95 33 08 be ed 88 97 3e
       0.059612658 0.12371381 -0.13300927 0.29596654
000290 56 c4 5a 3e 00 27 fb bc ef 64 b7 bd 8b 75 23 3f
       0.21363959 -0.030658245 -0.089547984 0.6385123
0002a0 a8 d3 19 be ff 93 a5 bd fc 39 04 be 8f 10 9c 3d
       -0.15022147 -0.08084869 -0.12912744 0.07620346
0002b0 81 53 93 3e 77 17 6a be 10 df b7 bd 20 89 23 bd
       0.28774646 -0.22860514 -0.08978093 -0.039925694
0002c0 3a ad df be 8d c4 0a bd cd c0 f7 be 2d 73 f4 3e
       -0.4368685 -0.03387885 -0.48389283 0.47744122
0002d0 b4 19 13 3f 96 e9 8a bd e8 3b 9f bc 31 67 d2 3e
       0.57461095 -0.06782834 -0.019437745 0.41094354
0002e0 f8 a8 1e 3d d2 ac 50 be f1 ab 86 bd af c8 8d be
       0.03873536 -0.20378426 -0.06575764 -0.27692172
0002f0 bc a2 7e be aa 42 00 bf d8 92 16 be 2d a0 97 be
       -0.24866766 -0.5010172 -0.14704454 -0.29614392
000300 22 35 8c 3e 32 b0 c8 bd 4c 26 d7 3d ec 4e 6c bb
       0.27384287 -0.097992316 0.105053514 -0.0036057783
000310 da 64 65 be ac af e3 3d 33 d3 21 3e 63 27 c5 3d
       -0.22401753 0.11117491 0.15803222 0.09626653
000320 4a 6e 8a be 48 5d cc be da 33 bf bc c2 95 64 3d
       -0.2703727 -0.39914918 -0.023340154 0.055806883
000330 71 38 2f be 24 16 7c 3e 39 93 f6 3d d5 1d 92 be
       -0.17111374 0.24617821 0.12039799 -0.28538385
000340 66 f1 37 bd 67 34 9e 3e 10 69 f1 3e ca 89 59 be
       -0.04490795 0.30899355 0.4715047 -0.21243969
000350 88 aa 11 3f 2e c6 83 3d c7 9e 59 3c a7 f9 f4 3d
       0.56900835 0.06434284 0.013282484 0.1196168
000360 65 0b 4c 3e fe ee 48 3e 27 59 86 3b 61 9b 2c 3b
       0.19926222 0.19622418 0.0040999833 0.002633773
000370 06 f7 07 bf 87 06 a7 bd d5 4b 99 bd b4 94 22 be
       -0.531113 -0.08155542 -0.07485167 -0.15877038
000380 d1 4c 9f be 12 f1 82 3e b2 d6 5b be b4 77 5a bc
       -0.31113294 0.25574547 -0.21468619 -0.0133342035
000390 8e 38 7e be ae f3 8e 3e 7c b2 93 3d 67 9f d4 3a
       -0.24826261 0.27920288 0.072117776 0.0016221822
0003a0 ea 7f 6a be 97 5e a1 3e 7a bb 71 3e 57 4b af be
       -0.22900358 0.3151748 0.23606673 -0.34237167
0003b0 d6 6d 99 be cd 3f f4 3d 65 d5 9e 3e bd 71 ca bc
       -0.2996661 0.119262315 0.31022182 -0.024712438
0003c0 c3 83 05 bc 7a 49 32 be db 17 b6 3e 59 cd 1a bd
       -0.00814909 -0.17410842 0.35565075 -0.03779349
0003d0 cc 49 5f 3e 82 5a 09 bf 9a 4a 9b 3d 53 44 a4 bd
       0.21805495 -0.5365373 0.075825885 -0.08020844
0003e0 93 16 a3 bd 71 50 e3 3e 0c 07 33 be 43 d5 03 3e
       -0.0796329 0.4439731 -0.17483157 0.12874322
0003f0 60 e8 fc bd 67 3d c7 3c e1 83 33 be 39 b1 07 3f
       -0.123490095 0.024321271 -0.17530777 0.53004795

actor.0.bias f4 [32]
000000 99 f4 20 be 29 4c a4 3d d7 a7 58 be 69 59 a0 bd
       -0.15718307 0.08022339 -0.21157776 -0.07829554
000010 ac 0c 86 be 88 b8 a0 3d 53 06 20 bd 3b 28 9b b9
       -0.26181543 0.078476965 -0.03906853 -0.00029593878
000020 4b 8d ba bd 36 32 93 3d 35 bb 08 bd ab ae 2a 3e
       -0.09108981 0.07187311 -0.03338166 0.16668193
000030 1e 2b 33 be e4 49 39 3d 7a 23 83 3d fd a6 53 3b
       -0.17496917 0.045236483 0.06403251 0.0032295578
000040 ec 40 05 be 3c 6d 29 3c c2 f4 79 be a6 d1 8b be
       -0.13013047 0.010340985 -0.24409774 -0.27308387
000050 af 8c b8 bd ae 4a 3e 3e b2 6f b4 3c bc 03 6b be
       -0.09011208 0.18583176 0.022025917 -0.22950643
000060 70 43 f7 bd a2 f8 a5 3d f3 4d 37 3d 45 4c 2b be
       -0.120734096 0.081040636 0.044752073 -0.16728313
000070 e3 c9 24 be 57 e3 89 3e 90 91 78 bd bf 74 cf bd
       -0.16092639 0.2693126 -0.060685694 -0.101296894

actor.2.weight f4 [12, 32]
000000 65 02 f0 3c b1 9a b2 bc 28 60 86 3e 6a 15 8c be
       0.029298017 -0.021802278 0.26245236 -0.27360088
000010 37 db 97 bd ad c5 ac bd c9 1c ce be 13 1c ba 3e
       -0.07414859 -0.08436141 -0.40256336 0.36349544
000020 76 6d 9b be 41 4d 23 3e 81 fc 6f 3e 1e 03 d9 bd
       -0.3035695 0.15947439 0.23436166 -0.10596298
000030 e0 76 7d be 26 af 72 be 53 a4 df 3b 0b 82 0d be
       -0.24752378 -0.23699626 0.006825009 -0.13819139
000040 3a 3c ac be e0 e1 3d be 78 3a b8 3d 28 fc 55 be
       -0.336397 -0.18543196 0.08995527 -0.20896971
000050 19 2d 34 3c d0 7d 30 3e 59 c0 76 3e 60 61 8d 3e
       0.01099708 0.17235494 0.24096812 0.27613354
000060 e7 e0 55 3d 98 2b 28 3e 51 56 b7 3c f4 bb c7 3d
       0.052216437 0.1642288 0.022380026 0.09752646
000070 91 86 28 3e 74 da be be 5c 54 62 3e 13 a5 b4 3a
       0.16457583 -0.37276042 0.22102493 0.0013782106
000080 53 36 98 3d da 13 39 3e b3 18 06 bc c9 f6 cb be
       0.074322365 0.18073979 -0.0081846 -0.3983672
000090 96 84 45 be 92 08 fa 3d 61 4d a7 bd 3f a2 37 3e
       -0.19288859 0.12208666 -0.08169056 0.17932986
0000a0 3f 23 45 bd b7 c1 6f 3e 9b 91 38 3e 4b 08 67 3e
       -0.048129316 0.2341374 0.18024294 0.22561757
0000b0 59 20 09 be 71 1f 7d 3c 21 2c 2f bd 22 ee 25 bd
       -0.13391246 0.015449391 -0.042766694 -0.040510304
0000c0 d0 d9 49 3e 24 4c da 3e 46 d6 b8 be 12 46 d6 be
       0.19711995 0.42636216 -0.36100978 -0.41850334
0000d0 d8 bb b4 be 5c c8 c3 3e 57 57 db 3e be f8 0d bf
       -0.35299563 0.382388 0.42840073 -0.55457675
0000e0 84 94 40 3e 5f 83 a7 3e 6a e6 7f 3e 94 8e aa bd
       0.18806654 0.32717416 0.2499024 -0.08327976
0000f0 23 75 45 be b4 68 bb 3e 95 a1 35 3e 75 a7 39 be
       -0.19282965 0.3660332 0.1773742 -0.18130286
000100 55 41 2d 3e 48 21 2d bd e4 50 c6 bd 85 09 8c 3e
       0.16919453 -0.042268068 -0.096833974 0.27351013
000110 29 c9 80 3e 32 40 8b bd 39 5f 3a bc 9d 36 d3 bb
       0.25153473 -0.06799354 -0.011375242 -0.0064457194
000120 ae f8 32 bc 72 f9 27 be 4f 33 bd bd 0a 85 65 3d
       -0.010923548 -0.1640375 -0.09238302 0.05603508
000130 f1 16 c1 3c 97 71 6c be 6e 65 44 3e 2a c6 b0 bc
       0.02357051 -0.23090206 0.19179317 -0.021578867
000140 91 d9 00 bb 47 31 db bd 7d aa ec bc 74 eb 30 3e
       -0.001966093 -0.10702758 -0.028889889 0.17277318
000150 b0 4f 9a 3d ae e7 b5 bc 73 73 ab 3d d5 b8 13 be
       0.075347304 -0.0222052 0.083716296 -0.14425977
000160 d2 08 1d be 66 5d 69 bd 40 fb 00 3d 2c d4 1f 3e
       -0.15335396 -0.056973837 0.03148961 0.15608281
000170 84 b1 92 bd 34 00 ec bd 12 67 27 3e 28 67 2c 3e
       -0.07162765 -0.11523476 0.16347912 0.16836226
000180 c5 65 d7 3d 59 a6 58 bd 3c 5a 10 bc d1 db f5 bd
       0.10517458 -0.052893016 -0.008810576 -0.12004817
000190 14 08 73 3d 5b 2f 2f be 01 ce 24 be a6 67 85 3e
       0.059333876 -0.17107908 -0.16094209 0.2605564
0001a0 1e c8 5e 3c 2e 89 90 bd 8f d9 a8 3e 1a 6d ba bd
       0.013597516 -0.07057415 0.32978484 -0.09102841
0001b0 b6 23 2a 3d b5 d3 40 3e a3 e7 d4 3c bc e1 85 3d
       0.041537963 0.1883076 0.02598936 0.06537196
0001c0 12 b4 2a 3e 5e 20 94 3d 17 d1 a1 3e 7a 59 88 3e
       0.16670254 0.07232736 0.31604835 0.26630765
0001d0 5e 7b 21 bd dd 90 b3 bd 41 ec 5a bd 74 86 c6 3d
       -0.039424293 -0.08767865 -0.053447966 0.09693614
0001e0 6d 7d 47 bd 07 9a 0a bd f1 24 b4 3d 0c 89 e9 bd
       -0.0487036 -0.0338383 0.087961085 -0.11403093
0001f0 cc c1 29 3e 59 4a b8 3d 11 e2 7d 3d ee b7 2d be
       0.16577834 0.08998556 0.06198317 -0.16964695
000200 5c 8c 6b be b6 9f 7b bd 4d bd 2a be 33 1a 66 3d
       -0.23002762 -0.06143161 -0.16673775 0.05617733
000210 2b 0a f9 be 84 69 5e 3e 08 a8 7e 3e 56 0e 0a 3e
       -0.4864057 0.21719939 0.24868786 0.13482031
000220 3c f0 e5 be 6c 18 a9 be 09 e1 a9 3e a1 68 41 be
       -0.44909847 -0.33026445 0.331795 -0.18887569
000230 68 75 0c bf 4f 0b 57 3e 36 7a 2a bd b7 65 34 3f
       -0.5486665 0.21000408 -0.041620456 0.70467705
000240 50 95 bc 3d d8 8f df bb 5c 62 d1 be 9a 6f 81 be
       0.092081666 -0.0068225674 -0.40895355 -0.25280458
000250 19 8f b8 3e 5e 6a a3 3e a5 b9 78 3c 85 20 1d 3f
       0.36046675 0.3191709 0.01518098 0.61377746
000260 3c bc 2a bf 82 97 1f 3f 27 fa 2d be ed 6c 2d 3e
       -0.6669347 0.6234056 -0.16989957 0.16936083
000270 fa 8d 80 3e 50 4c 8f 3e 26 aa 3a 3e 8b d3 62 be
       0.2510832 0.2798791 0.18228969 -0.2215101
000280 f6 fe e1 be 50 c2 47 3e 72 84 6b bd 99 26 37 3d
       -0.44139832 0.19507718 -0.057499357 0.044714544
000290 e4 c2 39 3e 2c 1a 4e 3e bd 05 46 3d 36 39 ca 3d
       0.18140751 0.20127171 0.048345316 0.09874193
0002a0 cc bf 03 be 36 42 37 bb 67 65 80 3e b5 e5 17 3e
       -0.12866133 -0.0027963049 0.25077364 0.1483372
0002b0 db 65 53 be 01 42 45 3e c6 00 00 be 3d 9a e8 3c
       -0.20644324 0.1926346 -0.12500295 0.028393859
0002c0 63 62 83 3b 8f 37 b9 bd b0 e9 84 bd 22 b2 9d 3c
       0.0040095313 -0.090438 -0.06489885 0.01924998
0002d0 75 fc 15 be 1d 92 85 3e 0a 5e c7 3d 1a 23 70 be
       -0.14647086 0.26088038 0.097347334 -0.2345089
0002e0 20 33 1f 3e 1a 35 b9 bd ce cb 1f be 76 1d 0f bd
       0.15546846 -0.090433314 -0.15605089 -0.034940206
0002f0 96 dc 07 be bc ea 54 be 60 c8 ad 3e 74 20 d9 be
       -0.1326774 -0.20792669 0.33941936 -0.42407572
000300 ee 26 ce bd 3e d5 56 3e 0b 94 f2 be 7f f8 92 3d
       -0.10066019 0.20979783 -0.47378573 0.07176303
000310 15 a1 8b be 5a c5 14 3e b6 97 97 bd b1 a0 10 be
       -0.27271333 0.14528409 -0.074019834 -0.14123799
000320 38 20 99 3e fc 7c 4c 3e d5 4b 64 be 41 c9 7c bd
       0.29907393 0.19969553 -0.22294553 -0.06171537
000330 ff f2 5b 3d b4 6f 48 3d 81 fa d5 3e b8 36 70 3e
       0.053698536 0.048934653 0.41792682 0.23458374
000340 a1 80 10 be 18 42 9f be fd 6a b6 3e fd 5e 77 be
       -0.14111568 -0.31105113 0.356285 -0.24157329
000350 94 95 46 be 85 04 07 3c 56 8e 38 3e 8e 98 03 be
       -0.19392997 0.008240824 0.18023047 -0.12851164
000360 85 57 12 be 23 22 a4 be 63 b0 8d 3c 29 16 37 3e
       -0.14291199 -0.32057294 0.017296022 0.17879547
000370 de c8 d9 bd 35 1c 1b 3e e2 28 8f bd 18 60 82 bd
       -0.106340155 0.15147479 -0.0699022 -0.06365985
000380 a6 72 0f bd 92 bf b9 be 7c e9 ac 3d 26 f2 76 bd
       -0.035021447 -0.3627897 0.08442971 -0.060289524
000390 4d 10 e9 3d d5 4f bb 3d 4d 27 4e be 34 92 a9 be
       0.11380062 0.09146086 -0.2013218 -0.33119357
0003a0 3e a4 c8 3e 6e b8 04 3d d9 3b 1a be e3 08 e8 be
       0.39187807 0.03240245 -0.15061893 -0.4531928
0003b0 ad 10 b2 3e 3f 44 c1 bd 03 73 1e be a8 63 7b 3e
       0.34778348 -0.09436845 -0.15473561 0.24549735
0003c0 98 1e f6 be 5c 27 72 3e f3 c5 84 be 19 57 41 3e
       -0.48070216 0.23647827 -0.25932273 0.18880881
0003d0 95 8e 03 3e ac 40 ca be fb fa a9 3d 85 05 45 3e
       0.1284736 -0.39502466 0.08299824 0.19240387
0003e0 30 3b b9 3c 69 70 08 bd 29 99 f5 be 3c c3 f4 3e
       0.02261123 -0.033310328 -0.47968414 0.47805202
0003f0 d3 1f 00 3d 98 03 90 be 75 7c c2 3d 2d 18 ea 3d
       0.03128035 -0.28127742 0.094963945 0.114303924

actor.2.bias f4 [12]
000000 40 3b 3c 3d 4c 3b 7d 3e 54 43 81 bc 15 f8 6b be
       0.045954943 0.24729651 -0.015779175 -0.23043855
000010 ca 4d ae 3e e2 7e ab bd 35 dc 1a be 08 e6 2d be
       0.34043723 -0.0837381 -0.15123065 -0.16982281
000020 87 a9 9b 3d 45 dc 2a 3c 1c 46 fb bd 5b 55 12 3e
       0.07600694 0.010428493 -0.12269232 0.14290373

critic.0.weight f4 [32, 64]
000000 5b 48 7c bd c3 4a 8b bb 72 82 df 3c c3 a5 bf 3d
       -0.06159244 -0.0042508557 0.02728388 0.093577884
000010 48 97 c5 39 e0 a0 c1 bc 32 ea 92 bd 15 22 fb bb
       0.0003768748 -0.023636281 -0.071735755 -0.007663975
000020 6b 52 93 bc 6b 06 7e 3c 0c d1 e6 bc 7e f1 30 bc
       -0.017983636 0.01550446 -0.028175853 -0.010799764
000030 9c 06 56 3d cd 56 95 3d b6 61 1d 3c 7b 50 99 bc
       0.052252397 0.072919466 0.009605816 -0.018715134
000040 38 ec 08 3c 56 9b 14 bd 1d 18 93 bd 89 d8 08 bd
       0.0083571 -0.036280952 -0.071823336 -0.03340963
000050 a3 d7 70 bd 37 7c 24 3d 1d c1 b9 3d bc 90 b0 bd
       -0.058799397 0.040157523 0.090700366 -0.08621356
000060 b2 f3 38 bd fb 67 cd 3a 75 51 13 3d 1c 8f 54 3d
       -0.04515428 0.0015671247 0.035966355 0.051894292
000070 41 63 67 3d b0 c1 d2 bc 41 e4 b9 3d e0 39 bc 3d
       0.05649114 -0.025727123 0.09076739 0.09190726
000080 98 76 b4 bd 4a 69 e7 bc fb f6 aa bd 91 6c 51 3d
       -0.088116825 -0.028248448 -0.08347889 0.051128928
000090 4a 7e 4b 3d b1 2b 4e bc a5 39 e4 bd 8b 4d 14 3e
       0.049680986 -0.012583659 -0.11143807 0.14482705
0000a0 6e d4 71 bc 31 22 17 bd 20 ef e0 bb 18 8c b0 bd
       -0.01476012 -0.03689784 -0.0068644434 -0.08620471
0000b0 11 26 ca bd d6 78 a9 3b 46 72 48 bc 04 15 b9 bc
       -0.09870542 0.0051718755 -0.012234276 -0.022593029
0000c0 74 a8 4d bc 0e 78 02 3d 58 82 20 bc 06 f6 a6 3d
       -0.012552369 0.031852774 -0.009796701 0.08152394
0000d0 b3 70 e7 3b 13 c3 98 3d 1f 5f 60 bc 9f 7a 86 bd
       0.0070629953 0.074590825 -0.013694554 -0.06566357
0000e0 6c 5d 4f bd fe 92 bb bc d1 e5 8f 3c 2d 57 e5 bb
       -0.050626203 -0.02289724 0.01756564 -0.0069989176
0000f0 79 92 59 3d 44 c8 38 bb 66 56 d6 3b 05 71 88 3d
       0.053118203 -0.002819554 0.006541061 0.06662182
000100 40 1b e9 bd 05 af 92 bc 1e 64 28 3d 8b 89 e1 bc
       -0.11382151 -0.017905721 0.041111104 -0.027531406
000110 47 0e 2d bd 80 3f 27 3e 37 b0 7b bd c0 b7 66 3e
       -0.042249944 0.16332817 -0.06144735 0.22531033
000120 18 5e 84 bd 45 31 3a 3e 99 4f b2 bc c0 bc 29 be
       -0.064632595 0.18182857 -0.02176647 -0.16575909
000130 89 fe e0 bd bf 7b 12 3e 8a 66 3a 3e 37 48 db bd
       -0.10986049 0.14305018 0.18203178 -0.10707133
000140 95 8e 62 be 9f 89 81 3e f4 17 f3 bd 46 a2 c8 3d
       -0.22124703 0.2530031 -0.11869803 0.09796576
000150 4a 44 26 bc 04 67 6e 3e 80 19 41 be 6d bc 75 bd
       -0.010148117 0.23281485 -0.18857384 -0.05999415
000160 f0 f7 80 3d ac b4 b4 3d 8a 34 a4 bd 36 58 be 3d
       0.0629729 0.08823523 -0.080178335 0.09294169
000170 af e0 27 3e 8d 6e 30 be 88 ce 2b 3c 55 78 48 3e
       0.16394304 -0.17229672 0.010486253 0.19577153
000180 12 dd 02 3d ca 02 33 be 0b 8a 03 3d cc 78 bd 3e
       0.03194911 -0.17481533 0.03211407 0.37006223
000190 2b 4d 2f 3d 31 70 f2 bd a6 26 41 be e0 99 2d be
       0.042798202 -0.11837805 -0.188624 -0.1695323
0001a0 a0 10 4e 3d be 95 4d 3e 23 cb 06 3d 8f 29 21 be
       0.050308824 0.20076653 0.03290857 -0.1573851
0001b0 f9 c2 5f bd 41 26 e4 bc f3 ec 55 3e 97 69 81 3e
       -0.0546293 -0.027850272 0.2089117 0.2527587
0001c0 53 77 fd 3d cb ef 95 be 82 a1 35 be 78 73 32 3c
       0.12376275 -0.2928451 -0.17737392 0.010891788
0001d0 10 d1 17 be 02 af 91 3e f4 2e 21 3e 4e 05 fe 3d
       -0.14825845 0.28453833 0.15740567 0.124033555
0001e0 fb 9b 9b 3e ff b5 2c be e2 d5 ea 3c 5a 37 58 be
       0.3039244 -0.16866301 0.02866644 -0.21114865
0001f0 69 47 9c bd 46 f8 48 3e 70 73 2a bc 74 46 fe 3a
       -0.07630808 0.19625959 -0.010403499 0.0019399659
000200 f0 1f 8b 3d 14 2d 05 bd 33 64 3c bc 9b 06 77 3e
       0.06793201 -0.032513693 -0.011498499 0.24123614
000210 0f de 47 3e 02 d8 0a 3e 8b b1 70 bd 8b fd 24 3e
       0.19518302 0.13558963 -0.05876307 0.16112344
000220 a3 b2 7d bd 7c ab 7a bd 3c 68 cb 3d ee dc 05 3e
       -0.06193794 -0.061198696 0.099319905 0.13072559
000230 fd b0 bf b9 2c e4 38 3e f9 b5 12 bc 9d 44 47 be
       -0.00036562225 0.1805579 -0.0089545185 -0.19459768
000240 7e cf 90 bd de f7 58 3b 4b 0e 48 3e 4a ae 81 3c
       -0.07070826 0.0033106725 0.19536702 0.015830178
000250 49 d0 fe bd 67 6f f6 3d 6f bb ba bd 32 4a 80 3d
       -0.12442071 0.12032967 -0.09117781 0.06264152
000260 b7 56 82 3d 89 84 c4 bd 76 fb 00 be cb 68 71 be
       0.06364196 -0.095955916 -0.12595925 -0.23575132
000270 24 68 ab 3d 81 c8 8d bd 77 1e 0f be a1 7e 17 be
       0.083694726 -0.06923009 -0.13976465 -0.14794399
000280 b0 0e c9 3d 97 f8 bb 3d 65 33 57 bd ea b7 93 bd
       0.098172545 0.09178274 -0.052539248 -0.07212813
000290 9c 7e f0 bd 3c d6 ee bd c7 ec 01 3d 75 2e a1 bd
       -0.11742899 -0.11661956 0.03171995 -0.07870189
0002a0 e4 e3 52 3e f7 8a 47 3d 9c 12 3a be 68 76 47 be
       0.20594746 0.04871651 -0.18171161 -0.19478762
0002b0 d2 9b 90 3e 18 fe 30 bd 4d 21 29 bc 12 6b b1 bd
       0.2824388 -0.043211073 -0.010322881 -0.08663
0002c0 b5 23 b7 bc 2c 3e 94 3d 5f 81 13 3e 95 46 5b 3d
       -0.022355894 0.07238421 0.1440482 0.05353411
0002d0 26 cc 00 be b1 97 f5 bd c8 f7 7d bd 3a 13 7e bc
       -0.12577876 -0.119918235 -0.06200388 -0.015507514
0002e0 da 3f 16 3c f4 96 b9 be d7 95 54 bd 2e d6 1b be
       0.009170497 -0.3624798 -0.05190071 -0.15218422
0002f0 70 43 3a 3e 2f 9b 88 bd a8 e4 41 be 5a 09 e8 3c
       0.18189788 -0.06670224 -0.18934882 0.028324772
000300 64 07 c9 3c 09 03 e5 3c 9c 02 c9 3d 9c e7 c7 3d
       0.024539657 0.027955549 0.09814951 0.09760973
000310 25 8c 05 3e 23 6c 71 3d 85 46 2d bd 61 47 17 3e
       0.13041742 0.058941018 -0.04230358 0.14773323
000320 5b c6 8e 3d 8d 3e 0b 3d 24 05 cb bc 69 3b 0b 3e
       0.06971427 0.0339952 -0.024782725 0.13596882
000330 07 ae 04 bd 92 1b 31 3e bc 08 4e 3e cd 66 14 bd
       -0.032392528 0.17295673 0.2012052 -0.03623085
000340 8f 6b 61 3d c0 02 0f 3e 3e 94 3f 3e 01 00 b1 bd
       0.055034216 0.13965893 0.18708894 -0.08642579
000350 aa cb c3 3d 18 de 8a 3d be 7f b9 bd c2 2e c5 3d
       0.0956033 0.06780642 -0.09057568 0.09628059
000360 4e c0 e6 3d da 19 b3 3d b2 0e 8a be 16 17 40 bd
       0.11267148 0.08745165 -0.26964337 -0.046897016
000370 68 84 be bd 8a 7e 5a be e5 cb 17 3d c6 3a 0c 3c
       -0.09302598 -0.21337333 0.037059683 0.008558935
000380 f8 45 91 bd b7 8b 12 be 5a 61 f7 bc c1 ee a5 3e
       -0.070934236 -0.1431111 -0.030197788 0.32408717
000390 ae e0 27 be 2d 1c 87 bd 44 02 3c be 99 cb 46 bd
       -0.16394302 -0.06597171 -0.1836024 -0.04853401
0003a0 ab b5 3f 3e ab 15 eb 3c 3a 4e 83 bd e6 4a f6 bd
       0.18721645 0.028696856 -0.06411405 -0.120260045
0003b0 fe be df bb 3c 82 d3 bd f6 e9 0c 3d 2a f7 cb 3d
       -0.006828188 -0.103275746 0.03440281 0.09959252
0003c0 9a b4 31 be c9 34 07 bc c3 a9 7f 3d 9f 8c d8 bd
       -0.1735405 -0.008252331 0.062417757 -0.10573696
0003d0 bd 0e be bd 5c 5f 06 3e 1e 5f 9b bd 55 f1 15 3d
       -0.09280155 0.13122314 -0.075865015 0.036607105
0003e0 f7 68 0c be d3 2e db be f6 d5 12 be 8a 75 9b bc
       -0.13711916 -0.42809162 -0.14339432 -0.018976945
0003f0 0c b6 f5 3c 25 13 8c 3d 04 f0 5b 3d 0e 48 49 bd
       0.029994033 0.06839589 0.053695694 -0.049140982

critic.0.bias f4 [32]
000000 37 04 02 3c 4e d9 88 be b5 6f 5c be 44 71 49 be
       0.007935575 -0.2672829 -0.21526988 -0.19672114
000010 cf d5 3f 3d 64 d1 4e be 75 cb 55 3b e3 47 00 3d
       0.046834763 -0.20197064 0.003262249 0.031318557
000020 e6 46 5e 3c 31 2c 50 be ce 2a 3f bd a3 68 51 be
       0.013566708 -0.20329358 -0.04667168 -0.20450072
000030 ec f6 eb bd 19 87 86 3d e3 c4 ba bb 10 1b a1 be
       -0.11521706 0.065687366 -0.0056997403 -0.3146596
000040 7a 1b 00 3e c2 4c 10 be ee 55 7f 3b b5 6c 5b 3e
       0.12510481 -0.14091781 0.003896113 0.21428187
000050 53 6d eb 3a fd 1d 37 be 0d 1d 02 3e dd ba 4b 3e
       0.0017961658 -0.17882533 0.12706394 0.19895501
000060 55 7e 3a 3e 26 b9 2f bd 48 07 ea 3c c1 18 80 be
       0.18212254 -0.04290118 0.028567925 -0.25018886
000070 32 d2 07 be ae 9c 57 3e d7 37 3a 3e 2a 0d 8f 3d
       -0.13263777 0.21055862 0.18185364 0.06984933

critic.2.weight f4 [1, 32]
000000 5c 2d 2b bb 05 ed fe bd 4d 36 28 bd 20 07 6f bc
       -0.0026119566 -0.12447552 -0.04106741 -0.014589101
000010 61 e0 19 bc fd 29 b1 bd 5d 4a ab 3a d0 e0 65 bb
       -0.009391875 -0.08650587 0.0013068427 -0.0035076626
000020 d6 15 0e 3b 94 a4 05 be 61 cb 2f 3a 5b 6d cd bd
       0.0021680496 -0.13051063 0.0006706026 -0.100306235
000030 19 24 89 3e c0 7c 43 3b 37 19 29 3b 02 00 73 be
       0.26785353 0.0029828995 0.0025802383 -0.23730472
000040 07 72 32 3b d1 51 ff bb ad 7e 2b 3c 18 31 83 3d
       0.002722861 -0.0077917357 0.010467214 0.06405848
000050 0e a2 f7 3b 6e c9 82 bc 9c c9 06 3a 97 78 b6 3d
       0.00755716 -0.01596519 0.00051417365 0.089097194
000060 8f a0 77 3e 0c dc 4b bb 16 bf 91 bb 30 99 a2 bd
       0.24182342 -0.00311065 -0.004447828 -0.079393744
000070 67 7d 5a bc 6d 74 db 3d 8f 96 2a 3d 52 66 c5 3a
       -0.013335562 0.10715566 0.04164749 0.0015060401

memory_a.rnn.weight_ih_l0 f4 [256, 47]
000000 e0 5e e7 3e ac 42 d8 3c ac 48 ab 3e 1d 35 99 3d
       0.4518957 0.02639898 0.33453882 0.07480834
000010 53 29 85 bf 92 1d 38 3e 07 b4 88 bd 59 29 60 be
       -1.0403236 0.1798003 -0.066749625 -0.21890773
000020 fd 98 ba 3e 47 24 4c be d4 b6 8b bf a5 02 de be
       0.36444846 -0.19935714 -1.091517 -0.43361393
000030 79 a4 bc be cb c7 07 3f f0 b8 69 be 1a 4f 63 be
       -0.36844233 0.53039235 -0.22824454 -0.22198144
000040 3f 35 50 3f 67 6b 53 3e 48 56 d8 3d 9b 34 68 bf
       0.8133125 0.2064644 0.10563332 -0.9070527
000050 30 bf c7 bd 87 f4 00 bf 4f 24 8f 3e a1 1f 49 bd
       -0.09753263 -0.5037312 0.2795739 -0.04910243
000060 7f 99 8c be 13 e6 a2 be 87 0e e1 be e2 96 04 3e
       -0.27460858 -0.31816158 -0.43956396 0.12948182
000070 26 78 17 3c 47 4a 7e 3d c8 bb c7 be 1a 59 c1 be
       0.009244954 0.062082555 -0.39010453 -0.37763292
000080 53 83 34 3e d3 55 1c be ed 9a ec bc 31 2d c7 3d
       0.17628221 -0.15267114 -0.028882468 0.097254165
000090 e1 a6 1e be a8 c1 50 be 36 c1 f1 3d 38 f2 40 bd
       -0.15493347 -0.20386374 0.1180443 -0.047105998
0000a0 32 6d fd 3d fb fc 14 3e ec b7 13 3e 48 b3 c2 be
       0.12374343 0.1454963 0.1442563 -0.38027406
0000b0 bd 88 8b 3e a0 5f 67 3e f5 f9 9a 3d 1a fb d3 3c
       0.2725276 0.22595072 0.07567207 0.02587657
0000c0 a9 28 1c 3d d5 77 d2 3e 94 f6 52 3f 36 02 15 3f
       0.038124714 0.4110705 0.824075 0.582065
0000d0 14 1d b5 3d f9 72 81 3e 24 f8 0b 3f d3 bb 88 bf
       0.08843437 0.2528303 0.5467551 -1.0682319
0000e0 47 ef ed 3f 37 5e c4 bf c4 f6 77 bf e8 29 c3 3e
       1.8588647 -1.5341252 -0.9686091 0.3811791
0000f0 ec eb 4b bc 18 4c 3b 3f ee e4 71 3f 8c e9 4c 3f
       -0.012446385 0.73162985 0.94489944 0.80043864
000100 01 99 ee 3d a3 05 75 bf ee 24 a2 be 23 7c 95 3e
       0.11650277 -0.95711726 -0.316688 0.2919627
000110 95 85 2c 3e 83 76 9f bf 29 ee 36 be 76 55 28 bf
       0.16847833 -1.2458042 -0.17864288 -0.65755403
000120 b4 68 a5 3e 63 9c 79 3e ec d1 00 3f f2 17 91 3e
       0.32306445 0.24376063 0.50320315 0.2833858
000130 6f 61 65 be 2f af 81 3e fc c8 88 3d 93 08 38 3f
       -0.22400449 0.25328967 0.0667896 0.71888083
000140 dd 60 09 3c 51 2f 3a be b4 27 5a bf 4f 4d 0e 3e
       0.00838491 -0.18182112 -0.8521683 0.13896678
000150 e0 47 dc 3d 2d 19 b9 3e bf e6 e6 3e 8e 86 9c be
       0.107558966 0.3615202 0.4509792 -0.30571407
000160 bd 2c f0 3d 00 cd 0c be 16 84 67 be 14 10 07 3f
       0.11727283 -0.13750076 -0.2260898 0.5275891
000170 81 b9 ee be 37 4d ac be 49 7d 47 3e 74 50 8c bd
       -0.46625903 -0.3365266 0.19481386 -0.06851283
000180 ad 2b 07 bf 78 ef a6 3d c6 c2 b2 be 34 a5 a8 3d
       -0.5280102 0.08151144 -0.34914225 0.08234635
000190 f5 7e 87 bd df fd 32 3d 96 e1 85 bf fc d9 3b be
       -0.06616012 0.04369914 -1.0459468 -0.18344873
0001a0 ab 82 5a be 8f ca 97 3f fd c7 53 be 3d 96 15 bf
       -0.21338908 1.1858691 -0.20681758 -0.5843237
0001b0 57 fa 8d be 14 d7 48 bf 60 52 3a 3c f6 b5 8f bc
       -0.27730057 -0.78453183 0.011372179 -0.01754282
0001c0 94 e3 8b be 13 49 d3 3d 2a 78 32 bf 5f 31 11 3f
       -0.27322066 0.10316672 -0.69714606 0.5671596
0001d0 3b 4d 95 3e da 36 88 3e 36 f7 c3 bc 76 75 1f bf
       0.29160485 0.26604348 -0.02392159 -0.62288606
0001e0 74 09 e0 3c 3c b4 69 bf 8d 6c 63 bd 8c 29 70 bf
       0.027348258 -0.9129064 -0.055523444 -0.93813396
0001f0 0a b0 0f 3e b3 ce 59 3e bf 4d 1b 3f a1 dc 65 3f
       0.14031997 0.21270256 0.60665506 0.8978978
000200 45 ce 0c be 9e c9 26 3f 64 08 1a 3e 68 3a c2 bd
       -0.1375056 0.65151393 0.15042263 -0.09483796
000210 d0 e6 8f 3e ee d7 fa 3e 91 e8 cf 3d 44 a0 1d be
       0.28105783 0.48992866 0.101517804 -0.15393168
000220 25 17 4c 3e 06 5d ea bd 05 92 b2 be d8 d5 0c 3f
       0.19930704 -0.11443524 -0.3487703 0.550138
000230 e3 6f a6 3e e2 a6 08 bf 5a 64 2d 3f 82 40 94 3e
       0.32507238 -0.5337964 0.6773125 0.28955466
000240 00 e9 03 3f d1 72 ca 3e 09 fa 5e 3e 97 76 1c bf
       0.51527405 0.39540723 0.21775068 -0.61118454
000250 1f f0 2c 3d 3b 50 aa 3e 73 0d ea be 61 8e 1b bf
       0.042221185 0.33264336 -0.45713386 -0.6076413
000260 5b cc 93 3b 68 16 c2 bc a5 db 02 3f e3 05 17 3f
       0.004510445 -0.023692325 0.511164 0.5899336
000270 a4 66 db be d6 ca 90 be ce b1 a7 3d 6f 14 5d bf
       -0.42851746 -0.28279752 0.081882104 -0.86359304
000280 2b c9 50 be b8 59 04 be cc 2e 0d be 02 96 e5 3e
       -0.2038924 -0.1292485 -0.13787383 0.4484101
000290 6f 7b 23 bf c4 d8 a8 be 46 fe 04 bf e0 ba 3e bf
       -0.6386022 -0.3297788 -0.5195049 -0.745039
0002a0 fa 8e f8 be 15 9c 92 be d1 23 4f 3e 2e 01 15 be
       -0.48546582 -0.28634706 0.20228507 -0.14551231
0002b0 f0 72 52 be e1 f8 ea 3e 89 60 da be 12 cc 29 be
       -0.20551658 0.45893005 -0.42651775 -0.16581753
0002c0 16 fb 66 be 4c 11 e4 3e 2e 7c 1c 3e fb fe 86 be
       -0.22556719 0.44544446 0.15281746 -0.2636641
0002d0 1f f5 bd bd 04 12 27 3d bf 53 02 3e d4 a4 57 3d
       -0.09275269 0.040788665 0.12727259 0.052647427
0002e0 00 a3 52 be 5e 61 78 3e 2d 83 af 3e e0 4b 0f 3e
       -0.20569992 0.24255893 0.34279767 0.13993788
0002f0 09 0f ce 3e 7c 10 9c 3e 2d 13 50 3f cd 40 f1 3e
       0.40245846 0.30481327 0.8127926 0.47119752
000300 41 73 87 be 99 71 fc 3d 62 35 8c 3e 90 ac 59 3d
       -0.2645512 0.123263545 0.27384478 0.053143084
000310 e7 7c 87 3f 84 98 8d 3f 22 ea dd 3d 66 f7 3e be
       1.0584992 1.1062169 0.10835673 -0.18649063
000320 f4 29 c0 bd d5 36 1c 3f 10 88 29 3e 04 0d 9d 3d
       -0.09383002 0.6102117 0.1655581 0.07668498
000330 73 f5 5d 3e 27 88 0e bf 66 41 49 3f 6b d9 9f 3f
       0.21675663 -0.556765 0.78615415 1.2488226
000340 f0 3d 85 3e 0a d0 84 be 73 02 52 3f 08 97 5e 3f
       0.26023817 -0.2593997 0.8203499 0.86949205
000350 c9 55 2d 3e 7a f0 35 be a8 ba 55 be 04 1f e7 be
       0.16927256 -0.17767516 -0.20871985 -0.4514085
000360 99 04 12 3f 65 f1 f1 3d 25 c0 6b 3f 5b e3 2c 3d
       0.57038265 0.118136205 0.92090064 0.04220901
000370 78 81 04 bf 1c 79 fd bd 2c 01 04 be a0 67 0f 3f
       -0.51760054 -0.123766154 -0.12891072 0.56017494
000380 f3 d3 31 3e 32 f4 db 3e 3d 67 a2 be 2e b0 3a 3e
       0.17366008 0.42959744 -0.3171939 0.1823127
000390 ac 87 e3 be 4f 4d b6 bd d2 e4 e3 3e 85 af 8f 3c
       -0.44439447 -0.08901464 0.44510514 0.017539749
0003a0 f3 7d 5b be 73 67 a2 be 76 19 f1 be c8 e2 3a 3f
       -0.21434765 -0.3171955 -0.47089738 0.7300229
0003b0 41 68 92 3e f5 8f 19 3e b3 c3 c3 be 55 86 19 bf
       0.28595164 0.14996321 -0.38235244 -0.599706
0003c0 3f f2 ba be 0e 63 ca be 0f 18 c4 3e 8c 7e 49 bf
       -0.36512944 -0.39528698 0.38299605 -0.7870872
0003d0 1d 85 60 bc 43 d6 1f bf 93 a2 bf 3e 54 94 fe 3d
       -0.013703612 -0.6243631 0.37428722 0.12430635
0003e0 03 ca e4 3e ed 64 97 3e c7 2b 96 bd 75 cf 45 bd
       0.44685373 0.29569188 -0.073325686 -0.04829355
0003f0 3b 0e 80 3e 02 70 c6 3e 1a c4 62 3f ed 0b fa be
       0.25010857 0.3875733 0.8858048 -0.48837224

memory_a.rnn.weight_hh_l0 f4 [256, 64]
000000 49 6c 3f be a2 68 d9 bc 36 18 80 be 93 c4 f0 bd
       -0.18693651 -0.02653915 -0.2501847 -0.117562436
000010 58 53 95 3d d4 12 49 3e 47 95 c0 be 03 e2 ad 3e
       0.07291287 0.19636089 -0.3761389 0.33961496
000020 af ef ea be 79 90 6f bf 72 73 e0 bd bc 7c c7 be
       -0.4588599 -0.9357982 -0.109595194 -0.38962352
000030 ba 2c 9e be 19 52 20 bf 62 de 7d bf a6 95 2a 3e
       -0.308935 -0.6262527 -0.99167454 0.16658649
000040 09 1e 1a be c4 48 36 be ea fd f6 be e9 64 12 3e
       -0.1505052 -0.17801195 -0.48240596 0.14296307
000050 11 e0 1b 3f a7 80 07 3d 43 00 af 3e e3 24 2e bf
       0.60888773 0.033081677 0.34179887 -0.68025035
000060 40 d6 62 3f 11 1b ca be 79 c9 48 be f4 82 7d 3f
       0.8860817 -0.39473775 -0.19608106 0.99027944
000070 b9 72 f7 3e 90 1b 01 bf 8b a8 0c 3f ad 3c db 3e
       0.48329714 -0.5043268 0.54944676 0.4281973
000080 08 28 59 3d 6f ea 79 be bf 0c ed 3e 4b eb 66 bf
       0.053016692 -0.24405836 0.46298787 -0.9020278
000090 b6 e0 15 3e e0 74 37 be f2 1f 9a bd b4 93 9c 3e
       0.14636502 -0.17915678 -0.07525624 0.3058144
0000a0 06 be 05 3f 99 36 77 be 7d 31 a2 bf 1f 23 03 bd
       0.5224308 -0.24141921 -1.2671353 -0.032015916
0000b0 97 d8 f3 3e 44 a1 53 be 31 65 4b 3d d3 36 07 bd
       0.47626182 -0.20666987 0.04965705 -0.03301127
0000c0 46 93 9b be e5 68 21 3f 40 a2 8a bf 56 25 31 be
       -0.30385798 0.6305068 -1.0830765 -0.17299399
0000d0 f6 64 c4 3d 2c f7 0f bf 97 f2 25 3f f2 fb a0 bf
       0.09589569 -0.5623653 0.6482329 -1.2576888
0000e0 cf ff 81 3e 08 9a b9 3e a5 55 3b 3f 88 50 b7 be
       0.2539048 0.3625033 0.7317756 -0.35803628
0000f0 08 8e f3 3d 45 24 3a bf ad 84 b0 bd 4e bb 25 be
       0.11892325 -0.7271159 -0.08619056 -0.16184732
000100 df 51 3f be 62 8b 94 3e 27 f3 e4 3e 31 2d c2 be
       -0.18683575 0.2901259 0.4471676 -0.37925103
000110 e8 96 1d bf ff cd 24 bf ba b1 62 3f d1 c3 47 bf
       -0.6155839 -0.64376825 0.8855244 -0.7803317
000120 9f 7e 68 bf 55 ac 64 3f c2 70 53 be 72 ae b8 3d
       -0.9081821 0.8932546 -0.20648482 0.09017648
000130 42 5f 0d 3e a9 4c 52 3e a0 50 36 3c c0 87 f6 bd
       0.13805869 0.20537056 0.011127621 -0.12037611
000140 1c bd ac 3d 73 4d 93 3f 30 9a a4 3e 43 63 91 be
       0.08434507 1.1508011 0.32148886 -0.28396043
000150 63 f9 4e bf b0 ed b6 be 03 e6 70 bd 76 cf 43 bd
       -0.80849284 -0.35728216 -0.058813106 -0.047805272
000160 10 1a 29 3f 2a 1c 97 be 09 d6 6b bf 8a 49 d1 be
       0.66055393 -0.29513675 -0.92123467 -0.40876418
000170 e3 7c e7 3e d0 ae 51 be 0b f9 4d be c9 05 3f 3f
       0.45212469 -0.20476842 -0.20114534 0.746182
000180 d2 90 d4 be 6f 91 b2 3e 3f 0d 35 3e 8e b7 0c 3e
       -0.4151674 0.34876582 0.17680834 0.13741896
000190 74 b9 e5 bd ca b0 9f 3e 76 4a cb 3d eb cf d4 be
       -0.11217013 0.31189567 0.09926312 -0.4156488
0001a0 b9 10 e6 3e c7 a2 94 bf 21 ab 63 3e 20 87 a7 bd
       0.44934633 -1.1612176 0.22233249 -0.0818007
0001b0 20 01 5e 3f 18 44 c9 3e b3 8b c3 3e 98 c2 92 bd
       0.86720467 0.39309764 0.3819252 -0.07166022
0001c0 55 94 b0 be 53 15 bf be 20 3e 70 3e 70 10 31 3f
       -0.34488168 -0.37320957 0.23461199 0.69165707
0001d0 26 d7 a6 bd f6 c1 3a be ae a8 06 bf 72 c0 fb 3e
       -0.08146505 -0.18238053 -0.52601135 0.49170262
0001e0 57 09 0f bb 48 89 9f 3e 0b 56 05 bf 6d a5 c3 be
       -0.0021825635 0.31159425 -0.52084416 -0.38212147
0001f0 62 b1 0a be 90 9a da 3e 61 34 06 3e 42 30 e8 be
       -0.13544229 0.42696047 0.13105918 -0.45349318
000200 b2 75 4e 3e 39 59 34 bf 06 45 a2 3e f2 a6 8a 3d
       0.20162085 -0.7044864 0.31693286 0.067701235
000210 f8 39 7e bd 5a 16 68 3d c6 de 9c be 55 63 58 3f
       -0.062067002 0.05666194 -0.30638713 0.8452657
000220 67 ee 6a be b9 3d 30 be 21 0b c1 be 24 07 05 3e
       -0.22942506 -0.17211045 -0.37703803 0.12991005
000230 71 32 28 3f ff 19 b0 bd ab d2 21 bf bd c1 1e be
       0.6570197 -0.08598708 -0.6321208 -0.15503593
000240 2a b7 d7 be 80 34 a2 3c bd 6e 0d 3f 9b a9 6b be
       -0.4213193 0.019800425 0.552471 -0.23013918
000250 2e 9a 4b be e2 7f 59 3f d4 32 ec 3e 3f 73 4f 3d
       -0.19883034 0.8496076 0.4613253 0.050647017
000260 0c 8f 0e bf b4 01 93 3f 87 69 c4 bd d1 e3 14 bf
       -0.5568702 1.1484895 -0.0959044 -0.5816012
000270 23 ab 86 be d3 91 8c be ab 46 19 3f 84 ab 60 bd
       -0.26302442 -0.27455005 0.59873456 -0.05485107
000280 3b 95 84 3f 09 6a 51 be 9e b4 1a bf fc 31 2e be
       1.0358042 -0.20450605 -0.6043185 -0.17011255
000290 c7 54 a7 3f ea d6 13 3f d5 6c d9 bc 33 08 91 bd
       1.3072747 0.5774981 -0.026541153 -0.07081642
0002a0 f2 3c 05 3e 4b 7b e9 bc fd a1 e6 3e 05 39 03 3f
       0.1301153 -0.028501173 0.45045462 0.5125888
0002b0 6c ef 4f bf 51 ba 94 bd 62 a6 b8 3b 98 5c 97 be
       -0.81224704 -0.072620995 0.0056350688 -0.2956283
0002c0 a4 ee 37 be ac 73 b6 3e dc 68 c6 be 89 07 81 3e
       -0.17962128 0.35635126 -0.38751876 0.2520106
0002d0 0f 35 c9 3e 2a 09 c3 be af 1c 92 3e ec 13 b3 bc
       0.39298293 -0.3809293 0.2853751 -0.021860085
0002e0 4b 28 88 be 4c 7e ca be 54 76 73 3d c0 d9 91 3e
       -0.2659324 -0.39549482 0.05943902 0.28486443
0002f0 3a 80 fe 3d 5d 44 77 3e 0c 07 31 bf ec 4b 81 3e
       0.12426801 0.24147172 -0.6915138 0.25253236
000300 80 11 67 3f 9d 4d 07 3f 6d 45 b9 3d 86 c4 c9 bd
       0.9026108 0.52852803 0.09046445 -0.09851937
000310 da 48 69 3f cd b0 68 be 82 e8 e2 bd 62 08 52 3f
       0.9112679 -0.22723694 -0.110795036 0.8204404
000320 c1 aa 4d bf 8e 94 08 bf d2 20 e6 3e 75 a2 72 be
       -0.80338675 -0.53351676 0.44946915 -0.23694785
000330 42 5b 92 3e 80 8c 1a bf 15 04 cf 3d 16 6b e4 bd
       0.2858525 -0.60370636 0.101082005 -0.111532375
000340 03 0c a1 bd 65 4f 82 3e a0 06 c7 3d 2a 73 46 bd
       -0.07863619 0.25451198 0.097180605 -0.048449673
000350 55 73 0c 3f bc 60 68 bf c5 25 af be cd 57 b2 bd
       0.5486348 -0.90772605 -0.34208503 -0.08708153
000360 53 c4 6f be 51 e0 d9 be 0e 7e 89 be 6b 65 ec 3d
       -0.23414735 -0.42553952 -0.26853985 0.115427814
000370 fa 5a 62 be 94 ed af 3e 57 ca 37 3f ac 0e 11 3d
       -0.22105017 0.34360945 0.7179312 0.035414383
000380 65 ad f0 be a9 f5 61 3e 28 d2 46 bf 8d 8c 73 be
       -0.4700729 0.22066368 -0.77664423 -0.23784085
000390 5e 26 0b bf ef 79 df 3d 6b d4 e2 be 5d 94 32 bf
       -0.5435542 0.10911929 -0.44302687 -0.69757634
0003a0 f9 9e 45 be e5 85 30 bf 8d ac c9 3e 51 72 f6 3e
       -0.19298925 -0.68954307 0.39389458 0.48134091
0003b0 37 8b 32 be 20 97 01 bf a8 94 6c bf 74 4d e7 be
       -0.17435919 -0.50621223 -0.9241433 -0.4517628
0003c0 73 18 0f be 05 68 96 bf d5 65 e2 3d b6 08 aa be
       -0.1397417 -1.1750494 0.11054579 -0.3320977
0003d0 e0 2e 4a 3f 99 a5 6f 3e 10 e4 2b be 2e a7 b6 be
       0.78977776 0.23403014 -0.16786218 -0.35674423
0003e0 1d 06 e5 3e 46 43 74 bf b1 88 14 3f 25 e3 c3 3d
       0.44731227 -0.9541515 0.58021075 0.09564809
0003f0 06 4d 48 be b0 ad 1f bf 34 1c 8a be 3a 31 2c 3f
       -0.19560632 -0.623744 -0.26974642 0.67262614

memory_a.rnn.bias_ih_l0 f4 [256]
000000 42 71 59 3d 67 0a 06 3e 42 53 35 be 95 f5 74 bc
       0.053086527 0.13089906 -0.17707542 -0.014951129
000010 f5 9f 1d be a1 09 00 3e f8 fb 00 bf 79 32 6b be
       -0.1539305 0.12503673 -0.50384474 -0.22968473
000020 50 94 0c bd b0 a6 c9 3d 52 6b 15 3e a7 4b 24 be
       -0.03432113 0.09846246 0.1459172 -0.16044484
000030 e9 fd 0d be 40 ba 11 be cd 6e d4 be 47 fa dd bd
       -0.1386639 -0.14231205 -0.41490784 -0.10838752
000040 e0 d5 75 3e e7 3c 23 bd b8 d7 6c bd 36 bf c1 bd
       0.24007368 -0.039853003 -0.057822913 -0.09460299
000050 8c 07 6e be f2 d0 23 be 15 08 68 be 12 e8 4a be
       -0.23245066 -0.15997675 -0.22659333 -0.1981509
000060 4b 28 5c be d0 bc 4a be 7b 8f 6d be 5f eb 32 be
       -0.21499746 -0.19798589 -0.23199265 -0.174726
000070 dc 6b 87 bd 8f 10 9b be 9d d1 92 bc ec 7f 4f 3d
       -0.066123694 -0.3028607 -0.017922217 0.050659105
000080 e2 a8 6c bc 4c b3 b7 be 57 12 cb be 2e 3d 8d be
       -0.014444562 -0.3587898 -0.3966243 -0.2758574
000090 e5 d1 95 bd 4f 7d 88 3e 4e ed 94 be 95 3c d9 3d
       -0.07315425 0.26658103 -0.290873 0.10607258
0000a0 d2 b2 20 be e8 8d 14 be 01 2d a5 be dd be 07 3e
       -0.15693215 -0.14507258 -0.32260898 0.13256402
0000b0 a2 99 80 be 58 c6 a5 be 18 1a 92 3d f1 c7 6b be
       -0.25117213 -0.32377887 0.07133883 -0.2302549
0000c0 de 2c 75 3c d6 55 57 be 66 2d 61 be a8 8e 19 3e
       0.01496431 -0.21028838 -0.21989974 0.14995825
0000d0 6e 7b 7b 3e 2d 7b 89 be 9b f0 bb be 8b 0d 7e 3c
       0.24558803 -0.26851788 -0.36707005 0.015506159
0000e0 78 4c bc 3d ab 95 ca 3d 02 0e d3 3d e2 59 fd bd
       0.09194273 0.09891828 0.10305406 -0.123706594
0000f0 ea 01 91 3e 65 67 95 bd 1c 9b 92 be d9 df a0 bd
       0.28321773 -0.072951116 -0.28633964 -0.078551956
000100 a0 a7 09 be 85 67 9a be 80 93 88 be 6c 42 84 3e
       -0.1344285 -0.30157104 -0.26675034 0.25831926
000110 e0 f4 43 be a9 45 ad be 17 c1 d5 3e 31 09 32 3e
       -0.19136381 -0.3384221 0.41748878 0.17386319
000120 c2 d1 a3 be e9 95 8b be bd 08 2b bf 85 3d 92 3d
       -0.3199597 -0.2726281 -0.6681021 0.0714064
000130 e6 72 47 be cd 30 df be e7 e7 2e 3d 70 95 71 be
       -0.19477424 -0.4359192 0.042701628 -0.23592162
000140 3a 7c 98 be 46 53 82 bc 9d 44 28 be ab d3 82 bd
       -0.29782277 -0.015908848 -0.16432424 -0.06388029
000150 f8 e8 ee bd 35 70 8b 3d 51 50 6d bc e6 bf 99 be
       -0.11665529 0.06808511 -0.014484481 -0.3002922
000160 2c be 39 be 82 57 04 3e 96 1d b5 be 6d 7b ff 3d
       -0.18138951 0.12924007 -0.35374135 0.124747135
000170 2f e4 48 be 83 ab 2f be 25 18 43 be b2 9d a6 be
       -0.19618295 -0.1715527 -0.19052179 -0.32542187
000180 dd 7d 9b bd 6f 0b 6a bd 05 e5 21 bd 69 36 ab bd
       -0.07592366 -0.05713981 -0.03952505 -0.08359987
000190 55 bc 04 bf d0 e8 d9 be b3 77 f1 bd f1 cc 09 bf
       -0.5184987 -0.42560434 -0.11790409 -0.5382834
0001a0 22 65 03 3c ca b2 2b 3d 44 dc 16 be 3c 12 bf bd
       0.008019717 0.041918553 -0.14732462 -0.0932965
0001b0 e1 15 4a be 1d 82 b4 be 5e 4e 9f be c3 11 8a be
       -0.19734909 -0.3525552 -0.31114477 -0.26966676
0001c0 5f 2d d5 bd 9a f1 58 3d 35 65 85 bd 45 bb 37 be
       -0.104090445 0.052964784 -0.06513444 -0.17942531
0001d0 bb f1 9c be cc 87 be bd 9b 0b 7a 3d 2a 06 32 3d
       -0.30653176 -0.09303245 0.061046224 0.04346291
0001e0 b1 a9 3c bd 88 1c b3 be 0b ec 19 bf f7 9b 22 bd
       -0.046060268 -0.34982705 -0.601258 -0.03969952
0001f0 17 8e dd bd 8a e9 a6 be 93 15 cf 3d e3 0d 16 bf
       -0.10818117 -0.3260005 0.10111537 -0.5861494
000200 a6 6f 20 be 9a 3f 4d be 08 23 3b 3d fc 28 28 3e
       -0.1566759 -0.20043793 0.045687705 0.16421884
000210 99 75 22 be 85 ba 0f 3d fc da a0 3d e3 5e 4f be
       -0.15865172 0.03508999 0.07854268 -0.2025104
000220 c6 2b 7b 3e 11 e4 7f 3e 64 d5 ed bd 0a a2 aa bc
       0.24528417 0.24989344 -0.11612967 -0.02082922
000230 af 34 83 bd ed 2b 73 3e c4 33 39 3e 0f 2c a9 3d
       -0.06406533 0.23747225 0.18086153 0.08260357
000240 fc c8 d6 bd 86 9a 1d be 4f be 65 bd 69 74 77 bd
       -0.104875535 -0.15390977 -0.056089696 -0.06041375
000250 2b 67 2f be 48 3d 32 3e 93 2e ee bd 7e e6 72 3c
       -0.17129199 0.1740619 -0.11629977 0.014825461
000260 83 50 05 be 43 44 e6 3d 77 52 2a 3e b6 66 41 bc
       -0.13018994 0.11243489 0.1663302 -0.011804273
000270 8c 76 7e be 13 e5 37 3e 94 2e 0a 3d 38 0d 76 bb
       -0.2484991 0.17958479 0.033735827 -0.00375445
000280 77 91 21 3e b5 91 e7 bc 9f 83 24 3d 3a 12 5d 3d
       0.15778147 -0.02826772 0.040164586 0.05397246
000290 64 6d 29 3e aa a6 20 3d 22 59 14 3e 19 e6 af 3d
       0.16545635 0.039221443 0.14487126 0.085888095
0002a0 34 48 40 3e 65 dd a2 3e 4e ab 16 3e d6 dc 00 bd
       0.18777543 0.31809536 0.14713785 -0.031460606
0002b0 3c e7 8b 3d a2 6b 6f bc 07 94 76 3d 1e 2d 57 bd
       0.06831214 -0.014613064 0.060199764 -0.05253326
0002c0 07 f2 04 bc f5 d2 2a 3d c5 4b 1c bd fa ed ea 3d
       -0.008114344 0.04170509 -0.038158197 0.11471172
0002d0 d6 f2 a3 bd df d6 73 3c ec d2 0c 3d 1c 79 b9 3d
       -0.08005302 0.014882772 0.03438084 0.09056303
0002e0 de a9 80 be 8a 34 7c bb f5 d3 1d bd 9b 27 79 bd
       -0.25129598 -0.0038483464 -0.038532216 -0.060828786
0002f0 00 d1 97 bd d5 ea cc 3d 31 a8 1b 3a 9b 6f 4c 3d
       -0.074129105 0.10005728 0.0005937843 0.049911123
000300 45 82 48 bd d5 e9 d7 3b aa de ac 3d 97 a2 0c be
       -0.04895236 0.0065891542 0.08440907 -0.13733898
000310 6e 07 8c be f5 f3 a6 3e a0 a9 88 be 46 02 8f 3d
       -0.27349418 0.32608 -0.26691914 0.069828555
000320 63 1b bf be 00 ba ea bc 45 a3 3d 3d 2a e9 20 be
       -0.37325582 -0.028653145 0.046298284 -0.15713945
000330 b7 40 f6 be 4b 7e 5e be f0 6f 04 bf e2 7e cc 3d
       -0.48096249 -0.21727864 -0.51733303 0.099851385
000340 88 16 ba bd 0a fe ab be 7b ec 47 be 2c 0d 98 be
       -0.09086329 -0.33592254 -0.19523804 -0.2969755
000350 07 ec 96 be 89 ad 09 be 95 81 68 3e 77 66 64 be
       -0.2947695 -0.13445105 0.22705682 -0.22304712
000360 9c e6 47 bd 9a 3f 03 3d 2f 35 ea bd 1c 27 4e be
       -0.04880391 0.032043077 -0.11435925 -0.20132107
000370 3a df 0b be 19 02 a3 3d 3c 52 3c bd 74 f2 a3 be
       -0.13659373 0.079593845 -0.045976862 -0.32020915
000380 f6 87 44 be cd de f9 bd ef ba 80 3e 5c 94 90 bd
       -0.1919249 -0.12200699 0.2514262 -0.07059547
000390 16 a0 63 3c c0 de 7e be 34 64 96 be 32 76 01 3e
       0.013893148 -0.2488966 -0.29373324 0.12642744
0003a0 22 6c 50 be 78 0c 83 3e 88 c6 0f be c4 18 39 3d
       -0.2035375 0.2559545 -0.14040577 0.045189634
0003b0 37 8e 11 3e 78 35 ca be f0 dc 47 bd fc 9f f4 3c
       0.14214407 -0.39493918 -0.048794687 0.029861443
0003c0 25 e7 40 3e 28 26 bf bd 07 90 8f be bb 50 ba 3d
       0.18838175 -0.093334496 -0.28039572 0.09097429
0003d0 76 eb 98 3e bd 2b 90 3d b3 ad 9f be a7 38 ea bd
       0.29867142 0.070395924 -0.3118721 -0.11436587
0003e0 e4 80 7c bd 89 a3 4c 3e 73 6a 87 be 80 c2 99 3d
       -0.061646357 0.19984259 -0.26448402 0.07507801
0003f0 46 0f bc 3d 98 ea a7 3d 86 67 28 be 61 b4 36 3e
       0.09182601 0.08199042 -0.16445741 0.17842247
