logs/g1/Apr19_03-18-51_/model_350.pt (torch, 777504 bytes, 48 tensors)

std f4 [12]
0.42151418 0.5745634 0.26215482 0.39234194 0.8273522 0.786012 0.4229913 0.5663252
0.2858476 0.43429017 0.8379206 0.75181395
00000000: b5d0 d73e 9616 133f 2839 863e 0be1 c83e
00000010: 5bcd 533f 1538 493f 5192 d83e b0fa 103f
00000020: 9e5a 923e 485b de3e f781 563f e176 403f

actor.0.weight f4 [32, 64]
0.14820951 -0.12358793 0.13154922 0.18414375 0.13902587 0.21226394 -0.46563435 0.17388274
0.1543681 0.28437352 0.28045446 0.12676431 0.36834586 0.4927933 0.027934479 0.20180139
0.08086885 0.018065682 0.1342435 0.14369695 -0.05301403 0.09892212 0.34190324 0.17244637
-0.1551456 0.391902 -0.24469252 -0.119164504 0.050781347 0.4144167 -0.116839804 -0.33168608
0.21981375 -0.2715688 -0.11532377 0.15244429 -0.048440944 -0.25255638 0.24215889 0.15779074
0.0629653 -0.16842955 0.055314526 0.09905494 -0.19669947 0.057594113 -0.11637446 -0.17715606
-0.026156427 -0.04810579 0.16244888 -0.10899945 0.24774264 -0.09359957 -0.17358579 0.08022023
-0.038493518 0.07946844 -0.4246963 -0.032907818 0.0916722 -0.065307796 -0.1965179 -0.056098856
0.21340366 0.31479204 0.011892926 0.1788686 0.3398082 -0.15635188 0.031509418 -0.21012695
-0.28398326 0.33799946 -0.39669922 0.2302435 0.039841432 -0.2587006 -0.30045763 -0.23663606
-0.007926267 -0.011320897 -0.15960597 0.03475342 -0.14149219 0.05554062 0.08967314 0.052825034
0.03679995 0.18892895 -0.13041191 -0.05938155 0.07220418 -0.08582561 -0.040420707 -0.17210163
0.4075137 -0.07285767 -0.18895398 0.36041692 0.23479411 0.07815517 -0.005998263 0.14869145
0.42996475 0.22556773 0.08436201 -0.5843724 0.4379454 0.2073797 0.29544485 -0.0806361
-0.049889233 -0.117647864 -0.2760881 -0.110264234 0.100203045 -0.2700518 -0.24380422 0.08612773
-0.13601653 0.18430592 0.35624927 -0.2075496 0.04158071 0.4469885 0.46310025 0.20486654
-0.09234958 -0.0008766798 0.17545477 -0.14384028 0.2288468 0.12114918 -0.2591175 0.30685803
0.29926574 0.3303567 0.046920795 -0.17680243 -0.008937568 0.11433229 -0.10615452 0.26597464
-0.2150568 -0.039155804 0.103140354 0.31969094 -0.21649462 0.1460506 0.04394476 0.075704776
0.112541534 0.06727487 -0.33790094 0.06597763 0.080102645 0.030571803 -0.093275934 0.1561397
0.19206104 -0.05741542 -0.0043859114 0.18965597 0.2511944 0.036247928 0.037101142 0.48129332
-0.12241245 -0.14434864 -0.04791682 0.109111674 0.18062061 -0.1487974 -0.14263527 0.006678934
-0.33756888 0.10308969 -0.5281231 0.09528208 0.5384541 -0.046148684 -0.08112397 0.22261101
0.021744449 -0.2457705 -0.054963656 -0.25518426 -0.16774613 -0.30988964 -0.28439888 -0.3259131
0.16296153 -0.06706982 -0.052369792 -0.01935603 -0.21200745 0.08825158 0.21476465 0.13591343
-0.2907207 -0.19799788 -0.1428393 -0.08957637 -0.12302515 0.081027724 0.11047242 -0.13329653
-0.03372763 0.029636228 0.39538494 -0.25446987 0.36086866 0.2011147 -0.0005005338 0.1258239
0.17867878 0.10562074 0.13320655 -0.050102208 -0.16485475 -0.16918533 0.055095002 0.101239376
-0.22050226 0.17819439 -0.16596527 0.06275988 -0.1828067 0.25046888 0.16878797 -0.1489941
-0.21537532 0.3502047 0.0037069877 -0.27857953 -0.21527804 0.17728668 0.16794603 -0.06944129
-0.003277516 -0.2130437 0.31310594 0.06568687 0.2022011 -0.33434933 0.091662414 0.07403646
-0.04929621 0.36933327 -0.1964207 0.2127736 -0.19416949 -0.083115354 -0.019964254 0.49021918
00000000: 3cc4 173e ab1b fdbd d7b4 063e 2e90 3c3e
00000010: cc5c 0e3e b85b 593e a067 eebe 510e 323e
00000020: ac12 1e3e 6899 913e ba97 8f3e 81ce 013e
00000030: d497 bc3e 674f fc3e d9d6 e43c 06a5 4e3e
00000040: 919e a53d 7bfe 933c 2177 093e 4b25 133e
00000050: 3d25 59bd ae97 ca3d f10d af3e c895 303e
00000060: 7dde 1ebe 61a7 c83e ad90 7abe 850c f4bd
00000070: 1a00 503d 6d2e d43e b549 efbd c2d2 a9be
00000080: db16 613e 110b 8bbe de2e ecbd 5b1a 1c3e
00000090: 036a 46bd 124f 81be 80f8 773e e593 213e
000000a0: f4f3 803d cc78 2cbe 7c91 623d 51dd ca3d
000000b0: 966b 49be cee7 6b3d bc55 eebd 6668 35be
000000c0: 0146 d6bc 940a 45bd 0059 263e 1b3b dfbd
000000d0: 3fb0 7d3e 22b1 bfbd 79c0 31be 814a a43d
000000e0: 61ab 1dbd 59c0 a23d cb71 d9be 59ca 06bd
000000f0: a2be bb3d 18c0 85bd fd3b 49be eac7 65bd
00000100: 7d86 5a3e 6c2c a13e 8cda 423c 5529 373e
00000110: 57fb ad3e b51a 20be 0510 013d 852b 57be
00000120: 4166 91be 440e ad3e 291c cbbe f4c4 6b3e
00000130: c530 233d 6874 84be 95d5 99be b950 72be
00000140: 2cdd 01bc 497b 39bc bf6f 23be 9a59 0e3d
00000150: 54e3 10be 907e 633d 8da6 b73d 105f 583d
00000160: 8bbb 163d 9776 413e b38a 05be 113a 73bd
00000170: c9df 933d 56c5 afbd 2f90 25bd 693b 30be
00000180: a3a5 d03e 6736 95bd 277d 41be 9188 b83e
00000190: de6d 703e d10f a03d 148d c4bb 9242 183e
000001a0: 5724 dc3e 3afb 663e fdc5 ac3d 6e99 15bf
000001b0: 613a e03e 585b 543e 8c44 973e 8a24 a5bd
000001c0: a758 4cbd 5df1 f0bd 6b5b 8dbe 37d2 e1bd
000001d0: 4137 cd3d 3b44 8abe d0a7 79be bc63 b03d
000001e0: eb47 0bbe b1ba 3c3e 4e66 b63e e287 54be
000001f0: 8950 2a3d addb e43e 7a1b ed3e 89c8 513e
00000200: c721 bdbd fcd0 65ba 6aaa 333e de4a 13be
00000210: d156 6a3e 101d f83d 0dab 84be 7f1c 9d3e
00000220: 5c39 993e 8324 a93e 0530 403d b20b 35be
00000230: e16e 12bc 0c27 ea3d 8a67 d9bd d42d 883e
00000240: da37 5cbe d661 20bd 403b d33d 88ae a33e
00000250: c4b0 5dbe 4a8e 153e 6cff 333d 1b0b 9b3d
00000260: 2d7c e63d 68c7 893d 5a01 adbe 481f 873d
00000270: db0c a43d b871 fa3c 7407 bfbd 16e3 1f3e
00000280: a6ab 443e 6e2c 6bbd b1b7 8fbb 2d35 423e
00000290: 8d9c 803e b578 143d 5ef7 173d 146c f63e
000002a0: 61b3 fabd 21d0 13be 6d44 44bd f175 df3d
000002b0: 9cf4 383e 585e 18be fb0e 12be f6da da3b
000002c0: d4d5 acbe b020 d33d 1333 07bf 4023 c33d
000002d0: 21d8 093f 6706 3dbd 5324 a6bd 24f4 633e
000002e0: 6a21 b23c 43ab 7bbe 9221 61bd 83a7 82be
000002f0: a4c5 2bbe dba9 9ebe bb9c 91be 15de a6be
00000300: 63df 263e e75b 89bd b581 56bd 8990 9ebc
00000310: 7b18 59be 3fbd b43d 44eb 5b3e e42c 0b3e
00000320: 58d9 94be f5bf 4abe 7744 12be d173 b7bd
00000330: 9cf4 fbbd ddf1 a53d 5d3f e23d e37e 08be
00000340: fc25 0abd adc7 f23c e56f ca3e e049 82be
00000350: c7c3 b83e 03f1 4d3e 4136 03ba fbd7 003e
00000360: 92f7 363e b04f d83d 4c67 083e f937 4dbd
00000370: afcf 28be eb3e 2dbe 4cab 613d 9756 cf3d
00000380: 58cb 61be 9778 363e cdf2 29be 4188 803d
00000390: ae31 3bbe 753d 803e c1d6 2c3e e991 18be
000003a0: 598b 5cbe 084e b33e eff0 723b faa1 8ebe
000003b0: d971 5cbe a48a 353e 0bfa 2b3e 3c37 8ebd
000003c0: 98cb 56bb 2128 5abe 6c4f a03e d686 863d
000003d0: ce0d 4f3e d62f abbe 81b9 bb3d 6da0 973d
000003e0: d3ea 49bd 4019 bd3e 8222 49be 53e1 593e
000003f0: 5ed4 46be 6238 aabd 138c a3bc 02fe fa3e

actor.0.bias f4 [32]
-0.095504284 0.100567244 -0.11937671 -0.05626531 -0.22394702 0.05056035 -0.020792862 -0.02952184
-0.0766049 0.05916144 -0.012964712 0.14801009 -0.08289169 0.009244987 0.043829806 0.03669138
-0.016163455 0.012829709 -0.15568113 -0.2416859 -0.04064723 0.14182572 0.07312877 -0.16442421
-0.055837885 0.06299902 0.06725861 -0.11946891 -0.101643965 0.2522312 -0.07772637 -0.040825024
00000000: c097 c3bd 33f6 cd3d c77b f4bd 7476 66bd
00000010: 5e52 65be 5f18 4f3d cb55 aabc c9d7 f1bc
00000020: 08e3 9cbd 4453 723d f269 54bc f58f 173e
00000030: 1ec3 a9bd 4978 173c e286 333d b349 163d
00000040: 3969 84bc b333 523c e06a 1fbe 827c 77be
00000050: b67d 26bd c33a 113e 89c4 953d d25e 28be
00000060: 44b6 64bd a105 813d e2be 893d 1eac f4bd
00000070: b62a d0bd 7324 813e 012f 9fbd 2438 27bd

actor.2.weight f4 [12, 32]
0.062483083 0.04646588 0.19651489 -0.13351133 0.053756848 -0.013398174 -0.3095986 0.3658101
-0.17801134 0.043909095 0.19624645 -0.061204612 -0.18480465 -0.16600043 0.015433213 -0.11240168
-0.19406414 -0.12893926 0.1952881 -0.15368651 0.073974 0.16161558 0.19458376 0.2460774
0.056898452 0.17450151 0.033553686 0.058837403 0.19164163 -0.28783342 0.10451838 -0.015721254
0.086510055 0.121475585 -0.054006368 -0.27973852 -0.16420983 0.07243683 -0.049558997 0.06419338
-0.020795943 0.1795767 0.070153564 0.257897 -0.06094522 0.059243772 -0.046216886 0.084358335
0.024622587 0.32799086 -0.31496266 -0.3665734 -0.3480499 0.270267 0.32057372 -0.44778106
0.19988692 0.3474978 0.13172394 -0.0014774541 -0.1463526 0.25195318 0.11599114 -0.14111088
0.0916514 -0.029207582 -0.04905764 0.23945995 0.22144705 -0.08723217 0.038399614 0.0897086
-0.016866477 -0.11721842 -0.06453026 0.0675186 0.013589753 -0.15929523 0.18026298 -0.054228086
0.04987786 -0.076627746 -0.020304047 0.14853439 0.1910166 0.0009862604 0.06907633 -0.11741157
-0.15853214 -0.061055094 0.0078096474 0.1405282 -0.07537933 -0.13270214 0.14977068 0.10948825
0.108014196 -0.01580423 0.06019843 -0.09057822 0.07593421 -0.18143913 -0.21789698 0.16190186
-0.012228742 -0.075186715 0.22367291 -0.12744847 0.10160087 0.16641648 0.06163848 0.041623343
0.15904312 0.04170156 0.26909882 0.18893684 -0.112147376 -0.08556692 -0.08638948 0.06094169
-0.0070930924 -0.05741128 0.0030584305 0.0033563392 0.07174664 -0.079784274 0.040100798 -0.11005348
-0.11240744 0.02084892 -0.24104409 0.028716933 -0.34319308 0.11518817 0.0496382 0.21039806
-0.4665058 -0.33541507 0.39873388 -0.16111103 -0.46410885 0.215511 -0.06822667 0.5013922
0.092072695 0.014587834 -0.36421025 -0.21146709 0.19189155 0.27401695 0.07153564 0.45713854
-0.60865575 0.50414526 -0.15007962 0.10257072 0.25498053 0.10350882 0.28076875 -0.24835403
-0.271027 0.1596712 -0.024681611 0.0106463935 0.20879576 -0.062719814 0.006615729 0.08179929
0.030822624 -0.004758081 0.25674748 0.026649432 -0.1789586 0.1891724 -0.30375823 -0.011250348
-0.095528215 0.06712093 0.12251622 0.1261065 -0.07852603 0.09080796 -0.022845501 -0.154879
-0.05571669 -0.24752338 -0.10002742 0.012176762 -0.11551767 -0.25106347 0.16239642 -0.2741736
-0.09571269 0.16268949 -0.26680243 0.017658116 -0.24338394 0.107586406 -0.0030127023 -0.07449871
0.29299247 0.16059719 -0.15064973 -0.057836182 0.07221503 0.1447973 0.29293805 0.21879047
-0.14459723 -0.20472063 0.25098887 -0.23755705 -0.05206966 0.061888605 0.07895171 0.04662378
-0.09318432 -0.2853052 -0.027364498 0.16699272 -0.07899448 0.18491295 -0.042844065 -0.04814198
-0.0024606644 -0.2622594 0.10632272 -0.051107354 0.1195052 0.07324024 -0.16178004 -0.29113987
0.30583125 0.049001347 -0.045222282 -0.2983385 0.21714962 -0.086839564 -0.15438333 0.23194228
-0.29275706 0.16739385 -0.10730376 0.16234234 0.15304013 -0.3381289 0.1708582 0.16065663
0.09631426 0.07810521 -0.22219229 0.37108058 -0.011542557 -0.2489645 0.16595155 0.006986149
00000000: 43ee 7f3d 0253 3e3d 333b 493e 32b7 08be
00000010: 2430 5c3d 0484 5bbc b583 9ebe 764b bb3e
00000020: 9b48 36be 06da 333d d4f4 483e b0b1 7abd
00000030: 6e3d 3dbe 04fc 29be 96db 7c3c da32 e6bd
00000040: c0b8 46be a708 04be 9bf9 473e ff5f 1dbe
00000050: ae7f 973d 8e7e 253e f740 473e b7fb 7b3e
00000060: 5a0e 693d 86b0 323e 976f 093d 7dff 703d
00000070: b43d 443e e75e 93be bb0d d63d dcc9 80bc
00000080: 2f2c b13d 31c8 f83d c835 5dbd e339 8fbe
00000090: 9f26 28be c359 943d 60fe 4abd d277 833d
000000a0: 415c aabc f4e2 373e acac 8f3d 130b 843e
000000b0: b2a1 79bd 99a9 723d eb4d 3dbd 10c4 ac3d
000000c0: 4fb5 c93c 6bee a73e c942 a1be 82af bbbe
000000d0: 9933 b2be 7060 8a3e 3d22 a43e 8f43 e5be
000000e0: 28af 4c3e 3beb b13e a4e2 063e 22a7 c1ba
000000f0: 75dd 15be 0200 813e c38c ed3d 5f7f 10be
00000100: bbb3 bb3d bd44 efbc aaf0 48bd fd34 753e
00000110: 04c3 623e c8a6 b2bd ea48 1d3d 24b9 b73d
00000120: 912b 8abc 3610 f0bd 7128 84bd 3147 8a3d
00000130: 8ea7 5e3c 4a1e 23be dc96 383e 451e 5ebd
00000140: ba4c 4c3d 02ef 9cbd ac54 a6bc 6619 183e
00000150: db99 433e 6845 813a e477 8d3d 7a75 f0bd
00000160: 4056 22be e814 7abd 12e8 ff3b a0e6 0f3e
00000170: 7a60 9abd 12e3 07be 7c5d 193e 603b e03d
00000180: 8c36 dd3d df77 81bc a192 763d 1381 b9bd
00000190: 6583 9b3d 2ecb 39be 6320 5fbe 9ac9 253e
000001a0: 105b 48bc 7efb 99bd 830a 653e da81 02be
000001b0: 1e14 d03d 1569 2a3e a178 7c3d 3d7d 2a3d
000001c0: 33dc 223e 41cf 2a3d 52c7 893e a978 413e
000001d0: 86ad e5bd b63d afbd f8ec b0bd fe9d 793d
000001e0: 2c6d e8bb 1728 6bbd f36f 483b 07f6 5b3b
000001f0: e7ef 923d f065 a3bd bc40 243d b863 e1bd
00000200: df35 e6bd 5bcb aa3c 43d4 76be c63f eb3c
00000210: 01b7 afbe c6e7 eb3d 6d51 4b3d 9772 573e
00000220: d9d9 eebe 86bb abbe d926 cc3e 4afa 24be
00000230: ad9f edbe eaae 5c3e 6dba 8bbd 3d5b 003f
00000240: 9c90 bc3d cf01 6f3c c479 babe d48a 58be
00000250: 387f 443e f34b 8c3e 4781 923d 100e ea3e
00000260: ddd0 1bbf aa0f 013f 79ae 19be 9910 d23d
00000270: cf8c 823e 6ffc d33d ecc0 8f3e 8550 7ebe
00000280: 0dc4 8abe d980 233e 1731 cabc 366e 2e3c
00000290: 8ece 553e 3f73 80bd c2c8 d83b 6386 a73d
000002a0: ba7f fc3c ade9 9bbb 6874 833e e94f da3c
000002b0: ec40 37be 69b6 413e 3386 9bbe 6153 38bc
000002c0: 4ca4 c3bd b376 893d c9e9 fa3d 1022 013e
000002d0: 41d2 a0bd 86f9 b93d 7d26 bbbc 9a98 1ebe
000002e0: 2f37 64bd c576 7dbe 2ddb ccbd 0b81 473c
000002f0: 8794 ecbd 648b 80be 3f4b 263e 7b60 8cbe
00000300: 0405 c4bd 1398 263e 549a 88be c1a7 903c
00000310: a439 79be 4356 dc3d c270 45bb c892 98bd
00000320: 1c03 963e 9773 243e ec43 1abe a2e5 6cbd
00000330: 79e5 933d be45 143e fafb 953e 9c0a 603e
00000340: 4c11 14be 49a2 51be 9d81 803e 2842 73be
00000350: ff46 55bd e87e 7d3d 6fb1 a13d 94f8 3e3d
00000360: 6cd7 bebd 8613 92be 832b e0bc 2400 2b3e
00000370: dcc7 a1bd d259 3d3e 427d 2fbd 8630 45bd
00000380: 1943 21bb dd46 86be babf d93d f255 51bd
00000390: 24bf f43d fbfe 953d aba9 25be 4910 95be
000003a0: ea95 9c3e a3b5 483d 003b 39bd d3bf 98be
000003b0: 785c 5e3e f1d8 b1bd aa16 1ebe 4782 6d3e
000003c0: 41e4 95be 4b69 2b3e 13c2 dbbd 123d 263e
000003d0: 8db6 1c3e 3b1f adbe 74f5 2e3e 2c83 243e
000003e0: 6940 c53d a0f5 9f3d 6086 63be 46fe bd3e
000003f0: fe1c 3dbc 8df0 7ebe 34ef 293e 11ec e43b

actor.2.bias f4 [12]
0.046887584 0.21198568 -0.029518202 -0.24054551 0.2712535 -0.18704067 -0.14893569 -0.12110777
0.09362007 -0.09440014 -0.109246 0.12591137
00000000: 320d 403d c612 593e 28d0 f1bc 9051 76be
00000010: bde1 8a3e 9787 3fbe 9982 18be 5a07 f8bd
00000020: e1bb bf3d dc54 c1bd 5ebc dfbd e9ee 003e

critic.0.weight f4 [32, 64]
0.008438863 0.053006385 0.05086941 0.03010828 0.022845384 -0.06137994 -0.08414352 -0.028577367
-0.07931956 0.044674225 0.0048516374 -0.07680303 0.06377628 0.03925308 0.041345745 -0.0022276593
-0.0038684877 -0.052406747 -0.025109032 -0.11000111 -0.0019596806 -0.014901549 0.050275505 3.6398247e-05
-0.03935886 -0.053833727 -0.05305961 -0.0077120587 0.06344057 -0.0609829 0.044853438 0.10829268
-0.033656944 0.08039034 -0.0019442308 -0.033014 -0.05744313 -0.0072063715 -0.06759495 0.11148157
-0.04352417 -0.047740452 -0.02639979 -0.01817508 -0.024646632 -0.05324834 -0.0800699 -0.006855302
-0.018593324 0.09782687 0.033156518 0.08621393 -0.086895175 0.072052576 0.0904377 -0.031900927
-0.07889746 -0.010400332 -0.009951025 -0.017012717 0.05487618 -0.015599964 0.038573474 0.086942114
-0.1517777 -0.0447001 -0.0093622245 -0.05177707 0.004882145 -0.005426223 -0.08601819 0.15793478
0.059024967 0.13043521 -0.07382378 -0.1402452 0.0070415367 -0.03297169 0.18039954 -0.015144714
-0.17121504 0.106414706 -0.105375305 0.10145348 -0.053645715 0.10484254 -0.08027499 -0.000765123
-0.037905615 0.007168052 -0.107217655 0.13476562 0.10356847 -0.10949755 0.16115336 0.14500664
0.049567904 -0.19407304 0.022607429 0.24302101 0.21189748 -0.09224309 0.06797682 -0.11250517
-0.042375 0.039204888 0.07750609 -0.096003644 0.031047527 -0.04323421 0.15804768 0.230172
0.19139233 -0.22287457 -0.13272576 -0.09220427 -0.07845152 0.14574951 0.17788403 0.11001459
0.25452504 -0.10615122 -0.076326005 -0.20750192 -0.0779426 0.19794758 -0.09058449 0.21283422
0.06831507 -0.11092327 0.008701383 0.07598001 0.12003732 0.10742147 -0.021261198 0.118979946
-0.06839615 -0.06505499 0.03514739 0.07725595 0.061948415 0.10131353 -0.030488202 -0.17225838
-0.07198354 0.03964269 -0.004290231 0.014937355 -0.090496466 0.06609579 -0.11998031 0.029584993
-0.046532355 -0.057603978 -0.040346034 -0.05595044 0.033813063 -0.034467015 -0.08525846 -0.12773868
0.012532723 -0.028252877 -0.10080908 -0.033520956 0.0038075198 -0.025003761 0.047061782 -0.029070884
0.10407077 0.057611782 -0.13875815 -0.15289801 0.13557264 -0.008913786 0.044865984 -0.0140803065
0.022443835 0.061412826 0.060907785 -0.017182646 -0.010255139 -0.04777794 -0.02616517 -0.066280186
0.015558295 -0.29323906 0.0150055885 -0.11625082 0.13406444 -0.096910946 -0.13427778 0.17061958
0.010003065 -0.042114988 0.10279656 0.08366328 0.10743722 0.018727181 0.001259694 0.13493566
0.14157051 -0.022745937 -0.011851151 0.09568624 0.005090091 0.040308297 0.16741857 -0.040320173
0.018042376 0.12975143 0.077642165 -0.07787175 0.12727264 0.026976189 -0.10525896 0.111303054
-0.04682745 0.14358743 -0.121127464 0.07826418 -0.10013519 -0.1340475 0.10990917 -0.022329185
-0.14715444 -0.21067008 -0.09277447 0.20168652 -0.115678266 0.011433469 -0.05727834 -0.022007367
0.086370915 0.0111960145 -0.05849336 -0.1167079 -0.064876795 -0.03505844 0.06870913 0.09227519
-0.15233508 -0.013391526 -0.036477156 -0.1475438 -0.06771906 0.188158 -0.010270899 -0.029788977
-0.118742175 -0.37804732 -0.07891264 -0.013726848 0.009194982 -0.0150205735 0.09072338 0.08203641
00000000: 2843 0a3c 391d 593d 715c 503d a4a5 f63c
00000010: 3e26 bb3c 8869 7bbd 7053 acbd 151b eabc
00000020: 4b72 a2bd 52fc 363d 7cfa 9e3b e84a 9dbd
00000030: 239d 823d d6c7 203d 285a 293d ecfd 11bb
00000040: 7486 7dbb 75a8 56bd 75b1 cdbc 4348 e1bd
00000050: fc6d 00bb a025 74bc b0ed 4d3d 52aa 1838
00000060: c236 21bd c180 5cbd 0955 59bd 70b5 fcbb
00000070: 21ed 813d 35c9 79bd 3db8 373d 8dc8 dd3d
00000080: dddb 09bd b1a3 a43d 8fd5 feba b039 07bd
00000090: 7d49 6bbd 6d23 ecbb 396f 8abd 7350 e43d
000000a0: 6646 32bd 7e8b 43bd 5f44 d8bc e8e3 94bc
000000b0: bce7 c9bc ee1a 5abd b0fb a3bd 71a2 e0bb
000000c0: 0751 98bc 7459 c83d 21cf 073d ee90 b03d
000000d0: 19f6 b1bd 4d90 933d 6737 b93d 8caa 02bd
000000e0: fe94 a1bd 2766 2abc a009 23bc 415e 8bbc
000000f0: d8c5 603d fe96 7fbc 38ff 1d3d b50e b23d
00000100: 9d6b 1bbe 7417 37bd 0464 19bc 3114 54bd
00000110: 67fa 9f3b 75ce b1bb 4e2a b0bd a8b9 213e
00000120: 2ac4 713d cf90 053e ec30 97bd 709c 0fbe
00000130: b1bc e63b 530d 07bd a8ba 383e 8921 78bc
00000140: ff52 2fbe f4ef d93d 02cf d7bd d8c6 cf3d
00000150: 9cbb 5bbd b0b7 d63d 3767 a4bd 8992 48ba
00000160: eb42 1bbd fae1 ea3b ee94 dbbd 0000 0a3e
00000170: b51b d43d 4040 e0bd 6305 253e 9f7c 143e
00000180: b707 4b3d 15bb 46be 3733 b93c 80da 783e
00000190: a7fb 583e f2e9 bcbd 6e37 8b3d 1c69 e6bd
000001a0: 6891 2dbd 4e95 203d 83bb 9e3d 8f9d c4bd
000001b0: 6257 fe3c 5b16 31bd 40d7 213e 35b2 6b3e
000001c0: 5afc 433e 3b39 64be 43e9 07be 98d5 bcbd
000001d0: 31ab a0bd 5c3f 153e 3b27 363e 544f e13d
000001e0: 1b51 823e d065 d9bd cf50 9cbd 627b 54be
000001f0: 5fa0 9fbd c5b2 4a3e 5c84 b9bd 37f1 593e
00000200: c5e8 8b3d bd2b e3bd 3f90 0e3c 689b 9b3d
00000210: 20d6 f53d caff db3d f72b aebc c2ab f33d
00000220: 4813 8cbd 8d3b 85bd b6f6 0f3d 5e38 9e3d
00000230: 9fbd 7d3d 787d cf3d 65c2 f9bc 8064 30be
00000240: 1b6c 93bd 6060 223d 1195 8cbb cfbb 743c
00000250: 3656 b9bd 3b5d 873d 3db8 f5bd 3a5c f23c
00000260: b698 3ebd 26f2 6bbd e241 25bd 4a2c 65bd
00000270: 917f 0a3d 492d 0dbd fd9b aebd eecd 02be
00000280: 0d56 4d3c 9472 e7bc fe74 cebd 454d 09bd
00000290: 9587 793b b0d4 ccbc dbc3 403d 1026 eebc
000002a0: 0e23 d53d 55fa 6b3d 9e16 0ebe 4c91 1cbe
000002b0: 8ed3 0a3e 210b 12bc 65c5 373d 16b1 66bc
000002c0: 22dc b73c 048c 7b3d 717a 793d 9fc2 8cbc
000002d0: 2c05 28bc cdb2 43bd 5758 d6bc e8bd 87bd
000002e0: 38e8 7e3c 6e23 96be 00da 753c e914 eebd
000002f0: 3048 093e 3f79 c6bd 1d80 09be e6b6 2e3e
00000300: e5e3 233c c480 2cbd 0187 d23d a757 ab3d
00000310: 0c08 dc3d bf69 993c 511c a53a 932c 0a3e
00000320: dcf7 103e b055 babc 542b 42bc 26f7 c33d
00000330: c7ca a63b 501a 253d c66f 2b3e c426 25bd
00000340: 9bcd 933c 8fdd 043e db02 9f3d 397b 9fbd
00000350: c253 023e 2bfd dc3c 0292 d7bd dbf2 e33d
00000360: 24ce 3fbd 9508 133e ad11 f8bd f848 a03d
00000370: ae13 cdbd bf43 09be 0f18 e13d b2eb b6bc
00000380: a7af 16be e6b9 57be 8b00 bebd e986 4e3e
00000390: bae8 ecbd 7253 3b3c b19c 6abd cb48 b4bc
000003a0: 3ce3 b03d 7d6f 373c bc96 6fbd 8d04 efbd
000003b0: 20de 84bd 7099 0fbd 5fb7 8c3d c6fa bc3d
000003c0: bafd 1bbe 2268 5bbc 1269 15bd b915 17be
000003d0: 4ab0 8abd 7eac 403e 4647 28bc 0308 f4bc
000003e0: 192f f3bd 6b8f c1be f39c a1bd 93e6 60bc
000003f0: 8da6 163c da18 76bc 2ecd b93d b502 a83d

critic.0.bias f4 [32]
-0.00060297496 -0.2787127 -0.19131482 -0.16527636 0.06250305 -0.19433434 0.032500032 0.021668991
0.008691371 -0.21132383 -0.041128844 -0.22128896 -0.18917559 0.08146531 -0.014883901 -0.30287555
0.12725598 -0.13022579 -0.021731658 0.23714113 0.0018027432 -0.17259042 0.14038193 0.21890473
0.1224252 -0.04164179 0.019678896 -0.22448134 -0.117687844 0.2077201 0.2196084 0.0972901
00000000: f710 1eba 6eb3 8ebe 08e8 43be 353e 29be
00000010: 9901 803d 95ff 46be c11e 053d 2b83 b13c
00000020: 4166 0e3c 4665 58be b876 28bd 9399 62be
00000030: 3fb7 41be 49d7 a63d 9bdb 73bc 8112 9bbe
00000040: 644f 023e e959 05be 9706 b2bc 20d5 723e
00000050: 064a ec3a 8bbb 30be 48c0 0f3e 9028 603e
00000060: 10ba fa3d 9590 2abd a335 a13c 70de 65be
00000070: 5306 f1bd 94b4 543e 06e1 603e 0840 c73d

critic.2.weight f4 [1, 32]
-0.0041191517 -0.15536718 -0.03911321 -0.030896222 0.004659167 -0.06491019 0.0013178836 0.001885826
-0.005158765 -0.1470967 -0.005556935 -0.16025819 0.43093517 0.0019854428 -0.0010471332 -0.27696744
0.00639425 -0.0069530443 0.0048991395 0.123116694 0.0024277114 -0.021786008 -0.0014580678 0.12306227
0.25906032 -0.009127928 0.005039849 -0.04242201 -0.006264861 0.15989006 0.113165386 -0.00080769515
00000000: f3f9 86bb 9318 1fbe 2c35 20bd 131a fdbc
00000010: edab 983b a2ef 84bd d6bc ac3a d22d f73a
00000020: db0a a9bb 84a0 16be f316 b6bb b91a 24be
00000030: 89a3 dc3e 341e 023b f63f 89ba adce 8dbe
00000040: db86 d13b 5dd6 e3bb f688 a03b 9b24 fc3d
00000050: 3d1a 1f3b 9278 b2bc a31c bfba 1208 fc3d
00000060: 8ea3 843e 4e8d 15bc 5125 a53b b4c2 2dbd
00000070: 7749 cdbb 38ba 233e 41c3 e73d 81bb 53ba

memory_a.rnn.weight_ih_l0 f4 [256, 47]
0.4511738 -0.2650655 0.099098876 0.17434911 -0.82962036 0.19532467 -0.10506423 0.052489374
0.29909903 -0.14267486 -1.2410979 -0.35232478 -0.46891204 0.47122413 -0.315893 -0.14827177
0.66415226 0.16676506 -0.019722397 -0.24008764 0.035639957 -0.32822633 -0.12306179 -0.16895013
-0.17522721 -0.5810685 -0.094334215 0.4389998 0.31936654 0.6341139 -0.7860126 0.3663734
0.14632033 -0.10981133 -0.32735875 0.18310232 -0.044320714 -0.15123941 -0.008387418 0.29037064
0.06302631 0.2770945 -0.033743687 -0.2573931 0.4156177 -0.34840685 -0.017934144 -0.0946319
-0.38542312 0.23459493 0.15859188 0.19828217 0.065407075 0.13629158 0.25927374 -0.9569836
1.5617647 -0.73942745 -1.1453019 0.033906627 -0.29055193 0.28241423 0.6680798 0.76028246
0.1658566 -1.083616 -0.06534697 -0.04255444 0.34054175 -0.97083527 -0.250277 -0.21348876
0.21406832 0.062171042 0.4409939 0.2547462 0.028361166 -0.22705646 0.46695304 0.9219041
-0.089085706 -0.23204876 -0.81012726 0.09868138 0.19669124 0.13835613 0.5175763 -0.15726894
0.34242776 -0.5235878 -0.12329099 0.6364737 -0.45327595 -0.10746008 0.49770752 -0.5357752
-0.24680245 0.19947506 -0.37614802 -0.038385987 0.014893047 0.10135886 -0.23443015 -0.108549446
0.24774933 0.2843454 -0.105401345 -0.4053092 -0.21122026 -0.9295736 -0.104779735 0.15611155
-0.30065995 0.2082046 -0.39176115 1.2113426 -0.08059099 0.16837214 -0.20203896 -0.40231556
0.07515694 -0.84472966 -0.2571357 -0.64456886 0.3348566 1.0232978 0.48744705 1.0828319
-0.077028066 0.2610301 0.117955826 0.050145965 0.15164477 0.55495185 -0.22754492 0.106371954
0.3121977 0.12969252 -0.22384414 0.492145 0.23555337 -0.64215976 0.61518353 0.18095383
0.6106706 0.25822514 0.26295456 -0.34204546 0.10691614 0.6848612 -0.33061072 -0.56521523
0.13271977 0.14248028 0.75122166 0.564198 -0.628455 -0.55518013 0.4669239 -0.55872685
-0.0229929 0.11226925 -0.26129037 0.65149564 -0.28190932 -0.113068156 -0.60243696 -0.84996784
-0.45332307 -0.16097169 -0.045686018 0.611506 -0.19767445 0.08337248 -0.5803482 -0.05398046
-0.08389327 0.4071495 0.07161512 -0.19475983 -0.06358757 0.29298124 0.15157123 0.33775097
-0.17319842 0.18908803 0.18865806 0.1619445 0.08504812 0.22375019 1.2466799 0.46592158
-0.08028914 0.0231081 -0.056298487 0.23122697 0.8825283 0.7514596 0.5797009 -0.0998408
-0.6010278 0.09878439 0.049957007 -0.53766364 0.1688637 -0.47264403 0.9149902 0.9885116
0.20031786 -0.79746234 1.1525098 0.84032017 0.44463742 0.49060187 0.090260185 -0.5034497
0.5909398 -0.23267643 0.39485985 -0.07327647 -0.22452286 -0.33077446 -0.20278694 0.5332631
-0.035369396 0.5545544 -0.25053015 -0.2679686 -0.2980257 -0.14494649 0.19587718 0.006898338
0.21780868 -0.2063539 -0.24179311 0.6848841 0.39985985 0.36391282 -0.48825014 -0.360436
-0.3105647 -0.19144343 0.18824951 -0.60535306 -0.09940413 -0.37992895 -0.08537153 0.04357827
-0.018127576 0.0802407 -0.1918748 -0.35166174 0.2710602 0.31347767 0.7639102 -0.39460903
00000000: 4100 e73e aab6 87be 5af4 ca3d 9388 323e
00000010: 0062 54bf 3103 483e ea2b d7bd 19ff 563d
00000020: 8223 993e 5c19 12be 4cdc 9ebf ea63 b4be
00000030: 3d15 f0be 4a44 f13e babc a1be 8ed4 17be
00000040: e205 2a3f 76c4 2a3e dd90 a1bc 89d9 75be
00000050: 34fb 113d 480d a8be d207 fcbd 4301 2dbe
00000060: c36e 33be e8c0 14bf 4c32 c1bd 95c4 e03e
00000070: 0384 a33e 4a55 223f 1f38 49bf 4b95 bb3e
00000080: ffd4 153e c3e4 e0bd 919b a7be 2d7f 3b3e
00000090: a389 35bd 81de 1abe 626b 09bc 76ab 943e
000000a0: f013 813d 55df 8d3e d236 0abd 07c9 83be
000000b0: d8cb d43e 6262 b2be a0ea 92bc 5fce c1bd
000000c0: 2e56 c5be a739 703e e965 223e 7b0a 4b3e
000000d0: 25f4 853d 0590 0b3e 87bf 843e e1fc 74bf
000000e0: e8e7 c73f 1e4b 3dbf 4199 92bf ade1 0a3d
000000f0: 39c3 94be 9998 903e 4707 2b3f dfa1 423f
00000100: 50d6 293e eeb3 8abf a2d4 85bd 914d 2ebd
00000110: 7d5b ae3e a988 78bf 4f24 80be cc9c 5abe
00000120: ba34 5b3e 10a7 7e3d f4c9 e13e 186e 823e
00000130: ad55 e83c 7d81 68be 7814 ef3e e801 6c3f
00000140: 9172 b6bd 319e 6dbe 8064 4fbf 7719 ca3d
00000150: 6e69 493e 3bad 0d3e e17f 043f 1c0b 21be
00000160: b152 af3e da09 06bf fd7f fcbd f1ef 223f
00000170: c913 e8be 0814 dcbd 85d3 fe3e 9028 09bf
00000180: c8b9 7cbe 3143 4c3e 7996 c0be a03a 1dbd
00000190: f701 743c 3c95 cf3d 750e 70be 2c4f debd
000001a0: 00b2 7d3e b895 913e a9dc d7bd b084 cfbe
000001b0: 204a 58be 89f8 6dbf c296 d6bd b5db 1f3e
000001c0: 1af0 99be 9633 553e eb94 c8be 460d 9b3f
000001d0: e40c a5bd bf69 2c3e 4de3 4ebe 4efc cdbe
000001e0: e2eb 993d 3440 58bf 4aa7 83be 7702 25bf
000001f0: 5372 ab3e 6cfb 823f a992 f93e 3c9a 8a3f
00000200: e4c0 9dbd bda5 853e d392 f13d db65 4d3d
00000210: c448 1b3e 5311 0e3f 8901 69be 8ad9 d93d
00000220: 60d8 9f3e 1ece 043e 6637 65be 6efa fb3e
00000230: e734 713e 9564 24bf ab7c 1d3f f64b 393e
00000240: e954 1c3f 1636 843e fba1 863e 9520 afbe
00000250: d9f6 da3d 1053 2f3f cf45 a9be f2b1 10bf
00000260: b1e7 073e 5ae6 113e 1050 403f 486f 103f
00000270: 6de2 20bf 4920 0ebf a610 ef3e b908 0fbf
00000280: 9b5b bcbc 6ced e53d dac7 85be 6bc8 263f
00000290: 6b56 90be 4790 e7bd 4f39 1abf 7e97 59bf
000002a0: f619 e8be c3d5 24be 4321 3bbd a88b 1c3f
000002b0: 2c6b 4abe 31bf aa3d b391 14bf 9d1a 5dbd
000002c0: 3cd0 abbd e675 d03e f3aa 923d 1f6f 47be
000002d0: 333a 82bd a301 963e 7d35 1b3e b2ed ac3e
000002e0: ed5a 31be 4ba0 413e 942f 413e c7d4 253e
000002f0: b52d ae3d c51e 653e 3593 9f3f 468d ee3e
00000300: a26e a4bd 334d bd3c 3e99 66bd c3c6 6c3e
00000310: 60ed 613f a85f 403f 4767 143f 5579 ccbd
00000320: f5dc 19bf 784f ca3d b89f 4c3d 53a4 09bf
00000330: 9bea 2c3e 66fe f1be cc3c 6a3f 190f 7d3f
00000340: 2020 4d3e 7e26 4cbf 7185 933f 391f 573f
00000350: 84a7 e33e 2b30 fb3e 55da b83d 14e2 00bf
00000360: d547 173f bb42 6ebe 122b ca3e f911 96bd
00000370: 52e9 65be 455b a9be 61a7 4fbe ee83 083f
00000380: 80df 10bd 47f7 0d3f 7d45 80be 2e33 89be
00000390: d396 98be da6c 14be 0794 483e 740b e23b
000003a0: 3d09 5f3e 704e 53be 9d98 77be 9054 2f3f
000003b0: 6eba cc3e c852 ba3e ecfb f9be 118b b8be
000003c0: 5602 9fbe bf09 44be 7bc4 403e 6bf8 1abf
000003d0: 6494 cbbd 0c86 c2be 45d7 aebd 217f 323d
000003e0: 4880 94bc 3c55 a43d d47a 44be 020d b4be
000003f0: 67c8 8a3e 2580 a03e 9e8f 433f 320a cabe

memory_a.rnn.weight_hh_l0 f4 [256, 64]
0.042307332 0.20011081 -0.24477594 -0.1546529 0.19715412 -0.057384714 -0.41099545 -0.011730055
-0.3722202 -0.6356006 0.110547006 -0.34060815 -0.45616856 -0.43805277 -0.7825436 0.48437524
-0.06917755 -0.36067066 -0.4476522 0.26295632 0.12128609 -0.12462426 0.2628914 -0.4845558
0.5548499 -0.5533357 -0.44962636 0.57225174 0.3030995 -0.003542367 0.50008744 0.14333564
-0.1251677 -0.44632 0.08212152 -0.7967293 0.09571838 -0.20034482 -0.2906027 -0.453063
0.30964556 -0.019386515 -1.2242198 0.07208187 0.4808229 -0.07588789 -0.014268943 -0.13143358
-0.30165467 0.26424918 -0.82266325 -0.34522215 0.02138657 -0.61666936 0.7916937 -1.1789831
0.11535576 0.29437128 0.63807684 -0.41550276 -0.14108393 -0.46393973 -0.07475204 -0.15587316
0.0028220827 0.34329516 0.1506431 -0.819503 -0.63986623 -0.5344254 1.004129 -0.5139911
-0.70357203 0.46387362 -0.1894735 0.08977207 0.22759056 0.13017897 -0.5531101 -0.38730896
0.2592645 0.93512905 0.3379562 -0.26086712 -0.7492854 -0.65694314 -0.051646613 -0.28887582
0.35725874 -0.33498174 -0.5068 -0.6218703 0.21468899 -0.23453973 0.078563 0.59347975
-0.5001627 0.37004915 -0.3122835 -0.106189944 -0.32674706 0.21840693 -0.12033475 -0.4839072
0.14634916 -1.0700257 -0.040189296 -0.050438877 0.99240434 0.2000715 0.5835805 -0.25993624
-0.19616227 -0.11162681 -0.24564536 0.8188826 -0.14330085 -0.16513896 -0.4238794 0.49121696
0.14637645 0.39150771 -0.39177865 -0.17797855 -0.3991066 0.31009305 0.28986964 -0.38944
0.13704735 -0.40472108 -0.07205291 -0.05979999 0.07527752 -0.082807876 -0.28442562 0.82366574
-0.49626192 0.1781528 -0.20635176 0.17086937 0.5683933 -0.12303821 -0.6449377 -0.29488748
-0.1120867 0.25593275 0.37491277 -0.1976553 -0.41571546 0.7909043 0.28122163 0.057106294
-0.5519743 0.8270134 -0.2364766 -0.3547656 -0.41328445 -0.31574565 0.5364043 -0.047309797
1.0169524 0.16698761 -0.48450658 -0.100007415 1.1685827 0.5558613 -0.6014057 -0.1748766
-0.08251226 0.10235764 0.6084934 0.6786729 -0.68796885 0.12377131 -0.11314208 -0.18667217
-0.063670225 0.5243296 -0.7133823 -0.015875258 0.5256865 -0.43333825 0.008312945 -0.0666941
-0.43615288 -0.122139126 -0.08461184 0.22431824 0.41171923 0.17768209 -0.44324705 0.46095598
0.60785276 0.26470497 0.22863439 0.042614747 0.7181897 -0.7340388 -0.070921406 0.8883233
-0.92371184 -0.54685336 -0.02003515 -0.46024695 0.1637346 -0.75906366 -0.44678295 0.14594065
-0.5397998 -0.0745631 0.14370261 0.40267318 0.43217108 -0.99762136 -0.29604858 -0.041786153
-0.30517522 -0.43006772 -0.20422468 0.24738054 -0.595229 0.037224565 0.56665796 0.11752237
-0.12498281 0.004549983 -0.9579126 -0.46516272 -0.26437706 0.16528434 -0.60182405 -0.8091969
-0.27794766 -0.66194516 0.4792472 0.049199603 -0.38755777 -0.49247032 -0.5456996 -0.7128678
-0.34623966 -0.95218885 0.13965781 -0.4987903 0.7824808 -0.029657055 -0.30865702 -0.5855566
0.024239918 -1.0223671 -0.038654108 0.19179122 -0.16665322 -0.66054636 -0.3323064 0.67862463
00000000: 744a 2d3d d9e9 4c3e 8ba6 7abe 545d 1ebe
00000010: c5e2 493e 3c0c 6bbd ff6d d2be 6b2f 40bc
00000020: a593 bebe b9b6 22bf 7866 e23d 3164 aebe
00000030: ed8e e9be 7448 e0be c754 48bf 0800 f83e
00000040: f6ac 8dbd d3a9 b8be ab32 e5be 36a2 863e
00000050: d764 f83d 013b ffbd b499 863e b317 f8be
00000060: a50a 0e3f 69a7 0dbf 6d35 e6be 177f 123f
00000070: dc2f 9b3e 0e27 68bb bb05 003f 94c6 123e
00000080: f62b 00be 0e84 e4be 542f a83d 74f6 4bbf
00000090: ff07 c43d 3127 4dbe e1c9 94be e0f7 e7be
000000a0: dd89 9e3e 78d0 9ebc 3cb3 9cbf a99f 933d
000000b0: 6b2e f63e 1c6b 9bbd 49c8 69bc 8696 06be
000000c0: 7b72 9abe ab4b 873e 0f9a 52bf f5c0 b0be
000000d0: e332 af3c 0bde 1dbf 70ac 4a3f ebe8 96bf
000000e0: a43f ec3d d5b7 963e 0159 233f c7bc d4be
000000f0: 4e78 10be 8289 edbe 9917 99bd 379d 1fbe
00000100: b1f2 383b 62c4 af3e 2f42 1a3e f3ca 51bf
00000110: 46ce 23bf 1ad0 08bf 4d87 803f ec94 03bf
00000120: 4c1d 34bf d880 ed3e 5705 42be 6bda b73d
00000130: 800d 693e a34d 053e a098 0dbf 5c4d c6be
00000140: 51be 843e 9e64 6f3f 9808 ad3e 6090 85be
00000150: 2bd1 3fbf 6d2d 28bf 668b 53bd 88e7 93be
00000160: 9eea b63e ba82 abbe a5bd 01bf e432 1fbf
00000170: 6ed7 5b3e 2f2b 70be a3e5 a03d 4aee 173f
00000180: aa0a 00bf 1577 bd3e 9fe3 9fbe 1d7a d9bd
00000190: 644b a7be 11a6 5f3e 1172 f6bd afc2 f7be
000001a0: 8edc 153e 9af6 88bf 889d 24bd ff98 4ebd
000001b0: 360e 7e3f 8bdf 4c3e 8865 153f 5d16 85be
000001c0: c3de 48be 999c e4bd 758a 7bbe 4aa2 513f
000001d0: 75bd 12be 301a 29be b906 d9be ca80 fb3e
000001e0: b5e3 153e b373 c83e 3697 c8be 0240 36be
000001f0: b357 ccbe 84c4 9e3e cb69 943e ae64 c7be
00000200: 2456 0c3e 9a37 cfbe 7a90 93bd d6f0 74bd
00000210: 1a2b 9a3d 2d97 a9bd 3ca0 91be c2db 523f
00000220: 0b16 febe b06d 363e e04d 53be 61f8 2e3e
00000230: 3982 113f 75fb fbbd a31a 25bf 7efb 96be
00000240: b68d e5bd 9e09 833e 91f4 bf3e 2766 4abe
00000250: a8d8 d4be b478 4a3f 48fc 8f3e 4ae8 693d
00000260: 304e 0dbf 26b7 533f ec26 72be d6a3 b5be
00000270: 059a d3be 6aa9 a1be cb51 093f ebc7 41bd
00000280: 7f2b 823f cdfe 2a3e 3f11 f8be b0d0 ccbd
00000290: 1e94 953f ed4c 0e3f b9f5 19bf da12 33be
000002a0: 30fc a8bd e2a0 d13d 39c6 1b3f 82bd 2d3f
000002b0: ba1e 30bf d07b fd3d 09b7 e7bd fd26 3fbe
000002c0: 8965 82bd 773a 063f 39a0 36bf d40c 82bc
000002d0: 6493 063f 83de ddbe 0533 083c eb96 88bd
000002e0: 6e4f dfbe 1424 fabd f948 adbd aeb3 653e
000002f0: ddcc d23e 4bf2 353e 47f1 e2be 6c02 ec3e
00000300: 3d9c 1b3f 6987 873e 221f 6a3e cd8c 2e3d
00000310: 48db 373f f7e9 3bbf 3e3f 91bd 2869 633f
00000320: 6178 6cbf 95fe 0bbf c120 a4bc 7da5 ebbe
00000330: 0baa 273e ff51 42bf bcc0 e4be 7771 153e
00000340: 5230 0abf 8ab4 98bd c726 133e 2e2b ce3e
00000350: 8745 dd3e 1d64 7fbf ae93 97be f527 2bbd
00000360: ed3f 9cbe d631 dcbe 4620 51be 5351 7d3e
00000370: ee60 18bf c978 183d 7f10 113f 91af f03d
00000380: fdf6 ffbd 0618 953b c339 75bf cf29 eebe
00000390: 6e5c 87be 4c40 293e 2411 1abf 8727 4fbf
000003a0: 284f 8ebe 3d75 29bf e45f f53e 8685 493d
000003b0: f96d c6be 1225 fcbe f8b2 0bbf 817e 36bf
000003c0: 5346 b1be a6c2 73bf 7502 0f3e 7161 ffbe
000003d0: a950 483f 5af3 f2bc 4b08 9ebe 0ae7 15bf
000003e0: cb92 c63c eddc 82bf c553 1ebd eb64 443e
000003f0: 24a7 2abe 9119 29bf 1124 aabe 58ba 2d3f

memory_a.rnn.bias_ih_l0 f4 [256]
0.0480051 0.11107484 -0.08161028 -0.0737688 -0.037689805 0.104922 -0.24417263 -0.04170842
0.018978527 0.009296757 0.17545445 -0.1747373 -0.14473529 -0.26756474 -0.30199862 -0.08040369
0.2878708 -0.25173956 -0.1182869 -0.03690794 -0.2586997 -0.015508863 -0.16139212 -0.10404984
-0.23890124 -0.15382192 -0.29706633 -0.11267537 -0.109444804 -0.25806478 0.014497653 0.117481045
0.008843217 -0.3079014 -0.34600264 -0.2190914 0.0019043935 0.2488965 -0.31818044 0.042681873
-0.21265846 -0.16620594 -0.3701529 0.14649379 -0.19464867 -0.33969826 0.1336751 -0.15320043
0.10985254 -0.14055698 -0.17804195 0.20237428 0.04821273 -0.25099283 -0.38918886 0.027638016
0.2178248 0.13649559 0.24298443 0.020865653 0.12642008 0.10421033 -0.12024197 -0.08060414
-0.070690885 -0.17123854 -0.2511366 0.27593726 -0.15523086 -0.22689433 0.41509435 0.098682225
-0.3411868 -0.16995287 -0.50415677 0.022154862 -0.19665031 -0.30375338 -0.10338468 -0.20754616
-0.23751162 -0.08106961 -0.11110505 0.0439619 -0.07099477 0.044281118 0.08534553 -0.22947924
-0.09734759 0.18866077 -0.20559503 0.07819691 -0.10132497 -0.22444138 -0.18136917 -0.32311228
0.025221113 -0.028846186 -0.008847239 -0.004916424 -0.32821697 -0.31241912 -0.20915723 -0.37587947
-0.036308605 0.076747425 -0.16723323 -0.12165227 -0.15419684 -0.36461836 -0.30007154 -0.2448585
-0.10246562 0.058837283 -0.035553243 -0.21685344 -0.25158384 -0.10682581 0.06573604 0.020290896
-0.08508739 -0.3047498 -0.74634975 -0.18569975 -0.105190404 -0.25359485 -0.07332852 -0.47193316
-0.05644466 -0.1000448 0.07299613 0.130971 -0.13240589 0.07379293 0.018299658 -0.19582628
0.10490419 0.21983398 -0.10124599 -0.001151542 -0.08305569 0.21196486 0.13797025 0.05459763
-0.08732004 -0.13351993 -0.08603697 -0.005928651 -0.11061499 0.18551588 -0.11083264 -0.014728126
-0.030278452 0.115147635 0.15341832 0.042321995 -0.22650741 0.17829362 -0.01333646 0.028537767
0.1430392 -0.03980346 0.02218135 0.08895787 0.12143363 0.09667726 0.084192574 0.028611792
0.13078655 0.22346248 0.035828218 -0.04059476 0.037144467 -0.0069637164 0.07109245 0.019758603
-0.0039145956 0.03547344 -0.032442857 0.12473665 -0.07434807 -0.034414597 -0.02929123 0.028922543
-0.1626779 0.00976649 0.020379407 -0.050858468 -0.07561052 0.097065076 0.009341253 0.013822248
0.033569235 -0.047075614 0.018574607 -0.13899444 -0.17326501 0.28815892 -0.2905401 0.007201192
-0.20009106 -0.07773379 0.16369975 -0.23271635 -0.341053 -0.24497154 -0.43209738 0.07834695
0.049185935 -0.3365693 -0.22923839 -0.2968515 -0.24284779 -0.024878213 0.13851695 -0.08065901
-0.067435145 0.026163049 -0.078701794 -0.060290664 -0.14382188 0.00016667921 -0.0611338 -0.15380022
-0.04138704 -0.08913582 0.10692441 -0.100012034 0.0018122473 -0.12066316 -0.34845564 0.10078046
-0.1762894 0.20387319 -0.03711635 0.06922334 0.20621154 -0.1535308 -0.108255476 0.027086578
0.14520185 -0.074484505 -0.2075834 0.010637629 0.2743304 0.10792142 -0.2078038 -0.17347771
-0.0044286307 0.14711507 -0.07783145 0.13802528 0.101306155 0.11379053 -0.09319315 0.017704131
00000000: ffa0 443d 357b e33d 4a23 a7bd 1914 97bd
00000010: a060 1abd 58e1 d63d 6408 7abe 73d6 2abd
00000020: db78 9b3c 6d51 183c 55aa 333e 56ee 32be
00000030: 7d35 14be 3ffe 88be 909f 9abe b1aa a4bd
00000040: cd63 933e 02e4 80be 6740 f2bd c82c 17bd
00000050: 4974 84be e318 7ebc fa43 25be 1518 d5bd
00000060: 87a2 74be 7e83 1dbe 1419 98be 58c2 e6bd
00000070: 9924 e0bd 1121 84be 9087 6d3c e799 f03d
00000080: 24e3 103c 41a5 9dbe 4227 b1be 7f59 60be
00000090: d89c f93a b9de 7e3e 8ce8 a2be 30d3 2e3d
000000a0: 24c3 59be e431 2abe ae84 bdbe 7802 163e
000000b0: fb51 47be eeec adbe 20e2 083e 93e0 1cbe
000000c0: 5efa e03d 2bee 0fbe a150 36be 343b 4f3e
000000d0: b67a 453d 2282 80be c343 c7be 1f69 e23c
000000e0: 770d 5f3e 80c5 0b3e e9d0 783e 72ee aa3c
000000f0: 4474 013e 3a6c d53d 6c41 f6bd c913 a5bd
00000100: 62c6 90bd 2859 2fbe fa94 80be a647 8d3e
00000110: d7f4 1ebe fd56 68be 3f87 d43e e819 ca3d
00000120: 09b0 aebe 2008 2ebe 6b10 01bf 1d7e b53c
00000130: b35e 49be 9085 9bbe 59bb d3bd fb86 54be
00000140: 3f36 73be d307 a6bd 0b8b e3bd 6511 343d
00000150: b565 91bd 1e60 353d a3c9 ae3d 9bfc 6abe
00000160: 2c5e c7bd 4a30 413e 8187 52be b425 a03d
00000170: 7783 cfbd f6d3 65be d7b8 39be f96e a5be
00000180: 829c ce3c d64e ecbc 03f4 10bc f419 a1bb
00000190: 0e0c a8be 66f5 9fbe 502d 56be 4673 c0be
000001a0: 55b8 14bd c12d 9d3d 303f 2bbe d324 f9bd
000001b0: c7e5 1dbe 42af babe faa2 99be 30bc 7abe
000001c0: 7fd9 d1bd 5dff 703d 47a0 11bd d40e 5ebe
000001d0: 99cf 80be 7ec7 dabd 9ea0 863d 1839 a63c
000001e0: 4c42 aebd 2a08 9cbe c710 3fbf 1328 3ebe
000001f0: 116e d7bd 2fd7 81be 432d 96bd 39a1 f1be
00000200: 8432 67bd 4ae4 ccbd ff7e 953d 431d 063e
00000210: 6995 07be bf20 973d 2ae9 953c af86 48be
00000220: 02d8 d63d 291c 613e 0f5a cfbd 56ef 96ba
00000230: 1a19 aabd 510d 593e 1348 0d3e c4a1 5f3d
00000240: d9d4 b2bd 73b9 08be 2734 b0bd 2145 c2bb
00000250: 1d8a e2bd e0f7 3d3e 39fc e2bd 3d4e 71bc
00000260: 840a f8bc 86d2 eb3d b119 1d3e d459 2d3d
00000270: 8ff1 67be 9a92 363e 2b81 5abc 09c8 e93c
00000280: de78 123e f408 23bd aab5 b53c 8b2f b63d
00000290: 32b2 f83d bafe c53d 286d ac3d 4763 ea3c
000002a0: e9ec 053e 59d3 643e 9cc0 123d b146 26bd
000002b0: cc24 183d e32f e4bb eb98 913d cbdc a13c
000002c0: 0246 80bb 994c 113d cde2 04bd ee75 ff3d
000002d0: cd43 98bd 52f6 0cbd 29f4 efbc f8ee ec3c
000002e0: 0995 26be a103 203c b7f2 a63c f850 50bd
000002f0: b0d9 9abd 0eca c63d 0e0c 193c b676 623c
00000300: e57f 093d 5cd2 40bd c629 983c 8f54 0ebe
00000310: 626c 31be 9189 933e acc1 94be faf7 eb3b
00000320: ace4 4cbe e532 9fbd e8a0 273e 324d 6ebe
00000330: 809e aebe d2d9 7abe de3b ddbe 5e74 a03d
00000340: 3177 493d d052 acbe 78bd 6abe ebfc 97be
00000350: 17ad 78be 65cd cbbc 63d7 0d3e 8d30 a5bd
00000360: 701b 8abd e453 d63c 682e a1bd 58f3 76bd
00000370: 0b46 13be 9cc6 2e39 6f67 7abd ce7d 1dbe
00000380: 7585 29bd d78c b6bd 2ffb da3d 1cd3 ccbd
00000390: ee88 ed3a 3f1e f7bd c768 b2be fc65 ce3d
000003a0: 3585 34be 22c4 503e 5007 18bd f7c4 8d3d
000003b0: 1e29 533e 2e37 1dbe 0cb5 ddbd ace4 dd3c
000003c0: cbaf 143e 558b 98bd be90 54be 7349 2e3c
000003d0: 0975 8c3e e805 dd3d 85ca 54be 24a4 31be
000003e0: 0c1e 91bb 55a5 163e 1866 9fbd 8056 0d3e
000003f0: 9a79 cf3d 020b e93d 0ddc bebd 4108 913c

memory_a.rnn.bias_hh_l0 f4 [256]
-0.008382603 0.11409636 -0.07513866 -0.11970638 -0.113069415 0.2213386 -0.16489734 0.07889852
-0.034146927 -0.040039256 0.299363 -0.18879361 -0.087542735 -0.34703404 -0.16209988 -0.023191156
0.23689352 -0.12278295 -0.17415746 -0.056029063 -0.17579798 -0.02296267 -0.10743425 -0.074586704
-0.16420648 -0.20328282 -0.36272418 -0.12171757 -0.045254447 -0.1766761 -0.14032368 0.098418534
-0.102602586 -0.11079538 -0.3060624 -0.07462696 -0.06111635 0.09400567 -0.30559975 -0.06900699
-0.10568614 0.013177582 -0.55850655 0.0806742 -0.18191254 -0.46869782 0.085136764 -0.19668546
-0.01244254 -0.07513251 -0.020740036 0.093742125 0.014499381 -0.21349494 -0.33616444 0.17434728
0.087747306 0.044197634 0.10016553 -0.09894843 0.09128137 0.10655723 -0.023491655 -0.08175748
-0.17941163 -0.12461235 -0.19986834 0.20664102 0.046830777 0.0055714888 0.3848249 -0.07667341
-0.2134681 -0.09921747 -0.29260907 0.056302868 -0.39978895 -0.524953 0.06589389 -0.2770076
-0.33727694 -0.0932711 -0.12677169 0.0062784296 -0.11738569 -0.01919938 0.17363209 -0.09047272
0.04880278 0.23540574 -0.26848987 0.08147003 -0.03104153 -0.22757299 -0.13340974 -0.09159751
-0.018674884 -0.16009189 0.016941585 -0.15574834 -0.21162817 -0.33824468 -0.33580595 -0.28043422
0.060317624 0.14341888 -0.17755067 0.011969214 -0.123310156 -0.30158722 -0.24459107 -0.38586774
-0.09749161 -0.077687025 -0.09176558 -0.25706217 -0.3145496 -0.09364988 0.22553496 -0.20450664
-0.042593468 -0.23271085 -0.5133825 -0.25639603 -0.100079104 -0.24323529 -0.035512514 -0.50436044
-0.014682112 0.11615246 0.033036534 0.106415406 0.067945145 -0.12639247 0.086777404 -0.07466385
-0.07567129 0.06164363 -0.047911573 -0.116936244 0.088661626 0.09685237 0.020150596 -0.15007944
-0.037305698 -0.049731735 0.0054833144 -0.060365908 -0.060165923 0.12265382 0.039634183 0.05898727
-0.026932003 -0.025889684 -0.035781655 0.05214769 -0.10968997 0.2147887 -0.12214326 -0.061806634
-0.048045263 -0.0544176 -0.014796938 -0.08774819 0.00038736715 0.073409595 0.039879 -0.004892153
0.0052533834 0.23764904 0.14875092 -0.049018737 0.055522084 -0.019592134 0.072443314 0.0021173647
0.058467813 -0.0047292323 -0.100851655 0.019509163 -0.07453523 0.14241062 -0.16807376 0.011979301
-0.050556984 0.026225785 0.14876303 0.06483351 0.03690545 -0.111543395 -0.07540403 0.17999686
0.18497759 -0.005108457 0.069791965 -0.1278418 -0.10662381 0.2899966 -0.1909666 -0.023898937
-0.23919249 -0.06296342 0.24505861 -0.21215235 -0.17070659 -0.3747044 -0.33529904 -0.027569631
0.023767214 -0.34024182 -0.09565335 -0.09776278 -0.037158165 -0.15501055 0.09763618 -0.25459793
-0.101959534 -0.13659202 -0.18469083 -0.12368849 -0.20013484 0.00091821223 -0.1141234 -0.20795795
0.14877595 -0.14974017 0.0029380762 0.014802773 0.011397843 -0.08815104 -0.13217852 0.082366906
-0.18373178 0.19437723 -0.24453577 0.041918825 0.2098196 -0.021287901 0.020533761 0.14635894
0.10953358 -0.150831 -0.023035966 -0.052962832 0.24658647 0.20375471 -0.19355965 -0.19792727
-0.12995857 0.06731153 -0.17141318 0.013183545 0.09354827 0.17113428 -0.07945583 0.04756177
00000000: 2f57 09bc 5aab e93d 4ce2 99bd 9e28 f5bd
00000010: f090 e7bd 96a6 623e d9da 28be 8c95 a13d
00000020: a6dd 0bbd 3400 24bd 1b46 993e 1d53 41be
00000030: 9b49 b3bd 72ae b1be 83fd 25be 61fb bdbc
00000040: 3794 723e a175 fbbd 5556 32be bb7e 65bd
00000050: 6304 34be 361c bcbc 7d06 dcbd eac0 98bd
00000060: be25 28be 5f29 50be fcb6 b9be 1047 f9bd
00000070: ba5c 39bd 94ea 34be 03b1 0fbe a88f c93d
00000080: 4e21 d2bd b0e8 e2bd 36b4 9cbe 05d6 98bd
00000090: 2355 7abd 0b86 c03d 9277 9cbe 8953 8dbd
000000a0: fa71 d8bd c9e6 573c 49fa 0ebf 8438 a53d
000000b0: 4847 3abe 29f9 efbe 2f5c ae3d ea67 49be
000000c0: ccdb 4bbc 13df 99bd 02e7 a9bc dffb bf3d
000000d0: d08e 6d3c 6b9e 5abe bf1d acbe 1888 323e
000000e0: dcb4 b33d 9408 353d 9623 cd3d 79a5 cabd
000000f0: baf1 ba3d ad3a da3d 9271 c0bc 7770 a7bd
00000100: afb7 37be c234 ffbd 49aa 4cbe b499 533e
00000110: a1d1 3f3d 0991 b63b c507 c53e f306 9dbd
00000120: 6297 5abe 8732 cbbd dbd0 95be d69d 663d
00000130: 23b1 ccbe 5263 06bf 60f3 863d f1d3 8dbe
00000140: 90af acbe eb04 bfbd 70d0 01be 49bb cd3b
00000150: e967 f0bd 0548 9dbc 9ccc 313e c349 b9bd
00000160: 6de5 473d 340e 713e 8177 89be c2d9 a63d
00000170: cf4a febc e508 69be 909c 08be 7a97 bbbd
00000180: 12fc 98bc 21ef 23be 14c9 8a3c 7e7c 1fbe
00000190: 0eb5 58be 682e adbe c2ee abbe 1395 8fbe
000001a0: 9d0f 773d 66dc 123e d8cf 35be 861a 443c
000001b0: 098a fcbd a469 9abe 1576 7abe 7590 c5be
000001c0: aea9 c7bd 601a 9fbd 98ef bbbd a79d 83be
000001d0: a50c a1be 82cb bfbd a3f2 663e 306a 51be
000001e0: 7d76 2ebd c14b 6ebe 096d 03bf 5746 83be
000001f0: 46f6 ccbd ac12 79be 9275 11bd c41d 01bf
00000200: 3e8d 70bc 57e1 ed3d 5151 073d 52f0 d93d
00000210: d326 8b3d 076d 01be 5ab8 b13d 5ce9 98bd
00000220: 8df9 9abd 087e 7c3d ed3e 44bd 457c efbd
00000230: 3a94 b53d 895a c63d dd12 a53c 6dae 19be
00000240: dccd 18bd 81b3 4bbd 60ad b33b 3e42 77bd
00000250: 8b70 76bd ed31 fb3d 7457 223d a39c 713d
00000260: 81a0 dcbc 9a16 d4bc c98f 12bd d198 553d
00000270: 23a5 e0bd 92f1 5b3e 3f26 fabd f428 7dbd
00000280: 1ccb 44bd fde4 5ebd db6e 72bc 53b5 b3bd
00000290: 8a17 cb39 c557 963d 2a58 233d 5b4e a0bb
000002a0: 9324 ac3b 455a 733e 2952 183e dfc7 48bd
000002b0: 206b 633d af7f a0bc 295d 943d 7cc3 0a3b
000002c0: f27b 6f3d adf7 9abb 508b cebd aed1 9f3c
000002d0: eda5 98bd 17d4 113e 871b 2cbe d544 443c
000002e0: d714 4fbd 75d7 d63c 5655 183e 6ec7 843d
000002f0: 2b2a 173d dd70 e4bd 6e6d 9abd 1951 383e
00000300: c46a 3d3e d864 a7bb 17ef 8e3d f6e8 02be
00000310: 965d dabd 6f7a 943e c08c 43be b4c7 c3bc
00000320: e0ee 74be f7f2 80bd a5f0 7a3e 773e 59be
00000330: b5cd 2ebe 41d9 bfbe 51ac abbe b5d9 e1bc
00000340: 76b3 c23c 2d34 aebe e7e5 c3bd da37 c8bd
00000350: 2933 18bd 16bb 1ebe 7af5 c73d a95a 82be
00000360: 29d0 d0bd c7de 0bbe 981f 3dbe 6450 fdbd
00000370: 26f0 4cbe 2eb4 703a 87b9 e9bd eef2 54be
00000380: b958 183e 7d55 19be bd8c 403b 5487 723c
00000390: 05be 3a3c 8888 b4bd ce59 07be fbaf a83d
000003a0: 2f24 3cbe d30a 473e 9667 7abe 13b3 2b3d
000003b0: f3da 563e f763 aebc 6b36 a83c 1edf 153e
000003c0: 2453 e03d 7173 1abe ecb5 bcbc 8eef 58bd
000003d0: 2a81 7c3e 13a5 503e 8034 46be 72ad 4abe
000003e0: dc13 05be a1da 893d f086 2fbe ccff 573c
000003f0: 3c96 bf3d d33d 2f3e bdb9 a2bd 21d0 423d
