logs/g1/Apr19_03-18-51_/model_100.pt (torch, 777504 bytes, 48 tensors)

std f4 [12]
00000000: e72f df3e 4df6 003f 3f14 9a3e 5ed5 bc3e
00000010: 6a70 243f 24d7 1f3f 14c9 df3e 0c5f f43e
00000020: 741b a03e 646e cf3e 2ce2 313f 7d4d 203f
0.43591234 0.50375825 0.30093572 0.36881536 0.6423403 0.62437654 0.43708098 0.47728765
0.31270945 0.4051391 0.69485736 0.6261824

actor.0.weight f4 [32, 64]
00000000: 8b3a eb3d bfd6 fcbd a001 7c3d 6bf4 933c
00000010: 9de8 5a3e ba7b 5c3d 274e bbbe b572 93bd
00000020: 3ef6 5e3e 1824 793e 6e3a 623e 4bdd f63d
00000030: 30b2 603e 8897 333e faa7 473c ac28 f03d
00000040: 8eed ed3d f123 30be edba bc3d 9443 f03d
00000050: c99e 60ba 5887 ddba 0d32 4d3e 99cd 343e
00000060: bfa0 403d aca2 743e ad35 f1bd e6ab 073e
00000070: b62c 3ebe eb44 f83d 4ec6 9abe 1e6c 19be
00000080: ec45 4e3e 1fc3 32be bfcb 2cbd 10a2 883e
00000090: 9acc 713d 67e6 febc e5c0 4e3e 4ade 113e
000000a0: 5ed8 963c e1a2 1bbe 85dd d53d 12a0 6a3d
000000b0: 000d 17be 91dd ad3d d695 91be 015d 32be
000000c0: 54e0 813d fa08 81bc 733a 463d d57a 8cbd
000000d0: 44b2 893e 8a1c a2bd d910 f23c fe01 3e3d
000000e0: 5ee7 c93c e466 3a3e 69bf a4be 2faa 12be
000000f0: 1b66 883d 6131 39bd e0d2 16be 9bbf f9bd
00000100: 4cf3 c33d e9ad a53e ac15 c2bd b695 443d
00000110: 5283 573e e82d bfbd 1758 64bd fd6b 94be
00000120: 016b 73be 4c63 d53e 7c13 c3be 5c98 ad3e
00000130: 77f3 32bd da80 3abe 125f c8bd ca21 53be
00000140: 8a97 243e 45e1 49be 82f5 00be c50d 143d
00000150: 204d 5cbe 0c19 e73a 371f c83d 2c8a 33bd
00000160: cd6b 01be 4853 91bd fe0f 4ebe dedc 1cbe
00000170: e7b9 143e 02c0 30bd 2182 1fbe 4018 96bd
00000180: 0765 313e 1935 daba f2fe fcbd 02da a63d
00000190: dcce 8e3e 5c87 ee3d 2801 51be bd9b 233d
000001a0: 6cc0 953e b61a b83d 125d c93c 9d56 8ebd
000001b0: 2f4d 8d3e 0295 2f3e 8561 373e ddf4 d03d
000001c0: 0d5d 1abe 1394 2dbe 38af 53be a5e0 0cbd
000001d0: 75b3 ec3c 07ae 42be 783d 0cbe ae45 543e
000001e0: 79fd 36be 7243 0dbd 64c4 a63e fd0b d4bd
000001f0: c9d3 be3c 32b3 c63e fafc cc3e ce3b 7f3e
00000200: ed92 babd 91f9 a63d 1155 d03d 596d 2dbe
00000210: 0d60 3a3e 4e87 fa3d fb00 6d3d 89ac 253e
00000220: 034d 253e 3d7d 9f3e 902c 723d 6eca 91bc
00000230: a342 a63d 08c0 1c3d 9f06 093d 9567 233e
00000240: 3899 00be 94fb 26be a63b 643b 3447 893e
00000250: 705b 26be c210 993c b945 5f3d 365e 513b
00000260: 27de 923d 6e6d 42bd 13f5 68be 19b6 fa3d
00000270: 43b8 623c dfe9 8fbc 9fe9 5fbe c14b b2b9
00000280: 0dff 053e b572 84be 3afc 193d 7ac5 6c3e
00000290: b0a8 443e 5a0b 04bd ae8b 473c c2a0 d23e
000002a0: fec3 0bbd 39ec 94bd 7e6c 5abe 7c28 b03d
000002b0: eafa 2e3e 0ae5 c23c ae05 07be d64a 8fbd
000002c0: b964 80be 7021 853d 09f4 d2be 8501 053d
000002d0: 99db 883e 531f b93b dd2c 60be af01 693e
000002e0: 2c40 c13c c347 acbd b577 0fbe 3f32 5ebe
000002f0: b434 52bd 584a 78be 72f8 bdbe 3de5 97be
00000300: 63d6 2b3e 0e98 87bd 9c53 2dbc bff4 5c3c
00000310: d6e6 84be 9310 e43d 17af bb3d 8371 ef3d
00000320: 4808 80be de6c 12be 679f ebbd 3a27 0dbe
00000330: 76a7 88bd b6c9 f9bb b464 04bd 27c8 1dbe
00000340: 0cd5 233d 8229 b43b d9f5 af3e 1f8d 53be
00000350: f945 7b3e 820e 3b3e ed42 043d f39f 2e3e
00000360: 46d4 2e3e ee50 123e 6b43 c13c ed07 64bd
00000370: dcf9 3cbe bfbe 90bd 3fe3 fb3d 9e2b a8bd
00000380: 4abd 47be 5756 223e e655 27be d54c cebc
00000390: 97d1 26be ac97 613e 1bc7 083e 24ce 56be
000003a0: e81a 77be fd63 5f3e f7e7 12bd 1090 96be
000003b0: 8546 64be 74bf 2a3e 583c 8c3e 9ada b5bd
000003c0: 92d2 12bc 00a5 6ebe 4946 363e b0f5 553d
000003d0: 5496 483e 9ca0 7abe 0e1f dbbc 49d1 c43d
000003e0: febd 5b3b 393f a93e 9caa 82bd b523 3f3e
000003f0: 71f0 e7bd c767 bebd c8df fbba bd24 b23e
0.114857756 -0.12345647 0.061524987 0.018060884 0.21377797 0.053828932 -0.36583063 -0.07199613
0.21773621 0.24330175 0.22092602 0.12053927 0.21942973 0.17538273 0.012186045 0.117265075
0.116175756 -0.1720121 0.09215341 0.117316395 -0.00085685827 -0.0016901297 0.20038624 0.17656554
0.0470283 0.2389018 -0.11777816 0.13249168 -0.18571743 0.1212252 -0.3022942 -0.1498265
0.2014386 -0.17457245 -0.042186495 0.26686144 0.059033014 -0.031115724 0.20190771 0.14244953
0.018413719 -0.15198852 0.10442642 0.05728156 -0.14751053 0.08489526 -0.28434628 -0.1741829
0.06341615 -0.01575135 0.048395585 -0.06859366 0.26893818 -0.079156 0.02954905 0.04638862
0.024646457 0.18203312 -0.32177284 -0.14322732 0.066601 -0.045213107 -0.1472888 -0.12194749
0.095678896 0.32359245 -0.0947679 0.047994338 0.21046188 -0.09334928 -0.05574807 -0.2898864
-0.23771288 0.4167732 -0.38100803 0.33905303 -0.043689217 -0.18213215 -0.09783758 -0.20618358
0.16073433 -0.1971484 -0.12593654 0.036145944 -0.21513796 0.0017631366 0.09771579 -0.043832943
-0.12638779 -0.07095963 -0.20123288 -0.15318629 0.14524041 -0.043151863 -0.15576984 -0.07328844
0.17323695 -0.0016647904 -0.123533145 0.081470504 0.27892196 0.116469115 -0.20410597 0.039943445
0.2924837 0.0898947 0.024580512 -0.06950114 0.2759795 0.17146686 0.17908294 0.10202954
-0.15074559 -0.16951017 -0.2067231 -0.034393925 0.028894166 -0.19011699 -0.13695323 0.20729706
-0.1787013 -0.03448815 0.3257171 -0.10353849 0.023294346 0.3880859 0.40036756 0.24925157
-0.09110055 0.0815307 0.10172475 -0.16936244 0.18200703 0.122328386 0.057862263 0.16179098
0.16142659 0.31150237 0.05912453 -0.017796721 0.08118179 0.038269073 0.03345358 0.15957482
-0.12558448 -0.16306907 0.0034825592 0.26812136 -0.16245818 0.018684749 0.054509852 0.0031947023
0.071712784 -0.04746764 -0.22749738 0.122417636 0.013837877 -0.017567573 -0.21866463 -0.00034007247
0.13085575 -0.25868765 0.037594058 0.23122206 0.19204974 -0.03223739 0.012179298 0.41138273
-0.03412246 -0.072716184 -0.21330449 0.08601472 0.17087904 0.023790855 -0.1318576 -0.06996696
-0.25076845 0.06500518 -0.4120181 0.032472152 0.2673004 0.005649486 -0.21892114 0.22754548
0.02359017 -0.08412125 -0.14010508 -0.21698855 -0.051319793 -0.2424711 -0.3710361 -0.29667082
0.16781001 -0.06620799 -0.010579016 0.013486086 -0.25957364 0.11135974 0.09164255 0.116915725
-0.25006318 -0.14299342 -0.11505013 -0.13784495 -0.06672566 -0.007622923 -0.0323226 -0.15408383
0.0399981 0.005498112 0.34367254 -0.20659302 0.24538411 0.18267253 0.032290388 0.17053203
0.17073163 0.14288685 0.023591718 -0.05567162 -0.18454689 -0.07067632 0.12299203 -0.08211444
-0.19505802 0.15853249 -0.16341361 -0.02518312 -0.1629089 0.22030514 0.13357203 -0.20977074
-0.24131358 0.21815486 -0.03586575 -0.29406786 -0.22292526 0.16674596 0.2738979 -0.088795856
-0.008961337 -0.2330513 0.17800249 0.05223626 0.19588596 -0.2447533 -0.026748206 0.096102305
0.0033529992 0.33056048 -0.063801974 0.18665965 -0.113251574 -0.09297138 -0.0019216472 0.34793654

actor.0.bias f4 [32]
00000000: 089d 55bd b7fa f13c d112 9bbd db65 c8bc
00000010: bacc 23be 4bb6 653d 6456 893c b46a 3fbd
00000020: ca2c c8bd 4907 833c 711e 10bc 4352 903d
00000030: c9a3 59bd 88d2 51bc 4767 503c d22a a03d
00000040: b354 f2bc 8ddf 903b 951e e9bd 6f7e 2fbe
00000050: 8cd0 c93a 5f98 6c3d 912b a33d d001 e3bd
00000060: 2321 8dbd 72c9 6f3d ebe9 913c 3f20 7ebd
00000070: bc5e 6cbd f350 453e 6405 15bd 1ba2 e7bb
-0.05215171 0.029538495 -0.07571948 -0.024462631 -0.15996066 0.05608205 0.016764827 -0.04673262
-0.09774168 0.015994685 -0.00879632 0.0704694 -0.053134713 -0.012806542 0.012719936 0.07820667
-0.029581403 0.0044211806 -0.11382786 -0.17138074 0.0015397235 0.0577625 0.07967294 -0.1108433
-0.06891086 0.058541723 0.017811736 -0.06204247 -0.057707533 0.19269161 -0.036382094 -0.007068885

actor.2.weight f4 [12, 32]
00000000: 49cc bd3d 87c1 ee3c 9622 dc3d 7e4d 1ebe
00000010: 92ef b03d b325 2a3d 2fe6 69be dc9a 973e
00000020: da5a dabd e1cb 4b3d 771a 1e3e 866a a4bd
00000030: ca92 2dbe 53dd 3dbe f792 943d 0520 cbbd
00000040: 6147 2cbe 393c f4bd 1503 4c3e d85a 52be
00000050: c5d2 263d f2d1 053e f1d1 073e 7d80 393e
00000060: 3550 923d 73d5 5d3e e848 903d bc18 fc3c
00000070: 10e3 633e c28e 7ebe f877 a93d a7de 26bd
00000080: fe7c 5f3d 4f7d 113e e690 233d c18a 73be
00000090: 888d 043d 4b6b d13d 073c 82bd db23 1b3d
000000a0: 7a5d 0f3d 1fdf 193e 7485 8f3d 2721 373e
000000b0: 4ded 53bc facf 0abc 368e 943b 6b39 9c3d
000000c0: e94c d2bd ba02 973e 122e e0bd c601 7bbe
000000d0: 34d6 3ebe 95c3 183e e47c 8e3e 39d3 9cbe
000000e0: 4e3b d43d dd7a 823e fd7a 723d a564 713d
000000f0: a69c 8fbd 3bb5 413e 1506 7f3d d25c 4bbe
00000100: c546 b33d 631e 27bd a65a 543c a228 4f3e
00000110: 3b8c 193e e204 64bd 9382 59bd 11f0 f03d
00000120: f549 2b3c 6a83 b9bd 6de8 6ebd 3600 4a3d
00000130: c0fd 06bb 8875 13be c9fa 123e cfbd 71bd
00000140: 0a21 843d 80a4 19bd bc7f 6cbd 648d 333e
00000150: 38ec 2c3e 84ac 9fbb 6eb3 d13d d157 c4bd
00000160: d168 75bd 84a2 a8bc 4293 523b cb77 a53d
00000170: e705 e9bc 3683 04be 44c8 043e f30a 413d
00000180: fbff 0b3e fa1c c2ba a795 953d a72e 07be
00000190: 039b 313c 084d debc a5bf 1abe 6d82 473e
000001a0: ac4b 34bd 99a5 d4bd ab1b 453e 6952 1bbe
000001b0: a429 773d b4d6 fd3d 54f2 003e 58f2 a53d
000001c0: bde2 293e 2cf2 4fbd ff20 403e e615 323e
000001d0: be7d 98bc d9ae 5dbd a33e 5bbd 2bf3 0e3d
000001e0: 4390 f038 35cd c6bd c886 88bd 657d 253d
000001f0: a640 6a3d 1676 743c 5228 7b3d c193 b1bd
00000200: 34f8 debc 9749 9db8 f170 2fbe d15c 40ba
00000210: 0aed 69be 17fc 973d 8551 58bd 14d5 323e
00000220: b9f3 76be da4d 8abe 5f5c 983e 03f3 e8bd
00000230: 3088 b5be f4da 353e 7b5f 73bd 7353 cd3e
00000240: 1e16 ac3d 87a0 573d 644d 38be 404c 47be
00000250: 388a b43d 6647 593e d67d 563d 650e 723e
00000260: 84aa 88be 9c8a aa3e b785 98bd a314 163e
00000270: 6e13 4f3e 6a18 c73d 62ce 593e d7f1 83be
00000280: 8bfe 02bc 6188 1e3e a43e 12be fca5 bb3d
00000290: a18e 193e 5872 c2ba 5930 083e bf1b 123e
000002a0: 4a83 153e d610 fb3c 25db 5b3e dac9 cf3c
000002b0: 2bac 25be d6d9 eb3d 8d8e 54be df12 a3bd
000002c0: 2938 dabd a09a 643d 59d9 933d e505 123e
000002d0: f62a 5d3c da5c a83d a713 44bd c744 fabd
000002e0: e3fd 04be b096 48be 63dd 01bd a10a a83c
000002f0: 2add c0bc b904 40be 4c02 b53d c92c f4bd
00000300: da97 03be 246e 053e dc0d 74be 8969 a13c
00000310: d0c9 72be 8e82 f53d 2a51 3f3d 6683 55ba
00000320: 1653 a63e cbcb 1f3e 7882 aabd fd41 9ebd
00000330: 516d e83d 74eb 1d3e 1a71 8d3e ec78 763e
00000340: 7167 10bd b89d 75be 25f8 6e3e e856 28be
00000350: 2949 51bc fe14 be3d 7244 b03d a04a a83d
00000360: d30e ebbd a76a 7bbe 7ec3 67bd 3898 2d3e
00000370: a158 a8bd d835 ee3d bd51 eb3b a2ac 55bd
00000380: f558 05bd d509 fdbd 6187 0b3d 2207 cebd
00000390: af12 413d 0862 8ebc 7163 29be a0a7 29be
000003a0: 3fc3 103e fbb8 083e 080a 16bd 9316 42be
000003b0: 9926 bb3d 7de4 6ebd 74d5 ccbd 7587 f83d
000003c0: 5ad8 18be bf22 313e 8d4e 9cbd faf1 ea3d
000003d0: 733e 4b3d 8685 68be 41a3 473e 9b16 bf3d
000003e0: 4343 a23d 9dd5 093e c595 06be 189c 543e
000003f0: 772e 61bd 1d25 2ebe 9a38 903d 86a9 cabd
0.0926748 0.029145015 0.10748784 -0.15459248 0.086394444 0.04153986 -0.22841714 0.29610336
-0.1066186 0.04975498 0.15439783 -0.0802813 -0.16950527 -0.1854146 0.07254594 -0.099182166
-0.16824104 -0.11925549 0.1992305 -0.20542467 0.04072835 0.13068369 0.1326368 0.1811542
0.071442045 0.21663456 0.07045156 0.030773513 0.22254586 -0.24859145 0.08274835 -0.04073968
0.05456256 0.14207958 0.039933108 -0.23783399 0.032361537 0.10225543 -0.063591056 0.03787599
0.035001256 0.1502652 0.07007876 0.1788374 -0.012934995 -0.008472437 0.0045335544 0.07628139
-0.10268576 0.29494268 -0.10946287 -0.24512395 -0.186364 0.14918359 0.2782966 -0.306299
0.10362874 0.25484362 0.059199322 0.058933873 -0.070123 0.1891679 0.06226166 -0.19859627
0.087537326 -0.040800463 0.012961065 0.20230344 0.149949 -0.05566872 -0.05310304 0.11764539
0.010454644 -0.09058268 -0.058327127 0.049316607 -0.0020598024 -0.14400303 0.1435348 -0.059018906
0.06451614 -0.037510395 -0.057739004 0.17534405 0.16886985 -0.0048728604 0.102393016 -0.09587062
-0.059914414 -0.020585306 0.003213123 0.08079489 -0.028445197 -0.12940678 0.1296702 0.047129583
0.13671868 -0.0014809661 0.073039345 -0.1320139 0.01084018 -0.02713634 -0.15112169 0.19483347
-0.04401748 -0.10383148 0.19248836 -0.15168156 0.060342446 0.12394467 0.12592441 0.08102864
0.165904 -0.050768062 0.18762587 0.17391166 -0.018614646 -0.054121826 -0.053526532 0.03489987
0.000114709626 -0.09707109 -0.066663325 0.04040279 0.05719056 0.014920732 0.06131775 -0.0867076
-0.027217962 -7.5000506e-05 -0.17132927 -0.00073380495 -0.2284433 0.07421129 -0.052812118 0.17464095
-0.2411641 -0.2701252 0.29757974 -0.11374476 -0.35455465 0.17759305 -0.05941723 0.4010273
0.08402656 0.052643325 -0.17998272 -0.19462681 0.08815426 0.21218643 0.0523661 0.23638304
-0.26692593 0.33308876 -0.07447379 0.1465631 0.20222256 0.097214535 0.21270135 -0.25770447
-0.007995258 0.15481712 -0.14281708 0.091625184 0.14995815 -0.0014835102 0.13299693 0.14268397
0.14600864 0.030647676 0.21470316 0.025364805 -0.16178958 0.11516158 -0.20757504 -0.07962584
-0.10655243 0.055811524 0.0721919 0.14260061 0.013499012 0.08220835 -0.047870304 -0.122201495
-0.12987475 -0.19588733 -0.03170527 0.02051288 -0.02354296 -0.18751802 0.08838329 -0.119226046
-0.12850896 0.13030297 -0.23833412 0.019703643 -0.23709798 0.11987792 0.046708263 -0.0008144885
0.32485265 0.15605085 -0.08325666 -0.0772743 0.113489754 0.1542185 0.27625352 0.24069566
-0.0352549 -0.23985946 0.23336847 -0.16439402 -0.01277379 0.09281348 0.08606805 0.082173586
-0.11477437 -0.24552403 -0.05658292 0.16952598 -0.082200296 0.11631364 0.007181375 -0.05216659
-0.03255554 -0.12355391 0.034064654 -0.10059954 0.04713696 -0.01738073 -0.1654184 -0.1656785
0.1413698 0.13351814 -0.03663066 -0.18953924 0.09138221 -0.058323372 -0.100016505 0.121352114
-0.14926282 0.17298411 -0.0763217 0.114719346 0.049620103 -0.22707185 0.1949587 0.093304835
0.079229854 0.13460393 -0.1314307 0.2076267 -0.054975953 -0.17006345 0.07042046 -0.09895615

actor.2.bias f4 [12]
00000000: 7ccc da3c b959 fb3d 5628 253a 9615 47be
00000010: 5fc1 823e f940 32be a877 09be 90fc e6bb
00000020: 4a3c 423d 5bcf f8bd 944e bbbd a880 183e
0.026708834 0.122729726 0.0006300261 -0.19441828 0.25538155 -0.17407598 -0.13424551 -0.0070491508
0.047420777 -0.12148925 -0.09145847 0.14892828

critic.0.weight f4 [32, 64]
00000000: 8bfa 88b9 1ebc c83d 7b39 073e 8656 bb3d
00000010: 0f98 ba3d 08cb 00be 3ba7 56bd 2ba1 173d
00000020: e704 55bd c4d1 26bc 1c7e fb3d 6356 10be
00000030: 0964 6c3d 4c66 bc3d baf5 453d 4c8a e63d
00000040: 3b53 c13d 3e25 27bb 790e 2abd 9b80 00be
00000050: 0f89 983d 6ef9 f83c b5ec 0f3d 31bb 37bd
00000060: 693b 583c 2dd0 e3bd 243d f1bd e907 09bd
00000070: 3f4f b53d 67fb 00be dede 863d 6ca2 4b3d
00000080: 114a 53bc 9057 493c 6681 8bbc bb2e 863d
00000090: 6535 91bd ce67 d03d ea3c 99bd 2d78 fd3d
000000a0: c23e a6bd 9697 0dbd 57b2 4cbd a4d0 103c
000000b0: 015e 9fbd 407d c8bd dd7f 01be ce7d d93d
000000c0: 50a5 0bbe 1494 433d 8a6f febd 5322 163e
000000d0: 8c06 92bd f943 f13d 3a77 dc3d c084 a0bd
000000e0: 8197 86bd 3a34 e5bd 7ef1 163d 2eb3 fc37
000000f0: 989c 383d daae 96bd 310e e6bb 3081 583d
00000100: a278 07be 4d41 c6bc 07dd bc3b cd3c 48bd
00000110: 2fae 8b3c 6c8e 8dbc c726 bdbd 01ec 5f3d
00000120: 93d3 ed3c b2a7 af3d 40ff abbd abd5 cbbd
00000130: e214 0fbc 2b56 663d a242 013e 6a7d 9a3d
00000140: 9141 09be f2e8 b23d 3c31 a8bd 5400 d63d
00000150: cb45 a0bc 726c dd3d 955e e0bd 3d25 5ebd
00000160: f117 66bd 6f4e e93c 3a75 13bd 880f ea3d
00000170: a4fa b13d a5e9 dbbc 7911 fa3d 80f1 8d3d
00000180: 7b45 d83b 7c55 2abd 1e84 cbbd c8ca bb3d
00000190: 66aa d73d e656 a4bd a9bf db3d 6e02 32bd
000001a0: 4014 debb dcca 37bd 97e6 d23b 1d31 efb9
000001b0: 6e24 2dbd 81bd fe3c 50f9 9b3d cf33 fd3d
000001c0: b3ed f93d 4973 c4bd a3f8 c3bd 741a 37bd
000001d0: 09fd 8bbc c597 d63d 60a4 be3d 5d1a 9e3d
000001e0: 1e95 1f3e 35f1 d83c 4849 e1bb 1a4d e8bd
000001f0: 1e43 44bc fb77 d93d a70a 27be 3e8f 043e
00000200: c3c4 3d3d 4843 0dbe 69e3 3fbb 81e9 0e3d
00000210: b960 c23d 68f9 993d 2d66 8bbd dce9 1f3d
00000220: 0d38 acbd 643c 2fbd 7ea2 23bd 4fa5 c5bc
00000230: 919e d23d 1cc9 e73c ff86 9dbc 8212 25be
00000240: 6476 d7bd f269 f93b a5bd 1ebc d073 ce3c
00000250: bbe5 b4bd b771 363d 2bd1 02be 4b28 053d
00000260: 7b94 83bc 3853 42bd 754d 81bd c449 b0bc
00000270: 1e1f 66bd 5de6 10bd fd9d 5bbd 5b4c 99bd
00000280: 40e3 393b 2531 473d f031 ffbd 6eea 1abd
00000290: 1ce8 67bd 90d6 35bd 7dd0 323c 8d35 b23c
000002a0: fe70 b73d 1928 07bd ba74 dabd 6c0f ddbd
000002b0: 4e9e 8f3d e584 7c3c 1131 05bd 795f 673c
000002c0: 3a8a 013e 8420 5a3d 70c5 503a b5ec 4a3c
000002d0: 6f13 25bc 5685 a2bd 6cf5 f2bb 3151 60bd
000002e0: 14c0 b13c c3cd ccbd d0cb 2c3c 7210 c5bd
000002f0: dfe5 fe3d 6c2f 11bd 3177 06be 3bac bf3d
00000300: cebb a1bc c03e 82bd b324 903d d410 0e3d
00000310: a330 cd3d 5c3f f73c 2434 edba 57fd 4a3d
00000320: 7428 093e b535 dabc 18e4 eabc 446e 13bb
00000330: eb3d 1e3d 00e2 80bd 2dd8 0a3e 98f7 3fbd
00000340: 7c2c af3c 96cf a63d 342b 903d 8b12 a6bc
00000350: 4c3b f63d 5719 de3b ade9 afbd b22f d63d
00000360: 2d26 c6bd f832 be3d 1471 d6bd 0520 ad3d
00000370: 33f1 00be 93e6 0dbd 6e79 f43d 18de 663b
00000380: b973 24be fda4 16be 1639 05be 9ce4 bb3d
00000390: 8186 fbbd e14c 82bc 26fb 78bd 9be6 843d
000003a0: 98c4 943d 8b6f bbbd fd81 3bbd 50ea adbd
000003b0: f13b 61bd 132e 6bbd 056a 893b 2b24 ad3d
000003c0: 901c 87bd 04cf bd3b e4ea 9cbd f3e0 aebd
000003d0: 3fb9 6dbd 2892 963d c53f 0e3d 7392 79bc
000003e0: a4e1 9cbd 015d d9bd d926 1bbe e459 acbb
000003f0: 6888 a53d 8534 053d bfbf 433d 158e b93c
-0.0002612661 0.098015055 0.13205521 0.091473624 0.09111034 -0.1257745 -0.052405577 0.037018936
-0.05200663 -0.010181848 0.12279913 -0.14095454 0.05771259 0.09199199 0.048330046 0.11256847
0.09439703 -0.0025504376 -0.04151771 -0.12549059 0.07448017 0.030392375 0.03513785 -0.044856254
0.013197758 -0.11123691 -0.1177924 -0.03345481 0.088530056 -0.12595902 0.06585477 0.049715444
-0.012896077 0.012288943 -0.017029475 0.06551882 -0.07090262 0.10176049 -0.074823216 0.12376437
-0.08117439 -0.03456839 -0.049974766 0.008838806 -0.07781602 -0.097895145 -0.12646432 0.106196985
-0.1363728 0.04774864 -0.12423618 0.14661531 -0.07130155 0.11780543 0.10764928 -0.0783782
-0.06571866 -0.11191602 0.0368514 3.0124178e-05 0.045071214 -0.07357569 -0.0070207347 0.052857578
-0.13229612 -0.02420106 0.005763653 -0.04888611 0.01705083 -0.017279826 -0.09235912 0.05466843
0.02903155 0.08576907 -0.083982944 -0.09952863 -0.008733006 0.05623452 0.12623075 0.07543452
-0.13403918 0.08735837 -0.08212516 0.10449281 -0.01956453 0.108117 -0.1095554 -0.054234732
-0.056175176 0.028479783 -0.036000468 0.114287436 0.08690384 -0.026844809 0.12210364 0.06930828
0.0066000796 -0.04158543 -0.09937309 0.09169537 0.10530548 -0.08024387 0.10729916 -0.04345935
-0.0067773163 -0.044871196 0.00643618 -0.00045622225 -0.04227107 0.031096222 0.07615912 0.12363397
0.12203541 -0.095923014 -0.09568908 -0.044702962 -0.01708843 0.104781665 0.09308696 0.07719872
0.15584227 0.026482204 -0.006875191 -0.11342831 -0.011978893 0.106185876 -0.16312657 0.12945268
0.046330225 -0.13795197 -0.0029279834 0.034890655 0.09491105 0.075182736 -0.06806598 0.039041385
-0.08409128 -0.042782202 -0.039949887 -0.024126677 0.102841504 0.028294139 -0.01922941 -0.16120341
-0.10520628 0.0076115066 -0.0096887695 0.025201708 -0.0883288 0.04454204 -0.12775104 0.03250913
-0.016062012 -0.047442645 -0.06313602 -0.02151955 -0.05618202 -0.03537594 -0.053617466 -0.07485267
0.0028364211 0.048630852 -0.12460697 -0.037821226 -0.05661784 -0.044394076 0.010913965 0.02175405
0.089570984 -0.032997224 -0.10666795 -0.10793957 0.07012616 0.015412544 -0.032517496 0.014121884
0.12650385 0.053253666 0.0007963991 0.012385537 -0.010075434 -0.07935588 -0.0074145105 -0.05476493
0.021698035 -0.100001834 0.01054664 -0.09622277 0.12446188 -0.035445616 -0.13131405 0.09359022
-0.019742873 -0.06359625 0.0703825 0.034684017 0.10019042 0.03018158 -0.0018097204 0.04955801
0.13394338 -0.026636938 -0.028673217 -0.0022496143 0.03863327 -0.06293106 0.13559027 -0.046866983
0.021383516 0.081450626 0.0703949 -0.020272514 0.12023029 0.006777923 -0.08589492 0.10458316
-0.0967525 0.09287065 -0.10470787 0.08453373 -0.1259201 -0.03464372 0.119372234 0.0035227593
-0.1605977 -0.14711376 -0.13010058 0.09174463 -0.12281514 -0.0159058 -0.06078639 0.06489297
0.0726406 -0.091521345 -0.045778263 -0.08491957 -0.054988805 -0.057416987 0.0041935467 0.08454164
-0.06597245 0.0057925005 -0.07661989 -0.085389994 -0.058037993 0.07352096 0.034728784 -0.01523267
-0.07660225 -0.10613442 -0.15151538 -0.0052597392 0.08082658 0.03252079 0.047790285 0.022650758

critic.0.bias f4 [32]
00000000: fbbd cd3c 6214 0bbe 1f21 cabd efc2 85bd
00000010: ca89 753d 1d5c 96bd cec5 f93c fe32 db3c
00000020: 8a69 7d3c 615a b5bd 2d89 abbc 0dad bdbd
00000030: bf8b 9fbd 7047 643d cf70 26bc 7cf9 18be
00000040: 09be a63d 0a62 71bd 1f6c 4abd 53ea 103e
00000050: 8171 19bb 1ab1 b0bd d05d e33d 6ba0 043e
00000060: 6dc6 773d c6ea 43bd 458d 3f3c bedd 00be
00000070: 7362 88bd f71b e13d 87fc fe3d 84d7 823d
0.025115004 -0.13581994 -0.098695986 -0.06531321 0.05994586 -0.07341788 0.030489828 0.026757713
0.015467057 -0.08855129 -0.020939434 -0.092615224 -0.07790326 0.05573219 -0.010158732 -0.1493892
0.08141715 -0.058931388 -0.04941952 0.14151888 -0.00234136 -0.086275294 0.11101878 0.1295182
0.060491968 -0.04783132 0.011691396 -0.12584588 -0.06659403 0.10991662 0.124505095 0.063887626

critic.2.weight f4 [1, 32]
00000000: 4406 603c d16a eabd 5f7b 2dbd 9924 e1bc
00000010: 5948 ac3c e60f 3abd c386 e63c cfcf 373c
00000020: 2973 86bb 1aad fabd 8393 82bc 1cd0 08be
00000030: 0ee5 643e 1128 2d3d d8ae 06bb c46a 3ebe
00000040: 637e 643d 9db0 c3bc 4546 3b3b da16 103e
00000050: 7037 f73a 085e 64bd 2edc 353d 0cca 1a3e
00000060: b693 083e 56d2 bfba 4e42 073b f617 17bd
00000070: b062 46bc 4c68 213e 9e4a 183e 3a94 853d
0.013673369 -0.11446155 -0.042353984 -0.027483271 0.021030592 -0.04542532 0.028140431 0.011218979
-0.0041030836 -0.12240048 -0.01593948 -0.13360637 0.22353002 0.04227454 -0.0020550992 -0.18595415
0.055784594 -0.023887927 0.002857582 0.14071217 0.0018861126 -0.055753738 0.044399433 0.15116137
0.13337597 -0.0014634829 0.0020638886 -0.036888085 -0.01210849 0.15762442 0.14872214 0.065224126

memory_a.rnn.weight_ih_l0 f4 [256, 47]
00000000: 2179 233f 65c8 95be 4c3b 91bd 2bcc 093e
00000010: 30d3 79bf 8fb2 e23d 8f81 1fbe 1af6 3d3e
00000020: b427 a13e 3d8d c83c 9306 3abf 2d4f c9be
00000030: bbe2 04bf abef 873e 66eb 91be f05c 1abd
00000040: 82c3 213f 756c 9f3e 23e5 52be 701e 97be
00000050: 4cba 923d 6869 563f 1557 d43d 8f38 653e
00000060: be1b f2be e42e c5be de26 bebd 6186 dd3e
00000070: 5a01 acbd 4ff5 a23e 552e cabe c5dd 193f
00000080: bdbe eb3e 8c12 26be 8355 27be 9e4d 7c3e
00000090: 6fd8 e3be 7aae 8ebe 58af 7fbe 68ed f43e
000000a0: 0e17 8abe 89d1 2e3e 171c eabd daca 9dbc
000000b0: 1d7b 0f3f f20b 88be 9af3 1f3d 787a 0a3e
000000c0: 6503 8dbe 7ca1 23be 583b 663d 015b 683c
000000d0: 24d6 40bc 81b3 363e 242c 993e e1d4 65bf
000000e0: 8b55 983f ded8 fabe 5c5d 83bf 3d84 d7be
000000f0: 613e 073d f447 803e c498 ef3d 74d1 cc3e
00000100: 6e24 073d 634a 1bbf bf86 123e 17b0 dc3e
00000110: 11a1 013f 96fc 45bf f8c3 9dbe 6dc4 debe
00000120: d7c8 973e c7a6 313e 61aa 59be d2f9 6e3e
00000130: bbc8 063f f3dc 963e 0ee0 e63e e5a7 463f
00000140: a37d 13be de77 2abe 92fa 2ebf 9272 16be
00000150: 2506 6a3c 17a3 60bd dd6f af3e 183b b7bd
00000160: 85f3 c03e 2732 9f3d 4016 34be 7a06 283f
00000170: 44df 04be 2ff0 5cbe 17fc 033f 6a5f 1abf
00000180: d48d ab3d 2a91 a13e 6430 8dbe 8524 24bb
00000190: 3bdb 33be cc67 083d 1e6a a7bb ffcd 8dbd
000001a0: 9714 9d3e 7c1b 573e 40f1 64be 8818 cfbd
000001b0: 4bd8 8b3d 36fd 44bf 8bc1 283e d00b 9b3e
000001c0: 8437 d3be 885a 193d ea10 f9be 0399 963f
000001d0: 998e d4bd bae2 213e ab42 a3be 9c20 8fbe
000001e0: e0bc 8b3d c5c4 3ebe 8476 57be 785d c3be
000001f0: 3885 003f 2f89 233f ce69 043f 3005 893f
00000200: 996b a4bd 6a14 803e 35e3 d23b 0bde d33d
00000210: ac58 973b a3a3 1b3f 3db8 d5bd 8e5d 4d3e
00000220: 96c6 e73e 946c fd3c 36f7 40be 577b 333e
00000230: b666 93be b48c 67bf 639a 833e 0aa1 7ebe
00000240: afe2 dd3e 1ca8 c53e 0584 b43e 7b2d 60be
00000250: f816 a33e f831 ec3e a7eb f8be 6ade f2be
00000260: 5790 013e f879 cdbd 96f1 163f aab9 0f3f
00000270: 1d11 23bf 8035 36bf 436f fd3e 910d 35bf
00000280: f6f6 6d3e b9bc b33d 2c19 3ebe d228 2b3f
00000290: 83b8 23bd 6ad9 143e 4913 06bf f547 f5be
000002a0: 38a3 1abf ce1c 123e 4f56 5e3e cbca 1a3f
000002b0: 3d6c 173e 2d3c a13d 507e f1be 724f 0dbe
000002c0: a653 6c3d f17b 073f fddb 873c a89c d9bd
000002d0: 12fd e03d bdd3 813e 49ed 793e 95d0 383e
000002e0: 3fe5 41be 8319 783e 1276 843c 4a70 d83d
000002f0: 4962 423e a3c7 4b3e d20e 5f3f 6d1f d03e
00000300: 9b52 fbbe f9f8 e13d 6e5a 093e 30bb 353e
00000310: d5b5 0c3f 9ebf 3f3f dd4b 103f db60 2b3e
00000320: 896b 88be 10d1 973e c4ed 533e c6f3 97bc
00000330: 02cf d73e 0aed 6ebe 8a36 d93e 79c0 a83e
00000340: 778e ad3d ea17 1dbf 1fb7 223f 4a83 ea3e
00000350: 36e6 193e e431 023e c325 49be 2681 c4be
00000360: 7f35 1abe c14d 07bf b5bf a33e 87ef 543e
00000370: 5e84 b93e 2c79 5abe 60c4 6bbe 93e1 243f
00000380: 26b3 353d cd42 f43e ccfe d3bd 9e05 d53d
00000390: 9109 eebe 07d1 62bd 0f44 2c3e f7d3 c73d
000003a0: b4ac 853e 2499 bebe 94e3 b2bd b3ba 8e3e
000003b0: 71dd d33e c87c ac3d e133 49be 5b44 3c3b
000003c0: 4f84 89be 4cd9 03be 3da2 ee3d 5244 c2be
000003d0: ad10 c4be 174e 14be 2043 1cbe cb12 2c3e
000003e0: c9d6 113e 6504 9a3e f980 673e 021f f6be
000003f0: 2931 133f c64c d93e f72c a13d c493 3abe
0.63856703 -0.2925445 -0.07091388 0.1345679 -0.9758787 0.110692136 -0.15576766 0.18550912
0.31475604 0.02448141 -0.7266628 -0.3931822 -0.51908463 0.2655004 -0.28499907 -0.03768629
0.63188946 0.31137434 -0.20595221 -0.2951541 0.071644396 0.8375459 0.10368172 0.22384857
-0.4728679 -0.38512337 -0.09284757 0.43266585 -0.08398695 0.3182778 -0.39488474 0.6010402
0.4604396 -0.16218013 -0.16341214 0.24638984 -0.44501063 -0.2786749 -0.24969232 0.47837377
-0.26970714 0.17072119 -0.11431139 -0.019261766 0.5604723 -0.26571614 0.039050676 0.1352328
-0.27541652 -0.1597957 0.05620894 0.014181853 -0.011769805 0.17841913 0.2991649 -0.8977795
1.1901106 -0.48993582 -1.0262866 -0.42093077 0.033018474 0.25054896 0.116990596 0.4000355
0.032993726 -0.6066038 0.14309214 0.43103096 0.5063639 -0.7733854 -0.30813575 -0.43509236
0.29645416 0.17348777 -0.212564 0.23337486 0.5265004 0.29465446 0.45092815 0.77599937
-0.14403395 -0.16647288 -0.6835109 -0.14692143 0.0142836915 -0.054843035 0.34265032 -0.08946818
0.3768579 0.07773238 -0.17586613 0.6563488 -0.12975794 -0.21575998 0.51556534 -0.6030184
0.08376661 0.31556064 -0.27575982 -0.0025046181 -0.17564099 0.033302113 -0.0051090857 -0.06924056
0.3067977 0.21006578 -0.22357655 -0.10112101 0.06828364 -0.7694887 0.16480081 0.3028245
-0.41253293 0.037439853 -0.48645717 1.1765445 -0.10378761 0.15809146 -0.318868 -0.27954566
0.068231344 -0.18629749 -0.21041304 -0.38157248 0.50203276 0.638812 0.51723945 1.0704708
-0.08028335 0.25015575 0.0064357766 0.10345086 0.004618725 0.60796565 -0.10435531 0.2005522
0.45268697 0.030935563 -0.18844303 0.17527519 -0.287893 -0.9044907 0.25703725 -0.24866119
0.43337008 0.3860482 0.35256973 -0.2189235 0.3185346 0.46131873 -0.48617288 -0.47435313
0.12652718 -0.10033029 0.5896238 0.56142676 -0.6369799 -0.71175385 0.49498948 -0.70723826
0.2323874 0.0877623 -0.1856429 0.6685916 -0.039970886 0.14536062 -0.52373177 -0.4790646
-0.604053 0.142688 0.21712612 0.6046569 0.14787383 0.07872806 -0.4716668 -0.13799837
0.05769696 0.52923495 0.01658439 -0.10625583 0.10985769 0.25356856 0.24406923 0.18048318
-0.18935107 0.24228482 0.016169582 0.105682924 0.18982805 0.19900374 0.8713199 0.40648976
-0.4908646 0.11033816 0.13413402 0.17747188 0.54964954 0.7490176 0.5636576 0.16736166
-0.26644543 0.2965169 0.20696169 -0.018548857 0.42150122 -0.2333261 0.42424423 0.32959345
0.08474439 -0.61364615 0.6356067 0.4580329 0.15029225 0.12714344 -0.19643311 -0.38379782
-0.1505947 -0.5285302 0.31982198 0.20794497 0.362338 -0.21335286 -0.2302413 0.644067
0.044360302 0.47707215 -0.10351333 0.10401462 -0.46491674 -0.055375125 0.16822837 0.09757226
0.26108325 -0.37226212 -0.08734813 0.27876815 0.41379884 0.08422238 -0.19648696 0.0028727266
-0.26858756 -0.12875861 0.11652038 -0.3794275 -0.38293973 -0.14482914 -0.15259981 0.16804044
0.1424209 0.30081478 0.22607793 -0.48070532 0.5749689 0.42441386 0.078699045 -0.1822043

memory_a.rnn.weight_hh_l0 f4 [256, 64]
00000000: 8846 133e f4d8 313e 66b0 d4be 5b2d 90be
00000010: fd1f b83e 987e 2ebe 0bb2 e8bd 1448 af3d
00000020: fe30 f9be ec49 00bf fb17 6b3d 30b3 623d
00000030: e4f6 d4be 13b6 a0be 3f96 37bf b8b3 ee3e
00000040: a993 1abe 1fc8 92be 141e 19bf b8ca b63e
00000050: ad35 7cbe 5e90 10be 6edd 343e 29af 2abd
00000060: 0b5b 343f ba4e 4bbe ba0f debe 17e6 ed3e
00000070: adc6 e03e a343 3a3d 3c3a a83e 7dd0 ff3d
00000080: 57ea 6dbe 8d21 7cbe a820 28bd 43fe 34bf
00000090: bce0 de3c a0b7 3b3e 2705 653e 5087 c8be
000000a0: 1785 b83e 9dd9 02bd 487c 46bf 6b99 d73d
000000b0: b7b6 0a3f dc44 b2bd b3b6 173e 0244 f3bc
000000c0: 1ee3 1bbd 0ffc 083e 476a 83bf bf5b 84be
000000d0: 8e33 0c3e 5d40 44bf bde2 723f 2cba 7dbf
000000e0: 5708 e8bd 9c9e 5c3d 3c9b 273f e149 dcbe
000000f0: 3329 1a3c 9c67 ecbe 18ef 26bd a568 f5bd
00000100: 8092 3cbe 1aca b03e e914 7a3d bf27 57bf
00000110: f8b2 21bf cf4a e6be 9494 693f 8478 dcbe
00000120: 9ead 22bf 28d3 483e e31d d0bd 84c6 d53e
00000130: 5253 6a3e bc05 a03e 8c1d 29bf 1b9e d8be
00000140: 9e9e 1d3e f734 3b3f 0057 a13e 3a98 d8bd
00000150: badd 33bf 5d7b 40bf c5bb 77be cf91 a2be
00000160: 0eb0 d23e 6a4f 79bd 995c 2dbf 55d3 51bf
00000170: a914 fd3e 8c92 6abe 137e 253e 2637 0c3f
00000180: e1ef 32bf b7a4 583e 9eb3 b4be ad39 8abe
00000190: 93c3 a7be 95ed b13e a2e7 7bbb 9d79 9ebe
000001a0: 7d4c d23d c382 58bf 8dc9 5fbe 03ba 2f3e
000001b0: df1f d53e 41f6 ab3e 3cb3 d03e fe5a 73be
000001c0: a46e 78be c77b 91be b09a 67be 3d09 833f
000001d0: 20be 78be 72ba 993e 8310 81be 4e0b e53e
000001e0: cf38 413e f24b 213f 3076 67be 68c9 16be
000001f0: 4802 8fbe f3fc 2fbe 7d59 efbd 19e6 17bf
00000200: 3a2d ad3e 70cc 2ebe 8c79 f63d 33e8 93be
00000210: 4931 ea3d ffe8 06be 9e75 09bf 83c5 2e3f
00000220: 087e 80be 62af fcbd c932 e1be 79da 29be
00000230: 1a11 9e3e 5eee 8bbe dce0 44be 3523 34be
00000240: 8e67 30bc 8cdb 8c3e 4b41 253f f9e1 6bbe
00000250: dba9 afbe bef6 533f d549 1abe 3fb6 2d3d
00000260: 016e c4be b6be 1b3f b9f0 4b3d ebb9 68be
00000270: a9bd 07bf f1db 5dbe 7d3c 2d3f 4279 6e3e
00000280: 48f9 4b3f 2b45 a8bd ad96 f6be 7adc 0ebe
00000290: f45c 4a3f 3b76 243e ba27 1dbf 47d3 8cbe
000002a0: 18c9 b0bd 3739 023e e73c 013f 3664 d73e
000002b0: cdd0 77bf a2bb b7bc def1 1dbd fce3 b8bd
000002c0: 7ddc 063d d706 d23e 8c2a 21bf d68a ae3e
000002d0: d68d 8a3e 1fce 1ebe d394 b23e 4317 f4bd
000002e0: 7db1 0abf a48e 68be 5619 3fbe af50 cc3e
000002f0: 9161 983e 4e8b 7ebd 82af 29bf 566a c83e
00000300: 70ce 2e3f f50f dd3e d9cb 983e eccb 793d
00000310: 43c8 203f a46a 2abf ff1a 8e3b 36e8 783f
00000320: 3a1b 40bf 3cfd 80bf 67b4 15be cc17 02bf
00000330: d8df 3f3e 4a4c 8abf 4152 60bf ec3c aa3e
00000340: 156e d6be 8057 3abe d4e7 053c 1e73 8d3e
00000350: 1bb7 6b3e 2be2 78bf 4d54 09bf 065b 6d3d
00000360: 2343 28be 89ef 83be eeaf acbe 4feb bd3e
00000370: a307 dabe 5cf2 3fbe 821b fb3e 7629 4d3e
00000380: fa30 3bbe a9b7 2dbd 3f98 8cbf 3676 bebe
00000390: cb1c b8be df62 1c3e 540c f7be 1681 43bf
000003a0: 96f2 d7be a928 63bf dfd6 cf3e 2c6d 423e
000003b0: 3ce8 acbe c900 f9be 1e05 25bf 8474 21bf
000003c0: f887 c8be 0e9a 99bf ffb9 fc3c 424a dcbe
000003d0: b388 303f 32fe afbd b282 cbbe ba7d 20bf
000003e0: a2ce 4c3c daf1 3ebf 4898 363c b75e 4d3e
000003f0: 13be 57be ac16 bcbe b08e b1be 61fd 353f
0.14382374 0.17367917 -0.4154083 -0.28159603 0.35961905 -0.17040479 -0.11362084 0.0855867
-0.4867019 -0.50112796 0.057395916 0.055346668 -0.41594613 -0.31388912 -0.7171363 0.4662149
-0.1509539 -0.28668305 -0.5981152 0.35701537 -0.2462985 -0.14117572 0.17662594 -0.041670952
0.7045142 -0.1985425 -0.43371373 0.46464607 0.43901578 0.04547466 0.3285693 0.12490938
-0.23233925 -0.24622174 -0.04104677 -0.7070047 0.027206771 0.18331766 0.22365247 -0.39165735
0.3603904 -0.031945813 -0.7753339 0.10527309 0.5418505 -0.0870454 0.14815788 -0.029695515
-0.038058393 0.13377403 -1.0266808 -0.25851247 0.13691542 -0.7666071 0.94877225 -0.991122
-0.11329716 0.0538622 0.65471244 -0.43025115 0.009409237 -0.46172798 -0.04075536 -0.1198285
-0.1841526 0.3452919 0.061055098 -0.8404502 -0.6316371 -0.4497895 0.9124234 -0.43060696
-0.6354617 0.196118 -0.101619504 0.41753018 0.22883347 0.31254375 -0.6606071 -0.42308125
0.15392539 0.7312769 0.31511688 -0.1057591 -0.702602 -0.7518824 -0.24192722 -0.31751868
0.41149944 -0.06086675 -0.6771942 -0.8196309 0.49429825 -0.22907466 0.16161375 0.5477165
-0.69897276 0.21156584 -0.35293287 -0.26997128 -0.327664 0.34751573 -0.0038437624 -0.3095216
0.10268495 -0.84574527 -0.2185423 0.17160802 0.41625878 0.33586314 0.40761745 -0.2376518
-0.24260956 -0.28414747 -0.22617602 1.0237194 -0.24291277 0.3002506 -0.2520791 0.44735187
0.18869327 0.6300651 -0.22603679 -0.14725268 -0.27931428 -0.17186336 -0.116869904 -0.59335476
0.33823568 -0.17070174 0.12034902 -0.2888809 0.11435182 -0.13174818 -0.53695095 0.6827013
-0.25096154 -0.12338139 -0.43984058 -0.16587247 0.30872422 -0.27330297 -0.19226402 -0.17591555
-0.010766877 0.2751125 0.64552754 -0.2303542 -0.34309277 0.82798374 -0.15067227 0.04241013
-0.38365176 0.60837877 0.049790118 -0.22727172 -0.53023773 -0.21665932 0.6767042 0.23288444
0.7967725 -0.08216318 -0.48161831 -0.13951293 0.79048085 0.16060726 -0.6138874 -0.27504942
-0.086321056 0.12717138 0.50483555 0.42068642 -0.9680298 -0.022428337 -0.03856074 -0.090278596
0.032925118 0.41020843 -0.62955546 0.34090298 0.27061337 -0.15508316 0.3487917 -0.11918499
-0.54177076 -0.22710663 -0.18662009 0.39905307 0.29761937 -0.06214457 -0.6628343 0.39143628
0.6828375 0.43176237 0.29843023 0.06098549 0.62805575 -0.6656897 0.0043367143 0.97229326
-0.75041544 -1.0077281 -0.146196 -0.5081756 0.18737733 -1.0804532 -0.8762551 0.33249605
-0.4188086 -0.18197441 0.008172948 0.2762689 0.23019068 -0.97220105 -0.5364426 0.057948135
-0.1643186 -0.25768688 -0.33727974 0.3709359 -0.4258395 -0.18744797 0.49044424 0.20035347
-0.18280402 -0.04241148 -1.0983962 -0.37199563 -0.35959467 0.15272091 -0.48251593 -0.76368845
-0.42177266 -0.8873392 0.4059362 0.18986958 -0.3377093 -0.48633412 -0.64460933 -0.63068414
-0.39166236 -1.2000139 0.030850409 -0.43025404 0.68958586 -0.08593406 -0.3974815 -0.62691844
0.012500437 -0.74587786 0.011144705 0.20055662 -0.21068601 -0.36736047 -0.34679174 0.7108975

memory_a.rnn.bias_ih_l0 f4 [256]
00000000: 2924 ae3d 3fcb 2f3e d82f d0bd a034 40be
00000010: 81b3 07be 8851 b23d 89d9 fcbd b819 f5bc
00000020: 3261 a43d 52f6 d73d 6ba5 2e3e f89f 94bd
00000030: 90cd 33be f9a9 2dbe 8d31 1fbe 4dfe 16be
00000040: 4b4d 853e 77d2 68be b661 2dbe f37d 13bd
00000050: f376 65be aeef 00be 549d bfbd e2aa debd
00000060: 1185 3fbe dc17 48be 07fb 71be 1cba 1cbe
00000070: fbe1 3cbd 7af2 02be 327f d93c 8182 483e
00000080: 3c81 073d 2936 afbe 9c2d 38be cedb 64be
00000090: c756 823d 28be 1f3d 015b 54be 8568 8a3c
000000a0: 3eb7 89be c767 83be 921a 23be e7fc 323e
000000b0: 1f5f 46be 8620 3ebe 2e21 823e ea40 01be
000000c0: 2a27 113e 97d0 3abe 5d86 09be c3e5 ce3d
000000d0: 2284 123d e9cf 21be eff4 87be 6ea9 49bd
000000e0: 1def 873e ec00 113e e2b2 2e3e 0288 253d
000000f0: 8cca 06bd 9cdd 713e c3a6 75bc e29d adbd
00000100: 055f 82bb f983 93bd f80d 15be 0f9c 8b3e
00000110: dc3b 7abd b9c7 43be 8ad9 8b3e 4df9 cf3d
00000120: 8871 2ebe 7eb0 9fbd d296 a3be 59de a73d
00000130: 1058 2fbe 7526 78be 2a17 a1bd 26cc 21be
00000140: fb98 f4bd dc87 d7bd c798 02bb 0c37 8e3c
00000150: b1de 42bd 0971 1b3e d758 8f3d 6748 45be
00000160: 5621 dd3a ab42 533e b14b afbd 4da2 d83d
00000170: 447e 1abc 9912 e6bd b604 8bbe 434c 9abe
00000180: 2b1c 41bc e0ab 9d3d 6e1f 133e 40d0 1a3a
00000190: 3af2 9bbe ca5b 49be 46f8 edbd ee70 69be
000001a0: 1206 85bd dbd4 0d3e fd86 67be c5c0 59bd
000001b0: 6341 2cbd b0af 7dbe 5f58 9cbe 8263 3ebd
000001c0: 8a09 8e3c 0e0e 31bd a8e9 86bd 401c 90bd
000001d0: 81df f3bd 8eb6 f93c caae 023e 562e 4f3e
000001e0: 053c bfbd 3a5e 8ebe 2443 16bf ba0c ecbd
000001f0: db36 b3bd e3eb c8bd bf13 e1bc 110f a5be
00000200: 6b51 7fbd 17c0 dabd 12de 783d 2aff e93d
00000210: 9f0b fabd 6550 9f3d 63f9 cf3c 523e 19be
00000220: 0fe9 db3c f616 2a3e d814 98bd 5211 043c
00000230: bf98 bfbd f787 f53d def3 873d da2c 483d
00000240: e24d 35bd 50b0 8fbd f93c 91bd 5858 2fbc
00000250: 447e cfbd ba78 aa3d 6434 bdbd dd2d 51bd
00000260: 4e37 5f3d 3960 543d 8ab2 d13d 12b8 8c3d
00000270: 6083 a8bd c565 a13d d2b4 3ebc 785b 963c
00000280: 9f8a fb3d 1c5a 92bc 96c9 5d3d 33d2 373d
00000290: b8a6 093e c0e4 c23d d39f 643d c68e 30bd
000002a0: f698 da3d 1547 1b3e ca99 ae3b 65b8 c3bc
000002b0: 5e72 243d 3b97 0fbc f1fb 1d3d a8cd c93c
000002c0: 7658 36bb bb89 133d b369 21bd 7f92 053e
000002d0: 0546 5ebd 60cb 9abd c3be 733c 67d0 e8bc
000002e0: fdb3 e5bd 2b6b a7ba 522a 203c 55ac d6bc
000002f0: 80a7 c1bd 05ca 003e b66b 3dbc 1b41 713b
00000300: f616 abba b1a7 973c 55b1 d63c 9d9b d13c
00000310: 1948 30be c1c8 243e b171 abbe 321d 9bbb
00000320: b581 0bbe cdc8 4dbd 3b7a fd3d 0a5f 4cbe
00000330: 4e78 92be 4afe a8bd 5842 84be 5b59 983d
00000340: 822b a9bc c3f0 6ebe a0cc 81be b407 67be
00000350: f040 69be 4aee 12bd bae5 d33b 8e82 253b
00000360: 3e12 893c a574 acbd eac2 adbd 8bce 9abd
00000370: 0cdb e7bd d941 82bd 429d 68bd aea4 4dbe
00000380: bfb2 623d 2238 1f3d 27db 253e defc 8cbe
00000390: 0f2f 0cbd 1ea9 d4bd 10d8 97be bbce 513e
000003a0: c96f 06be 736f 733d 15e9 f03c 64b1 203d
000003b0: 7e12 7a3e a3e6 f3bd 1111 01bd b679 87bc
000003c0: 051e 953c 9a0c d53c cfad dbbd bfe1 b9bd
000003d0: afb3 543e 3e18 3e3e 1a29 43be 7071 4fbe
000003e0: eb02 9d3b 3238 693e 725d 60bd c83f 7e3e
000003f0: 569f bd3c 723a f53d 8347 dbbd fb05 79bd
0.08502991 0.17167376 -0.101653755 -0.18770075 -0.13252069 0.08706957 -0.12346179 -0.02991949
0.08026351 0.10545029 0.1705529 -0.07257074 -0.17558885 -0.1695937 -0.15546246 -0.14745446
0.26035532 -0.22736536 -0.16931805 -0.036008786 -0.22408657 -0.1259143 -0.0935618 -0.10872437
-0.18703105 -0.19540352 -0.23630916 -0.1530537 -0.04611395 -0.1278781 0.02654991 0.19581033
0.033082232 -0.34221008 -0.17986149 -0.22349474 0.06364208 0.038999707 -0.2073784 0.016895542
-0.26897615 -0.25665113 -0.15928105 0.17479287 -0.19372223 -0.18567094 0.2541594 -0.12622419
0.14175096 -0.18243633 -0.13430162 0.10102417 0.035770543 -0.15801968 -0.26554057 -0.049233846
0.26549616 0.14160508 0.17060426 0.04041291 -0.032908008 0.23619694 -0.014993372 -0.084773794
-0.0039786124 -0.07202906 -0.1455611 0.272675 -0.061092243 -0.19119157 0.27314407 0.10154972
-0.17035496 -0.07797335 -0.31951004 0.08196706 -0.17123437 -0.2423342 -0.07865746 -0.15800533
-0.11943241 -0.1052396 -0.0019927488 0.017360233 -0.047575656 0.15179838 0.06999367 -0.192659
0.0016870897 0.206309 -0.08559359 0.105778314 -0.009429518 -0.11234016 -0.27152032 -0.30136308
-0.011786501 0.07698798 0.14367458 0.00059056655 -0.30458242 -0.19663921 -0.1161962 -0.22796986
-0.064952984 0.13850729 -0.22610088 -0.053162355 -0.042054545 -0.2477405 -0.30536172 -0.046481617
0.017338533 -0.043226294 -0.06587535 -0.07036638 -0.11907864 0.030482557 0.12761989 0.2023252
-0.0933762 -0.27806264 -0.586962 -0.11525865 -0.08750697 -0.09810617 -0.027475236 -0.32238057
-0.062333506 -0.106811695 0.060758658 0.11425622 -0.12209248 0.07779006 0.025387472 -0.1496518
0.02684453 0.16610321 -0.07425851 0.00806077 -0.09355306 0.11988824 0.06638311 0.0488709
-0.044263728 -0.07016051 -0.07091708 -0.010702215 -0.10131505 0.08323808 -0.09238508 -0.05106913
0.054496102 0.051849578 0.10239132 0.06871046 -0.08228183 0.07880739 -0.011639791 0.018354163
0.12282299 -0.017865233 0.054147325 0.044878196 0.13442504 0.09516287 0.055816483 -0.04310491
0.10673706 0.15163834 0.0053283917 -0.023891637 0.04014813 -0.0087640835 0.03857035 0.024634197
-0.0027823723 0.036020022 -0.039407443 0.13044165 -0.054265995 -0.07558322 0.014877024 -0.028419686
-0.11215971 -0.0012773027 0.009775715 -0.026205221 -0.09455776 0.12577064 -0.011561325 0.0036812488
-0.0013053108 0.018512579 0.026207605 0.025586898 -0.17215003 0.16092207 -0.33485177 -0.004733705
-0.13623698 -0.050240327 0.12376829 -0.1995813 -0.2860741 -0.08251627 -0.25831866 0.07438918
-0.020650629 -0.23334031 -0.2535143 -0.22561532 -0.22778678 -0.03587178 0.0064665945 0.0025254819
0.016732331 -0.08420686 -0.084844425 -0.07558926 -0.11321077 -0.06360216 -0.056790598 -0.20082352
0.055346247 0.03887189 0.16196881 -0.27536672 -0.034224566 -0.10383819 -0.2965703 0.20489018
-0.1312858 0.059432458 0.029408017 0.039231673 0.24421117 -0.11909225 -0.031510416 -0.016537528
0.018202791 0.026006985 -0.10726511 -0.09076261 0.20771669 0.18563935 -0.19058648 -0.20258117
0.0047916076 0.22775343 -0.054776616 0.24829018 0.023147266 0.11974038 -0.10706999 -0.06079672

memory_a.rnn.bias_hh_l0 f4 [256]
00000000: 78a3 ea3c 54e3 323e d7ee c2bd ec3e 6fbe
00000010: c5e3 54be 305e 503e dcfc 34bd 42ba b93d
00000020: 2050 de3c 07d8 653d a6c3 963e 8169 b1bd
00000030: ec79 f2bd 6d0a 7fbe 51ff 7ebc bcd0 b8bd
00000040: 0367 563e b38a c9bd d597 66be ffcf 61bd
00000050: b592 10be a391 08be 5c37 22bd c153 a2bd
00000060: 8210 e6bd bbbd 7abe 5c9b 9abe 7efc 25be
00000070: 4215 943c e46b 3ebd 9859 03be 58fd 343e
00000080: 117d a0bd 1196 14be 6f47 0fbe a0da a1bd
00000090: f1da 223a 4f58 edbd 1a79 47be 0223 c2bd
000000a0: 60e4 25be 913e 9ebd 13fd b1be 7e2d df3d
000000b0: 6c54 39be 771c a1be 478e 523e 49c8 2dbe
000000c0: f360 9f3c 53a4 efbd 4d6b bc3c db51 f9bb
000000d0: 38d1 063b 1ad4 f6bd ce9d 59be 04a1 c73d
000000e0: 45ab 0a3e 40f6 493d cd9d e33c 089d a2bd
000000f0: 065c 8bbd e044 743e 1b70 a73d 8dfa afbd
00000100: bdce e6bd fc19 d0bc 8d1c c1bd 4942 503e
00000110: 505a 103e b10e 293d 25b4 783e ae27 97bd
00000120: 65a3 2ebd 462e edbb 461b ddbd a7cd ed3d
00000130: b7ad bfbe 3154 edbe bd97 b93d 06ed 68be
00000140: 5075 60be f684 f0bd 7daa 90bc 9d7c a6bc
00000150: 7a71 c0bd 32e0 b43d 5f14 223e a4c2 5bbd
00000160: ad62 173e 4990 813e 7e0d 18be 5456 df3d
00000170: e741 793d 7b7c ecbd 1aed 64be f30c 8fbd
00000180: 2f13 64bd 993d 5ebd e587 2d3e d8d8 19be
00000190: 5881 40be 6fcd 63be 5dac 78be 93b4 07be
000001a0: d8bb 013d 601a 523e b217 72be c5c7 a43d
000001b0: 05fa 36bc 6324 3dbe d9e0 7fbe 7afd 3fbe
000001c0: c6c8 b63c a910 38be e108 fabd 3f75 e2bd
000001d0: 1c6a 3abe 52d3 323d 8d28 933e 0717 b8bc
000001e0: fb69 50bd cbf7 52be a33e b5be ff6a 3ebe
000001f0: 13bf a8bd 86b4 b3bd a86c 293c 57a9 b5be
00000200: 7984 a8bc c805 e03d 6a62 aa3c edb4 b73d
00000210: 5846 a03d 68aa fabd 433c c03d b961 e9bc
00000220: a86b 1dbe 8fa7 013c 2369 abbc 479e dcbd
00000230: 9514 a03d f77d 9c3b 10af 52bd 978b 1fbe
00000240: 426d bc3b ee45 5f3c 5ac7 a83c dd67 85bd
00000250: 9158 50bd a0eb a63c 9be7 6d3d e484 b93c
00000260: 57ec 6c3d 0ca8 b6bd 8bc8 b1bd 9ed7 a03d
00000270: 0975 0d3d bc23 ec3d aeac f6bd 7c6f 93bd
00000280: aecc 8bbd 0409 05bd 07a6 8c3c ddfd 06be
00000290: 9533 5b3c ce3d 933d af77 3c3c 0be5 9cbd
000002a0: f6f9 99bc eecd 293e af2d f23d 5d5d 04bd
000002b0: e4b8 6f3d 713f afbc 6784 233d 2225 e53b
000002c0: 391f 743d 580e 89bb d5ce dcbd ef8c ce3c
000002d0: 490a 5fbd 2958 cf3d f0c1 fdbd 94ce 39bd
000002e0: 4d94 21b8 bfbd 783c aa79 0d3e c544 b73d
000002f0: 7a1c 933c fea6 a9bd 6b3c c5bd b2ee 2d3e
00000300: 85b4 193e a6b9 773d f290 9e3d 147c 163d
00000310: f114 d8bd 85aa 263e b0ec 70be 89c6 12bd
00000320: f08b 33be ed48 11bd fa0c 523e 4f50 37be
00000330: db02 edbd da57 59be ad65 25be d922 01bd
00000340: 3fb3 3cbd 68b3 72be cd9d f5bd 7d4b d9bc
00000350: ff04 b5bc 15fd 29be ebf5 0cbd 0387 2fbe
00000360: b8c0 91bc a7e3 7cbe c569 43be bc52 0ebe
00000370: 9c97 2dbe d7b7 80bd 73d4 e0bd df8c 82be
00000380: ef66 7b3e 5908 b2bc 367f 6d3d ab67 24be
00000390: d7d7 c9bc 3f13 92bd b870 a4bd b2f3 3e3e
000003a0: c00e 0ebe 278a 4c3d a648 36be 926a 433c
000003b0: 51c4 7d3e 6b75 573c fc39 c73d bf66 d23d
000003c0: 3b14 8fbc a930 4ebd 0646 9e3d 4711 1ebe
000003d0: cd4a 383e 561d 903e 1b93 34be ba7a 68be
000003e0: 8245 f7bd 1f80 173e 14eb 17be 8ed2 fc3d
000003f0: a523 7c3c 7b55 353e 3325 bfbd 0474 fdbc
0.028642401 0.17469531 -0.09518211 -0.23363847 -0.20790012 0.2034843 -0.044186458 0.09068729
0.027137816 0.056114223 0.29446143 -0.086627014 -0.11839661 -0.24906321 -0.015563802 -0.09024188
0.20937733 -0.09840908 -0.22518857 -0.05513 -0.14118464 -0.13336806 -0.039603576 -0.07926131
-0.11233617 -0.24486439 -0.30196655 -0.162096 0.018076543 -0.04648961 -0.12827146 0.17674768
-0.078363545 -0.14510371 -0.13992094 -0.079030275 0.00062124344 -0.11589109 -0.1947979 -0.094793335
-0.162004 -0.07726777 -0.34763393 0.10897349 -0.1809861 -0.3146703 0.20562087 -0.16970934
0.019455409 -0.11701264 0.023000384 -0.007608635 0.0020571481 -0.12052174 -0.21251604 0.09747508
0.13541897 0.049307108 0.027785206 -0.079401076 -0.068046615 0.23854399 0.08175679 -0.08592711
-0.11269901 -0.025403015 -0.09429274 0.20337786 0.14096951 0.041273776 0.2428747 -0.07380615
-0.042636294 -0.0072381822 -0.107962176 0.11611491 -0.3743722 -0.46353295 0.09062145 -0.22746667
-0.21919751 -0.1174411 -0.01765942 -0.020323092 -0.09396644 0.08831824 0.15828083 -0.05365242
0.14783736 0.25305393 -0.14848897 0.10905138 0.060853865 -0.1154718 -0.22356072 -0.06984892
-0.055682357 -0.054257963 0.16946371 -0.15024126 -0.1879934 -0.22246335 -0.24284501 -0.13252477
0.031673282 0.20517874 -0.23641852 0.080459155 -0.011168008 -0.18470912 -0.24988116 -0.18749037
0.022312533 -0.17975105 -0.12208725 -0.11057519 -0.1820454 0.043658562 0.28741875 -0.022471918
-0.05088232 -0.20602338 -0.3539935 -0.18595503 -0.082395695 -0.087746665 0.010340847 -0.3548076
-0.02057098 0.10938603 0.02079888 0.08970056 0.07825917 -0.12239534 0.09386494 -0.02848898
-0.15373099 0.007913484 -0.020924157 -0.107723765 0.07816426 0.0047757584 -0.051436484 -0.15580593
0.0057503292 0.013627512 0.02060287 -0.06513951 -0.050865714 0.020376027 0.058082204 0.022646375
0.05784258 -0.08918771 -0.08680829 0.07853626 0.03453544 0.11530253 -0.12044655 -0.07198998
-0.06826149 -0.0324793 0.017169012 -0.13182779 0.013378997 0.07189523 0.011503144 -0.07660874
-0.018795948 0.16582462 0.1182512 -0.0323156 0.058525935 -0.021392556 0.03992119 0.006992952
0.05960009 -0.004182618 -0.107816376 0.025213687 -0.054453168 0.10124237 -0.12390506 -0.045363024
-3.8523507e-05 0.015181958 0.13815942 0.089486636 0.017957915 -0.08283804 -0.096306644 0.16985586
0.15010269 0.060479783 0.0774249 0.036739424 -0.10550869 0.16275986 -0.23527789 -0.03583387
-0.1753385 -0.035469938 0.20512763 -0.17901729 -0.1157281 -0.21224919 -0.16152067 -0.031527374
-0.04606938 -0.2370125 -0.11992989 -0.026525253 -0.022097109 -0.1660045 -0.034414213 -0.17141347
-0.01779209 -0.24696217 -0.19083317 -0.13898748 -0.16952366 -0.06285065 -0.109780215 -0.254981
0.24550985 -0.021732496 0.057982646 -0.16055171 -0.024639053 -0.07132577 -0.08029312 0.1864765
-0.13872814 0.04993644 -0.1780115 0.011927264 0.2478192 0.013150553 0.097278565 0.102735035
-0.017465701 -0.050339375 0.077282 -0.15436278 0.17997284 0.28147382 -0.17634241 -0.22703066
-0.120738044 0.14794968 -0.14835769 0.123448476 0.015389358 0.1770839 -0.09333267 -0.03093911
