logs/g1/Apr19_03-18-51_/model_450.pt (torch, 777504 bytes, 48 tensors)

std f4 [12]
0	0x3efcc4d8	0.4936893
1	0x3f22209e	0.6333102
2	0x3ea6931f	0.3253412
3	0x3ee97b7c	0.45602024
4	0x3f5f9098	0.8733001
5	0x3f5e3ca0	0.86811256
6	0x3f02150f	0.5081338
7	0x3f1d1ea5	0.61374885
8	0x3ea797f6	0.32733124
9	0x3efbbc14	0.4916693
10	0x3f6777ae	0.9041699
11	0x3f5a2f2f	0.85228246

actor.0.weight f4 [32, 64]
0	0x3db54b58	0.08852261
1	0xbe55113d	-0.20807357
2	0x3d9f01a4	0.07763985
3	0x3dfb491e	0.12269805
4	0x3e2ea372	0.17054537
5	0x3e3b6a3f	0.18302248
6	0xbeba6e65	-0.3641235
7	0x3e472b31	0.1945007
8	0x3dada7df	0.084792845
9	0x3ed29f34	0.41137087
10	0x3ead1341	0.33803752
11	0x3e439da4	0.19103104
12	0x3ee0f050	0.43933344
13	0x3ef19383	0.47182855
14	0xbdc29abb	-0.09502169
15	0x3de5a138	0.11212391
16	0x3d9d0947	0.07667785
17	0x3e02e7bc	0.12783712
18	0x3df67178	0.12033361
19	0x3e1ac421	0.1511388
20	0xbbfbde03	-0.007686378
21	0x3dc62a91	0.09676088
22	0x3ec3d4eb	0.3824838
23	0x3d3554f4	0.04427047
24	0xbe0787a6	-0.1323534
25	0x3ec45a01	0.38349918
26	0xbe6a940c	-0.22908038
27	0xbeaf7436	-0.3426835
28	0x3da3262f	0.07966267
29	0x3f0d8ad3	0.55289954
30	0xbe2d6c95	-0.16935952
31	0xbe992823	-0.29913434
32	0x3e7e121f	0.248116
33	0xbeb40562	-0.35160357
34	0xbe4f9096	-0.20269999
35	0x3d8c800a	0.06860359
36	0x3b7a00ef	0.003814753
37	0xbe77c91a	-0.24197808
38	0x3dc9507a	0.09829803
39	0x3e454bf2	0.19267252
40	0x3ba9b4cd	0.005179024
41	0xbe44bd4b	-0.19212835
42	0x3e7ba8da	0.2457613
43	0x3e1dd864	0.15414578
44	0xbe8a60cc	-0.27026975
45	0x3dcf4321	0.10120226
46	0xbd0b7803	-0.03405
47	0xbe5e26bf	-0.21694468
48	0xbd8a618c	-0.06756887
49	0xbe30c124	-0.17261177
50	0x3e0c5f6e	0.13708279
51	0xbdb2805b	-0.08715888
52	0x3eb46daf	0.35239932
53	0xbd7538a8	-0.059868485
54	0xbe4a695b	-0.19766752
55	0x3d0a424d	0.033754636
56	0x3d105c17	0.035244074
57	0x3e0057fe	0.12533566
58	0xbf25a9c9	-0.64712197
59	0x3b2ec304	0.0026666531
60	0x3c13c755	0.009019692
61	0xbd57c5ac	-0.05267875
62	0xbe007edc	-0.12548393
63	0xbdd3e843	-0.10347035
64	0x3e884045	0.26611534
65	0x3e95da16	0.2926795
66	0x3d42eb34	0.04758759
67	0x3e12be94	0.14330512
68	0x3eb350a6	0.35022467
69	0xbe3d0514	-0.18458968
70	0xbd8791d0	-0.066196084
71	0xbe802d87	-0.25034735
72	0xbe6da394	-0.23206931
73	0x3e9c024e	0.30470508
74	0xbef3155a	-0.47477227
75	0x3eaa662f	0.33281085
76	0x3d794ca2	0.0608641
77	0xbea6eb96	-0.32601613
78	0xbe81f9c5	-0.25385872
79	0xbe99642d	-0.2995924
80	0xbd1eb0c5	-0.0387428
81	0x3bd02461	0.006351993
82	0xbdc2931b	-0.095007144
83	0x3d248dab	0.040174168
84	0x3d16b874	0.036797002
85	0xbd89b810	-0.0672456
86	0x3e038c24	0.12846428
87	0x3deeb2fa	0.11655231
88	0x3d949683	0.0725527
89	0x3e9980d1	0.29981092
90	0xbe75f464	-0.24019009
91	0xbdf3fd44	-0.11913541
92	0xb810e21c	-3.4542856e-05
93	0xbe822e39	-0.2542589
94	0xbd9468eb	-0.07246574
95	0xbe251e68	-0.1612488
96	0x3eadbc88	0.339329
97	0xbd54244d	-0.05179243
98	0xbe4d5613	-0.20052366
99	0x3ec45a23	0.3835002
100	0x3e029777	0.12753092
101	0x3e28d0d6	0.16485915
102	0x3dec5a8e	0.115407094
103	0x3ea9781e	0.33099455
104	0x3edad5ab	0.4274114
105	0x3e5182f5	0.20460112
106	0x3d75e59d	0.06003343
107	0xbf1b0cb5	-0.60566264
108	0x3ec7572d	0.38933697
109	0x3e80ba4e	0.2514214
110	0x3e94bf8b	0.29052386
111	0xbe66448b	-0.22487085
112	0x3d4e0ae9	0.050303373
113	0xbdfaca56	-0.12245624
114	0xbe9826a7	-0.2971699
115	0xbe51f7bd	-0.20504661
116	0x3d88f4af	0.06687295
117	0xbec05867	-0.37567446
118	0xbe81ee94	-0.25377333
119	0x3db63f50	0.08898795
120	0xbe072f18	-0.13201559
121	0x3e4fa145	0.20276363
122	0x3efd8ac9	0.49519947
123	0xbe7d3a99	-0.24729384
124	0x3e779f86	0.24181947
125	0x3eaa4154	0.33252966
126	0x3ef121fe	0.47096246
127	0x3e8a273a	0.26983052
128	0xbe071c9f	-0.13194512
129	0xbe038854	-0.12844974
130	0x3dfcef97	0.12350386
131	0xbd9c16a8	-0.07621509
132	0x3e77a74b	0.24184911
133	0x3e05eca1	0.13078548
134	0xbe66bd07	-0.22533046
135	0x3e71ab8b	0.23600595
136	0x3e9a861b	0.3018044
137	0x3ea5f534	0.32413638
138	0x3caa79cb	0.020810029
139	0xbea1305b	-0.31482205
140	0xbd875f69	-0.06609995
141	0x3ddc4098	0.10754508
142	0xbe85f52b	-0.2616361
143	0x3eabf372	0.33584172
144	0xbe72292c	-0.23648518
145	0xbc8d778e	-0.017268922
146	0x3dd67829	0.104721375
147	0x3e642012	0.22277859
148	0xbe5afb25	-0.21384867
149	0x3e276385	0.16346557
150	0x3e050a24	0.1299215
151	0x3bb2c6ea	0.0054558413
152	0x3e168983	0.14700894
153	0x3dd4c4d3	0.10389104
154	0xbeaf364c	-0.34221113
155	0xbdb63788	-0.088973105
156	0x3e0e82da	0.13917103
157	0x3b9aa864	0.0047197808
158	0xbddee36c	-0.10883221
159	0x3e9f1648	0.31071687
160	0x3e0a342e	0.13496467
161	0x3d761cdd	0.06008612
162	0xbc886f39	-0.016654598
163	0x3e94f75b	0.29094967
164	0x3e49644d	0.19667168
165	0xbcbbcb97	-0.022924228
166	0xbdae8688	-0.085217535
167	0x3f0f3923	0.5594656
168	0xbde8561c	-0.11344549
169	0xbd9b50f1	-0.07583798
170	0xbdf9b505	-0.1219273
171	0x3da4bff0	0.08044422
172	0x3e3deb54	0.18546802
173	0xbdedbb82	-0.1160803
174	0xbe00e04f	-0.12585567
175	0x3b3f5c5f	0.0029199345
176	0xbeb11925	-0.34589496
177	0x3d981fbf	0.0742793
178	0xbeead1d5	-0.45863214
179	0x3e1e9807	0.15487681
180	0x3f14f353	0.58183783
181	0xbc36b292	-0.011150973
182	0x3cdbbeea	0.026824433
183	0x3e9439db	0.2895039
184	0xbcb4023f	-0.021973727
185	0xbe88ce47	-0.26719877
186	0xbcab565b	-0.020915201
187	0xbe928b8b	-0.28622088
188	0xbe376fa8	-0.17913687
189	0xbebf78e2	-0.37396914
190	0xbe8a779b	-0.27044377
191	0xbeb06b0d	-0.34456673
192	0x3e6ba96a	0.23013845
193	0xbd336b68	-0.043803602
194	0x3c217af3	0.0098559735
195	0xbc37ee24	-0.011226211
196	0xbe7be46b	-0.24598853
197	0x3e1754dd	0.14778467
198	0x3e827d8c	0.2548641
199	0x3de146f7	0.109998636
200	0xbe8f2e6c	-0.27965105
201	0xbea3a87b	-0.31964478
202	0xbdf74bad	-0.12074981
203	0xbd57c460	-0.052677512
204	0xbdd9155f	-0.10599779
205	0x3e1152c1	0.14191724
206	0x3e5c0055	0.21484502
207	0xbe4722fd	-0.1944694
208	0xbc858024	-0.016296454
209	0x3e1350db	0.14386313
210	0x3ed6c8e3	0.4195014
211	0xbe945911	-0.28974202
212	0x3f038ae8	0.5138383
213	0x3e534591	0.20632006
214	0x3d15f17d	0.036607254
215	0x3d821220	0.06351113
216	0x3e1b648b	0.15175073
217	0x3de5eec6	0.11227183
218	0x3d3eba9b	0.04656468
219	0xbd994291	-0.074834
220	0xbe9375cf	-0.28800818
221	0xbd01bb90	-0.031673014
222	0x3daa9f13	0.08331122
223	0xbc8566a9	-0.016284304
224	0xbe8b416f	-0.2719836
225	0x3e426c7c	0.18986696
226	0xbe6fd2e1	-0.23420288
227	0x3c9914aa	0.018686611
228	0xbe34042e	-0.1757972
229	0x3e8636f7	0.2621381
230	0x3e2562fa	0.16151038
231	0xbddca821	-0.107742555
232	0xbe4eaf38	-0.20184028
233	0x3eb7d462	0.35904223
234	0x3e59a7bd	0.21255393
235	0xbe90dad8	-0.28291965
236	0xbe7e8301	-0.24854662
237	0x3e54f0a8	0.20794928
238	0x3e9aaea3	0.30211362
239	0xbbfbb2aa	-0.0076812105
240	0xbc853bbf	-0.01626384
241	0xbe4bb165	-0.1989189
242	0x3ec2a627	0.3801739
243	0x3c1e929f	0.009678512
244	0x3e22aadc	0.1588549
245	0xbec552a5	-0.38539615
246	0x3d8dab1a	0.06917401
247	0x3d44afa8	0.04801908
248	0xbccf03c5	-0.025270352
249	0x3ec43ac6	0.3832609
250	0xbe4ac614	-0.19802123
251	0x3e64da88	0.22348988
252	0xbe35d96a	-0.17758718
253	0xbd2a21e6	-0.041536234
254	0xbd62d1b0	-0.055375755
255	0x3eeda899	0.46417692

actor.0.bias f4 [32]
0	0xbdfd1176	-0.12356846
1	0x3db183c5	0.08667711
2	0xbe0e056a	-0.13869253
3	0xbd87d716	-0.06632821
4	0xbe7c3cd3	-0.24632578
5	0x3d6d79c0	0.057977438
6	0xbcbd3c93	-0.023100173
7	0xbc7eff52	-0.015563803
8	0xbda28c19	-0.07936878
9	0x3d861cae	0.06548439
10	0xbcb61a6c	-0.022229396
11	0x3e28912e	0.16461632
12	0xbdf7cbda	-0.120994285
13	0x3c92a84b	0.017902514
14	0x3d204f2c	0.039138004
15	0x3c25ead7	0.010126791
16	0xbda23985	-0.07921127
17	0x3cd86601	0.026415827
18	0xbe5a9b87	-0.21348391
19	0xbe85e340	-0.2614994
20	0xbd5dafae	-0.05412262
21	0x3e2c1af1	0.16807152
22	0x3db9d020	0.090729
23	0xbe4e1669	-0.20125736
24	0xbd841b09	-0.06450469
25	0x3d945607	0.07242971
26	0x3d858145	0.06518797
27	0xbe116719	-0.14199485
28	0xbdfaba52	-0.12242569
29	0x3e7e8bf5	0.24858077
30	0xbd855534	-0.06510392
31	0xbd74d89a	-0.05977688

actor.2.weight f4 [12, 32]
0	0x3d7a9372	0.06117577
1	0x3d388320	0.045046926
2	0x3e4b6e60	0.19866323
3	0xbe422bf5	-0.18962081
4	0xbd0349ae	-0.03205269
5	0xbc934231	-0.017975898
6	0xbeb5cd3c	-0.35508144
7	0x3ea0c899	0.31403044
8	0xbe77cfc6	-0.24200353
9	0x3daff153	0.08590951
10	0x3e336082	0.17517284
11	0xbd8282eb	-0.06372627
12	0xbe35e3b3	-0.17762642
13	0xbe2b704d	-0.16742058
14	0x3b1dd528	0.002408335
15	0xbe0a1022	-0.13482717
16	0xbe5b19a0	-0.21396494
17	0xbe102c26	-0.14079341
18	0x3e205e71	0.15661027
19	0xbe2c949d	-0.16853566
20	0x3d1e9900	0.03872013
21	0x3e1ace52	0.15117767
22	0x3e73d25c	0.23810714
23	0x3e85874f	0.26079795
24	0x3b194b02	0.0023390655
25	0x3e15b6a9	0.1462046
26	0x3b146713	0.0022644445
27	0x3dbffa52	0.09373917
28	0x3e34a538	0.17641151
29	0xbe9d9a69	-0.30781868
30	0x3e0e0558	0.13869226
31	0xbd5554d1	-0.05208284
32	0x3d8b06bc	0.06788394
33	0x3e075070	0.13214278
34	0xbd07d74d	-0.03316431
35	0xbe9ca30f	-0.30593154
36	0xbe573a54	-0.21018344
37	0x3e136e97	0.14397655
38	0xbdc0ffc5	-0.09423784
39	0x3dfd4de7	0.12368374
40	0xbd941517	-0.07230585
41	0x3e7fbf32	0.24975279
42	0x3e172220	0.14759111
43	0x3e88a6d7	0.2668979
44	0xbd9aac00	-0.07552338
45	0x3dc35a3c	0.09538695
46	0xbd256fc4	-0.04038979
47	0x3d1a9847	0.03774288
48	0x3e1d5ccb	0.15367429
49	0x3eb67f06	0.35643786
50	0xbea2bbc1	-0.3178387
51	0xbebf08c8	-0.37311387
52	0xbec002ab	-0.37502035
53	0x3e9df990	0.30854464
54	0x3e9c2cd2	0.30502945
55	0xbf06bb1d	-0.5262926
56	0x3e68feeb	0.22753493
57	0x3ea82247	0.32838652
58	0x3e528300	0.20557785
59	0xbcf4bbdc	-0.029874735
60	0xbe4c9802	-0.19979861
61	0x3e8994ed	0.26871434
62	0x3e4018bc	0.18759435
63	0xbe1bb925	-0.15207346
64	0x3e02da2b	0.12778537
65	0xbcf0d6dd	-0.02939933
66	0xbd673579	-0.05644748
67	0x3e863e5f	0.2621946
68	0x3e600d64	0.21880108
69	0xbdd54681	-0.10413838
70	0xbc438858	-0.011934362
71	0x3c7c47e8	0.015398003
72	0xbb87a26b	-0.004139235
73	0xbe114424	-0.1418615
74	0xbd8e1e4c	-0.069393724
75	0x3d2a1afa	0.041529633
76	0x3d1c058e	0.038091235
77	0xbe51d711	-0.20492198
78	0x3e0e18bb	0.13876621
79	0xba1fb1fa	-0.0006091889
80	0x3d0d8a9f	0.034556028
81	0xbdb79ff0	-0.089660525
82	0xbb46b5b6	-0.003032071
83	0x3e18f115	0.14935715
84	0x3e2d4909	0.16922392
85	0xbc0ec306	-0.008713489
86	0x3d928f8a	0.07156284
87	0xbe041efc	-0.12902445
88	0xbe15a36c	-0.14613122
89	0xbd8f0bbf	-0.06984662
90	0x3d0eb981	0.03484488
91	0x3e18b500	0.14912796
92	0xbd6ab19c	-0.057298288
93	0xbe10624c	-0.14099997
94	0x3e3e667d	0.18593784
95	0x3e0c92eb	0.1372792
96	0x3dd6823d	0.1047406
97	0xbcf87426	-0.030328821
98	0x3ce1395e	0.027493175
99	0xbde4e880	-0.11177158
100	0x3d88c8af	0.06678902
101	0xbe576cfa	-0.21037665
102	0xbe50988f	-0.20370696
103	0x3e3632df	0.17792843
104	0x3c8bae00	0.017050743
105	0xbd7349da	-0.059396602
106	0x3e850f7d	0.2598838
107	0xbdd9d5e3	-0.10636499
108	0x3d85a84e	0.06526242
109	0x3e2cbaa8	0.16868079
110	0x3ccb8a19	0.024846124
111	0x3d66a2ef	0.05630773
112	0x3e21ab2e	0.15787956
113	0x3d7b999e	0.061425798
114	0x3ea3d295	0.319966
115	0x3e6f8b45	0.23392971
116	0xbe0a2492	-0.13490513
117	0xbdefb191	-0.1170379
118	0xbd8391dc	-0.06424305
119	0x3d92fb7e	0.071768746
120	0xbc75b29f	-0.0149962
121	0xbd86da1d	-0.065845706
122	0xbb6b366e	-0.0035890597
123	0xbcea8e06	-0.028632175
124	0x3dd0d1b1	0.101962455
125	0x3c00d7a5	0.007863914
126	0x3d5f1651	0.054464642
127	0xbe59c568	-0.21266711
128	0xbdf000da	-0.117189124
129	0xbbedfe31	-0.007262968
130	0xbe98d36d	-0.29848805
131	0x3d8b8d0f	0.06814014
132	0xbed38384	-0.41311276
133	0x3e1ee20d	0.15515919
134	0x3e51f367	0.20503007
135	0x3e57c6d4	0.2107194
136	0xbef8e9be	-0.4861583
137	0xbea659a6	-0.3249027
138	0x3ec289f0	0.37995863
139	0xbe28fb27	-0.16502057
140	0xbef34e22	-0.47520548
141	0x3e566bb8	0.20939529
142	0xbd25b896	-0.040459238
143	0x3f151500	0.5823517
144	0x3dd86ffd	0.10568235
145	0xbd9033a6	-0.07041101
146	0xbeb3cb84	-0.35116208
147	0xbe3cd8c6	-0.18442068
148	0x3e9217ec	0.28533876
149	0x3e8b99f5	0.27265897
150	0x3cf4b1e1	0.029869976
151	0x3f014bdf	0.50506395
152	0xbf2af42b	-0.6677882
153	0x3f0d1fbc	0.5512655
154	0xbe1f37cb	-0.15548627
155	0x3de5586d	0.111985065
156	0x3e766be6	0.24064597
157	0x3e270af5	0.16312774
158	0x3e86b4d5	0.2630984
159	0xbe49a1b1	-0.19690587
160	0xbea1a65f	-0.31572244
161	0x3e56a0f6	0.20959839
162	0xbdf31556	-0.11869304
163	0x3ca45a7d	0.02006268
164	0x3e5a60c8	0.21325982
165	0x3d5107ea	0.051032938
166	0x3d169e4d	0.03677206
167	0x3dd817cc	0.10551414
168	0x3c7f56b2	0.015584635
169	0xbcddf303	-0.027093416
170	0x3e8e41cc	0.27784574
171	0x3db9eaac	0.09077963
172	0xbe31ed04	-0.1737557
173	0x3e365a59	0.17807902
174	0xbe858fc5	-0.2608625
175	0xbc3b0369	-0.011414387
176	0x3c2e26dd	0.010629383
177	0x3d361011	0.044448916
178	0xbd0c7dd7	-0.034299698
179	0x3cda2caf	0.026632635
180	0xbd819ce4	-0.06328753
181	0x3e4c8db2	0.19975927
182	0x3e2a7d90	0.16649461
183	0xbe39a0e9	-0.18127789
184	0x3cb9695a	0.022633243
185	0xbe0d82a1	-0.13819362
186	0xbdceba64	-0.10094145
187	0xbd299df9	-0.04141042
188	0xbe006b79	-0.12540998
189	0xbe3c0d2e	-0.18364403
190	0x3e80efa2	0.25182825
191	0xbec21ac3	-0.37911043
192	0xbd9a5443	-0.07535603
193	0x3e49cf61	0.19708015
194	0xbe9e0090	-0.30859804
195	0x3d233d25	0.039853234
196	0xbe9900bc	-0.29883373
197	0x3db9c7ae	0.09071289
198	0xbd8dfdb5	-0.069331564
199	0xbdd3d977	-0.103442125
200	0x3e853f1c	0.2602471
201	0x3e286268	0.16443789
202	0xbe2c88e1	-0.1684909
203	0xbdb55d2f	-0.08855664
204	0x3d19c711	0.03754336
205	0x3de1eeb0	0.11031854
206	0x3e98ecc8	0.2986815
207	0x3e542b1c	0.2071957
208	0xbe3b5f29	-0.1829802
209	0xbe7d2853	-0.24722414
210	0x3e98e75f	0.29864022
211	0xbe826886	-0.2547037
212	0xbe0d2044	-0.1378184
213	0x3d6e6123	0.058198106
214	0x3de95863	0.113938116
215	0xbd043eb4	-0.03228636
216	0xbd9e59a7	-0.077319436
217	0xbe9cd88d	-0.30633965
218	0x3b331114	0.0027323412
219	0x3e291383	0.1651135
220	0xbdfe1297	-0.124058895
221	0x3dfae31c	0.12250349
222	0xbcfc3a62	-0.030789558
223	0xbd7e424f	-0.062074956
224	0xbd4d6b6c	-0.050151274
225	0xbe99c23c	-0.30031002
226	0x3de21c83	0.110405944
227	0xbdede2a0	-0.11615491
228	0x3dc042f7	0.093877725
229	0x3db4b656	0.0882384
230	0xbe516369	-0.20448078
231	0xbea7f2da	-0.3280247
232	0x3eb2f0a4	0.3494922
233	0x3d718cd4	0.058972195
234	0xbdc7a60f	-0.0974847
235	0xbebcd744	-0.36882985
236	0x3e7b3e73	0.24535541
237	0xbe2f8459	-0.1714033
238	0xbe2728df	-0.16324185
239	0x3e7768e6	0.2416111
240	0xbecaa2c5	-0.39577308
241	0x3e5f60da	0.2181429
242	0xbe4a6b73	-0.19767551
243	0x3df4b80a	0.11949165
244	0x3e168e1e	0.14702651
245	0xbebff33c	-0.3749026
246	0x3e2a58d4	0.16635448
247	0x3e1817fb	0.14852898
248	0x3e044a00	0.12918854
249	0x3bc0aee0	0.0058802217
250	0xbe9a8f1c	-0.3018731
251	0x3ed36e98	0.41295314
252	0xbac060af	-0.0014677251
253	0xbe70e9e3	-0.2352672
254	0x3e18ee15	0.14934571
255	0x3d40eb51	0.047099415

actor.2.bias f4 [12]
0	0x3d494bb5	0.049144465
1	0x3e7557f9	0.2395934
2	0xbd108b14	-0.035288885
3	0xbe8c3a28	-0.2738812
4	0x3e970826	0.29498404
5	0xbe02f9ac	-0.12790555
6	0xbe2d478c	-0.16921824
7	0xbe1491b7	-0.14508711
8	0x3dba08b9	0.09083695
9	0xbd7ffd8b	-0.062497657
10	0xbdf1d769	-0.11808664
11	0x3e1971be	0.14984795

critic.0.weight f4 [32, 64]
0	0xbc86d2a7	-0.016457869
1	0x3d143a5e	0.036188476
2	0x3d683dda	0.05669961
3	0x3dd3bc82	0.103386894
4	0x3cb50c90	0.022100717
5	0xbcc036e9	-0.023463683
6	0xbd5f1113	-0.054459643
7	0xbc9f505b	-0.019447496
8	0xbdaedff6	-0.08538811
9	0x3d37f1a3	0.044908177
10	0x3b6c3274	0.0036040815
11	0x3a0cae71	0.000536657
12	0x3d5179a4	0.051141396
13	0xbd9bb93e	-0.076036915
14	0x3d2ecaf8	0.042674035
15	0x3bd391fa	0.0064566107
16	0x3cadf63f	0.021235583
17	0xbd2abb1b	-0.041682344
18	0x3c11c44d	0.008896899
19	0xbd8155fe	-0.0631523
20	0xbc1b1f44	-0.0094679035
21	0x3bcabbca	0.006186937
22	0x3d8ebc6b	0.069695316
23	0xbcbed75b	-0.023296049
24	0xbd18a43a	-0.037265994
25	0xbc926a12	-0.017872844
26	0xbd9d33b9	-0.07675881
27	0x3d307bbc	0.043086752
28	0x3d85b6ca	0.06529005
29	0xbc1cc8bc	-0.009569343
30	0x3d364e69	0.04450837
31	0x3da23dc1	0.07921935
32	0xbd85fb4d	-0.065420724
33	0x3d6e97eb	0.05825035
34	0xbce0bc86	-0.027433645
35	0x3b273d12	0.0025518578
36	0x3cb1f59d	0.021723563
37	0xbc8539c8	-0.016262904
38	0xbdd6315f	-0.104586355
39	0x3e03171b	0.12801783
40	0xbd46ea52	-0.04856331
41	0xbcd7c1c4	-0.026337512
42	0xbcf094c4	-0.029367812
43	0xbb5870b8	-0.003302617
44	0xbd40ebe6	-0.04709997
45	0x3c75690e	0.01497866
46	0xbd6718a6	-0.05641999
47	0xbcf3b8fc	-0.029751293
48	0xbc0b5311	-0.008503691
49	0x3de0acf5	0.10970489
50	0xbccc6ece	-0.02495518
51	0x3dbfe8e6	0.09370594
52	0xbd516389	-0.051120315
53	0x3da93106	0.082613036
54	0x3d14ed88	0.03635934
55	0xbd640a4d	-0.055673886
56	0xbc01fd90	-0.007933989
57	0xbc5842f0	-0.013199553
58	0x3bae1583	0.005312623
59	0xbd4ae996	-0.04953917
60	0x3d8034e4	0.06260088
61	0x3c806dbf	0.015677331
62	0xbc5503f1	-0.013001428
63	0xbaa2610e	-0.0012388544
64	0xbe3302b6	-0.17481503
65	0xbd9d6cac	-0.07686743
66	0x3cb2c542	0.021822575
67	0xbc8f8bb5	-0.017522672
68	0x3c058cae	0.008151216
69	0x3d7baee9	0.061446104
70	0xbd895d4a	-0.067072466
71	0x3e600875	0.21878226
72	0x3d3d2a5e	0.046182983
73	0x3e1348f3	0.14383297
74	0xbcbfa777	-0.023395283
75	0xbe174d26	-0.14775524
76	0xbda50ddf	-0.08059286
77	0x3c3b1866	0.011419391
78	0x3e25bf93	0.16186361
79	0xbd7f4f3a	-0.062331416
80	0xbe5bfac3	-0.21482377
81	0x3e39fca0	0.18162775
82	0xbe19cd0e	-0.15019628
83	0x3dd15a03	0.102222465
84	0xbd6cfaf2	-0.057856508
85	0x3e2cf810	0.16891503
86	0xbd99d46c	-0.075112194
87	0xbc262761	-0.010141225
88	0xbc21eb0a	-0.009882698
89	0x3d859a5a	0.06523581
90	0xbdc47e36	-0.09594385
91	0x3de7f46e	0.11325918
92	0x3df13d64	0.117792875
93	0xbdf38a98	-0.11891669
94	0x3dc5fbd0	0.0966717
95	0x3e0b7805	0.13620003
96	0x3db4f821	0.08836389
97	0xbe3cacc3	-0.18425278
98	0xbc0afa97	-0.008482597
99	0x3e985328	0.29750943
100	0x3e46e798	0.19424284
101	0xbdbcd854	-0.09220949
102	0x3d59cfb9	0.053176615
103	0xbdd40f7b	-0.10354515
104	0x3cbff943	0.023434287
105	0x3e07f8ec	0.1327855
106	0x3d3f5b84	0.046718135
107	0xbdc62026	-0.096741006
108	0x3c72368a	0.014783511
109	0xbd01c505	-0.031682033
110	0x3e31d8b7	0.17367826
111	0x3e81c4d8	0.25345492
112	0x3e26a75f	0.16274785
113	0xbe7a79c1	-0.24460508
114	0xbe1e8cb7	-0.15483366
115	0xbd03ae35	-0.03214856
116	0xbdeface2	-0.11702897
117	0x3e61b801	0.22042848
118	0x3e3f889c	0.18704456
119	0x3dc23da1	0.09484411
120	0x3e8e4f5d	0.27794924
121	0xbe22bd03	-0.15892415
122	0xbd0e2849	-0.034706388
123	0xbe6b572a	-0.22982469
124	0xbdb46d81	-0.08809949
125	0x3e43ffdb	0.1914057
126	0xbd8cf712	-0.068830624
127	0x3e1d6172	0.15369204
128	0x3dad0f1c	0.084501475
129	0xbd8eec04	-0.0697861
130	0x3bc050cb	0.0058690063
131	0x3e29e83e	0.165925
132	0x3decae11	0.11556638
133	0x3de89294	0.113560826
134	0xbd1288bb	-0.035774928
135	0x3e388598	0.18019712
136	0xbd354085	-0.044250984
137	0xbd922b62	-0.07137181
138	0x3d7876f4	0.060660318
139	0x3dda62a4	0.106633455
140	0x3c7faa6f	0.015604599
141	0x3dfe4207	0.124149375
142	0xbd0a9957	-0.033837643
143	0xbe2d28dc	-0.16910118
144	0xbdaa405e	-0.08313058
145	0x3d80d284	0.06290153
146	0x3c8631af	0.016381113
147	0x3cb74dc8	0.022375956
148	0xbddd57dd	-0.10807774
149	0x3e078ab3	0.13236503
150	0xbddb6961	-0.10713459
151	0x3d6130ec	0.054978296
152	0xbd44db7c	-0.04806088
153	0xbd79c06d	-0.060974527
154	0xbda07e12	-0.07836546
155	0xbdc98cb2	-0.098412886
156	0x3d65d163	0.05610789
157	0xbcb70530	-0.02234134
158	0xbdfd7259	-0.12375326
159	0xbe221393	-0.1582778
160	0x3d726188	0.059175044
161	0x3beab7bb	0.0071630157
162	0xbdc281e8	-0.09497434
163	0xbd5eece6	-0.054425143
164	0xbce325c8	-0.027727976
165	0xbd8897b1	-0.06669558
166	0x3d51aa7b	0.051187973
167	0xbd194c72	-0.03742642
168	0x3dfe093b	0.12404104
169	0x3d832a24	0.06404522
170	0xbe17391a	-0.14767876
171	0xbe27d8ed	-0.16391344
172	0x3e301336	0.17194828
173	0xbcc3169e	-0.023814496
174	0x3c67f130	0.014156625
175	0xbc90b58b	-0.017664691
176	0xbc99cd19	-0.018774556
177	0x3d98426f	0.07434546
178	0x3dc7d8e2	0.09758164
179	0x3c8d3945	0.017239222
180	0xbd69e4a9	-0.057102833
181	0xbd99ec7b	-0.07515808
182	0xbcbce8d8	-0.023060247
183	0xbd9d545c	-0.07682106
184	0x3cbb0c99	0.022833155
185	0xbeb3e508	-0.35135674
186	0xbc377ef6	-0.011199703
187	0xbe1eeb10	-0.15519357
188	0x3e2b2822	0.16714528
189	0xbdd01553	-0.10160317
190	0xbe19e800	-0.15029907
191	0x3e1fab4c	0.15592688
192	0x3cf0a9c8	0.029377833
193	0xbc267165	-0.010158871
194	0x3de7582e	0.11296116
195	0x3dd909b5	0.105975546
196	0x3dcc36af	0.099713676
197	0x3ce9d018	0.02854161
198	0xbcb959e5	-0.022625873
199	0x3e31b99a	0.17355958
200	0x3dfa5a15	0.12224213
201	0x3b01ad6c	0.0019787205
202	0xbce38795	-0.027774611
203	0x3e03c98a	0.1286985
204	0xbccec6e5	-0.025241325
205	0x3d9a444c	0.07532558
206	0x3e31d47b	0.17366211
207	0xbcbe8123	-0.023254937
208	0x3c40a943	0.011759105
209	0x3e2c2125	0.16809519
210	0x3da94c82	0.08266546
211	0xbd881ee6	-0.066465184
212	0x3dcee0db	0.101014815
213	0x3d912cfe	0.0708866
214	0xbdd283b4	-0.10279027
215	0x3e086b02	0.1332207
216	0x3bad30bc	0.0052853506
217	0x3dee69ba	0.116412595
218	0xbe57c4dd	-0.21071191
219	0x3d50bc38	0.05096075
220	0xbdde7507	-0.10862165
221	0xbe3218cf	-0.17392276
222	0x3da37310	0.07980931
223	0xbc26f13f	-0.0101893535
224	0xbdc1a269	-0.094548054
225	0xbe415f96	-0.1888412
226	0xbd953a97	-0.07286566
227	0x3e8888ed	0.26666966
228	0xbdfd29ac	-0.12361464
229	0xbcf26006	-0.029586803
230	0xbddb8144	-0.10718015
231	0xbcdd21d0	-0.026993662
232	0x3dfcedc7	0.1235004
233	0x3cdd23d0	0.026994616
234	0xbd40dc3a	-0.047085024
235	0xbe064eb0	-0.13115954
236	0xbcc52867	-0.024067117
237	0xbd98183f	-0.074264996
238	0x3d0051e9	0.031328116
239	0x3e166d87	0.14690219
240	0xbe361324	-0.17780739
241	0xbbc0bb63	-0.0058817132
242	0x3c8e1624	0.017344542
243	0xbe1323bd	-0.14369102
244	0xbdcd1615	-0.100139774
245	0x3e22adcb	0.1588661
246	0xbc5fac24	-0.013651881
247	0xbcc859a8	-0.024456814
248	0xbdf62ca6	-0.12020235
249	0xbed857ec	-0.4225458
250	0xbde4f05d	-0.11178658
251	0xbd1c3972	-0.03814072
252	0x3c832079	0.016006695
253	0x3c9eb81d	0.019374901
254	0x3d745706	0.059653305
255	0x3d308081	0.0430913

critic.0.bias f4 [32]
0	0x3bae842b	0.0053258142
1	0xbe867928	-0.2626431
2	0xbe429a8a	-0.19004264
3	0xbe32c104	-0.17456442
4	0x3d3bf9f5	0.045892674
5	0xbe35e09f	-0.17761467
6	0x3c88be9a	0.016692448
7	0x3cd7dc63	0.026350206
8	0x3c705499	0.014668607
9	0xbe4ac9e0	-0.19803572
10	0xbd268b9a	-0.04066048
11	0xbe524a03	-0.20536046
12	0xbe2e695d	-0.1703238
13	0x3d9e2e87	0.07723718
14	0xbc7e85bd	-0.015534815
15	0xbe96804d	-0.2939476
16	0x3dfb4da8	0.12270671
17	0xbe09c1e0	-0.13452864
18	0xbb5d4cfc	-0.003376781
19	0x3e5d45ee	0.21608707
20	0xba4fd6f8	-0.0007928456
21	0xbe22894f	-0.15872692
22	0x3e02c0c2	0.12768844
23	0x3e4ee8eb	0.20206039
24	0x3e08633a	0.13319102
25	0xbd2264ef	-0.03964704
26	0x3c9f6101	0.019455435
27	0xbe5e9855	-0.21737798
28	0xbe04f61f	-0.12984513
29	0x3e4c95cd	0.1997902
30	0x3e4eb164	0.20184857
31	0x3dac3527	0.084085755

critic.2.weight f4 [1, 32]
0	0x3b794355	0.0038034518
1	0xbe07e7c2	-0.13272002
2	0xbd212c35	-0.0393488
3	0xbd0da0d5	-0.03457721
4	0x3a0dbef4	0.00054071774
5	0xbd7a7324	-0.061144963
6	0xbaf57d6e	-0.0018729398
7	0x3a9eb193	0.0012107365
8	0xbb86abe0	-0.0041098446
9	0xbe03d94a	-0.12875858
10	0xbb22ed96	-0.002486085
11	0xbe04b241	-0.12958623
12	0x3eb0e9fe	0.34553522
13	0x3bd2b219	0.0064299223
14	0xba58584f	-0.0008252905
15	0xbe81a199	-0.25318602
16	0xb909ac6f	-0.00013129575
17	0x39e03c1a	0.00042769389
18	0x3ad4385f	0.0016191116
19	0x3db15143	0.086580776
20	0xbab98aee	-0.0014155784
21	0xbc2f9e9f	-0.010718971
22	0xba6d3c9c	-0.0009049864
23	0x3dc0efe8	0.094207585
24	0x3e81d88b	0.25360522
25	0xbbd9fd85	-0.0066525363
26	0xb9555fd0	-0.00020348956
27	0xbd20ed21	-0.039288644
28	0x3b67856e	0.0035327333
29	0x3dfc5935	0.123217024
30	0x3d76de40	0.060270548
31	0x383091b1	4.2097356e-05

memory_a.rnn.weight_ih_l0 f4 [256, 47]
0	0x3ed0fdcb	0.4081863
1	0xbe037a93	-0.12839727
2	0x3d6ed329	0.058306847
3	0x3e4f0fcf	0.20220874
4	0xbf5f57cc	-0.8724334
5	0x3e4f97e6	0.20272788
6	0xbdd5693d	-0.10420463
7	0xbde9bd6b	-0.11413082
8	0x3ef18224	0.47169602
9	0xbe2a37ab	-0.16622798
10	0xbf7d80d4	-0.990247
11	0xbf0c8ee4	-0.54905534
12	0xbf198c29	-0.5997949
13	0x3f262e26	0.64914167
14	0xbef43324	-0.47695267
15	0xbded3990	-0.11583245
16	0x3f1762ea	0.59135306
17	0x3e1d16ca	0.15340725
18	0x3d4b5541	0.04964185
19	0xbf2a1e27	-0.6645226
20	0x3c2d01e4	0.010559533
21	0xbe75e390	-0.2401259
22	0x3dd89f61	0.10577274
23	0xbde8e9c4	-0.11372712
24	0xbe9f1ccc	-0.31076658
25	0xbe952484	-0.29129422
26	0xbe7de8cd	-0.24795838
27	0x3eed9466	0.46402282
28	0x3eac9b6c	0.33712327
29	0x3f12a733	0.57286376
30	0xbf439e22	-0.76413167
31	0x3e2ffa49	0.1718532
32	0x3e7bf283	0.2460423
33	0xbe438dc7	-0.19097053
34	0xbe8aa484	-0.2707864
35	0x3e048e28	0.12944853
36	0xbe42d504	-0.19026572
37	0xbe16900d	-0.14703389
38	0xbc51fd99	-0.01281681
39	0x3e46692f	0.19376062
40	0x3e347703	0.17623524
41	0x3e882630	0.26591635
42	0xbd0e2c87	-0.034710433
43	0xbeaaa8b1	-0.33331826
44	0x3eea7f64	0.45800316
45	0xbe26be76	-0.16283593
46	0xbc19cd94	-0.009387393
47	0x3ce4cd0c	0.027929805
48	0xbe2f4639	-0.17116632
49	0x3eb14d7b	0.34629425
50	0x3ed3b18b	0.41346392
51	0x3e46f8fc	0.19430918
52	0x3d6afe8b	0.057371657
53	0x3e85f95b	0.26166806
54	0x3ec3482f	0.3814101
55	0xbf76b637	-0.9637179
56	0x3fc8125b	1.5630602
57	0xbf998886	-1.1994789
58	0xbf8cd6a5	-1.1003004
59	0x3d1fea8b	0.039042037
60	0xbe5ed0ae	-0.21759292
61	0x3edfaa52	0.43684632
62	0x3f2d7dd4	0.67770123
63	0x3f681450	0.90655994
64	0x3e0c8ec6	0.13726339
65	0xbf6ceac8	-0.9254575
66	0xbe07d49f	-0.13264702
67	0x3e0459c8	0.12924874
68	0x3dfa6217	0.122257404
69	0xbf96f936	-1.1794803
70	0xbea3c3c6	-0.319853
71	0xbf040c09	-0.51580864
72	0x3d8906b1	0.066907294
73	0x3de1204c	0.10992488
74	0x3f1194a4	0.5686743
75	0x3d6a0f39	0.057143424
76	0xbd1d7c72	-0.03844876
77	0xbe2208f5	-0.1582373
78	0x3e4b555e	0.19856784
79	0x3f41557e	0.75521076
80	0xbd8d1188	-0.068881094
81	0xbe9e3e93	-0.30907115
82	0xbf5d1689	-0.8636251
83	0x3d464934	0.048409656
84	0x3e609d2c	0.21934956
85	0x3ea2a552	0.31766754
86	0x3ec3f463	0.3827239
87	0xbe77bbed	-0.24192782
88	0x3e7d2563	0.24721293
89	0xbeada9a0	-0.33918476
90	0xbe468096	-0.19384989
91	0x3f08f4b7	0.53498405
92	0xbf005a56	-0.5013784
93	0xbe69782f	-0.22799753
94	0x3ef3bd1d	0.4760522
95	0xbeaa6a7e	-0.33284372
96	0xbed79896	-0.421086
97	0x3e859fda	0.2609852
98	0xbedc0319	-0.42971113
99	0x3d08ade2	0.033368953
100	0x3d4f919b	0.05067597
101	0xbcf64836	-0.03006373
102	0xbefc178e	-0.4923672
103	0xbd9393e3	-0.072059415
104	0x3e0e37f5	0.13888533
105	0x3f1a72b4	0.60331273
106	0xbe0dae59	-0.1383604
107	0xbf0c4236	-0.5478853
108	0xbec7baa1	-0.39009574
109	0xbf5a0070	-0.8515692
110	0x3c802c1d	0.015646035
111	0x3e4f4259	0.20240153
112	0xbead5f3b	-0.33861718
113	0x3ddd476d	0.10804639
114	0xbf0552da	-0.52079546
115	0x3f8ed750	1.1159458
116	0xbca69c45	-0.020338187
117	0x3d92e703	0.07172968
118	0xbe74bacf	-0.23899387
119	0xbf332b65	-0.6998809
120	0x3dc74231	0.09729422
121	0xbf46466e	-0.7745122
122	0xbec89244	-0.39174092
123	0xbf7cb5a7	-0.9871468
124	0x3e153928	0.14572585
125	0x3f33bb85	0.7020801
126	0x3f5910b5	0.8479112
127	0x3f92964d	1.1452118
128	0xbe95c80f	-0.29254195
129	0x3eeef482	0.4667092
130	0x3e2e5a0c	0.17026538
131	0xbd0e68cb	-0.034767907
132	0x3dc07412	0.09397139
133	0x3ef19bd6	0.47189206
134	0xbdd0a8b4	-0.101884276
135	0xbc8cc187	-0.017182125
136	0x3e6f8586	0.23390779
137	0x3cecf4e6	0.02892537
138	0xbe6c0f93	-0.23052816
139	0x3ee68710	0.4502492
140	0x3e1a404e	0.15063593
141	0xbf0caa5e	-0.5494746
142	0x3f24b7f5	0.64343196
143	0x3ea9431c	0.33059013
144	0x3f2d0ab6	0.6759447
145	0x3ebfa7ef	0.3743281
146	0x3e405a77	0.1878451
147	0xbea69138	-0.32532668
148	0x3e0e3f99	0.13891448
149	0x3f1c3643	0.61020297
150	0xbeb12eb8	-0.34605956
151	0xbf3bd074	-0.7336495
152	0x3e18afb8	0.14910781
153	0xbc094f0e	-0.0083806645
154	0x3f05b453	0.5222828
155	0x3ecf35f3	0.40470847
156	0xbf140dba	-0.57833445
157	0xbeb28c51	-0.34872678
158	0x3e7f134b	0.24909703
159	0xbf39f56e	-0.7264012
160	0x3e3f4c59	0.18681468
161	0x3e931e98	0.2873428
162	0xbeb13d47	-0.34617063
163	0x3f04a4e7	0.5181412
164	0xbf15fea4	-0.58591676
165	0xbe07f02e	-0.13275215
166	0xbf0eae17	-0.5573439
167	0xbf56dc11	-0.83929545
168	0xbee7821f	-0.45216462
169	0xbe5a304c	-0.21307486
170	0xbd20e768	-0.039283186
171	0x3eb4a90b	0.3528522
172	0xbea0952d	-0.31363812
173	0x3e0f0b21	0.13969089
174	0xbef813c3	-0.48452577
175	0xbd0cd507	-0.034382846
176	0xbe863b60	-0.26217175
177	0x3eba6af2	0.36409718
178	0x3e1d35de	0.1535258
179	0xbe80e9ca	-0.25178367
180	0xbd57f802	-0.052726753
181	0x3e6c0ec0	0.23052502
182	0x3dc5fd77	0.09667485
183	0x3e96a84c	0.29425275
184	0xbd75a3b6	-0.05997058
185	0x3ea98818	0.33111644
186	0x3ebcfd7d	0.36912146
187	0x3e5b0131	0.21387173
188	0x3dae5f8f	0.0851432
189	0x3ed6833d	0.41897002
190	0x3f78a5c6	0.9712795
191	0x3f3eb72b	0.7449824
192	0xbc808ee7	-0.015693141
193	0x3e0628f8	0.13101566
194	0x3e278255	0.16358311
195	0x3c352531	0.01105623
196	0x3f343109	0.7038732
197	0x3f4d35c5	0.8016017
198	0x3e83f3c1	0.25771907
199	0x3bace816	0.0052766902
200	0xbec59913	-0.3859335
201	0x3e82f959	0.25580862
202	0x3e17cd50	0.14824414
203	0xbecb1559	-0.39664724
204	0x3e23bbb2	0.15989569
205	0xbf0c6af2	-0.54850686
206	0x3f587af6	0.84562624
207	0x3f851af1	1.0398847
208	0x3ea5d02c	0.32385385
209	0xbf23af77	-0.63939613
210	0x3fa0929a	1.2544739
211	0x3fa7cf5a	1.3110154
212	0x3ebe6680	0.37187576
213	0x3e94f8ec	0.29096162
214	0xbdf417a4	-0.119185716
215	0xbf08cbcd	-0.53435975
216	0x3ec0ba15	0.3764197
217	0xbd807705	-0.06272701
218	0x3f318d3e	0.69356143
219	0xbd1729d1	-0.036905114
220	0xbea33456	-0.31875867
221	0xbe7f6061	-0.2493911
222	0xbe60eb09	-0.21964659
223	0x3f1b66af	0.6070356
224	0x3db1986d	0.08671651
225	0x3efeea69	0.49788216
226	0xbe47c435	-0.19508441
227	0xbe071ab0	-0.13193774
228	0xbeaeb8a5	-0.34125248
229	0xbe1af819	-0.15133704
230	0x3ed6a556	0.41923016
231	0xbd85ee9a	-0.0653965
232	0x3d20139f	0.039081212
233	0xbe827e93	-0.25487193
234	0xbe076570	-0.13222289
235	0x3f5335ca	0.8250395
236	0x3eb029e6	0.34406966
237	0x3e878218	0.2646644
238	0xbf3ac79c	-0.7296083
239	0xbf00b876	-0.50281465
240	0xbeafe877	-0.34357044
241	0xbebd861e	-0.37016386
242	0x3e693ce2	0.22777131
243	0xbf242ccc	-0.64130855
244	0x3e038fea	0.12847868
245	0xbed6c0d7	-0.41944
246	0x3e062433	0.13099746
247	0xbda17d95	-0.07885281
248	0x3e4baaaf	0.1988933
249	0x3ec9e1b6	0.39430016
250	0xbdcfb934	-0.101427466
251	0xbda7f6c4	-0.08201364
252	0x3e4a2838	0.19741905
253	0x3ebb27f9	0.36553934
254	0x3f4b3c94	0.7938931
255	0xbf10a011	-0.5649424

memory_a.rnn.weight_hh_l0 f4 [256, 64]
0	0xbbe9c359	-0.007133883
1	0x3e0618f4	0.13095456
2	0xbedc39ea	-0.43012935
3	0xbe6601ab	-0.22461574
4	0x3e7d4393	0.24732809
5	0x3c9943a5	0.018709013
6	0xbec89e6d	-0.3918337
7	0xbac7d69e	-0.0015246456
8	0xbf03131d	-0.5120104
9	0xbf22d272	-0.63602364
10	0x3de4da94	0.11174503
11	0xbea54bea	-0.3228448
12	0xbf2ef1a4	-0.68337464
13	0xbe8dd873	-0.277042
14	0xbf2fca8c	-0.68668437
15	0x3eee87b4	0.46587908
16	0xbd3fe5a6	-0.04684987
17	0xbe5e0ac9	-0.21683802
18	0xbeb9e219	-0.3630531
19	0x3cf4a12b	0.029862007
20	0x3eaafe06	0.3339693
21	0x3dc67d48	0.09691864
22	0x3e957cb8	0.29196715
23	0xbf1c6dc1	-0.6110497
24	0x3f49daae	0.78849304
25	0xbf16a77a	-0.588493
26	0xbead1889	-0.3380778
27	0x3f48cff8	0.78442335
28	0x3f14b42f	0.5808744
29	0xbe672c99	-0.22575606
30	0x3f2a79c6	0.6659206
31	0x3e02787a	0.1274127
32	0xbde38192	-0.11108698
33	0xbedd1387	-0.4317896
34	0x3e114ef9	0.14190282
35	0xbf43d712	-0.76500046
36	0x3e24f370	0.16108489
37	0xbe74aa8c	-0.23893183
38	0xbea6683f	-0.32501408
39	0xbea00f89	-0.31261852
40	0x3f02d57e	0.51107013
41	0xbab088b9	-0.0013468481
42	0xbf92a3f6	-1.1456287
43	0x3df2ebcf	0.11861383
44	0x3f0df441	0.55450827
45	0xbc5a9ed2	-0.01334353
46	0x3cc98d28	0.024603441
47	0x3bfba152	0.007679143
48	0xbe9edadd	-0.31026354
49	0x3f16a0af	0.58838934
50	0xbf54d3e7	-0.8313584
51	0xbeade730	-0.33965445
52	0xbe1066d2	-0.14101723
53	0xbf216c02	-0.6305543
54	0x3f3666bb	0.71250504
55	0xbf702403	-0.9380495
56	0x3e55e627	0.20888577
57	0x3ea927c7	0.3303816
58	0x3f12aaf9	0.57292134
59	0xbf0118be	-0.5042838
60	0x3c0a30e1	0.008434505
61	0xbf13f989	-0.57802635
62	0xbe447f32	-0.19189146
63	0xbd944ec2	-0.07241584
64	0xbe0eb960	-0.13937902
65	0x3e810a38	0.2520311
66	0x3ec8f06a	0.3924592
67	0xbf3da9a5	-0.7408698
68	0xbf23e660	-0.640234
69	0xbf2306ef	-0.63682455
70	0x3f4925e7	0.7857346
71	0xbf328456	-0.6973318
72	0xbf72b617	-0.948091
73	0x3f2e90c0	0.6818962
74	0xbe128c69	-0.14311375
75	0x3da9a9fa	0.082843736
76	0x3dcd94d4	0.10038152
77	0x3d3f1351	0.04664928
78	0xbda30141	-0.079592235
79	0xbe9fdc03	-0.31222543
80	0x3e404c25	0.18779047
81	0x3f817fe9	1.011716
82	0x3e9e185c	0.3087796
83	0xbe212775	-0.15737708
84	0xbf3efff7	-0.7460932
85	0xbed7d571	-0.4215503
86	0xbdf0fbf3	-0.117668055
87	0xbe38886f	-0.18020795
88	0x3f1cf372	0.6130897
89	0xbe52dcd4	-0.20592052
90	0xbf4cf68b	-0.80063695
91	0xbf1dab08	-0.615891
92	0x3e3887ef	0.18020605
93	0xbe11117c	-0.14166826
94	0xbd8eb114	-0.06967369
95	0x3f32e1db	0.6987588
96	0xbf1146de	-0.5674876
97	0x3e5d8018	0.21630895
98	0xbe05d2cc	-0.13068694
99	0x3e495e42	0.19664863
100	0xbe0d6bdf	-0.13810681
101	0x3e7f6775	0.2494181
102	0xbb1ca288	-0.0023900587
103	0xbec7d23f	-0.39027593
104	0x3e831d37	0.25608227
105	0xbf909d94	-1.1298089
106	0x3d250854	0.040291145
107	0xbd1eb30d	-0.038744975
108	0x3f59484d	0.8487595
109	0x3ea48dab	0.32139334
110	0x3eb23e29	0.3481305
111	0xbe64c29f	-0.22339867
112	0xbe861345	-0.26186576
113	0xbe0a7af0	-0.1352346
114	0xbdddafd9	-0.10824556
115	0x3f564936	0.8370546
116	0xbd8aff1d	-0.0678694
117	0xbe859fb8	-0.26098418
118	0xbebfe1a3	-0.37476835
119	0x3f2bdb43	0.6713144
120	0xbda29a95	-0.079396404
121	0x3f167cd3	0.58784217
122	0xbe76c3fc	-0.240982
123	0xbedb60c2	-0.42847258
124	0xbedc790e	-0.43061107
125	0x3e58ab3e	0.21159074
126	0x3e63bbce	0.2223961
127	0xbed41a85	-0.41426483
128	0x3e2adba7	0.16685353
129	0xbee7ef93	-0.45299968
130	0x3e584ff4	0.2112425
131	0xbe991006	-0.29895037
132	0x3dcd09e2	0.100116506
133	0x3b20d74e	0.0024542394
134	0xbe8d7e17	-0.2763526
135	0x3f4627fb	0.77404755
136	0xbef034c5	-0.4691526
137	0x3e0a4796	0.1350387
138	0xbea1523f	-0.3150806
139	0x3e8682a1	0.26271537
140	0x3f318325	0.69340736
141	0x3d34a188	0.04409936
142	0xbf0da6e1	-0.5533276
143	0xbe0a78da	-0.13522664
144	0xbe95ad6a	-0.29233867
145	0x3e5e9052	0.21734741
146	0x3ee52831	0.44757226
147	0xbeae707b	-0.3407019
148	0xbec66bbc	-0.3875407
149	0x3f8476eb	1.0348791
150	0x3ed03cf5	0.40671507
151	0x3dbf05f9	0.09327311
152	0xbedbd170	-0.42933226
153	0x3f7f57c8	0.9974332
154	0xbe75dcc2	-0.24009994
155	0xbf0c0deb	-0.5470874
156	0xbed7f408	-0.4217837
157	0xbec78ba4	-0.38973725
158	0x3f1ba96a	0.6080538
159	0xbd141b01	-0.036158565
160	0x3f4a2305	0.78959686
161	0xbe14cd95	-0.14531548
162	0xbf0497ad	-0.5179394
163	0xbe500423	-0.20314078
164	0x3f919e7a	1.1376488
165	0x3f0828f7	0.5318751
166	0xbec6fd76	-0.3886525
167	0xbdd14c90	-0.10219681
168	0x3d75598c	0.05989985
169	0x3dc98d6d	0.09841428
170	0x3f296fc2	0.66186154
171	0x3f23bf9d	0.63964254
172	0xbf25d37e	-0.64775836
173	0x3e12c7cc	0.14334029
174	0xbe97e1aa	-0.29664356
175	0xbebc7abb	-0.36812386
176	0xbe357baf	-0.17722963
177	0x3f0a0c71	0.53925234
178	0xbf39b208	-0.7253728
179	0xbc830e7f	-0.015998123
180	0x3f0a7f07	0.5410008
181	0xbec8d188	-0.3922236
182	0x3e09693e	0.13419053
183	0xbd911e95	-0.07085911
184	0xbec247d3	-0.37945423
185	0xbe7ecd69	-0.24883045
186	0xbdc25a53	-0.09489884
187	0x3edb828b	0.42873034
188	0x3e32a1ce	0.17444536
189	0x3e648ff9	0.22320546
190	0xbf0653ec	-0.52471805
191	0x3ecb3831	0.39691308
192	0x3f3b10a9	0.73072296
193	0x3ed8d1a5	0.42347446
194	0x3d0c6517	0.034276094
195	0x3caeb4d3	0.021326458
196	0x3f5fae4c	0.8737533
197	0xbf1f551c	-0.6223924
198	0xbde4ab7a	-0.11165519
199	0x3f6c42f4	0.9228966
200	0xbf46e01b	-0.7768571
201	0xbed77bcf	-0.42086646
202	0x3e7c70b4	0.24652368
203	0xbee0177f	-0.43767926
204	0x3e996754	0.29961646
205	0xbf5a80a5	-0.85352546
206	0xbe9461f2	-0.28980976
207	0x3dfc4964	0.12318686
208	0xbebec993	-0.37263164
209	0xbe0d3f83	-0.13793759
210	0x3e471f06	0.19445428
211	0x3ea79b45	0.3273565
212	0x3ec6936c	0.3878435
213	0xbf6c014e	-0.9218949
214	0xbeae8310	-0.34084368
215	0x3d13ec0b	0.03611378
216	0xbe8b44f5	-0.27201048
217	0xbee72397	-0.4514434
218	0xbdea2df8	-0.11434549
219	0x3e2845d3	0.16432886
220	0xbee43295	-0.4456984
221	0x3decaa51	0.11555923
222	0x3f1e1f30	0.6176634
223	0xbdfeb3ec	-0.12436661
224	0xbe955a68	-0.29170537
225	0x3ccd0cb7	0.025030477
226	0xbf7e492b	-0.99330395
227	0xbea65b40	-0.32491493
228	0xbe915ea0	-0.28392506
229	0x3eaf4b2e	0.34237045
230	0xbf01c39f	-0.5068912
231	0xbf390131	-0.7226744
232	0xbe43aa4b	-0.1910793
233	0xbf3675c5	-0.7127345
234	0x3f050bbb	0.51971024
235	0x3e1e6b15	0.15470536
236	0xbeb0205a	-0.34399682
237	0xbf1aeb3a	-0.6051518
238	0xbf2a8cfa	-0.66621363
239	0xbf1b337b	-0.6062543
240	0xbe766fc7	-0.24066077
241	0xbf969315	-1.1763636
242	0x3d8275e0	0.06370139
243	0xbf19a3ec	-0.6001575
244	0x3f3d4499	0.73932797
245	0x3da8b890	0.082383275
246	0xbe236085	-0.15954788
247	0xbf1aa51e	-0.604082
248	0x3e596d53	0.2123311
249	0xbf56abd5	-0.83855945
250	0x3df78847	0.1208654
251	0x3e0497be	0.1294851
252	0xbe1933c4	-0.14961153
253	0xbf26d530	-0.6516905
254	0xbf098040	-0.5371132
255	0x3f43306b	0.76245755

memory_a.rnn.bias_ih_l0 f4 [256]
0	0x3cb92ec3	0.022605306
1	0x3df3997e	0.11894511
2	0xbe11506d	-0.14190836
3	0x3c4ed186	0.0126231965
4	0xbe16276b	-0.14663474
5	0x3dc1663b	0.09443327
6	0xbea04cf6	-0.31308717
7	0xbe237954	-0.15964252
8	0x3bf9b5f2	0.0076205665
9	0xbd26b9ef	-0.040704664
10	0x3e3fb61a	0.1872181
11	0xbe26657b	-0.16249649
12	0xbe5da091	-0.21643282
13	0xbe3e9d34	-0.18614656
14	0xbeb81688	-0.3595469
15	0xbd99bf1b	-0.075071536
16	0x3e83323e	0.2562427
17	0xbe2fd395	-0.17170556
18	0xbda02601	-0.07819749
19	0xbd140df9	-0.036146138
20	0xbe79d15a	-0.24396268
21	0xbe0a207b	-0.13488953
22	0xbe06016e	-0.13086483
23	0xbe2a6239	-0.16639031
24	0xbe4d3adc	-0.20041984
25	0xbe34cd06	-0.17656335
26	0xbe7976ee	-0.24361774
27	0xbda980f8	-0.08276552
28	0xbdf9937c	-0.121863335
29	0xbe92deae	-0.28685516
30	0xbcae5b22	-0.02128369
31	0x3dbac4e1	0.09119583
32	0x3c2ffe74	0.010741819
33	0xbeb79498	-0.35855556
34	0xbe97be07	-0.29637167
35	0xbe9ba475	-0.30398908
36	0xbd44876e	-0.04798072
37	0x3e62e30d	0.22156925
38	0xbe95c2b7	-0.29250118
39	0x3d84fe42	0.06493808
40	0xbe4317ef	-0.19052099
41	0xbe20f80f	-0.15719627
42	0xbec0e8e9	-0.37677696
43	0x3dff5366	0.12467079
44	0xbe184209	-0.1486894
45	0xbeb2f3df	-0.34951684
46	0x3e2ce634	0.1688469
47	0xbe1ef847	-0.15524398
48	0x3d777a34	0.060419276
49	0xbe4ed8cc	-0.20199889
50	0xbe3175d5	-0.17330106
51	0x3e1793a9	0.14802422
52	0x3e07417a	0.13208571
53	0xbe89b8cb	-0.26898798
54	0xbeb2a14c	-0.34888685
55	0xbcd34b6d	-0.025792802
56	0x3e20c43f	0.15699862
57	0x3dedfdd7	0.11620682
58	0x3e1fe5e8	0.15615046
59	0xbd2dc290	-0.042421877
60	0x3e4921df	0.19641827
61	0x3be0fc22	0.006865994
62	0xbda10b49	-0.078634806
63	0xbdcad05c	-0.09903023
64	0xbd6df668	-0.05809632
65	0xbe502d96	-0.2032989
66	0xbe6eb63e	-0.23311707
67	0x3e95e0f7	0.29273197
68	0xbe2a0db2	-0.16606787
69	0xbe49aea4	-0.19695526
70	0x3ed3a271	0.4133487
71	0x3e108747	0.14114104
72	0xbe992f1a	-0.29918748
73	0xbe8205a4	-0.25394928
74	0xbf2179e0	-0.6307659
75	0x3c4d0da7	0.012515462
76	0xbe5b5938	-0.21420753
77	0xbeb6eaea	-0.357261
78	0x3d353868	0.044243246
79	0xbe828d14	-0.2549826
80	0xbe902343	-0.28151903
81	0x3b5f5878	0.003407983
82	0xbe0d2562	-0.13783792
83	0x3c091bb3	0.00836842
84	0xbd5aaca3	-0.053387295
85	0x3dcd2eaa	0.10018666
86	0x3df798c7	0.12089687
87	0xbe799d10	-0.24376321
88	0xbe190ea2	-0.14946988
89	0x3e3c0c18	0.18363988
90	0xbe843969	-0.2582505
91	0x3dc03f86	0.09387116
92	0xbdf1b12a	-0.118013695
93	0xbe900962	-0.2813216
94	0xbe48f025	-0.19622858
95	0xbea6551f	-0.32486817
96	0x3ccfe58a	0.025378007
97	0xbd520453	-0.051273655
98	0xba86ed3f	-0.0010294094
99	0xbd2ea4a0	-0.042637467
100	0xbebf71e2	-0.37391573
101	0xbe98c602	-0.29838568
102	0xbe127cc3	-0.14305405
103	0xbf056cd2	-0.5211917
104	0xbc3b945b	-0.011448945
105	0x3d62f436	0.05540868
106	0xbded9b13	-0.11601844
107	0xbdb206af	-0.08692681
108	0xbe3d2b70	-0.18473601
109	0xbec76ebb	-0.38951668
110	0xbe96d0fb	-0.29456314
111	0xbe72922b	-0.23688571
112	0xbda921ac	-0.082583755
113	0x3e09c745	0.13454922
114	0xbd3034f4	-0.04301925
115	0xbe4532b0	-0.19257617
116	0xbe915b6f	-0.2839007
117	0xbdaaa8b5	-0.083329596
118	0x3d039857	0.032127704
119	0x3ddb90b7	0.107209615
120	0xbde364ce	-0.11103211
121	0xbeacf895	-0.33783403
122	0xbf306e61	-0.68918425
123	0xbe0dbf35	-0.13842471
124	0xbe0883b9	-0.13331498
125	0xbea1b4c8	-0.31583238
126	0xbd697260	-0.056993842
127	0xbf0772ab	-0.52909344
128	0xbd89b90b	-0.06724747
129	0xbdddaa85	-0.1082354
130	0x3d413c6f	0.047176775
131	0x3e1b7e64	0.15184933
132	0xbe1795ce	-0.1480324
133	0x3d974779	0.07386679
134	0x3d279d92	0.040921755
135	0xbe4d1f32	-0.20031431
136	0x3e32a589	0.17445959
137	0x3e727ae4	0.23679692
138	0xbdf2cc52	-0.11855377
139	0x3c570682	0.01312411
140	0xbd5b5172	-0.05354447
141	0x3e7255b4	0.23665506
142	0x3e394e43	0.1809626
143	0x3d6f1630	0.05837077
144	0xbde84ec5	-0.11343149
145	0xbe2b417e	-0.16724202
146	0xbdadf60a	-0.08494194
147	0xbd7600a1	-0.060059194
148	0xbdfb8b4d	-0.12282429
149	0x3e4c2e4b	0.19939534
150	0xbdddaf73	-0.1082448
151	0xbc45aab2	-0.012064623
152	0xbd9cf503	-0.0766392
153	0x3dfc6ade	0.12325071
154	0x3e3e7a46	0.18601331
155	0x3b5082ce	0.0031816247
156	0xbe70bbaf	-0.23509096
157	0x3e466717	0.19375263
158	0x3cd63df8	0.026152596
159	0x3c887292	0.016656194
160	0x3e2087d1	0.1567681
161	0xbd6a17b3	-0.057151508
162	0x3d143fbc	0.036193594
163	0x3da4d633	0.08048668
164	0x3de78f46	0.11306624
165	0xbc0a9620	-0.008458644
166	0x3deb089a	0.1147625
167	0x3d2ad871	0.04171032
168	0x3e1713af	0.14753602
169	0x3e7e18b4	0.24814111
170	0x3dc3833c	0.09546515
171	0xbd21da0b	-0.039514583
172	0x3d342436	0.043979846
173	0x3a34a9b2	0.00068917417
174	0x3d92760f	0.07151424
175	0xbd166236	-0.036714755
176	0xbbb5778d	-0.005537933
177	0x3d4f3844	0.05059077
178	0xbc35fb29	-0.0111072445
179	0x3de5283e	0.11189316
180	0xbd900a59	-0.07033224
181	0x39a84677	0.00032095957
182	0x3c6a7eb4	0.014312435
183	0x3d95e68c	0.07319364
184	0xbe837662	-0.25676256
185	0x3bbcdefb	0.005763886
186	0x3c3652a4	0.0111281015
187	0xbd67d5d7	-0.056600418
188	0xbd8cd243	-0.06876042
189	0x3dfa3b20	0.122183084
190	0x3a3bdd42	0.0007166454
191	0x3cccbdee	0.02499291
192	0xbd616281	-0.05502558
193	0xbc50f0e8	-0.012752749
194	0x3d48aa6f	0.048990663
195	0xbe0754f5	-0.13216002
196	0xbe8249c0	-0.25446892
197	0x3e9c8364	0.30568993
198	0xbe983095	-0.29724565
199	0x3d3d413d	0.046204794
200	0xbea73903	-0.32660684
201	0xbde04eb7	-0.10952514
202	0x3e08757d	0.13326068
203	0xbe5c1ad5	-0.2149461
204	0xbeb41e91	-0.3517957
205	0xbe460a62	-0.19339898
206	0xbf03dacc	-0.5150573
207	0x3e16e854	0.14737064
208	0xbb48e837	-0.003065599
209	0xbeab11c3	-0.3341199
210	0xbe575f4f	-0.21032451
211	0xbe96072d	-0.2930235
212	0xbe7f7ee2	-0.24950746
213	0xbd4da779	-0.050208542
214	0x3e2d31f7	0.16913591
215	0xbe296c70	-0.16545272
216	0xbdae058e	-0.08497153
217	0x3cb34a22	0.021885935
218	0xbd103191	-0.03520352
219	0xbdec2adf	-0.115316145
220	0xbe4769b7	-0.19473921
221	0x3d9e9104	0.07742503
222	0xbd961229	-0.073276825
223	0xbe8c6bed	-0.2742609
224	0xbd7cb770	-0.061698377
225	0xbdc96b3e	-0.09834908
226	0x3e48704f	0.19574092
227	0xbd0d0fbd	-0.034438837
228	0xbcd13c11	-0.025541337
229	0xbdc293fd	-0.09500883
230	0xbe950138	-0.29102492
231	0x3e185058	0.14874399
232	0xbe35d0ed	-0.1775548
233	0x3e65ca0d	0.22440358
234	0xbd98bb35	-0.07457582
235	0x3d74e978	0.059792966
236	0x3e21d3d7	0.15803467
237	0xbe86b3fb	-0.2630919
238	0xbdeec654	-0.11658922
239	0x3da54217	0.08069246
240	0x3e30f081	0.17279245
241	0xbd418651	-0.047247235
242	0xbe485db7	-0.19567
243	0xbc907d5b	-0.0176379
244	0x3e9c7387	0.3055689
245	0x3dd7eb75	0.10542957
246	0xbe88bf1e	-0.2670831
247	0xbe0b8def	-0.13628362
248	0xbc2e2f65	-0.010631417
249	0x3e2edd6e	0.17076656
250	0xbe1e852f	-0.15480493
251	0x3dffcf2d	0.124906875
252	0x3de6a4b0	0.112618804
253	0x3dd73e32	0.1050991
254	0xbdf878ba	-0.12132402
255	0x3d360ec2	0.044447668

memory_a.rnn.bias_hh_l0 f4 [256]
0	0xbd0a5f91	-0.033782545
1	0x3df9c9a3	0.12196662
2	0xbe0aafec	-0.13543671
3	0xbd0874a6	-0.03331437
4	0xbe6357b9	-0.22201432
5	0x3e57e926	0.21085033
6	0xbe6f6c2d	-0.2338111
7	0xbd1fe3df	-0.039035674
8	0xbd3a6353	-0.04550488
9	0xbdb8674b	-0.090040766
10	0x3e9f4bef	0.3111262
11	0xbe34ca42	-0.1765528
12	0xbe230fcf	-0.15923999
13	0xbe87fecb	-0.2656158
14	0xbe60eb78	-0.21964824
15	0xbc924cff	-0.01785898
16	0x3e523121	0.20526554
17	0xbd2f196f	-0.042748865
18	0xbe094917	-0.13406788
19	0xbd625fed	-0.055267263
20	0xbe24ed21	-0.16106082
21	0xbe11c274	-0.14234334
22	0xbd9d8166	-0.076906964
23	0xbe0c36b1	-0.13692738
24	0xbe00be13	-0.12572508
25	0xbe6772e7	-0.22602426
26	0xbe9e595e	-0.30927557
27	0xbdbc05a1	-0.09180761
28	0xbd6c3a5b	-0.05767284
29	0xbe5265d8	-0.20546663
30	0xbe3454ea	-0.17610517
31	0x3d93ba98	0.07213324
32	0xbdce3ddd	-0.10070393
33	0xbe25530e	-0.16144964
34	0xbe834af6	-0.25643128
35	0xbe235a50	-0.1595242
36	0xbde354ce	-0.111001596
37	0x3d888e9a	0.06667824
38	0xbe8f51bd	-0.2799205
39	0xbd3f7dbc	-0.04675077
40	0xbdab1b79	-0.08354849
41	0x3cb5c1fa	0.022187222
42	0xbf10ac67	-0.56513065
43	0x3d710dcb	0.058851045
44	0xbe0b3756	-0.13595328
45	0xbef5002d	-0.47851697
46	0x3df66490	0.120308995
47	0xbe4b7f9e	-0.19872901
48	0xbd7d71a3	-0.06187595
49	0xbe0bda2f	-0.13657449
50	0xbc8310ec	-0.01599928
51	0x3d2159c3	0.039392244
52	0x3dc9775a	0.09837218
53	0xbe6d0bc0	-0.23149014
54	0xbe977b48	-0.29586244
55	0x3df7a32b	0.12091669
56	0x3cdc8992	0.026921067
57	0x3cc3dc6b	0.023908814
58	0x3c5a6d81	0.013331772
59	0xbe26212b	-0.1622359
60	0x3e252679	0.16127957
61	0x3c16f1a6	0.009212887
62	0x3c94672c	0.018115602
63	0xbdcd2d09	-0.100183554
64	0xbe2ad203	-0.16681676
65	0xbe206ecd	-0.15667267
66	0xbe3a36a0	-0.181849
67	0x3e64cc49	0.22343554
68	0x3d136e57	0.0359939
69	0x3d117387	0.035510566
70	0x3ec422f7	0.38307926
71	0xbd0c247f	-0.034214493
72	0xbe2f955a	-0.17146817
73	0xbe3b9c66	-0.1832138
74	0xbed6a3d0	-0.41921854
75	0x3d3f2253	0.046663594
76	0xbed5ae54	-0.41734564
77	0xbf1415ec	-0.5784595
78	0x3e5aa55f	0.21352147
79	0xbea61d92	-0.32444435
80	0xbec337ae	-0.38128418
81	0xbc10129e	-0.008793501
82	0xbe1d302c	-0.15350407
83	0xbcf025fb	-0.029314985
84	0xbdcc5892	-0.09977831
85	0x3d16594f	0.036706265
86	0x3e563431	0.20918347
87	0xbdd68ac7	-0.104756884
88	0xbb598fc6	-0.0033197268
89	0x3e6be9fb	0.23038475
90	0xbea46d39	-0.3211458
91	0x3dc6f394	0.097144276
92	0xbd4380ec	-0.04773037
93	0xbe91a3de	-0.28445333
94	0xbe17d3de	-0.14826915
95	0xbdbf307a	-0.09335418
96	0xbc97b2e5	-0.01851792
97	0xbe3ae66e	-0.18251964
98	0x3ccad431	0.024759384
99	0xbe461ce2	-0.19346955
100	0xbe83c04a	-0.25732642
101	0xbea5ff04	-0.32421124
102	0xbe8a16a5	-0.269704
103	0xbed9fb6a	-0.42574626
104	0x3dae7168	0.08517724
105	0x3dfa0515	0.122080006
106	0xbe015e2e	-0.12633583
107	0x3d3f42d9	0.04669461
108	0xbe1d8aab	-0.15384929
109	0xbea7291d	-0.32648554
110	0xbe74d24a	-0.23908344
111	0xbec17b7a	-0.37789518
112	0xbd9ef1d6	-0.0776097
113	0xbb016fcf	-0.001975048
114	0xbdcb39fa	-0.099231675
115	0xbe6e5f38	-0.2327851
116	0xbeb1987b	-0.34686646
117	0xbd8facbb	-0.070153676
118	0x3e44886e	0.19192669
119	0xbdf0d1ef	-0.11758792
120	0xbd8c5db5	-0.06853811
121	0xbe88162f	-0.26579425
122	0xbee99548	-0.45621705
123	0xbe5623bc	-0.20912069
124	0xbe0347d9	-0.12820376
125	0xbe9c66e6	-0.30547255
126	0xbc9d1b32	-0.019178007
127	0xbf0fbfd1	-0.56152064
128	0xbcd0c5f3	-0.025485015
129	0x3ddd1b2e	0.107962
130	0x3bec7dfc	0.007217167
131	0x3e02593f	0.12729357
132	0x3d564be0	0.052318454
133	0xbe0159a9	-0.12631859
134	0x3de00cc5	0.109399356
135	0xbda21a89	-0.079152174
136	0xbbc86705	-0.0061157965
137	0x3da0fc5f	0.07860636
138	0xbd8591ca	-0.06521948
139	0xbdd23fb7	-0.10266059
140	0x3df20499	0.11817283
141	0x3df8eb29	0.12154228
142	0x3d81512a	0.06314309
143	0xbe15d140	-0.14630604
144	0xbd81e0e6	-0.06341724
145	0xbdaae9a5	-0.083453454
146	0x3bd78ea7	0.006578285
147	0xbdea7d2c	-0.11449656
148	0xbd94396f	-0.07237517
149	0x3e0bcf54	0.13653308
150	0x3d2cf0fd	0.04222201
151	0x3d7c8591	0.061650816
152	0xbd961a84	-0.07329276
153	0xbc91b531	-0.017786594
154	0xbb50ddd3	-0.0031870499
155	0x3c551d08	0.01300741
156	0xbdf23987	-0.11827379
157	0x3e6bc60f	0.23024772
158	0xbda946a3	-0.08265426
159	0xbd96e9d9	-0.07368822
160	0xbd0c8f2f	-0.034316238
161	0xbd92f9dc	-0.07176563
162	0xba4db187	-0.0007846583
163	0xbdc50eab	-0.09621938
164	0xbc02bf5c	-0.007980194
165	0xbd01f37e	-0.031726353
166	0x3d904784	0.070448905
167	0x3c067432	0.008206414
168	0x3cb43f5d	0.02200287
169	0x3e864fbd	0.2623271
170	0x3e556396	0.2083877
171	0xbd445b37	-0.04793855
172	0x3d7f6a6d	0.062357355
173	0xbc439ca4	-0.0119392015
174	0x3d953a4d	0.072865106
175	0xbd5ea46d	-0.054356027
176	0x3d68d5c7	0.0568445
177	0x3c2a3292	0.010388033
178	0xbda2d960	-0.07951617
179	0x3bda6b04	0.0066655893
180	0xbd906c79	-0.070519395
181	0x3e3565dc	0.17714638
182	0xbdfeea3a	-0.12447019
183	0x3d6666d8	0.056250423
184	0xbe141ceb	-0.14464156
185	0x3cb60d7a	0.022223223
186	0x3e0edc2c	0.13951176
187	0x3d7209fa	0.059091546
188	0x3d333928	0.04375568
189	0xbdb0ffcb	-0.08642539
190	0xbdac1724	-0.08402851
191	0x3e43c179	0.19116773
192	0x3dc56488	0.096383154
193	0x3cef530c	0.029214405
194	0x3dcd39fb	0.100208245
195	0xbdf7d2b4	-0.12100735
196	0xbe4055fa	-0.18782797
197	0x3e9d7446	0.30752772
198	0xbe4a6aa8	-0.19767249
199	0x3c7779ab	0.0151046915
200	0xbebb3e19	-0.36570814
201	0xbdc20ec6	-0.09475474
202	0x3e5bc54a	0.21461979
203	0xbe470c22	-0.19438222
204	0xbe39cde7	-0.18144952
205	0xbea57181	-0.3231316
206	0xbed625ff	-0.41825864
207	0x3d29cba5	0.041453976
208	0xbce957f5	-0.028484324
209	0xbeacf320	-0.3377924
210	0xbd9d2960	-0.07673907
211	0xbdc060e5	-0.09393481
212	0xbd337a9a	-0.043818094
213	0xbe38ab54	-0.18034106
214	0x3e03554d	0.12825508
215	0xbeadc4ca	-0.339392
216	0xbdf4ba4b	-0.11949595
217	0xbe10400a	-0.14086929
218	0xbe1094b2	-0.14119223
219	0xbe3700de	-0.17871425
220	0xbe8089ec	-0.25105226
221	0x3da01b08	0.07817656
222	0xbe014bfa	-0.12626639
223	0xbea8266c	-0.32841814
224	0x3e038c3b	0.12846462
225	0xbe22c4b7	-0.15895353
226	0x3dbbe9cf	0.09175455
227	0x3da49c2a	0.080375984
228	0xbc82b591	-0.015955718
229	0xbd7ffc84	-0.062496677
230	0xbd9915b2	-0.07474841
231	0x3e057558	0.13033044
232	0xbe3d6fe7	-0.18499719
233	0x3e5c10be	0.21490762
234	0xbe9061ac	-0.28199518
235	0x3d0512c0	0.032488585
236	0x3e2585ac	0.16164273
237	0xbe05fd2f	-0.13084863
238	0x3c47e24a	0.012199948
239	0x3e4cc391	0.19996478
240	0x3e0c6a47	0.13712417
241	0xbdfd1ea0	-0.12359357
242	0xbc363ad4	-0.011122424
243	0xbda66043	-0.08123829
244	0x3e8e3f13	0.27782497
245	0x3e4e17d5	0.20126279
246	0xbe81741f	-0.25283906
247	0xbe249742	-0.16073325
248	0xbe0b6df5	-0.13616164
249	0x3dba4aba	0.09096284
250	0xbe7e5909	-0.24838652
251	0x38881136	6.488191e-05
252	0x3dd6c143	0.104860805
253	0x3e265772	0.16244295
254	0xbddc5663	-0.107586645
255	0x3d982d6b	0.07430538
