logs/g1/Apr19_03-18-51_/model_500.pt (torch, 777504 bytes, 48 tensors)

std f4 [12]
0	0x3f02ab25	0.51042396
1	0x3f285138	0.6574893
2	0x3eb54d23	0.35410413
3	0x3ee9f01f	0.4569101
4	0x3f693ff1	0.9111319
5	0x3f61aa2d	0.8815029
6	0x3f047ce0	0.51753044
7	0x3f2475c4	0.64242196
8	0x3eb7951b	0.35855946
9	0x3f00634d	0.5015152
10	0x3f6ea200	0.9321594
11	0x3f6281ae	0.88479125

actor.0.weight f4 [32, 64]
0	0x3de53b32	0.11192931
1	0xbe0f2ae8	-0.13981211
2	0x3d80b3f3	0.062843226
3	0x3d5d27ce	0.05399304
4	0x3e3dfc6a	0.1855332
5	0x3e410a2f	0.18851541
6	0xbeaf8a8b	-0.34285387
7	0x3e366142	0.17810538
8	0x3d9e136e	0.0771855
9	0x3eef0a52	0.4668756
10	0x3ea299b5	0.31757894
11	0x3decd169	0.11563379
12	0x3ed7edd7	0.42173645
13	0x3ee60181	0.44923022
14	0xbe018516	-0.12648425
15	0x3d25c006	0.04046633
16	0x3e02af93	0.12762289
17	0x3e1f7d62	0.15575173
18	0x3e1a36b8	0.15059936
19	0x3e11b83b	0.14230435
20	0xbdaf025f	-0.08545374
21	0x3e205b89	0.15659918
22	0x3edd2a84	0.431965
23	0x3ce74c68	0.028234676
24	0xbd7ca820	-0.061683774
25	0x3ec8e55c	0.39237487
26	0xbe669132	-0.22516325
27	0xbece159a	-0.40250856
28	0xbda7bb63	-0.08190038
29	0x3eee1284	0.464985
30	0xbe470123	-0.19434027
31	0xbea515cd	-0.32243195
32	0x3e826235	0.2546555
33	0xbe920d9d	-0.2852601
34	0xbe707b35	-0.234845
35	0x3d87ab67	0.06624489
36	0xbdd6b347	-0.10483413
37	0xbda03fc0	-0.07824659
38	0x3d9f524a	0.07779367
39	0x3e52e39f	0.20594643
40	0x3d28ce77	0.041212525
41	0xbe24467b	-0.16042511
42	0x3edd33b9	0.43203524
43	0x3e4f46af	0.20241807
44	0xbe76d419	-0.24104346
45	0x3c954637	0.018221958
46	0xbcc8390b	-0.024441263
47	0xbe48de55	-0.19616063
48	0xbd93dee1	-0.07220245
49	0xbe594835	-0.21218951
50	0x3e10339e	0.1408219
51	0xbe37487b	-0.17898743
52	0x3ec73240	0.38905525
53	0xbd2d56ca	-0.042319097
54	0xbe740bb2	-0.23832586
55	0x3d3ba9ac	0.04581611
56	0x3d838588	0.064219534
57	0x3d686865	0.056740183
58	0xbf34cddd	-0.7062662
59	0x3c415496	0.011799952
60	0xbcce08b6	-0.025150638
61	0xbd9005f6	-0.07032387
62	0xbe1a301b	-0.15057413
63	0xbe0b6f14	-0.13616592
64	0x3e97d09b	0.2965134
65	0x3e96ea5a	0.2947567
66	0x3c7d8e7a	0.015475864
67	0x3e527eea	0.20556226
68	0x3eb5cc38	0.3550737
69	0xbe676ed8	-0.22600877
70	0xbc1302bd	-0.008972821
71	0xbeb89254	-0.3604914
72	0xbe539bd9	-0.2066492
73	0x3eb83092	0.35974556
74	0xbeef3844	-0.46722615
75	0x3ebc188b	0.36737475
76	0x3c767733	0.015043068
77	0xbea50b69	-0.32235268
78	0xbe602b87	-0.21891604
79	0xbea0269e	-0.31279463
80	0xbd0269b2	-0.03183908
81	0x3ac876b1	0.0015294162
82	0xbdcf27dd	-0.10115025
83	0x3dd239de	0.102649435
84	0x3df28ced	0.11843286
85	0xbe0afbe2	-0.13572648
86	0x3e0a1c18	0.1348728
87	0x3e0d6de5	0.13811453
88	0x3e1a6ee1	0.1508136
89	0x3e99da3b	0.3004931
90	0xbe9eedd6	-0.3104083
91	0xbdac23da	-0.08405276
92	0x3c8f789c	0.017513566
93	0xbe1c6f9a	-0.15276948
94	0xbd8ed018	-0.069732845
95	0xbe1f3c68	-0.15550387
96	0x3e8931a3	0.26795682
97	0x3cdc2c6d	0.026876653
98	0xbe4a7dd0	-0.19774556
99	0x3ef0688c	0.46954763
100	0x3e2d3cfc	0.16917795
101	0x3e1b6099	0.15173568
102	0x3dee2093	0.11627307
103	0x3edea694	0.43486464
104	0x3ec92ddf	0.3929281
105	0x3e5dd596	0.21663508
106	0x3d939e5c	0.07207939
107	0xbf0f8945	-0.5606883
108	0x3eee6832	0.4656387
109	0x3e314cc6	0.17314443
110	0x3ea82959	0.32844046
111	0xbe2e735d	-0.17036195
112	0x3e2faa56	0.17154822
113	0xbe2cbe33	-0.1686943
114	0xbe29d30d	-0.16584416
115	0xbe91944d	-0.28433457
116	0x3dfbf719	0.123029895
117	0xbed99b60	-0.42501354
118	0xbea4cd27	-0.3218777
119	0x3d4c77eb	0.04991905
120	0xbdfefe08	-0.12450796
121	0x3e4d02bb	0.20020573
122	0x3f131da5	0.5746711
123	0xbe81da24	-0.2536174
124	0x3eb9544b	0.36197123
125	0x3ea7093f	0.32624242
126	0x3ed829c3	0.42219362
127	0x3e6ff345	0.23432644
128	0xbe4bc5f8	-0.19899738
129	0xbda3a7f4	-0.07991019
130	0x3da6dbd7	0.081474
131	0xbe1d41c2	-0.15357116
132	0x3e701e5b	0.2344908
133	0x3e0dd95e	0.1385245
134	0xbe6b83ae	-0.2299945
135	0x3e5d1eb2	0.2159374
136	0x3e7de34e	0.24793741
137	0x3ea6eeef	0.32604167
138	0x3cc60167	0.02417059
139	0xbeb05077	-0.3443639
140	0xbda802cc	-0.082036585
141	0x3d3a1370	0.045428693
142	0xbe8ae74b	-0.27129588
143	0x3eb2e230	0.34938192
144	0xbe7d2416	-0.24720797
145	0x3ca76a6f	0.020436494
146	0x3d9c1e3f	0.076229565
147	0x3e3cd97f	0.18442343
148	0xbe4babd5	-0.19889767
149	0x3e636095	0.22204812
150	0x3e289d01	0.16466142
151	0x3c6de765	0.014520501
152	0x3daf151e	0.0854895
153	0x3d9a34c5	0.07529596
154	0xbeca15a8	-0.39469647
155	0xbdf0b6ae	-0.117535934
156	0x3e1e07ea	0.15432706
157	0x3db99626	0.09061842
158	0x3aab1051	0.0013051127
159	0x3e93f8bf	0.28900716
160	0x3d84c681	0.06483174
161	0x3cdbc3db	0.02682679
162	0xbcf2cd9d	-0.02963906
163	0x3e9ffb0b	0.31246218
164	0x3e2df080	0.16986275
165	0xbd17a564	-0.037022963
166	0xbdc8e9ee	-0.098102435
167	0x3f1fc66f	0.6241216
168	0xbe0362da	-0.12830678
169	0xbd74f8f8	-0.059807748
170	0xbd9d87eb	-0.0769194
171	0x3d85ad9f	0.06527256
172	0x3e239fb0	0.15978885
173	0xbde09041	-0.10965014
174	0xbdc9d6f6	-0.09855454
175	0xbc285e09	-0.010276326
176	0xbec047db	-0.3755482
177	0x3d0b50a9	0.03401247
178	0xbeea6d7f	-0.45786664
179	0x3e989775	0.29803053
180	0x3f1df3df	0.6170024
181	0xbd67caec	-0.056590006
182	0x3d512a60	0.051065803
183	0x3e8873b3	0.26650771
184	0x3c549f32	0.012977408
185	0xbe4ba0c0	-0.1988554
186	0xbd82b09d	-0.063813426
187	0xbe7dec7a	-0.2479724
188	0xbe43534b	-0.19074742
189	0xbeeb0efd	-0.45909873
190	0xbe208cb9	-0.15678681
191	0xbe9f5e13	-0.3112646
192	0x3e799cbf	0.243762
193	0xbddb5505	-0.107095756
194	0x3d5baf1c	0.053633794
195	0xbb9a0843	-0.004700692
196	0xbe7047cf	-0.23464893
197	0x3e0c43d5	0.13697751
198	0x3e5e5b8b	0.21714608
199	0x3df3ddc0	0.1190753
200	0xbe9841e1	-0.29737762
201	0xbe9eaaa3	-0.3098956
202	0xbe17d253	-0.14826326
203	0xbbd2f0b1	-0.006437384
204	0xbddf2f42	-0.108976856
205	0x3e2cf34a	0.16889682
206	0x3e536977	0.206457
207	0xbe713f36	-0.2355927
208	0xbca311cc	-0.019905947
209	0x3e6675a4	0.22505814
210	0x3eea7300	0.45790863
211	0xbe9eb02b	-0.3099378
212	0x3f130654	0.5743153
213	0x3df5cb22	0.12001635
214	0x3d74a8d8	0.059731334
215	0x3d8dc4b2	0.06922282
216	0x3e3c7588	0.1840421
217	0x3e09fb62	0.13474801
218	0x3d8da30f	0.069158666
219	0xbd5a9aca	-0.053370275
220	0xbeb20c77	-0.34775135
221	0xbd7b0de7	-0.061292555
222	0xbce5c7aa	-0.028049309
223	0xbe0197cf	-0.12655567
224	0xbe8e642f	-0.2781081
225	0x3e9bc442	0.3042317
226	0xbe6b12ae	-0.22956344
227	0xbc54902f	-0.012973829
228	0xbe1cd07c	-0.15313905
229	0x3e96daec	0.294639
230	0x3dac002e	0.08398472
231	0xbd90c920	-0.070696115
232	0xbe671fe3	-0.22570758
233	0x3eb3ea32	0.35139614
234	0x3e5d2261	0.21595146
235	0xbe958a78	-0.29207206
236	0xbe8b44dc	-0.27200973
237	0x3e0bac04	0.13639838
238	0x3e84907c	0.25891483
239	0xbc9a0f14	-0.018806018
240	0xbd22e11d	-0.039765466
241	0xbe31b57a	-0.17354384
242	0x3ebaf3b6	0.36514062
243	0xb9b4bddf	-0.0003447374
244	0x3e37a355	0.179334
245	0xbee5990f	-0.44843337
246	0x3da4de81	0.08050252
247	0x3d68af00	0.056807518
248	0xbd655083	-0.055984985
249	0x3eccbd2e	0.39988083
250	0xbe0e9516	-0.1392406
251	0x3e3ec025	0.18627985
252	0xbe14c66e	-0.1452882
253	0x3bbdad79	0.005788502
254	0xbdd6a8c1	-0.10481406
255	0x3f03752e	0.51350677

actor.0.bias f4 [32]
0	0xbe026b27	-0.12736188
1	0x3dba33e4	0.090919286
2	0xbe16a035	-0.14709552
3	0xbda551bc	-0.0807223
4	0xbe8c9b31	-0.27462152
5	0x3d4d3025	0.050094742
6	0xbcdee8c2	-0.027210597
7	0xbc018d75	-0.007907261
8	0xbda6f8bc	-0.08152911
9	0x3d842101	0.064516075
10	0xbcc97103	-0.024590021
11	0x3e34b645	0.17647655
12	0xbe0cebd8	-0.13761842
13	0x3ca181ff	0.019715307
14	0x3d2c707d	0.042099465
15	0x3c077119	0.008266711
16	0xbdae6aaf	-0.08516442
17	0x3d02bcba	0.031918265
18	0xbe6774ba	-0.22603121
19	0xbe878554	-0.2646891
20	0xbda06308	-0.07831389
21	0x3e378a38	0.1792382
22	0x3d84f3b3	0.064917944
23	0xbe6397c3	-0.22225861
24	0xbd9c28dc	-0.07624981
25	0x3d81e09d	0.0634167
26	0x3d9b8c51	0.075951226
27	0xbe1bd21c	-0.15216869
28	0xbe13e0a3	-0.14441161
29	0x3e84f63c	0.25969112
30	0xbd8a21eb	-0.067447506
31	0xbd8a7c32	-0.067619696

actor.2.weight f4 [12, 32]
0	0x3d523f5e	0.051329963
1	0x3d14107f	0.036148544
2	0x3e857147	0.26062986
3	0xbe5abe40	-0.21361637
4	0xbd42cd84	-0.047559276
5	0xbd5ebfc9	-0.05438212
6	0xbeaf4025	-0.34228626
7	0x3ea1d0ba	0.31604558
8	0xbe8aba7b	-0.27095398
9	0x3dfd182d	0.12358127
10	0x3e43a4a5	0.19105776
11	0xbdadd23f	-0.08487367
12	0xbe510dc4	-0.20415407
13	0xbe4caac4	-0.19987017
14	0x3c4aa5e1	0.01236865
15	0xbdd62782	-0.10456754
16	0xbe81488a	-0.25250655
17	0xbe1c7246	-0.15277967
18	0x3e0874b8	0.13325775
19	0xbe2ccaa1	-0.16874172
20	0x3c880d06	0.016607773
21	0x3e2caf9b	0.16863863
22	0x3e7b24fe	0.2452583
23	0x3e852b29	0.2600949
24	0x3d2b0f2b	0.041762512
25	0x3e1631f1	0.14667489
26	0x3b1b77b2	0.0023722467
27	0x3dd5af1c	0.1043379
28	0x3e20354d	0.15645333
29	0xbea7bd09	-0.3276141
30	0x3e3ea7ec	0.18618745
31	0xbce548b5	-0.027988771
32	0x3d6b2fd0	0.057418644
33	0x3e219530	0.15779567
34	0xbcbe94ac	-0.023264252
35	0xbeaf62cd	-0.34255067
36	0xbe312f98	-0.17303312
37	0x3df3bffb	0.11901852
38	0xbda680be	-0.081300244
39	0x3e215616	0.15755495
40	0xbd8369d1	-0.06416667
41	0x3e756944	0.23965937
42	0x3e32f6e2	0.17476991
43	0x3e823da8	0.25437665
44	0xbdd525a7	-0.10407572
45	0x3d7543ec	0.05987923
46	0xbc0ebe3f	-0.00871235
47	0x3d276c7e	0.04087495
48	0x3e3aad5b	0.18230192
49	0x3eb9893f	0.36237523
50	0xbeb89728	-0.36052823
51	0xbed4fbb5	-0.41598287
52	0xbeae9605	-0.3409883
53	0x3eb163bb	0.346464
54	0x3ec1c6bf	0.37846944
55	0xbf083279	-0.53202015
56	0x3e6d10d7	0.23150955
57	0x3ea2f807	0.31829855
58	0x3e5f57e7	0.21810876
59	0xbd2c0762	-0.04199923
60	0xbe3ff814	-0.18746978
61	0x3e9b8b4e	0.3037972
62	0x3e2e9761	0.17049934
63	0xbe13df81	-0.14440729
64	0x3e054ecd	0.13018341
65	0xbd5124ff	-0.051060673
66	0xbda2223c	-0.07916686
67	0x3e92dc6f	0.28683802
68	0x3e69f93f	0.22848986
69	0xbde037d1	-0.10948146
70	0xbc83e358	-0.016099617
71	0x3bcfd6d3	0.0063427477
72	0x3bae51c6	0.0053198067
73	0xbe154558	-0.14577234
74	0xbd95d284	-0.07315543
75	0x3d762375	0.06009241
76	0x3d2210ca	0.039566793
77	0xbe5520d3	-0.20813303
78	0x3e3392ca	0.17536464
79	0x3b8d0626	0.0043037115
80	0x3cea6659	0.028613256
81	0xbdae66b5	-0.085156836
82	0xbc866c7a	-0.016409148
83	0x3e265ae9	0.16245617
84	0x3e1ba421	0.15199329
85	0xbc7dc7eb	-0.015489559
86	0x3d852df7	0.06502908
87	0xbe0fd767	-0.14047013
88	0xbddfd475	-0.10929195
89	0xbd8703fe	-0.06592558
90	0x3c68676a	0.014184812
91	0x3e2da59e	0.16957709
92	0xbd8bacaf	-0.06820046
93	0xbe1d7017	-0.1537479
94	0x3e365d20	0.17808962
95	0x3e2527e8	0.16128504
96	0x3df39184	0.11892989
97	0xbd39fb25	-0.045405526
98	0x3cda023a	0.02661239
99	0xbdd42ddd	-0.1036031
100	0x3d9cd285	0.07657341
101	0xbe4d4130	-0.20044398
102	0xbe54e22f	-0.20789407
103	0x3e4f09e8	0.20218623
104	0x3b4e57b1	0.0031485374
105	0xbd41c628	-0.047308117
106	0x3e874bda	0.26425058
107	0xbda09d6e	-0.07842527
108	0x3d747304	0.05968
109	0x3e16dee3	0.14733462
110	0x3c995eca	0.018721957
111	0x3d5251d9	0.051347587
112	0x3e29fbe6	0.16599998
113	0x3d86bf2e	0.065794334
114	0x3eae1f63	0.3400832
115	0x3e862ca1	0.26205924
116	0xbdf8ea7f	-0.121541016
117	0xbdcf0b9b	-0.101096354
118	0xbd793220	-0.06083882
119	0x3d54672e	0.051856212
120	0xbd200a5a	-0.039072372
121	0xbd03eb64	-0.032206908
122	0x3d8a6161	0.06756855
123	0xbd1673aa	-0.0367314
124	0x3dfdd6af	0.12394463
125	0x3d2f302b	0.042770546
126	0x3d8bec73	0.068322085
127	0xbe379f73	-0.17931919
128	0xbe1e74ac	-0.15474194
129	0xbd1f4cb7	-0.03889152
130	0xbe7f1daa	-0.2491366
131	0x3bc4ebaa	0.0060095387
132	0xbedd264d	-0.43193284
133	0x3e29bc10	0.16575646
134	0x3e60531c	0.21906704
135	0x3e4a3d53	0.19749956
136	0xbee9e206	-0.45680255
137	0xbea9b7e5	-0.33148113
138	0x3ebef4cb	0.37296137
139	0xbe22bec0	-0.15893078
140	0xbf03e84d	-0.5152634
141	0x3e7204e7	0.23634683
142	0xbd35529b	-0.04426823
143	0x3f186cea	0.5954119
144	0x3d8a50f5	0.067537226
145	0xbd29e293	-0.041475844
146	0xbec1e391	-0.37868932
147	0xbe678707	-0.22610103
148	0x3e9b63d9	0.30349615
149	0x3e8b8853	0.27252445
150	0x3d0d03a0	0.034427285
151	0x3f08cc4b	0.53436726
152	0xbf295d68	-0.6615815
153	0x3f17b85e	0.59265697
154	0xbe3e2b58	-0.18571222
155	0x3e040d83	0.1289578
156	0x3e72b67a	0.23702422
157	0x3e404516	0.18776354
158	0x3e7ea8c7	0.24869071
159	0xbe691a76	-0.22764
160	0xbea86c04	-0.3289491
161	0x3e680a82	0.22660258
162	0xbde5b262	-0.112156644
163	0x3d2778df	0.040886756
164	0x3e31a71c	0.17348903
165	0x3e32ce83	0.1746159
166	0x3d7af4ba	0.061268546
167	0x3ddba283	0.10724356
168	0xbc8c5a45	-0.017132888
169	0x3c4b19b8	0.012396269
170	0x3e8722aa	0.26393634
171	0x3e02d0e2	0.12774995
172	0xbe5a86f5	-0.21340545
173	0x3e38014a	0.17969242
174	0xbe4def55	-0.20110829
175	0xbb190e76	-0.0023354567
176	0x3d1e4c0b	0.03864674
177	0xbc3edc32	-0.011649178
178	0xbd0595b4	-0.03261347
179	0x3d795361	0.060870532
180	0xbdf196b7	-0.11796325
181	0x3e57507b	0.21026795
182	0x3e133abc	0.14377874
183	0xbe6135f0	-0.21993232
184	0x3d8a1d3d	0.06743858
185	0xbdfcfc3f	-0.123527996
186	0xbdd4ef3d	-0.103971936
187	0xbcb320a0	-0.021866143
188	0xbe302e55	-0.17205174
189	0xbe482828	-0.19546568
190	0x3e90b95b	0.28266415
191	0xbed8f98c	-0.4237789
192	0xbdc440ef	-0.095826976
193	0x3e5214c3	0.20515732
194	0xbeafd580	-0.34342575
195	0x3d81c371	0.063361056
196	0xbe98e43d	-0.29861632
197	0x3dfd9d33	0.12383499
198	0xbda9843f	-0.08277177
199	0xbdf3458c	-0.118784994
200	0x3e8504a3	0.259801
201	0x3e37fb78	0.17967021
202	0xbe3efa3b	-0.18650143
203	0xbd6e5331	-0.058184806
204	0x3d791c68	0.060818106
205	0x3d9d623c	0.07684752
206	0x3ea3eb1a	0.32015306
207	0x3e5d34a6	0.21602115
208	0xbe1e261b	-0.15444224
209	0xbe92c4b5	-0.286657
210	0x3ea0164b	0.31267008
211	0xbe72262e	-0.23647377
212	0xbe39e0a2	-0.18152097
213	0x3cd105a1	0.02551538
214	0x3e09ff82	0.13476375
215	0xbd8fa82e	-0.070144996
216	0xbde19d5d	-0.11016343
217	0xbe9f3677	-0.3109624
218	0x3ce64ccd	0.028112793
219	0x3e2b628a	0.16736808
220	0xbdf8a395	-0.12140576
221	0x3e16efdb	0.14739935
222	0xbce21230	-0.027596563
223	0xbd855b87	-0.06511598
224	0xbd0ef35a	-0.034900047
225	0xbeaaf9eb	-0.33393797
226	0x3dd77fd1	0.10522426
227	0xbddf659b	-0.109080516
228	0x3db8f89b	0.09031793
229	0x3daf69d7	0.08565109
230	0xbe37c5ca	-0.17946544
231	0xbeaf7ee0	-0.34276485
232	0x3eb26eab	0.34850058
233	0x3d76df50	0.06027156
234	0xbe0090b1	-0.12555195
235	0xbeca7a00	-0.39546204
236	0x3e863773	0.2621418
237	0xbe057a80	-0.13035011
238	0xbe30eb67	-0.17277299
239	0x3e76389b	0.24045031
240	0xbed678d7	-0.41889068
241	0x3e54b7eb	0.20773284
242	0xbe71cfbd	-0.23614402
243	0x3e04ee2f	0.12981485
244	0x3e0ebfd4	0.13940364
245	0xbec5c62c	-0.38627756
246	0x3e08c942	0.13358024
247	0x3e294d2c	0.16533345
248	0x3dbd803e	0.09252976
249	0xbbaf48a2	-0.0053492347
250	0xbebdb175	-0.3704945
251	0x3ed3eb4a	0.4139045
252	0x3c4042e7	0.011734701
253	0xbe719032	-0.23590162
254	0x3e0db86d	0.13839884
255	0x3db49965	0.0881832

actor.2.bias f4 [12]
0	0x3d22ccff	0.03974628
1	0x3e8154ca	0.2526
2	0xbd0dbe99	-0.034605596
3	0xbe84fdef	-0.25974986
4	0x3e9bfce8	0.3046639
5	0xbdfe87a1	-0.12428213
6	0xbe299cdc	-0.16563743
7	0xbe1c4551	-0.15260817
8	0x3dc30dac	0.09524092
9	0xbd13a1d9	-0.03604302
10	0xbdf44f07	-0.11929136
11	0x3e09e244	0.1346522

critic.0.weight f4 [32, 64]
0	0xbcf2ee39	-0.029654609
1	0x3c449ef8	0.012000792
2	0x3d585b8c	0.05282168
3	0x3daddaf9	0.08489031
4	0xbc353397	-0.011059663
5	0xbc4e21e5	-0.012581323
6	0xbd8b665c	-0.06806633
7	0xbc6b726a	-0.01437054
8	0xbd464d3b	-0.048413496
9	0x3cbe3e51	0.023223074
10	0xbc00e9f4	-0.007868279
11	0xbce84ce0	-0.02835697
12	0x3d654228	0.055971295
13	0xbd290f90	-0.041274607
14	0x3c197172	0.009365426
15	0x3a95ba4f	0.0011423322
16	0x3c814afb	0.015782824
17	0xbd03dcad	-0.032192875
18	0x3c2ca747	0.010537929
19	0xbd8bb841	-0.06822253
20	0xbd12f63b	-0.035879355
21	0x3c59141f	0.013249426
22	0x3d92e9d5	0.07173506
23	0xbd461a12	-0.048364706
24	0xbd423d48	-0.047421724
25	0xbc012edf	-0.00788471
26	0xbb5ef76d	-0.003402199
27	0xbcf50635	-0.029910186
28	0x3d81a4f9	0.06330294
29	0xbbadc8b2	-0.0053034658
30	0x3d4de196	0.050263964
31	0x3da19ac5	0.07890848
32	0xbd8238d1	-0.06358493
33	0x3d55985c	0.052147254
34	0xbd3f90e0	-0.046769023
35	0x3cdb4784	0.0267675
36	0x3d1cc76d	0.038276125
37	0xbc36c6ff	-0.011155843
38	0xbe0df1b3	-0.13861732
39	0x3e0609df	0.13089703
40	0xbcc77a54	-0.024350323
41	0xbcf7123b	-0.03016006
42	0xbc4136d7	-0.01179286
43	0x3c095667	0.008382416
44	0xbd62aa29	-0.05533806
45	0x3cba0fa9	0.022712545
46	0xbbf396c1	-0.0074337428
47	0xbd905dde	-0.07049154
48	0xbc2ec2bd	-0.010666546
49	0x3dc9f82d	0.09861789
50	0xbce4b161	-0.027916612
51	0x3d8de0cf	0.069276445
52	0xbd679c44	-0.05654551
53	0x3dda2273	0.10651102
54	0xbcb4f639	-0.022090064
55	0xbd3c4b54	-0.045970276
56	0xbb49eec3	-0.003081248
57	0xbca035a2	-0.019556824
58	0x3d53befd	0.051695812
59	0xbd5e9072	-0.054336973
60	0x3cc73b09	0.024320142
61	0xbc308666	-0.010774231
62	0xbc547ff9	-0.012969964
63	0x3c84fdb9	0.016234266
64	0xbe2e432a	-0.17017809
65	0xbd8e2214	-0.06940094
66	0x3cc01ec7	0.023452176
67	0xbcaa5b6b	-0.020795545
68	0x3a792949	0.0009504748
69	0x3dbfba4b	0.093617044
70	0xbd8e5623	-0.06950023
71	0x3e6c4c8b	0.23076074
72	0x3c5f6ac5	0.013636296
73	0x3e292071	0.16516282
74	0xbb9057f4	-0.004405016
75	0xbe1d0211	-0.1533282
76	0xbdc95d42	-0.09832241
77	0x3d5157bd	0.051109064
78	0x3e2e0cf1	0.16997124
79	0xbdaf1649	-0.085491724
80	0xbe6621e1	-0.22473861
81	0x3e506fe5	0.20355184
82	0xbe297b8c	-0.16551036
83	0x3dce3873	0.100693606
84	0xbd52c53a	-0.05145762
85	0x3e3b5ca7	0.18297063
86	0xbdc7318e	-0.09726249
87	0xbcec4813	-0.028842961
88	0x3ca4afe5	0.020103404
89	0x3d99fb26	0.07518606
90	0xbdb04a18	-0.08607882
91	0x3dc237f6	0.0948333
92	0x3e0938c5	0.13400562
93	0xbe132e03	-0.14373021
94	0x3d87c463	0.06629255
95	0x3e1aee0b	0.15129869
96	0x3db5a1f3	0.0886878
97	0xbe2c47cb	-0.16824262
98	0x3ceab82b	0.028652271
99	0x3e9d6126	0.3073818
100	0x3e1b069f	0.15139244
101	0xbdcbd806	-0.099533126
102	0x3c384dac	0.011248987
103	0xbe02d780	-0.12777519
104	0x3cb91ca5	0.022596667
105	0x3e25f783	0.162077
106	0x3d3b2b57	0.04569563
107	0xbde87f05	-0.11352352
108	0xbc3a2f5d	-0.011363831
109	0xbd1f19d2	-0.038842984
110	0x3e334f78	0.17510784
111	0x3e7107b0	0.23538089
112	0x3e1a2ca3	0.1505609
113	0xbe92e90f	-0.28693435
114	0xbe29027c	-0.16504854
115	0x3b9198a1	0.0044432436
116	0xbe01c472	-0.12672594
117	0x3e7fe416	0.24989352
118	0x3e31b6d3	0.17354898
119	0x3db579d7	0.0886113
120	0x3e9137cb	0.2836288
121	0xbe2d1bbc	-0.16905111
122	0xbcf40995	-0.029789725
123	0xbe52938f	-0.20564102
124	0xbd86e9db	-0.06587573
125	0x3e4d27c4	0.200347
126	0xbd4ab7aa	-0.049491562
127	0x3de95d02	0.11394693
128	0x3db4c9ca	0.08827551
129	0xbd7c5568	-0.061604887
130	0xbbae6239	-0.0053217676
131	0x3e4074cf	0.18794559
132	0x3e14eb8c	0.14542979
133	0x3de4604e	0.11151181
134	0xbd59f26b	-0.053209703
135	0x3e38fac4	0.1806441
136	0xbd4ef2ae	-0.050524406
137	0xbd6534d9	-0.055958603
138	0x3daaa56c	0.08332333
139	0x3dd06f38	0.10177463
140	0x3b4bc518	0.0031092819
141	0x3e0ff667	0.14058839
142	0xbcdf9502	-0.027292732
143	0xbe3124a5	-0.17299135
144	0xbda67f02	-0.081296936
145	0x3d374c80	0.04475069
146	0x3d9450ac	0.072419494
147	0x3cd24b13	0.025670564
148	0xbdea4224	-0.114383966
149	0x3de98bc0	0.11403608
150	0xbdb962fe	-0.090520844
151	0x3d620f3f	0.05519032
152	0xbc22464e	-0.009904457
153	0xbda8d96d	-0.08244596
154	0xbdc6e90e	-0.097124204
155	0xbe16fae9	-0.14744152
156	0x3d801f20	0.062559366
157	0xbd33bb6f	-0.043879922
158	0xbe0ca130	-0.13733363
159	0xbe2438dd	-0.16037317
160	0x3d982ef5	0.07430831
161	0x3d3cd7a2	0.04610408
162	0xbd776f82	-0.060409077
163	0xbd859a37	-0.06523555
164	0xbd2d2a9b	-0.04227696
165	0xbdaf3180	-0.08554363
166	0x3d830057	0.06396549
167	0xbd59b82e	-0.053154163
168	0x3e1571ba	0.14594164
169	0x3d71aad4	0.059000805
170	0xbe194ee6	-0.14971504
171	0xbe35d362	-0.17756417
172	0x3e521973	0.2051752
173	0xbd35d13e	-0.044389002
174	0x399b573e	0.00029628904
175	0xbd3c1d96	-0.045926653
176	0xbcb98538	-0.022646531
177	0x3d9a5598	0.07535857
178	0x3de7a76e	0.113112316
179	0x3d21754a	0.039418496
180	0xbda5ee66	-0.081021115
181	0xbdb7f642	-0.08982517
182	0xbd00b131	-0.031418983
183	0xbd8a1b7a	-0.06743522
184	0x3c2d5bc5	0.010580962
185	0xbeb74c5e	-0.3580045
186	0xbca0c53a	-0.019625295
187	0xbe2cfccf	-0.16893314
188	0x3e431708	0.19051754
189	0xbdb221cc	-0.086978525
190	0xbe357b88	-0.17722905
191	0x3ddfc50a	0.10926254
192	0x3d0c08b2	0.03418798
193	0x3c0535e6	0.008130526
194	0x3dd62f0d	0.10458193
195	0x3dc5e912	0.09663595
196	0x3dd369eb	0.103229366
197	0x3d078b64	0.033091918
198	0xbd0ff577	-0.035146203
199	0x3e2e3b66	0.17014846
200	0x3db7c4de	0.08973096
201	0x3ca85d94	0.020552434
202	0xbce7fd75	-0.0283191
203	0x3e06cbdc	0.13163704
204	0xbd09102b	-0.033462685
205	0x3de2e9b0	0.110797286
206	0x3e3d7c22	0.18504384
207	0xbd12a034	-0.035797313
208	0x3c8fead7	0.017568035
209	0x3e299109	0.16559233
210	0x3de9c203	0.11413958
211	0xbd8e582d	-0.06950412
212	0x3dc7c9f6	0.09755318
213	0x3d80c0e1	0.06286789
214	0xbdc46303	-0.095891975
215	0x3df7ae7f	0.12093829
216	0x3d5375e8	0.051626116
217	0x3dd22f30	0.102629066
218	0xbe80978e	-0.25115627
219	0x3d241915	0.040062983
220	0xbdd7d39e	-0.1053841
221	0xbe473200	-0.19452667
222	0x3d7938c9	0.06084517
223	0xbbd9a987	-0.0066425237
224	0xbda44f03	-0.08022883
225	0xbe265a08	-0.16245282
226	0xbd1d7a7b	-0.038446885
227	0x3e94f040	0.29089546
228	0xbe0e5a1d	-0.13901563
229	0xbd31e8cc	-0.043434903
230	0xbdf68931	-0.12037886
231	0xbd114425	-0.03546538
232	0x3e0ed4f0	0.13948417
233	0x3d099b53	0.033595394
234	0xbd3d81b1	-0.04626626
235	0xbe093375	-0.13398536
236	0xbce11aac	-0.027478538
237	0xbdc3d37a	-0.0956182
238	0x3cbf8327	0.023377968
239	0x3e015d8c	0.12633342
240	0xbe373ac7	-0.17893516
241	0xbc9938c2	-0.018703822
242	0x3d310954	0.043221787
243	0xbdfd4a05	-0.12367634
244	0xbddc8885	-0.107682265
245	0x3e19d26e	0.15021679
246	0xbcdfac97	-0.027303977
247	0xbc5c8e7e	-0.013461707
248	0xbe18adab	-0.14909999
249	0xbedc076d	-0.42974415
250	0xbdfc1120	-0.12307954
251	0xbd10549d	-0.035236944
252	0x3d08a913	0.033364367
253	0x3d544b09	0.05182937
254	0x3d62d202	0.05537606
255	0xb9db850f	-0.0004187007

critic.0.bias f4 [32]
0	0x3c2ca6e4	0.010537837
1	0xbe844868	-0.25836492
2	0xbe472200	-0.19446564
3	0xbe373b91	-0.17893817
4	0x3d366158	0.044526428
5	0xbe3561b5	-0.17713054
6	0x3c562421	0.013070137
7	0x3cfe095c	0.031010322
8	0x3c1cc229	0.009567776
9	0xbe44e181	-0.19226648
10	0xbd43425a	-0.0476707
11	0xbe4cf5fb	-0.20015709
12	0xbe1e98f3	-0.15488033
13	0x3d8769ce	0.066119775
14	0xbc43cc85	-0.011950617
15	0xbe9683d6	-0.29397458
16	0x3dfad7f9	0.12248225
17	0xbe0c4bdf	-0.13700818
18	0xbafc410f	-0.0019245463
19	0x3e545db6	0.20738873
20	0x39316540	0.00016917754
21	0xbe244752	-0.16042832
22	0x3e031623	0.12801413
23	0x3e48c0c1	0.1960478
24	0x3e10e542	0.14149955
25	0xbd266187	-0.040620353
26	0x3ca03e65	0.019561002
27	0xbe63729f	-0.22211693
28	0xbe07a11a	-0.13245049
29	0x3e4da750	0.20083356
30	0x3e47d1a6	0.19513568
31	0x3da1516c	0.07876858

critic.2.weight f4 [1, 32]
0	0x3b2ea03a	0.0026645795
1	0xbe01ea65	-0.1268707
2	0xbd1d3d05	-0.03838827
3	0xbcb855b4	-0.022501804
4	0xbb82fa8a	-0.0039971517
5	0xbd72dcc9	-0.05929259
6	0xb9dbe733	-0.00041943192
7	0x3aefb589	0.0018288355
8	0xbbeebc59	-0.0072856364
9	0xbe002918	-0.12515676
10	0xbaab2f7b	-0.0013060415
11	0xbdee7a98	-0.11644477
12	0x3e9ba97d	0.30402747
13	0xbbe7cf6a	-0.007074286
14	0xbb434d8c	-0.002980086
15	0xbe789e6b	-0.24279182
16	0xbb081c3c	-0.0020768782
17	0xba70825a	-0.00091746973
18	0xbacb695b	-0.0015519069
19	0x3d8b10b8	0.06790298
20	0xbb3450ee	-0.0027514058
21	0xbc23dc28	-0.01000122
22	0xbbcc5461	-0.0062356447
23	0x3db0d7d3	0.08634915
24	0x3e7e14b0	0.24812579
25	0xb9871ff0	-0.00025773002
26	0x3b4e4ad4	0.0031477707
27	0xbd1da12e	-0.03848379
28	0x3b84c473	0.004051739
29	0x3de5787e	0.11204623
30	0x3d2f999a	0.042871095
31	0xbbb88afd	-0.005631803

memory_a.rnn.weight_ih_l0 f4 [256, 47]
0	0x3ed9929e	0.42494673
1	0xbd9a4ca3	-0.075341485
2	0xbd9cf842	-0.07664539
3	0x3e4502c1	0.19239332
4	0xbf63f896	-0.8905119
5	0x3e7064f4	0.2347601
6	0xbce742a4	-0.028230019
7	0xbdfc61ce	-0.12323342
8	0x3ed6dbb6	0.419645
9	0xbe8320a5	-0.25610843
10	0xbf7f5a1a	-0.9974686
11	0xbed9e926	-0.4256069
12	0xbf143273	-0.5788948
13	0x3f0c977b	0.5491864
14	0xbeb98f15	-0.36241975
15	0xbe3f6667	-0.18691407
16	0x3f3361bd	0.7007101
17	0x3e2b873e	0.1675081
18	0xbd45c0b2	-0.04827947
19	0xbf2c7ab8	-0.67374754
20	0xbd836808	-0.06416327
21	0xbea72de9	-0.32652214
22	0x3eab2a67	0.33430788
23	0x3def761d	0.1169245
24	0xbea7e211	-0.32789662
25	0xbe9e74cc	-0.30948484
26	0xbe791abe	-0.24326608
27	0x3e8aec98	0.27133632
28	0x3e7cd486	0.24690446
29	0x3f23370d	0.63755876
30	0xbf199988	-0.59999895
31	0xbb4bef45	-0.0031117958
32	0x3e86cc2a	0.2632764
33	0xbe178ef2	-0.14800623
34	0xbda2bbd2	-0.0794598
35	0x3e4e5d2b	0.20152728
36	0xbe56f1d0	-0.20990682
37	0xbe6d2078	-0.23156917
38	0x3dac6cbd	0.08419178
39	0x3d76718a	0.060166873
40	0x3e4e0db3	0.20122413
41	0x3ea55238	0.3228929
42	0xbd508785	-0.05091049
43	0xbead2a60	-0.33821392
44	0x3ebdba64	0.37056267
45	0xbd68b4ca	-0.05681304
46	0x3c678a59	0.014132106
47	0x3c930dd5	0.017950932
48	0xbe2231bb	-0.15839283
49	0x3ebdd769	0.37078407
50	0x3ecea77d	0.40362158
51	0x3e0e0103	0.13867573
52	0x3d831c35	0.064018644
53	0x3e558ff9	0.20855702
54	0x3ec1b559	0.3783367
55	0xbf69e9a4	-0.9137213
56	0x3fe3ca6e	1.7796152
57	0xbfa42228	-1.2822924
58	0xbf9508ef	-1.1643351
59	0x3e284fbe	0.16436669
60	0xbdf99b61	-0.12187839
61	0x3ee7920f	0.4522862
62	0x3f399686	0.72495306
63	0x3f67826e	0.90433395
64	0x3e74866b	0.23879401
65	0xbf671256	-0.90262353
66	0xbe0b4cba	-0.13603488
67	0x3e662afb	0.22477333
68	0x3e43ba7c	0.19114107
69	0xbf502283	-0.8130266
70	0xbe5b52e5	-0.2141834
71	0xbf0ea3cb	-0.5571868
72	0x3de303fe	0.11084746
73	0x3d75840b	0.05994038
74	0x3f0708e7	0.5274796
75	0x3e998cf9	0.29990366
76	0x3bb1c3fc	0.0054249745
77	0x3cb04b72	0.02152035
78	0x3e675217	0.22589909
79	0x3f15ec59	0.5856376
80	0xbc806608	-0.015673652
81	0xbe89cf48	-0.26915956
82	0xbf7631c2	-0.96169674
83	0x3d6e7df4	0.058225587
84	0x3e268e80	0.16265297
85	0x3e86231f	0.2619867
86	0x3eb97492	0.3622175
87	0xbdc78675	-0.097424425
88	0x3e6698ab	0.22519176
89	0xbe714378	-0.23560894
90	0xbe42c5f3	-0.19020824
91	0x3efca805	0.4934694
92	0xbf01a281	-0.50638586
93	0xbe9c2a3d	-0.30500975
94	0x3ea484ca	0.3213256
95	0xbea3977f	-0.3195152
96	0xbf2a65a5	-0.6656135
97	0x3ea7c02c	0.32763803
98	0xbeca6784	-0.395321
99	0x3dc3b823	0.09556606
100	0x3c3f9fa1	0.011695773
101	0xbd9dbea1	-0.07702375
102	0xbf4e4802	-0.80578625
103	0xbe5926c8	-0.212062
104	0xbdd1b94e	-0.10240422
105	0x3f34b9be	0.7059592
106	0xbe232fe0	-0.15936232
107	0xbf1ba375	-0.6079629
108	0xbea428e0	-0.32062435
109	0xbf302e7a	-0.6882092
110	0xbd8a8674	-0.06763926
111	0x3e1161e1	0.14197494
112	0xbe9aa572	-0.3020435
113	0xbbec81b3	-0.00721761
114	0xbf3530db	-0.7077767
115	0x3f8938f5	1.0720507
116	0x3ba58f53	0.005052486
117	0x3ea5e096	0.32397908
118	0xbe130746	-0.14358243
119	0xbf3a2c69	-0.72724015
120	0xbd7bed14	-0.061505392
121	0xbf163471	-0.5867377
122	0xbe2fab6e	-0.17155239
123	0xbf437595	-0.7635129
124	0x3cf41b2e	0.029798117
125	0x3f0147d0	0.505002
126	0x3f3db41e	0.7410296
127	0x3f861bb4	1.0477204
128	0xbe8db028	-0.2767346
129	0x3f19fb0e	0.60148704
130	0x3e35b352	0.17744187
131	0xbd728454	-0.05920823
132	0x3e0f4f87	0.13995181
133	0x3eeea6d6	0.4661166
134	0x3de3a162	0.11114766
135	0xbdb4ba80	-0.088246346
136	0x3e1da73e	0.15395829
137	0xbd3fbd13	-0.046811175
138	0xbe951c77	-0.2912328
139	0x3efe4e0b	0.49668917
140	0x3e14245f	0.14467
141	0xbebdb375	-0.37050977
142	0x3f1a1ba9	0.60198456
143	0x3e9d5814	0.3073126
144	0x3f2d71f7	0.6775202
145	0x3edd7f28	0.43261075
146	0x3e8be952	0.27326447
147	0xbeb2e6ae	-0.3494162
148	0x3e450d81	0.19243433
149	0x3f0d883d	0.5528601
150	0xbeb2ca63	-0.34920034
151	0xbf0cd79d	-0.550165
152	0x3e1102a7	0.14161168
153	0x3db88a16	0.09010713
154	0x3ec343be	0.3813762
155	0x3f1be88d	0.6090172
156	0xbf0f4b0b	-0.5597388
157	0xbe4108ae	-0.18850967
158	0x3e8e75d7	0.2782428
159	0xbf37b043	-0.7175333
160	0x3d9f18e1	0.07768417
161	0x3e0c5f10	0.13708138
162	0xbe86e58e	-0.2634701
163	0x3f0be121	0.54640394
164	0xbf0934c8	-0.5359616
165	0xbe5ab4a3	-0.2135797
166	0xbf280a69	-0.65640885
167	0xbf48bbeb	-0.7841174
168	0xbee60fe9	-0.44934013
169	0xbed62738	-0.41826797
170	0xbe1cb80e	-0.15304586
171	0x3e905432	0.28189236
172	0xbe7a01ff	-0.24414824
173	0x3e9af0ec	0.30261934
174	0xbedf6efd	-0.43639365
175	0xbd8a8497	-0.06763571
176	0xbe58635c	-0.21131653
177	0x3eb5232d	0.353784
178	0xbb85425e	-0.0040667495
179	0xbd0a854a	-0.03381852
180	0xbdab8b36	-0.08376162
181	0x3e558d60	0.20854712
182	0x3e07f003	0.13275151
183	0x3e89a50c	0.26883733
184	0xbe363951	-0.17795302
185	0x3ea6b112	0.3255697
186	0x3ea8c753	0.32964572
187	0xbc46fb4b	-0.012144874
188	0x3e855a59	0.26045492
189	0x3ef73e68	0.482898
190	0x3f7d4cdd	0.9894541
191	0x3f0c1b7a	0.54729426
192	0xbe250254	-0.1611417
193	0x3deb8981	0.11500836
194	0x3e8e209b	0.2775925
195	0x3deaabd9	0.114585586
196	0x3f2c0092	0.6718837
197	0x3f639b66	0.88908994
198	0x3e034062	0.12817529
199	0xbd92d160	-0.07168841
200	0xbe9f3073	-0.3109165
201	0x3f0a045f	0.5391292
202	0x3e264898	0.1623863
203	0xbe668ff3	-0.2251585
204	0x3e34d66b	0.17659919
205	0xbf2e50cf	-0.68092054
206	0x3f558c12	0.83416855
207	0x3f90da05	1.1316534
208	0x3ea6ae6d	0.3255495
209	0xbf02f930	-0.5116148
210	0x3f868ee3	1.0512356
211	0x3f9007bf	1.1252364
212	0x3e550dd1	0.20806052
213	0xbaf1a54b	-0.0018436102
214	0xbde9c646	-0.11414771
215	0xbf076dbb	-0.5290181
216	0x3ea8275c	0.3284253
217	0xbd8a77a6	-0.067611024
218	0x3f4c386e	0.79773605
219	0x3ded57f5	0.11589042
220	0xbe93f220	-0.28895664
221	0xbe557e88	-0.20849049
222	0xbde83a61	-0.1133926
223	0x3f080772	0.5313636
224	0x3da66471	0.081246264
225	0x3ef89f53	0.48559055
226	0xbe86f946	-0.26362056
227	0x3a2e8742	0.0006657728
228	0xbee56f3f	-0.44811437
229	0xbe431074	-0.19049245
230	0x3ef4f2d6	0.4784152
231	0xbd668ea3	-0.056288373
232	0xbb9938a0	-0.0046759397
233	0xbe900fef	-0.28137156
234	0xbe4b5aea	-0.198589
235	0x3f4e073f	0.80479807
236	0x3ecfb0bc	0.40564525
237	0x3dbd131c	0.092321604
238	0xbf2d5152	-0.6770221
239	0xbf181cb8	-0.5941882
240	0xbec31720	-0.3810358
241	0xbe95cafa	-0.2925642
242	0x3e9266ad	0.2859396
243	0xbf4b9568	-0.7952485
244	0x3e00d719	0.12582053
245	0xbf0fdf86	-0.56200445
246	0x3dbcb32a	0.0921386
247	0x3d5e2cd6	0.054241978
248	0x3efb973e	0.49138826
249	0x3e7bd40e	0.24592611
250	0x3c803b63	0.015653318
251	0xbe64623f	-0.22303103
252	0x3e4815a5	0.19539507
253	0x3ec7eb81	0.39046863
254	0x3f5a9a65	0.8539184
255	0xbee74676	-0.45170945

memory_a.rnn.weight_hh_l0 f4 [256, 64]
0	0xbdff6f1f	-0.124723665
1	0x3cad3cde	0.021147188
2	0xbebaefa9	-0.3651097
3	0xbe7fdb11	-0.24985911
4	0x3e4394c4	0.19099718
5	0x3e020531	0.12697293
6	0xbeb4787b	-0.3524817
7	0x3e28477d	0.1643352
8	0xbf0f5267	-0.5598511
9	0xbf346ca1	-0.70478255
10	0x3c293f4e	0.010330034
11	0xbeb7a92d	-0.35871258
12	0xbf1183a0	-0.5684147
13	0xbef28ca1	-0.47372916
14	0xbf62fee8	-0.88670206
15	0x3e914011	0.2836919
16	0xbe417257	-0.18891273
17	0xbe43c5fe	-0.19118497
18	0xbedb3f4b	-0.42821726
19	0xbd6e7557	-0.058217373
20	0x3ed17d3c	0.4091586
21	0x3c9b1590	0.01893118
22	0x3e84d5ef	0.25944468
23	0xbf0a3649	-0.5398908
24	0x3f4febd2	0.8121921
25	0xbf05f8df	-0.5233287
26	0xbe964494	-0.29349196
27	0x3f501497	0.8128142
28	0x3ee2199f	0.44160172
29	0xbe2dbf20	-0.1696744
30	0x3f405aa6	0.7513832
31	0x3e57dbe3	0.21079974
32	0xbddf7042	-0.10910083
33	0xbef5cc4f	-0.48007438
34	0x3e4f0c93	0.2021964
35	0xbf4e7009	-0.806397
36	0x3e854a95	0.26033464
37	0xbdeede87	-0.116635375
38	0xbe8a56bf	-0.27019307
39	0x3be5a0ae	0.00700768
40	0x3f156ab0	0.5836592
41	0xbd68be0a	-0.05682186
42	0xbf82031e	-1.0157201
43	0x3e312ab5	0.17301448
44	0x3f10aa2c	0.5650966
45	0xbdc7aa27	-0.09749251
46	0xbdb6b2b6	-0.08920805
47	0xbdc300cf	-0.095216386
48	0xbe78b419	-0.24287452
49	0x3f25f24d	0.64822847
50	0xbf5c52fd	-0.8606413
51	0xbe80421f	-0.25050446
52	0xbd62a3bc	-0.05533193
53	0xbf31517d	-0.69264966
54	0x3f348fcd	0.7053192
55	0xbf7dfbb0	-0.9921217
56	0x3eb58636	0.35453957
57	0x3e8f356d	0.27970448
58	0x3f1fb9bc	0.62392783
59	0xbefed7a5	-0.497739
60	0xbcac105d	-0.021003896
61	0xbf118d4c	-0.56856227
62	0xbe216b1f	-0.1576352
63	0xbcc6f512	-0.02428678
64	0xbe3e374f	-0.18575786
65	0x3ea82ccd	0.3284668
66	0x3ecc9247	0.3995535
67	0xbf1ac6d3	-0.6045963
68	0xbf29fc91	-0.6640101
69	0xbf28cf2d	-0.65941125
70	0x3f65f970	0.89833736
71	0xbf4c0de3	-0.7970869
72	0xbf863396	-1.0484493
73	0x3f4232a6	0.75858533
74	0xbd8aaf78	-0.06771749
75	0x3e61a30f	0.22034858
76	0x3e54ceb8	0.20781982
77	0x3d39efa8	0.04539457
78	0x3de3f1c2	0.11130096
79	0xbe326f63	-0.17425303
80	0x3e16a6fd	0.14712138
81	0x3f80e750	1.0070591
82	0x3ea13210	0.31483507
83	0xbe13492a	-0.14383379
84	0xbf4773e6	-0.7791122
85	0xbf003754	-0.50084424
86	0xbdd56d82	-0.104212776
87	0xbe110113	-0.14160566
88	0x3f3244e4	0.6963637
89	0xbe904c56	-0.2818324
90	0xbf543b87	-0.8290333
91	0xbf0030f8	-0.5007472
92	0x3e7f4796	0.24929652
93	0xbe22131c	-0.15827602
94	0xbde886fd	-0.11353872
95	0x3f472714	0.77794003
96	0xbf12699c	-0.571924
97	0x3e59f9f6	0.21286759
98	0xbc064c6f	-0.008196934
99	0x3e4d28ba	0.20035067
100	0xbe4f2121	-0.20227481
101	0x3e844a2a	0.25837833
102	0xbd5612f7	-0.05226418
103	0xbeb63726	-0.3558895
104	0x3ec0aca7	0.37631723
105	0xbf949ec1	-1.1610948
106	0x3d68466b	0.05670778
107	0xbe2058c2	-0.15658858
108	0x3f6b419c	0.91896987
109	0x3ed323c8	0.41238236
110	0x3ed25020	0.41076756
111	0xbdec6a91	-0.115437634
112	0xbea88e66	-0.3292114
113	0xbe09b2f1	-0.13447167
114	0x3dd7c4d3	0.10535588
115	0x3f609e4f	0.8774156
116	0xbd289ccb	-0.041165154
117	0xbe781d50	-0.24229932
118	0xbecf63d0	-0.40505838
119	0x3f250cd1	0.6447268
120	0xbdeed6b0	-0.11662042
121	0x3ef6276e	0.48076957
122	0xbece6237	-0.40309307
123	0xbedcb654	-0.43107855
124	0xbe9fc4a6	-0.31204718
125	0x3e8249da	0.2544697
126	0x3e203faf	0.15649293
127	0xbefc90c6	-0.49329203
128	0x3d6a6b77	0.057231393
129	0xbf232082	-0.6372148
130	0x3daccf3a	0.08437963
131	0xbeae047e	-0.33987802
132	0x3deec430	0.116585135
133	0x3d65cebb	0.056105357
134	0xbea1e83e	-0.316225
135	0x3f62fafb	0.88664216
136	0xbf012971	-0.5045386
137	0xbe26fd05	-0.16307457
138	0xbe92f034	-0.28698885
139	0x3e23e615	0.16005738
140	0x3f229899	0.63514096
141	0x3e4649b4	0.19364053
142	0xbf31f0bb	-0.6950795
143	0xbe505a67	-0.20346986
144	0xbebd41c2	-0.36964232
145	0x3e969228	0.29408383
146	0x3f035f5c	0.5131738
147	0xbed00c31	-0.406343
148	0xbeb4656f	-0.35233638
149	0x3f818702	1.0119326
150	0x3ee9eed1	0.45690015
151	0x3d40bdea	0.047056116
152	0xbef64dab	-0.4810613
153	0x3f84c75a	1.0373337
154	0xbe42d367	-0.19025956
155	0xbf1e664a	-0.6187483
156	0xbeb46266	-0.35231322
157	0xbedcee8c	-0.43150747
158	0x3f1a1282	0.6018449
159	0xbdeefbbb	-0.116691075
160	0x3f566ecd	0.8376282
161	0xbdf3a738	-0.11897129
162	0xbf04f51f	-0.51936525
163	0xbe01781e	-0.12643477
164	0x3fa84d3e	1.3148572
165	0x3f0a9ad9	0.5414253
166	0xbec0c20c	-0.37648046
167	0xbdf709b8	-0.120624006
168	0x3e5e275a	0.21694699
169	0x3c85eef9	0.016349303
170	0x3f24b580	0.6433945
171	0x3f21685d	0.6304987
172	0xbf33a882	-0.70179
173	0x38bd5949	9.028853e-05
174	0xbe4b5ea6	-0.19860324
175	0xbeb23ddd	-0.34812823
176	0xbe396686	-0.18105516
177	0x3f36e3ec	0.7144153
178	0xbf062acb	-0.52409047
179	0xbd2c35a9	-0.04204336
180	0x3eb6d401	0.3570862
181	0xbed9ec54	-0.42563117
182	0x3e3e6f58	0.18597162
183	0xbdaf7ac6	-0.08568339
184	0xbe7ff4f0	-0.2499578
185	0xbebb2360	-0.36550426
186	0xbe26ec25	-0.1630102
187	0x3ed47209	0.41493252
188	0x3e4b5b5b	0.19859068
189	0x3ea46e42	0.3211537
190	0xbef044ae	-0.46927398
191	0x3e92ad62	0.28647906
192	0x3f3988b1	0.724742
193	0x3ebf5a57	0.3737361
194	0x3c82db1a	0.015973616
195	0x3d4b541a	0.049640752
196	0x3f5ce013	0.8627941
197	0xbf07b4f2	-0.53010476
198	0xbe42865f	-0.18996571
199	0x3f4ca61a	0.7994095
200	0xbf38ebb2	-0.7223464
201	0xbed94c98	-0.4244125
202	0x3e3ea34b	0.18616979
203	0xbe916d01	-0.28403476
204	0x3e667f49	0.22509493
205	0xbf3c7ae8	-0.7362504
206	0xbe4be44f	-0.19911312
207	0x3e0c870d	0.13723393
208	0xbeabb46d	-0.3353609
209	0x3dcdf378	0.100562036
210	0x3dfbe9ce	0.12300454
211	0x3e90d938	0.28290725
212	0x3ea48d3e	0.3213901
213	0xbf79e5a9	-0.9761606
214	0xbeb53235	-0.35389867
215	0x3d988914	0.074480206
216	0xbe62fbc2	-0.2216635
217	0xbec9e85b	-0.39435086
218	0xbe1d3314	-0.15351516
219	0x3e5ee6d3	0.2176774
220	0xbf1c8adb	-0.61149377
221	0x3e13e11f	0.14441346
222	0x3edeeb28	0.43538785
223	0xbd7d6060	-0.06185949
224	0xbec50fa2	-0.3848849
225	0x3e095c02	0.13414004
226	0xbf7a7788	-0.9783864
227	0xbed0d6ab	-0.4078878
228	0xbec629f4	-0.38703883
229	0x3ec2818a	0.37989455
230	0xbedd27ff	-0.43194577
231	0xbf1de44d	-0.61676484
232	0xbde21507	-0.11039167
233	0xbf493695	-0.7859891
234	0x3f0d98b4	0.5531113
235	0x3e798bb0	0.24369693
236	0xbe8ebcbb	-0.27878365
237	0xbf0db059	-0.5534721
238	0xbf0dd63f	-0.5540504
239	0xbf3a28bc	-0.72718406
240	0xbe870e37	-0.26378033
241	0xbfa10226	-1.2578781
242	0x3b0b15ba	0.0021222667
243	0xbf017c5b	-0.50580376
244	0x3f48d588	0.7845082
245	0x3dc1d6f7	0.094648294
246	0xbe4d5205	-0.20050819
247	0xbf123ba1	-0.57122236
248	0x3ec8a0bc	0.3918513
249	0xbf8220bb	-1.0166239
250	0x3e0ed4ba	0.13948336
251	0x3e49b3ed	0.19697542
252	0xbe7c01ef	-0.24610113
253	0xbf401cae	-0.7504376
254	0xbf05a009	-0.5219732
255	0x3f3c7ce5	0.73628074

memory_a.rnn.bias_ih_l0 f4 [256]
0	0x3a5f4e94	0.0008518484
1	0x3df75b8b	0.12078007
2	0xbe427c11	-0.1899264
3	0xbd7b5b47	-0.061366346
4	0xbe0c1df7	-0.13683306
5	0x3e01255f	0.12611912
6	0xbeb82a0b	-0.35969576
7	0xbe346fa2	-0.1762071
8	0xbcc6bff4	-0.024261452
9	0xbd321550	-0.043477356
10	0x3e2b413d	0.16724105
11	0xbe336401	-0.17518617
12	0xbe7da614	-0.24770385
13	0xbe24dee1	-0.16100647
14	0xbec10c29	-0.3770459
15	0xbda8a55b	-0.08234664
16	0x3e8e4d65	0.27793422
17	0xbdcd8e8b	-0.100369535
18	0xbdb1d06e	-0.08682333
19	0xbdc5d818	-0.09660357
20	0xbe8a8a54	-0.2705866
21	0xbe341edf	-0.17589901
22	0xbe35e96a	-0.17764822
23	0xbe390544	-0.18068415
24	0xbe851594	-0.25993025
25	0xbe3433d6	-0.17597899
26	0xbe843f0e	-0.25829357
27	0xbe0b2a47	-0.13590346
28	0xbddd45b0	-0.108043075
29	0xbe82df76	-0.25561112
30	0xbd2606ed	-0.04053395
31	0x3d486119	0.048920725
32	0xbd08aef0	-0.03336996
33	0xbeae0978	-0.339916
34	0xbeaacdbc	-0.33360088
35	0xbe910944	-0.28327382
36	0xbd392c9a	-0.04520855
37	0x3e56ad44	0.20964533
38	0xbe8cc86a	-0.27496654
39	0x3d46affc	0.048507676
40	0xbe492d9e	-0.19646308
41	0xbe1de69f	-0.15420006
42	0xbeb697d9	-0.35662726
43	0x3e0014d4	0.12507945
44	0xbe26b5ce	-0.1628029
45	0xbebff043	-0.37487993
46	0x3e15cf8e	0.14629957
47	0xbdcea665	-0.10090331
48	0x3beb23fd	0.007175921
49	0xbe467e5b	-0.19384138
50	0xbe2c8411	-0.16847254
51	0x3e384f1a	0.17998925
52	0x3e550647	0.20803176
53	0xbe8ab6f7	-0.27092716
54	0xbec5d1ad	-0.38636532
55	0xbc9fa26a	-0.019486625
56	0x3e1a65b5	0.1507786
57	0x3debb3e0	0.11508918
58	0x3d3f7551	0.04674274
59	0xbdb04556	-0.08606975
60	0x3e442afa	0.1915702
61	0xbbdae279	-0.0066798297
62	0xbe07c6c8	-0.13259423
63	0xbd80ae83	-0.062832855
64	0xbd8e1750	-0.0693804
65	0xbe35bbe6	-0.17747459
66	0xbe719aea	-0.23594251
67	0x3e97f1a9	0.2967656
68	0xbe2f9af9	-0.17148961
69	0xbe9018df	-0.28143975
70	0x3ecf1fc1	0.40453914
71	0x3e1e1cd8	0.1544069
72	0xbe93f767	-0.2889969
73	0xbe6b8547	-0.2300006
74	0xbf26e0f6	-0.65187013
75	0x3da803cf	0.082038514
76	0xbe4cdc6b	-0.20005958
77	0xbecdf08d	-0.40222588
78	0xbba6ecbd	-0.0050941394
79	0xbe78b1cc	-0.24286574
80	0xbe84a77e	-0.25909036
81	0xbc459427	-0.012059248
82	0xbe091343	-0.13386254
83	0xbba4b3f8	-0.0050263368
84	0xbda3c35b	-0.079962455
85	0x3dc7f4fc	0.09763524
86	0x3d8338a9	0.064072914
87	0xbe8cc990	-0.2749753
88	0xbe1b9d11	-0.15196635
89	0x3e2e7550	0.17036939
90	0xbe88cf20	-0.26720524
91	0x3db24951	0.0870539
92	0xbe3136f2	-0.17306116
93	0xbe817b44	-0.25289357
94	0xbe40f3fc	-0.18843073
95	0xbeab856e	-0.33500236
96	0x3c3acc42	0.011401238
97	0xbd6894a1	-0.05678237
98	0xbd21b5a8	-0.03947988
99	0xbda94186	-0.08264451
100	0xbe9e5170	-0.30921507
101	0xbeb8b479	-0.3607519
102	0xbe1a12c5	-0.15046223
103	0xbf083c54	-0.53217053
104	0xbcf1455a	-0.029452015
105	0x3c89e6c0	0.016833663
106	0xbe0127c3	-0.12612824
107	0xbd67867a	-0.05652473
108	0xbe42be77	-0.19017969
109	0xbee18020	-0.44043064
110	0xbea4c39b	-0.32180485
111	0xbe88e62e	-0.26738113
112	0xbe0a44e7	-0.13502847
113	0x3df4c54a	0.119516924
114	0xbd3c470f	-0.045966204
115	0xbe3bb3ca	-0.18330303
116	0xbe9ac64c	-0.30229414
117	0xbd9d42d1	-0.0767876
118	0x3dab5b84	0.083670646
119	0x3dbf2369	0.09332926
120	0xbdc208e4	-0.09474352
121	0xbea9ceee	-0.33165687
122	0xbf2b06da	-0.6680733
123	0xbd4dc69b	-0.050238233
124	0xbde9745b	-0.11399146
125	0xbea35745	-0.3190252
126	0x3bcc8c5c	0.006242318
127	0xbf164e0a	-0.5871283
128	0xbdb73883	-0.08946326
129	0xbe244aac	-0.1604411
130	0x3d2dca9e	0.04242956
131	0x3e20a8ff	0.15689467
132	0xbe16b3f9	-0.14717092
133	0x3d7a8ae1	0.0611676
134	0x3cef34d1	0.02919999
135	0xbe46346e	-0.19355938
136	0x3e445030	0.19171214
137	0x3e7063e3	0.23475604
138	0xbdf8bcc2	-0.12145378
139	0x3b6380db	0.0034714255
140	0xbd32b21d	-0.043626893
141	0x3e83f929	0.25776032
142	0x3e441a66	0.19150695
143	0x3d892c14	0.0669786
144	0xbdf66fb5	-0.12033025
145	0xbe39d2d2	-0.18146828
146	0xbd85bd5d	-0.06530259
147	0xbcfe1122	-0.031014029
148	0xbe15e8e9	-0.1463963
149	0x3e40c973	0.18826847
150	0xbdcb7a06	-0.099353835
151	0x3c42f5c7	0.011899418
152	0xbdb8dd35	-0.09026567
153	0x3deaef7e	0.11471461
154	0x3e26f97d	0.1630611
155	0xbb9adc44	-0.0047259647
156	0xbe846145	-0.2585546
157	0x3e07006c	0.13183755
158	0x3d49b3cf	0.049243744
159	0x3c681d3f	0.014167129
160	0x3e21a184	0.1578427
161	0xbd3c5454	-0.04597886
162	0x3d149fc7	0.036285188
163	0x3d9fdb47	0.07805496
164	0x3df94f52	0.12173332
165	0x3d5d6826	0.0540544
166	0x3e08c6e0	0.13357115
167	0x3d45b23a	0.048265673
168	0x3e352d60	0.1769309
169	0x3e87de51	0.265368
170	0x3e14082a	0.1445624
171	0xbd3babab	-0.045818012
172	0x3d60d82a	0.05489365
173	0x3c01d35b	0.007923926
174	0x3d7fda09	0.062463794
175	0xbd480691	-0.048834387
176	0x3bb0a8db	0.005391223
177	0x3d28af4a	0.041182794
178	0xbd028def	-0.03187364
179	0x3de38dfd	0.111110665
180	0xbd9f331d	-0.07773421
181	0x3c5d52bb	0.013508494
182	0x3c99930d	0.018746877
183	0x3db38e8b	0.08767422
184	0xbe8ba690	-0.27275515
185	0x3b237752	0.0024942947
186	0xbc8524b3	-0.016252851
187	0xbd954f21	-0.07290483
188	0xbd819b13	-0.06328406
189	0x3dd485c4	0.10377076
190	0xbb8f65a3	-0.0043761297
191	0x3ce767f2	0.028247807
192	0xbd902c60	-0.07039714
193	0xbce3418b	-0.027741214
194	0x3d3dddeb	0.046354216
195	0xbe0ed803	-0.1394959
196	0xbe8d74d8	-0.27628207
197	0x3e8f11b4	0.27943194
198	0xbe900b56	-0.2813365
199	0x3d73403e	0.059387438
200	0xbeafa09a	-0.34302217
201	0xbe0461df	-0.1292796
202	0x3e18b083	0.14911084
203	0xbe70a257	-0.23499428
204	0xbec6f2fb	-0.38857254
205	0xbe2bcdbd	-0.16777702
206	0xbf00e07e	-0.5034255
207	0x3df22086	0.118226096
208	0xbc90f948	-0.017696992
209	0xbe9b8c7b	-0.30380616
210	0xbe472549	-0.19447817
211	0xbe9abf36	-0.30224007
212	0xbe7de4e6	-0.24794349
213	0xbdca408d	-0.09875593
214	0x3e223aa5	0.15842684
215	0xbe3210f2	-0.17389277
216	0xbd8ce561	-0.06879688
217	0x3d46dfee	0.0485534
218	0xbd85d7e1	-0.06535316
219	0xbe2e2fee	-0.17010471
220	0xbdf5ee2b	-0.120083176
221	0x3d467988	0.048455745
222	0xbd81c78d	-0.063368894
223	0xbe8fd80a	-0.28094512
224	0xbe1cf0b3	-0.15326194
225	0xbdd174ea	-0.10227378
226	0x3e5ca774	0.21548253
227	0xbd4c7fd8	-0.04992661
228	0x3bf1d4fd	0.0073801265
229	0xbe03b4aa	-0.12861887
230	0xbe810f9c	-0.25207222
231	0x3df93f4a	0.121702746
232	0xbe48c3de	-0.19605967
233	0x3e55c1a9	0.20874657
234	0xbdcf8ccf	-0.10134279
235	0x3d01aa8a	0.03165678
236	0x3e261667	0.16219483
237	0xbeb00bd1	-0.34384015
238	0xbdc2ff9f	-0.09521412
239	0x3ddbc8b7	0.10731643
240	0x3e3c84a5	0.18409975
241	0xbd10a3dd	-0.035312522
242	0xbe84b466	-0.25918883
243	0x3cb855c2	0.02250183
244	0x3e9270ff	0.28601834
245	0x3dcb19f3	0.09917059
246	0xbe8cc91b	-0.2749718
247	0xbe24e6b7	-0.16103636
248	0xbd1877b2	-0.037223525
249	0x3e3d13ff	0.18464659
250	0xbe713cfc	-0.2355842
251	0x3ddefd9b	0.10888215
252	0x3dccd9cb	0.10002478
253	0x3dc2225d	0.094792105
254	0xbe2c8d55	-0.16850789
255	0x3db94760	0.09046817

memory_a.rnn.bias_hh_l0 f4 [256]
0	0xbd6379c3	-0.055536043
1	0x3dfd8bb1	0.1238016
2	0xbe3bdb8c	-0.18345469
3	0xbddbc224	-0.10730389
4	0xbe594e44	-0.21221262
5	0x3e785b56	0.24253592
6	0xbe8f9324	-0.28041947
7	0xbd63bcf7	-0.055600133
8	0xbd9e7d00	-0.077386856
9	0xbdbe1502	-0.09281351
10	0x3e951180	0.29114914
11	0xbe41c8c8	-0.18924248
12	0xbe43154e	-0.19051096
13	0xbe763f57	-0.240476
14	0xbe72d6cc	-0.23714751
15	0xbccde5f0	-0.025134057
16	0x3e68676b	0.22695701
17	0x3cea2f7e	0.0285871
18	0xbe121e3e	-0.14269349
19	0xbded010e	-0.11572467
20	0xbe403088	-0.18768513
21	0xbe3bc0de	-0.18335292
22	0xbdfd516d	-0.12369046
23	0xbe1ad9bc	-0.15122122
24	0xbe3dae6b	-0.18523566
25	0xbe66d9b7	-0.22543989
26	0xbea5dd00	-0.32395172
27	0xbe146c9c	-0.14494556
28	0xbd339ede	-0.04385268
29	0xbe32675f	-0.17422245
30	0xbe480b3e	-0.19535539
31	0x3cf49900	0.029858112
32	0xbe144a98	-0.1448158
33	0xbe123cc2	-0.1428099
34	0xbe965aab	-0.2936605
35	0xbe0e23fa	-0.13880911
36	0xbddda75f	-0.10822939
37	0x3d604686	0.054754756
38	0xbe865770	-0.26238585
39	0xbd816525	-0.0631812
40	0xbdb746da	-0.08949061
41	0x3cce4dbc	0.025183551
42	0xbf0b83da	-0.54498065
43	0x3d72ba4b	0.059259694
44	0xbe19ab1b	-0.15006678
45	0xbf00fe4c	-0.50388026
46	0x3dc83756	0.097761795
47	0xbe13da97	-0.14438854
48	0xbdebc3b2	-0.11511935
49	0xbe037fc1	-0.12841703
50	0xbc37053c	-0.011170682
51	0x3d9223b4	0.07135716
52	0x3e32807d	0.17431827
53	0xbe6f0813	-0.23342924
54	0xbeaaaba9	-0.3333409
55	0x3e0246ac	0.12722272
56	0x3ca9956b	0.02070113
57	0x3cbab48c	0.02279117
58	0xbdc4c379	-0.09607596
59	0xbe52d335	-0.20588382
60	0x3e202f94	0.1564315
61	0xbb8dfb49	-0.004332934
62	0xbd12d0be	-0.035843603
63	0xbd830b30	-0.06398618
64	0xbe366009	-0.17810072
65	0xbe05fd21	-0.13084842
66	0xbe3d1b4c	-0.18467444
67	0x3e68eda7	0.22746907
68	0x3cfa7258	0.030572101
69	0xbd4898d2	-0.048973866
70	0x3ebfa047	0.3742697
71	0xbcab9c23	-0.020948475
72	0xbe2525f8	-0.16127765
73	0xbe231652	-0.15926483
74	0xbee1720b	-0.4403232
75	0x3dedf350	0.11618674
76	0xbece6fe8	-0.40319753
77	0xbf1f98c2	-0.62342465
78	0x3e281fd2	0.16418388
79	0xbe9fe971	-0.3123279
80	0xbeb7bbe9	-0.35885552
81	0xbcc6be67	-0.024260713
82	0xbe191e0a	-0.14952865
83	0xbd2ef057	-0.042709675
84	0xbe0162cd	-0.12635346
85	0x3d0be5dc	0.034154758
86	0x3e1c041c	0.15235943
87	0xbe0b3b66	-0.13596877
88	0xbbbe97d9	-0.0058164415
89	0x3e5e5333	0.21711425
90	0xbea902ec	-0.33010042
91	0x3db8fd5f	0.09032702
92	0xbdd27d22	-0.102777734
93	0xbe8315c3	-0.2560254
94	0xbe0fd7b5	-0.1404713
95	0xbdd3f170	-0.10348785
96	0xbd051923	-0.032494675
97	0xbe408a8b	-0.1880285
98	0xbc6050b1	-0.013691113
99	0xbe6f1478	-0.23347652
100	0xbe453fb0	-0.19262576
101	0xbec5ed7b	-0.38657746
102	0xbe8de1b0	-0.27711248
103	0xbedf9a76	-0.43672532
104	0x3d899296	0.06717412
105	0x3dab04ad	0.08350501
106	0xbe0bb866	-0.13644561
107	0x3d9de4e2	0.077096716
108	0xbe231db1	-0.15929295
109	0xbec13a82	-0.3773995
110	0xbe885bc9	-0.26632527
111	0xbed1188d	-0.40839043
112	0xbe052cfd	-0.13005443
113	0xbc8b52f5	-0.01700733
114	0xbdd142f9	-0.10217852
115	0xbe64e052	-0.22351196
116	0xbebb0358	-0.3652599
117	0xbd8246d7	-0.06361168
118	0x3e79501c	0.24346966
119	0xbe069fa3	-0.13146834
120	0xbd560398	-0.05224952
121	0xbe84ec88	-0.2596171
122	0xbedec609	-0.43510464
123	0xbdf7ac53	-0.12093415
124	0xbddefca2	-0.1088803
125	0xbe9e0963	-0.30866536
126	0x3d34764e	0.044058137
127	0xbf1e9b30	-0.6195555
128	0xbd4361ea	-0.0477008
129	0x3d6460ab	0.055756252
130	0x3b21ded4	0.0024699466
131	0x3e0783da	0.13233891
132	0x3d59d35f	0.053180095
133	0xbe0e5aae	-0.13901779
134	0x3dc80b2c	0.09767756
135	0xbd9444ee	-0.0723971
136	0x3c3677dd	0.011136976
137	0x3d9cce80	0.07656574
138	0xbd8b8239	-0.068119474
139	0xbde60476	-0.112313196
140	0x3e032a1b	0.1280903
141	0x3e121230	0.1426475
142	0x3d96e983	0.073687576
143	0xbe0d00c1	-0.13769819
144	0xbd9001da	-0.07031603
145	0xbdc80c39	-0.09767956
146	0x3cd6c67d	0.026217693
147	0xbdaf0123	-0.08545139
148	0xbdc47ff7	-0.0959472
149	0x3e006a79	0.12540616
150	0x3d515bef	0.051113065
151	0x3daf56c6	0.085614726
152	0xbdb202b6	-0.08691923
153	0xbcd7a296	-0.026322644
154	0xbcd621bb	-0.02613913
155	0x3ba71c60	0.005099818
156	0xbe11239b	-0.14173739
157	0x3e2c5f64	0.16833264
158	0xbd73f85f	-0.059563037
159	0xbd9c02e6	-0.0761774
160	0xbd08284d	-0.03324156
161	0xbd783051	-0.060592953
162	0xba35aa4e	-0.00069299794
163	0xbdca0997	-0.0986511
164	0x3a340e95	0.0006868628
165	0x3cfc3463	0.030786699
166	0x3db6cca6	0.08925752
167	0x3c71db57	0.014761767
168	0x3d528651	0.051397625
169	0x3e8f21b3	0.27955398
170	0x3e83d508	0.25748467
171	0xbd5e2cd7	-0.05424198
172	0x3d960f3c	0.073271245
173	0xbb9a27d3	-0.0047044544
174	0x3d82b142	0.063814655
175	0xbd882464	-0.06647566
176	0x3d8accf0	0.0677737
177	0x3a8074e0	0.0009800456
178	0xbdcd60fc	-0.10028264
179	0x3bc0c689	0.0058830422
180	0xbd9f953d	-0.07792137
181	0x3e42e6e3	0.19033389
182	0xbdf5d561	-0.120035894
183	0x3d90db69	0.07073099
184	0xbe247d52	-0.16063431
185	0x3c9b449f	0.01895362
186	0x3de5a4ed	0.11213098
187	0x3d2f4188	0.042787105
188	0x3d49a76f	0.049231943
189	0xbdd6b527	-0.10483771
190	0xbdb68537	-0.089121275
191	0x3e4716c1	0.19442274
192	0x3da5e967	0.081011586
193	0x3c6913f5	0.0142259495
194	0x3dc7d3cd	0.09757195
195	0xbe036c64	-0.12834316
196	0xbe56ac3a	-0.20964137
197	0x3e900296	0.28126973
198	0xbe3a2027	-0.18176328
199	0x3ce7babd	0.028287286
200	0xbec3a5b0	-0.38212347
201	0xbdea83ce	-0.11450921
202	0x3e6c0050	0.23046994
203	0xbe5b93a4	-0.21443039
204	0xbe5f76a8	-0.21822608
205	0xbe985324	-0.2975093
206	0xbed03174	-0.4066273
207	0x3c49ac99	0.012309217
208	0xbd309a17	-0.0431157
209	0xbe9d6dd8	-0.30747867
210	0xbd796a8d	-0.06089263
211	0xbdd34117	-0.10315149
212	0xbd2d12a2	-0.042254098
213	0xbe6a61ca	-0.22888866
214	0x3df0bbd1	0.11754573
215	0xbeb216fe	-0.34783167
216	0xbdd39a1e	-0.1033213
217	0xbde9e2a7	-0.11420184
218	0xbe2f7445	-0.17134197
219	0xbe6f1b5d	-0.23350282
220	0xbe34a133	-0.17639618
221	0x3d498d95	0.04920729
222	0xbdee4d5c	-0.11635849
223	0xbeab9289	-0.33510235
224	0x3d172595	0.036901075
225	0xbe26c98a	-0.16287819
226	0x3de45828	0.11149627
227	0x3d84e409	0.06488807
228	0x3c8afbbf	0.016965745
229	0xbdc4d3ab	-0.09610685
230	0xbd129e74	-0.035795644
231	0x3dd38946	0.10328917
232	0xbe5062d8	-0.20350206
233	0x3e4c085a	0.19925061
234	0xbe9e1611	-0.3087621
235	0x3b8e9dac	0.004352292
236	0x3e29c83c	0.1658029
237	0xbe58acc3	-0.21159653
238	0x3d09860c	0.033575103
239	0x3e6806dc	0.22658867
240	0x3e17fe65	0.14843138
241	0xbde4ad53	-0.111658715
242	0xbd98dd96	-0.07464139
243	0xbd2856f1	-0.04109854
244	0x3e843c8b	0.2582744
245	0x3e47af1d	0.19500394
246	0xbe857e10	-0.2607274
247	0xbe3df00a	-0.18548599
248	0xbe26a8f0	-0.16275382
249	0x3dd6b7d4	0.10484281
250	0xbea88880	-0.3291664
251	0xbc82be53	-0.015959894
252	0x3dbcf65e	0.09226678
253	0x3e1bc9a1	0.15213634
254	0xbe1e7c29	-0.15477051
255	0x3df66d70	0.12032592
