logs/g1/Apr19_03-18-51_/model_200.pt (torch, 777504 bytes, 48 tensors)

std f4 [12]
000000 c2 df a7 3e 98 b6 d6 3e 8e 26 4a 3e 59 dd 92 3e
       0.327879 0.41936183 0.1974127 0.286845
000010 5a 0e 19 3f 58 10 10 3f 20 9d a7 3e f2 7a d9 3e
       0.59787524 0.5627494 0.32737064 0.42476612
000020 81 d3 54 3e 2f a6 a8 3e ca cf 1c 3f 8f fc 18 3f
       0.20783807 0.32939288 0.6125456 0.59760374

actor.0.weight f4 [32, 64]
000000 ad 39 8f 3d c1 00 24 bd f7 fa 4a 3d e4 ee 9d ba
       0.06993423 -0.04003978 0.049555745 -0.0012049344
000010 31 5a 7a 3e 5f e4 bd 3d e9 2a a5 be e2 62 2c 3d
       0.24448468 0.09272074 -0.322593 0.04208649
000020 4d d4 7f 3e 2b a2 9f 3e 4b 06 75 3e 60 36 06 3e
       0.2498333 0.31178412 0.23928182 0.1310668
000030 e5 44 93 3e 02 16 9b 3e cd 28 b0 bc a6 97 bc 3d
       0.287635 0.30290228 -0.02150383 0.09208612
000040 fb df 01 3e 4c 50 85 bd 0d 2e ef 3d 61 40 76 3d
       0.12683098 -0.06509456 0.11678705 0.06011999
000050 1c f5 54 3d fa 82 8e 3c ea e7 5d 3e 33 97 a8 3e
       0.051991567 0.017396439 0.216705 0.32927856
000060 8a 0c 0a bc b1 0e 9c 3e c5 19 28 be 64 39 9e 3d
       -0.008425841 0.3047996 -0.1641608 0.0772579
000070 8f 53 16 bd 12 5f 8a 3e f6 98 68 be 11 71 aa be
       -0.03670078 0.27025658 -0.227146 -0.33289388
000080 ce 1f 3a 3e 4d 91 ba bd 33 2c 20 bc 5a ca 66 3e
       0.18176195 -0.09109745 -0.009776163 0.22538128
000090 5c 50 9e 3d 09 af 5c bd f0 b7 7e 3e 88 64 2b 3e
       0.07730171 -0.053877864 0.24874854 0.16737568
0000a0 7d f8 60 3a 55 3c 24 be 89 dc d7 3d 74 44 c7 3d
       0.00085819495 -0.1603864 0.105401106 0.09729853
0000b0 4b a6 39 be 2b a9 cf 3d ba b5 6d be d8 77 aa bd
       -0.18129842 0.10139688 -0.23213854 -0.0832364
0000c0 2a 0c 26 3c 96 65 0a be d7 9f 0f 3e 5b b6 2a bd
       0.010134736 -0.13515314 0.14025818 -0.041677814
0000d0 43 68 87 3e 47 82 d9 bd dd 7f da bc 4e ae ac 3d
       0.26446733 -0.106205516 -0.026672298 0.084316835
0000e0 ab eb 9f bc fb c1 ca 3d 20 25 e1 be ef c3 05 be
       -0.019521555 0.0990028 -0.43973637 -0.13063024
0000f0 b2 62 22 3e 17 3f ac bd 9e c5 11 be 77 a8 ce bd
       0.15857962 -0.08410471 -0.14235541 -0.10090726
000100 59 4c 8e 3e 48 d2 ac 3e 8f f7 ca bc 77 8f 83 3d
       0.27792624 0.33754182 -0.024776248 0.06423848
000110 2b 46 9d 3e e1 28 d7 bd af d3 da bc c2 30 7d be
       0.30717596 -0.10505844 -0.026712267 -0.24725631
000120 8a 6b 8f be a8 cb e7 3e 95 37 b3 be 5a 5a cb 3e
       -0.28011733 0.45272565 -0.35003343 0.3971737
000130 61 3c 06 3d d3 4f 80 be ac ac 04 bd e7 c6 76 be
       0.032772426 -0.250609 -0.032391235 -0.24099313
000140 6d c9 ec 3d 04 20 0a be d6 14 12 be 55 f0 a8 ba
       0.115618564 -0.13488775 -0.14265761 -0.0012889007
000150 90 8a e8 bd 17 41 e1 3d ce c4 57 3e bb 8c d8 bb
       -0.11354554 0.10998743 0.21071169 -0.0066085733
000160 ca ff c5 bd 96 9c 5b 3d 3b 19 5b be b9 f8 c8 bc
       -0.096679285 0.05361613 -0.21396343 -0.024532663
000170 68 91 e6 3d b0 66 0c be 1c 02 31 bd db 2c a2 bd
       0.11258203 -0.13711047 -0.043214902 -0.07918712
000180 13 c0 85 3e 84 d4 7a 3c ea aa 2d be 22 aa 35 3e
       0.26123103 0.015309457 -0.1695973 0.17740682
000190 7b 4c 88 3e d8 c9 b2 3c 06 48 82 bd f1 de 9c 3d
       0.2662085 0.021824762 -0.06361394 0.0765971
0001a0 00 fc d1 3e 71 97 07 3e bb 3f af 3b 43 4b c7 be
       0.41012573 0.13241364 0.0053481734 -0.38924608
0001b0 6e d2 c0 3e 1c 59 01 3e 54 e3 8f 3e 2c ce 95 3c
       0.37660545 0.12631649 0.28103125 0.018286787
0001c0 2c 6d 17 bd 54 8c 6c be 08 32 7e be 1e ab 06 be
       -0.03696935 -0.23100406 -0.24823773 -0.13151214
0001d0 13 03 e6 3d 16 b5 3e be a8 4e 63 be d5 d4 72 3e
       0.11231055 -0.18623766 -0.22197974 0.23714001
0001e0 0b 28 32 be 17 ed d8 3d 36 13 a8 3e 04 3e 18 be
       -0.17398088 0.10592096 0.32827157 -0.14867407
0001f0 37 31 9b 3c b3 a0 bc 3e 3c 12 09 3f c0 39 17 3e
       0.018944366 0.36841354 0.5354345 0.14768124
000200 a9 34 ab bd 9d e7 93 3d eb 8e 09 3e 28 1f ea bd
       -0.083596535 0.07221911 0.13433425 -0.11431724
000210 c9 ab 79 3e cf 5d b3 3d 01 76 a3 bd c8 d8 57 3e
       0.24381937 0.08758127 -0.07981492 0.21078789
000220 53 44 55 3e 66 0d ae 3e 7f 61 0b 3e 91 d0 fd bd
       0.20826845 0.33994597 0.1361141 -0.123932965
000230 2b af 24 3b 55 1f 9d 3d 34 c7 bd bc e5 fe 47 3e
       0.0025128822 0.07671992 -0.023166277 0.19530828
000240 0d 1d 25 be ce 82 0e be 8a 35 bb 3c d2 ba 7f 3e
       -0.16124363 -0.13917086 0.022852678 0.2497361
000250 07 84 e5 bd c3 22 02 3d 92 24 82 bc 38 fa a8 3d
       -0.11206823 0.031771433 -0.015886579 0.082508504
000260 7a 7b ef 3d 41 1a 17 bd 02 00 9f be 3b f5 27 3e
       0.11693473 -0.036890272 -0.31054693 0.16402142
000270 41 7f 1f 3d e6 80 14 3d 9b ef 1f be 35 2b f9 bd
       0.03893972 0.03625574 -0.15618746 -0.12166444
000280 22 00 0f 3e 57 f3 6c be 63 65 a1 3d 6c 82 5d 3e
       0.13964894 -0.23139702 0.07880666 0.21631783
000290 6c 6e 21 3e c9 90 67 3c 6b cd d9 bc ed 71 cc 3e
       0.15764779 0.014133641 -0.026587209 0.39930668
0002a0 f3 c9 92 bd 08 4c aa bd 6d ed 02 be 41 84 88 3d
       -0.07167425 -0.08315283 -0.12785883 0.066658504
0002b0 d0 43 01 3e 63 5e 81 3c 91 0e 98 bd 0b 1e 32 bd
       0.12623525 0.015792077 -0.07424653 -0.043485682
0002c0 24 e9 95 be d0 35 92 bd 2a 86 ee be 20 c8 98 3d
       -0.29279435 -0.0713917 -0.46586734 0.07460046
0002d0 88 85 f0 3e 18 7c 6a bd cf c3 56 be f4 69 85 3e
       0.46976876 -0.05724725 -0.20973133 0.26057398
0002e0 72 d3 ae 3c bb 38 1f be af ec 55 be a2 7e 3c be
       0.02134106 -0.15548985 -0.20891069 -0.18407682
0002f0 50 10 81 bd 5a 78 a3 be 28 76 a9 be 43 69 b2 be
       -0.063019395 -0.31927758 -0.3309796 -0.34845933
000300 f6 cb 10 3e 38 7f 01 bd a2 f8 bb bb 3d b3 50 3c
       0.14140305 -0.031615466 -0.0057364265 0.012738046
000310 f1 e9 86 be 7e 0e 68 3d 5c e3 49 3e 54 e1 dd 3d
       -0.26350358 0.056654446 0.19715637 0.108339936
000320 1c 70 a3 be 07 f7 11 be 72 eb 0b be 37 99 fd bd
       -0.3192147 -0.1425439 -0.13664034 -0.12382739
000330 ae f2 85 bd 5a 4a b1 3c 1b c0 56 3d 05 3a f9 bd
       -0.06540428 0.021641899 0.0524293 -0.121692695
000340 fb 69 b8 bc 44 7b 01 bd 59 9f e4 3e c1 37 59 be
       -0.022511473 -0.031611696 0.44652823 -0.21212675
000350 87 a2 ab 3e a3 0a 24 3e 95 d7 20 3d 29 bb b0 3d
       0.33522436 0.16019683 0.039268095 0.08629448
000360 93 08 0c 3e 5a 96 01 3e 59 cb 01 3e b8 0b 03 be
       0.13675146 0.12655011 0.12675227 -0.12797439
000370 43 24 2f be 5c 49 20 be 9f 26 98 3d 97 45 c2 3d
       -0.17103676 -0.15652984 0.074292414 0.094859295
000380 39 e8 86 be ca dd 2b 3e 34 2a 63 be 85 58 36 3d
       -0.26349047 0.16783825 -0.22184068 0.044518013
000390 ea 82 39 be f7 1a 3f 3e 61 d9 38 3e 6c c8 3f be
       -0.18116346 0.1866263 0.18051673 -0.18728799
0003a0 19 df 6b be 64 60 94 3e 90 29 92 bc 6e 6b 9e be
       -0.23034324 0.2897979 -0.017842084 -0.30941337
0003b0 f6 a0 59 be 3e 36 27 3e e2 8e 71 3e fc 55 27 bd
       -0.21252808 0.16329286 0.23589662 -0.040853485
0003c0 be b7 06 3d d4 4e 07 be 23 06 7c 3e 2a 18 90 3d
       0.032890074 -0.13213664 0.24611716 0.07035859
0003d0 5f 60 3e 3e 57 34 84 be 54 b1 84 bc 4a a4 4f 3d
       0.1859145 -0.25821182 -0.016197838 0.050693788
0003e0 75 c3 33 bd fd d4 93 3e 1e 17 ed bd 4b 8e 3d 3e
       -0.043887574 0.28873435 -0.11576675 0.18511312
0003f0 37 54 d6 bd a3 11 ba bd 59 50 83 3a 5c c6 fe 3e
       -0.104652815 -0.09085395 0.0010018452 0.4976071

actor.0.bias f4 [32]
000000 60 28 38 bd 11 87 78 3d 04 82 40 bd 88 7a 23 bd
       -0.04496038 0.060675684 -0.046998993 -0.039911777
000010 11 42 1b be 0c f8 36 3d b1 c6 85 bb d8 69 fe bc
       -0.15161921 0.04467015 -0.0040825238 -0.03105633
000020 04 0b ca bd 5d 13 3d 3d ee cb 10 bc 78 11 d7 3d
       -0.09865382 0.046161044 -0.008837683 0.10501379
000030 e4 79 a1 bd 42 a2 19 bc f6 36 c5 3c 0b 4a 35 3d
       -0.07884577 -0.009377064 0.024074059 0.044260066
000040 87 62 48 bd 38 8e 91 3c 3d cd ff bd e5 1e 4e be
       -0.048922088 0.01776801 -0.12490318 -0.20128973
000050 f1 21 2d 3c 75 37 c5 3d c0 df 95 3d 7b 0b 13 be
       0.010567174 0.09629718 0.073180676 -0.14359848
000060 c8 b9 6a bd fa f3 50 3d 31 ff 1f 3d 68 78 c0 bd
       -0.05730608 0.051013924 0.03906173 -0.09397966
000070 98 88 91 bd 07 d2 4e 3e fe ba 7a bd 22 fa 09 bc
       -0.07106131 0.20197307 -0.061213486 -0.008421453

actor.2.weight f4 [12, 32]
000000 65 72 f8 3d 1a b2 a9 3a cd 03 3a 3e 69 76 1b be
       0.12131194 0.0012946755 0.18165512 -0.15181889
000010 4b 0c a4 3d 1a 0d 24 3d 10 5a 88 be 4c c3 a8 3e
       0.08010157 0.040051557 -0.26631212 0.329615
000020 74 56 03 be 40 6c ea 3c 43 35 2d 3e e4 69 28 bd
       -0.12825948 0.02861607 0.16914849 -0.04111661
000030 b7 f5 25 be 7b 17 3c be 96 a0 55 3d a3 f0 e0 bd
       -0.16207014 -0.18368332 0.0521551 -0.10983398
000040 fe 5d 66 be 65 2b ca bd 41 e0 50 3e 48 e3 3f be
       -0.22496793 -0.09871558 0.20398046 -0.18739045
000050 38 ca 4c 3d 6a 33 0d 3e ed bd 0e 3e ec 04 41 3e
       0.04999754 0.13789144 0.13939638 0.18849534
000060 fc d5 8c 3d 72 05 44 3e c2 eb 91 3d 83 97 e1 3c
       0.06876752 0.19142702 0.07125045 0.027538067
000070 cc 92 4e 3e 6b 95 87 be 58 d2 d0 3d ac 47 01 bd
       0.20173186 -0.26481184 0.1019637 -0.031562492
000080 a9 23 a7 3d cb 19 34 3e 65 27 ce 3c 74 72 8e be
       0.081610985 0.17587964 0.02516527 -0.27821696
000090 9c ea f1 bc 9e 30 91 3d cd fa e2 bd 9f d0 5e 3d
       -0.029530816 0.07089351 -0.11082993 0.054398175
0000a0 a1 e9 15 3d cd da 22 3e bd c3 94 3d a3 c3 5c 3e
       0.03659976 0.15903778 0.072638966 0.21559004
0000b0 be 04 de bc 91 fa 0a 3c 50 ff 86 bc c3 8d ae 3d
       -0.02710187 0.008482591 -0.016479164 0.08523133
0000c0 1f 9f 65 bd 34 1a a5 3e 63 a7 52 be f2 9d 9f be
       -0.056059953 0.32246554 -0.20571665 -0.3117519
0000d0 82 62 8f be ad f2 53 3e 96 97 aa 3e 4f 6a c9 be
       -0.28004843 0.20698042 0.33318776 -0.3933892
0000e0 17 7b 33 3e 9a e7 9b 3e c4 7a dc 3d 7f 71 65 3d
       0.17527424 0.30450135 0.10765603 0.05601644
0000f0 5d 7e e0 bd 91 82 7e 3e da 7c c8 3d 70 30 58 be
       -0.10961602 0.24854495 0.097894385 -0.21112227
000100 eb c2 9a 3d 28 f9 4b bd 3e 78 11 bd e9 57 73 3e
       0.07556709 -0.04979816 -0.035515063 0.23764004
000110 a4 91 30 3e 62 7b 39 bd 58 7a ed bb 9a 8f eb 3d
       0.17243057 -0.045283683 -0.0072472505 0.11501999
000120 48 97 22 bc a4 4d a7 bd 4b 0c 4f bd 00 f2 46 3d
       -0.009923764 -0.08169106 -0.050548833 0.048570633
000130 15 89 e0 3b 30 51 1a be 1f 6b 1e 3e b4 d1 5d bd
       0.006852279 -0.15070033 0.15470551 -0.054155067
000140 be da d5 3c 43 3b 7e bd b1 50 64 bc f7 85 21 3e
       0.026105281 -0.062068235 -0.013935254 0.1577376
000150 05 c7 2b 3e a3 a4 f0 bb 42 7a a9 3d f5 a6 ef bd
       0.16775139 -0.007343845 0.08275272 -0.117017664
000160 d2 cf f5 bd eb 6a 43 bd 0e 15 a2 3b 7c af 01 3e
       -0.12002529 -0.047709387 0.0049463576 0.12664598
000170 f7 5b 8e bd ec 98 fc bd bd 7d 07 3e a0 59 c4 3d
       -0.06951135 -0.12333855 0.13231559 0.09587407
000180 27 2d cf 3d fe 04 60 3c 2b 10 4c 3d 25 d6 01 be
       0.10116034 0.013673065 0.049820106 -0.12679346
000190 75 77 46 3d f1 36 bb bd 7d 1a 11 be a6 89 17 3e
       0.048453767 -0.091413386 -0.1417026 0.14798602
0001a0 dc c7 36 bc 8c 89 c1 bd 66 7d 49 3e 9d 20 00 be
       -0.011156049 -0.09450063 0.19676742 -0.12512441
0001b0 de 14 d5 3d 29 d0 e1 3d fb f4 5e 3d 18 81 c4 3d
       0.10404371 0.110260315 0.05443285 0.09594935
0001c0 6f d5 38 3e 18 2c 67 3c 76 ca 4a 3e 3f 0b 3e 3e
       0.18050168 0.014109634 0.19803795 0.18558978
0001d0 ba 68 85 bd ed 46 69 bd cd db 8d bd 09 eb 9f 3d
       -0.06514116 -0.056952406 -0.06926689 0.07808501
0001e0 d7 6f d7 3c 81 83 8a bd aa bb 0a bd c1 ea 22 3c
       0.026298447 -0.06763364 -0.033870377 0.009943665
0001f0 94 04 48 3d bd 3f 18 bd f4 06 b9 3d a2 45 d3 bd
       0.04883249 -0.03717016 0.09034529 -0.10316016
000200 6e 07 8a bd 7e bd b9 3c eb cf 60 be 38 a4 f2 3c
       -0.06739698 0.022673365 -0.21954314 0.029619321
000210 f8 d5 9c be e8 5d e0 3d 42 01 df bc 4b 6d 56 3e
       -0.30631995 0.10955411 -0.02722228 0.2094013
000220 af fb c2 be 3d 11 a3 be 7c bb d3 3e 60 f7 16 be
       -0.38082644 -0.3184909 0.41353977 -0.14742804
000230 05 a9 dd be 62 04 78 3e bc d4 5c bd 28 db f4 3e
       -0.43293014 0.24220422 -0.053913817 0.47823453
000240 7f 40 b2 3d f0 cb 2f 3d 08 30 a1 be fb 4e 53 be
       0.08703708 0.0429191 -0.31481957 -0.20635597
000250 74 9a 2c 3e 59 d9 93 3e 8b fa dd 3c ae 36 b1 3e
       0.16855794 0.2887676 0.027097007 0.3461203
000260 d6 3a e2 be 2f 83 db 3e b3 2d f4 bd fe aa 14 3e
       -0.44185513 0.42873523 -0.11922779 0.14518353
000270 17 58 92 3e 62 54 ef 3d f6 60 99 3e 01 82 9c be
       0.28582832 0.116860166 0.29956788 -0.30567935
000280 36 9c 43 be 6c 06 61 3e 17 bf dd bd 9b df 82 3d
       -0.19102558 0.21975106 -0.10827463 0.063903056
000290 97 a0 51 3e c1 8d 11 bd 3e 1d 8f 3d 12 fa d2 3d
       0.20471416 -0.035535578 0.069879994 0.103016034
0002a0 49 61 11 3e 96 96 b3 3d 27 fb 28 3e ec 50 41 3c
       0.14197268 0.08768956 0.16502057 0.011799078
0002b0 b8 50 24 be 11 fc a3 3d f8 df 95 be f3 4c 91 bd
       -0.16046417 0.08007062 -0.29272437 -0.07094755
0002c0 3a da ed bd bb d8 66 3d 76 b8 61 3c 95 ff 44 3e
       -0.11613889 0.056359034 0.013776889 0.19238122
0002d0 73 fb 2e 3d d0 c3 e2 3d 51 e1 b7 bc b9 ea 1a be
       0.04272027 0.110725045 -0.022446306 -0.15128602
0002e0 25 6b 2e be f6 bd 52 be bc 1b ab bd 49 68 0c bb
       -0.1703306 -0.20580277 -0.08354899 -0.0021424463
0002f0 1c 4e 1f bd ab 16 59 be a4 62 e1 3d 67 8f 12 be
       -0.03889285 -0.21200053 0.11005142 -0.14312516
000300 5d bc 09 be 44 75 28 3e 32 4f 80 be ea 86 0e 3b
       -0.13450761 0.16450983 -0.2506042 0.0021747896
000310 cb 6b 71 be f3 d3 ca 3d de 78 11 3d 6a e4 71 bc
       -0.23576276 0.09903707 0.03551566 -0.014763931
000320 3a 00 9e 3e 71 53 3c 3e 4e 46 ef bd 88 b3 99 bd
       0.30859548 0.18391205 -0.116833314 -0.07504946
000330 c3 4b ea 3d 92 f0 19 3e 9a 85 92 3e 2c d7 6c 3e
       0.11440232 0.15033177 0.28617555 0.23128957
000340 54 e4 2f bd d0 c7 4f be af c9 92 3e 52 76 3b be
       -0.04294236 -0.20291066 0.28669497 -0.18306854
000350 9b ff b1 bc 2e 63 b0 3d 64 92 c3 3d cb ad b6 3d
       -0.021728327 0.08612667 0.09549406 0.08919867
000360 b6 f7 fc bd 36 79 87 be 09 71 35 bd 6b 22 25 3e
       -0.123519346 -0.26459664 -0.04429725 0.1612641
000370 b6 3c aa bd 80 29 0c 3e dc d3 ce 39 2a 4c a6 bc
       -0.08312361 0.13687706 0.0003944923 -0.02029999
000380 83 c2 a4 bc 56 85 14 be 82 91 8c 3d e8 e1 c4 bd
       -0.020112282 -0.14503989 0.06863691 -0.09613401
000390 73 3d bf 3d 58 60 8f bc fa 90 4a be bb 95 79 be
       0.093378924 -0.017501995 -0.19781867 -0.24373524
0003a0 33 69 35 3e c4 cd 8a 3d 7a ed 86 bd 0f 48 74 be
       0.17715912 0.06777528 -0.06588264 -0.23855613
0003b0 85 91 47 3e 6d f2 82 bd fd a4 f2 bd e1 9f 24 3e
       0.19489105 -0.06393895 -0.11847875 0.16076614
0003c0 18 1b 37 be 73 35 35 3e 2a c7 20 bd 73 ab e1 3d
       -0.17881429 0.1769617 -0.039252438 0.110190295
0003d0 18 c8 b7 3d 13 d2 8f be 41 a9 13 3e 50 0e 07 3e
       0.08973712 -0.2808996 0.14420034 0.13189054
0003e0 e9 c4 ca 3d 6f 2e da 3d b0 9f 3d be fa 62 91 3e
       0.09900839 0.10653388 -0.18517947 0.28395826
0003f0 ad f5 03 bd dd fb 36 be 00 3b 1a 3e 01 d7 ec bd
       -0.032216717 -0.17869516 0.15061569 -0.11564446

actor.2.bias f4 [12]
000000 f2 c9 55 3d cd f3 23 3e df c1 2d bc f2 21 6d be
       0.052194543 0.16010971 -0.0106053045 -0.2315748
000010 8a 05 86 3e 36 d3 29 be fe 62 1e be 53 ca 84 bd
       0.261761 -0.16584477 -0.1546745 -0.06483903
000020 3f 71 b1 3d 64 4a 00 be 00 09 cf bd 56 64 1e 3e
       0.08664178 -0.12528378 -0.101091385 0.15467963

critic.0.weight f4 [32, 64]
000000 7c 04 09 3c 55 b7 b6 3d ea f8 d9 3d 15 45 a5 3d
       0.008362886 0.089216866 0.1064318 0.08069817
000010 82 09 96 3d 75 42 fe bd ce e9 a2 bd 0c 44 81 3c
       0.07326032 -0.124150194 -0.07954751 0.015779518
000020 21 25 02 bd 0f 3e 5f 3c f8 62 a9 3d b8 1e 17 be
       -0.03177369 0.013625636 0.0827083 -0.14757812
000030 3c cf 4a 3d 6a 7c ad 3d 6c 63 86 3d 9f 05 d6 3d
       0.04951404 0.08470996 0.06561932 0.10450291
000040 66 aa 84 3d a6 7b 02 3b 84 d6 40 bd 73 2e 0f be
       0.064778134 0.0019910126 -0.047079578 -0.13982563
000050 ff 65 72 3d 64 81 d8 3c f5 e4 f8 3c 36 9e 4f bd
       0.059179302 0.026428886 0.030382613 -0.05068799
000060 75 9d b5 ba 39 34 ce bd 10 0f ff bd 6f 19 b6 bc
       -0.001385613 -0.100685544 -0.12454045 -0.022228925
000070 6f cb ab 3d 07 83 fd bd 26 8f 7d 3d d8 80 90 3d
       0.08388411 -0.12378507 0.061904095 0.07055825
000080 f6 32 9c bc 7c 13 9d 3c fe 94 51 3b fd 12 68 3d
       -0.019067269 0.01917433 0.0031979675 0.056658734
000090 c8 25 90 bd bd 3d 74 3d 37 24 a6 bd 41 d2 e9 3d
       -0.07038456 0.05962919 -0.08112376 0.11417056
0000a0 23 b0 83 bd de 19 44 bd fd 0b 40 bd c4 34 26 3c
       -0.0643008 -0.04787623 -0.046886433 0.010144416
0000b0 e2 fa 73 bd d4 a4 b6 bd 4b 35 d4 bd 86 0a ac 3d
       -0.059565432 -0.08918157 -0.10361727 0.08400445
0000c0 e9 a5 d1 bd 3a 48 34 3d 9e 4c b3 bd 8f ed 09 3e
       -0.10236723 0.044014193 -0.08754848 0.13469528
0000d0 3f f3 8a bd c6 ac ec 3d 3a b0 ef 3d 20 73 88 bd
       -0.06784677 0.115563914 0.117035344 -0.06662583
0000e0 53 f4 98 bd 45 71 93 bd 55 0c 0a 3d 65 51 4d bc
       -0.07468476 -0.07199339 0.033703167 -0.012531613
0000f0 63 b4 e1 3c 0b f0 3c bd 1d 61 9a 3b 3a 79 72 3d
       0.027551835 -0.04612736 0.004711284 0.059197642
000100 d8 e8 1a be 32 19 8f bc 08 87 ab bb f9 c0 8c bd
       -0.15127885 -0.017468069 -0.005234603 -0.06872744
000110 d9 f0 2a bb ba 01 14 bd d0 c1 e6 bd 79 f0 cf 3d
       -0.0026083498 -0.03613446 -0.112674356 0.101532884
000120 9f 28 59 3d 18 21 c1 3d 22 2d 94 bd 4b c0 16 be
       0.053017255 0.0943014 -0.07235171 -0.14721791
000130 5f 78 c5 3c 81 97 39 3c 4d a5 19 3e eb 27 99 3d
       0.024105249 0.011327625 0.15004463 0.07478317
000140 66 29 0a be 19 92 8c 3d f5 4b aa bd 6f 22 c6 3d
       -0.13492355 0.068638034 -0.08315269 0.096745364
000150 6d c8 18 bd a1 ab da 3d 64 99 ad bd fd b4 11 bd
       -0.037300516 0.10677267 -0.084765226 -0.035572995
000160 af 6c cc bd b7 9f 84 3c 3c 9e 9f bd 19 63 12 3e
       -0.09981667 0.01618944 -0.07793853 0.14295615
000170 c1 a0 cb 3d 95 7a 0c bd ed a5 1f 3e dc 09 ec 3d
       0.09942771 -0.03429659 0.1559064 0.11525318
000180 a3 93 16 3d d2 24 19 be ab 9e 84 bd 9d 6a 16 3e
       0.03676189 -0.14955452 -0.06475576 0.14689107
000190 c3 30 27 3e 6f 59 d0 bd 0e 77 de 3d 7a 48 a0 bd
       0.16327195 -0.10173308 0.10862552 -0.07826324
0001a0 0b 18 22 bd 76 c9 f6 bc 9e b7 fc 3c 84 21 1d bd
       -0.03957371 -0.030125361 0.030849274 -0.03836204
0001b0 bc 37 f2 3b 2f d4 5f bc 78 81 cc 3d ad d0 30 3e
       0.007391898 -0.013661428 0.09985632 0.17267103
0001c0 b6 9f 30 3e 32 86 2d be 33 49 e8 bd f1 8f a4 bd
       0.17248425 -0.16945723 -0.11342087 -0.08035267
0001d0 1a d1 db bc 8c 01 08 3e c1 7e 08 3e 90 1a b5 3d
       -0.026833106 0.1328184 0.13329603 0.08842957
0001e0 40 e3 38 3e fa 5f 5a bd 2b 9c ff bc eb 44 30 be
       0.18055439 -0.053314187 -0.031202396 -0.1721379
0001f0 ae 38 cd 3a 8e 1e 20 3e 6e a2 1f be bf 1c 5e 3e
       0.0015657151 0.15636656 -0.15589306 0.21690653
000200 89 7c 59 3d e9 8a 14 be 39 7d bc 3c 9a 46 f0 3c
       0.05309728 -0.14506115 0.02300893 0.02933054
000210 b5 d2 b9 3d 33 8f 8b 3d 1c bf 9d bd da 93 50 3d
       0.09073392 0.068144225 -0.07702467 0.050922252
000220 fc e3 8c bd e5 d7 0f bd 0a 87 76 bb 58 5d 86 3c
       -0.06879422 -0.035118002 -0.003761711 0.016401932
000230 5f ea b5 3d e9 2b 3f 3d 99 e8 bb bc 06 1d 29 be
       0.08882593 0.046672735 -0.02293806 -0.16514978
000240 23 e3 d1 bd 62 c9 9b bb ef 5a d1 bb 02 31 36 3a
       -0.10248401 -0.0047542313 -0.006389014 0.0006950052
000250 4a 33 b1 bd db d1 8f 3c 9c 8e e0 bd 38 de fc 3c
       -0.08652361 0.017556122 -0.109647006 0.03086768
000260 9c e5 35 bd 9c 03 43 bd 2f b7 92 bd f0 ab d0 bb
       -0.044408426 -0.047610864 -0.07163846 -0.006368153
000270 22 48 17 bd c6 74 a1 bc 43 a5 64 bd 80 f6 94 bd
       -0.036934026 -0.019709002 -0.05582167 -0.07273579
000280 f2 a1 ad 3c 16 cc a0 bc c1 d1 db bd 63 29 e6 bc
       0.021195386 -0.019628566 -0.10733367 -0.028095907
000290 79 ec d6 3a 9b 63 1b bd 1d 8a 99 3c 8f d3 ab 3c
       0.0016397379 -0.037936788 0.018742615 0.020974902
0002a0 5a bc ba 3d c4 2a 95 bc 88 9d 05 be 8a ea df bd
       0.091179565 -0.018208869 -0.13048375 -0.10933407
0002b0 d8 fb c3 3d 61 30 90 3c 6f 11 90 3c c4 8f 03 3d
       0.0956952 0.017601194 0.017586438 0.032119527
0002c0 3e 4f d2 3d 1c b6 47 3d 59 ef 9e 3c 23 ba 51 bc
       0.102690205 0.048757657 0.01940124 -0.012800726
0002d0 a1 63 54 3a 02 54 93 bd 06 4d 85 bc 53 db 42 bd
       0.0008102004 -0.071937576 -0.01627208 -0.047572445
0002e0 36 d9 2c 3c d8 e1 43 be ee ce 8a 3c d8 77 e6 bd
       0.010549834 -0.19129121 0.016944375 -0.11253327
0002f0 18 16 15 3e c7 b1 5f bd 6c ae 1f be 6e 5d 22 3e
       0.1455921 -0.0546129 -0.1559388 0.15855953
000300 7e d7 42 bc 2d ae 93 bd a9 b1 d0 3d c7 e4 5d 3d
       -0.011892198 -0.07210956 0.10190136 0.054173257
000310 4e 46 b4 3d 0f 4d 25 3b 5d 8a 11 bd 4d 73 95 3d
       0.08802472 0.0025222932 -0.035532344 0.072973825
000320 f7 a8 10 3e 16 5d a2 bc f4 30 0a bb 15 5a 10 3d
       0.14126955 -0.019819777 -0.0021086307 0.03524216
000330 f4 6e f1 3c 09 94 47 bc bb e1 17 3e 3c 87 64 bd
       0.029471852 -0.01218129 0.14832203 -0.055793032
000340 88 3b e3 3c 6a a4 9c 3d 3c 19 9f 3d d1 f5 05 bd
       0.027738348 0.07648547 0.07768485 -0.032705132
000350 2f e3 09 3e 6f 1a 1f bd d3 a3 90 bd 13 b5 df 3d
       0.1346557 -0.03884357 -0.07062497 0.10923209
000360 58 17 e7 bd 68 d6 01 3e d7 d8 10 be b0 46 f5 3d
       -0.11283749 0.12679446 -0.14145218 0.11976373
000370 1d bd ff bd e7 c7 2d bd 81 04 03 3e eb 9e b7 3b
       -0.12487242 -0.04242697 0.12794687 0.0056036613
000380 4c 7c 11 be 70 6c 51 be b8 e7 05 be 0b c3 22 3e
       -0.14207572 -0.20451522 -0.13076675 0.15894715
000390 65 9d 98 bd 8f 12 7c 3b 39 65 4a bd 10 fd 46 3d
       -0.074518956 0.003846321 -0.04941294 0.048581183
0003a0 a3 82 a4 3d 17 9b 85 bd 71 09 8a bd 49 ca 9d bd
       0.080327295 -0.06523722 -0.06740082 -0.077045985
0003b0 25 eb 32 bd 00 72 0f bd 64 25 47 3d 16 60 c0 3d
       -0.043681283 -0.03502083 0.048619643 0.09393327
0003c0 7e 00 bb bd 56 85 a9 3c d2 7b 99 bd c1 4f ff bd
       -0.09130953 0.020693462 -0.0749432 -0.12466384
0003d0 51 06 1d bd 55 41 ed 3d 4b f9 83 3b 75 28 af bc
       -0.038336102 0.11584727 0.004027521 -0.021381596
0003e0 c8 35 cc bd 06 70 80 be df 97 ff bd 86 82 57 bb
       -0.099711955 -0.25085467 -0.12480139 -0.0032884195
0003f0 df 2d ac 3d 3b 16 c5 bb 4c cc 75 3d 48 d8 af 3d
       0.08407187 -0.006014613 0.060009286 0.08586174

critic.0.bias f4 [32]
000000 f2 3f 96 3c 98 69 6a be b6 dc 29 be 16 b5 05 be
       0.018341038 -0.22891843 -0.16588101 -0.1305736
000010 12 c1 ac 3d 9f 1a 1f be 80 1d 7c 3d 48 c2 b0 3c
       0.08435263 -0.15537499 0.06155157 0.021577016
000020 62 21 41 3c c7 41 32 be a1 ff 13 bd 0c 8b 33 be
       0.011787744 -0.17407905 -0.03613246 -0.17533511
000030 54 df 00 be c1 39 ac 3d f3 1c 7e bc 98 91 80 be
       -0.12585193 0.08409453 -0.015509832 -0.2511108
000040 ac d5 00 3e b7 45 d9 bd a8 ac 19 bd 42 0c 58 3e
       0.1258151 -0.10609 -0.037518173 0.21098426
000050 80 b9 ac ba 20 33 1d be ff 08 18 3e ee ab 44 3e
       -0.0013177842 -0.15351534 0.14847182 0.19206211
000060 eb 41 a3 3d 27 55 48 bd 79 d3 61 3c ad 32 4a be
       0.07971557 -0.048909333 0.013783329 -0.19745894
000070 4e 3d d9 bd 84 2e 3e 3e 74 d4 45 3e 32 07 d9 3d
       -0.10607396 0.18572432 0.19319326 0.105970755

critic.2.weight f4 [1, 32]
000000 69 79 c4 ba 87 ba 19 be bd e1 67 bd ed 3a 30 bd
       -0.0014989796 -0.15012561 -0.056611765 -0.043024946
000010 cb ce 3c 3c 92 f8 84 bd 06 bb eb 3b b3 9e 98 ba
       0.011523913 -0.064927235 0.007193926 -0.0011643976
000020 f3 7d e1 3a 24 c3 20 be 48 de 42 bb e4 04 22 be
       0.0017203673 -0.1569944 -0.002973454 -0.15822178
000030 e0 8c cc 3e 48 e0 7f 3c 39 89 0b ba f4 e0 80 be
       0.3995123 0.015617438 -0.0005322877 -0.25171626
000040 b0 20 4a 3d b1 1f b9 bc 3b 18 34 ba c7 94 1b 3e
       0.04934758 -0.02259812 -0.00068700657 0.15193473
000050 30 99 a3 3a 85 2e 5d bd 09 6b 1c 3d d7 6f 21 3e
       0.0012481567 -0.053999443 0.038188014 0.1576532
000060 dd f2 4d 3e 12 73 bf bb 34 78 9e 3b a0 c1 67 bd
       0.20112176 -0.005842575 0.0048361067 -0.05658114
000070 ca fc 09 bc 25 25 42 3e 41 b1 27 3e fe f5 0f 3d
       -0.008422086 0.18959482 0.16376211 0.035146706

memory_a.rnn.weight_ih_l0 f4 [256, 47]
000000 90 f2 14 3f ca 83 b9 be b7 bc 07 bd d6 98 1e 3e
       0.5818262 -0.3623336 -0.033138957 0.1548799
000010 c9 84 69 bf f3 04 34 3e f8 48 1c be 8d 34 00 3e
       -0.9121824 0.17580013 -0.1526221 0.12520047
000020 e8 09 72 3e 00 29 8f 3c 12 c8 8d bf b9 6d 97 be
       0.23636591 0.017475605 -1.1076682 -0.295759
000030 84 fb 00 bf d0 40 09 3f f4 06 29 be 04 79 a1 bb
       -0.5038378 0.5361452 -0.16506559 -0.0049277563
000040 88 ef 25 3f c6 96 f0 3d fb eb b9 bd 07 0c e9 be
       0.6481862 0.11747508 -0.09078213 -0.4551699
000050 fc d2 49 bd 05 51 12 3f 99 ef 83 3d 9f 0a 30 3e
       -0.049273476 0.57154876 0.06442184 0.17191552
000060 57 3a 7b be e7 ba de be 2b ef 0c be cb f7 c3 3e
       -0.24533974 -0.4350197 -0.1376311 0.3827499
000070 98 ba 79 be 52 5f e4 3e 01 18 a7 be 1f 4a 2e 3f
       -0.24387586 0.44603974 -0.326355 0.6808185
000080 c0 81 5d 3e 42 84 84 bd 6c 81 43 be df ce 8e 3e
       0.21631527 -0.06470539 -0.1909234 0.27892205
000090 57 e3 ab be 21 65 9b be 38 1a bd bd c3 95 03 3f
       -0.33571884 -0.30350593 -0.092335165 0.51400393
0000a0 db de 2a be 51 b3 c0 3d f7 1e 31 3e cc 58 9d bd
       -0.16686575 0.09409202 0.17296968 -0.07682952
0000b0 60 24 ad 3e 01 56 b8 be 00 1a 97 3d 62 00 98 bb
       0.33816814 -0.36003116 0.07378006 -0.0046387175
0000c0 e3 2d cd be ea 6c ea 3d 4f 62 94 ba 23 ac e7 3d
       -0.4007407 0.11446555 -0.0011320802 0.11312129
0000d0 1b ea d7 3c ff 1c 23 3e a9 b9 8b 3e 19 65 50 bf
       0.026356747 0.1592903 0.27290085 -0.8140426
0000e0 93 1c c1 3f 84 e7 27 bf dd da 8d bf de c5 03 be
       1.5086845 -0.6558764 -1.1082417 -0.12868449
0000f0 aa bb 8a be 2c 0d 75 3e 41 07 94 3e b4 88 ba 3e
       -0.270963 0.23930806 0.28911784 0.3643242
000100 c4 73 f6 3d d3 5e 1f bf 21 50 45 bd 1e 96 a3 3e
       0.12033799 -0.62254065 -0.04817212 0.31950468
000110 21 89 1e 3f 1d 60 5b bf 21 d5 b2 be 44 3f 87 be
       0.6192799 -0.8569353 -0.3492823 -0.26415455
000120 0d 35 d1 3d ce dd c7 3d 45 27 39 3b c6 e8 9d 3e
       0.10215197 0.09759103 0.0028252166 0.30841655
000130 6b d0 27 3e a2 d9 84 bd f9 5e 0e 3f 01 4c 27 3f
       0.16388099 -0.06486823 0.55613667 0.6535035
000140 54 e9 3f be 41 2a 43 be 4d fe 2b bf 7c 99 7c 3b
       -0.18741351 -0.19059087 -0.6718491 0.0038543632
000150 67 51 54 3e 4b af d7 3c a4 20 03 3f 1c 89 d7 bd
       0.20734178 0.026328703 0.5122168 -0.105241984
000160 8d fb b5 3e a4 b2 16 be 62 a7 a7 bd 7d dc 2a 3f
       0.3554348 -0.14716583 -0.081862226 0.6674269
000170 7c 7c 76 be 62 d6 6e be e8 1e 02 3f db 83 e0 be
       -0.24070925 -0.23323968 0.5082841 -0.43850598
000180 82 a8 7e 3d 02 7f d4 3e 53 f0 a3 be a8 a5 a6 bd
       0.06217242 0.4150315 -0.3201929 -0.08137065
000190 52 dc 2c bd f5 5f 93 bd e8 1a 80 bd f7 86 69 3d
       -0.0422023 -0.07196037 -0.06255132 0.057013478
0001a0 1a a0 bb 3e 2f e4 11 3e 9b 95 70 be 0e 22 70 be
       0.36645585 0.14247201 -0.2349457 -0.23450491
0001b0 67 5c 2f be 9a 9c 52 bf d6 c0 a0 3d 79 37 20 3e
       -0.17125092 -0.82270205 0.078492805 0.15646161
0001c0 db 65 e7 be 52 aa eb 3d b1 50 14 bf 2e 53 95 3f
       -0.45194897 0.115070954 -0.57935625 1.166601
0001d0 0f 16 df bd e2 8d 90 3e c9 05 a7 be d2 07 f1 be
       -0.10892879 0.28233248 -0.326216 -0.4707628
0001e0 d1 53 51 3e ff 83 0b bf f5 a6 80 be e4 7e 24 bf
       0.2044213 -0.54498285 -0.25127378 -0.6425612
0001f0 6f 11 c5 3e 33 91 48 3f 0e 74 10 3f 0e 5d 73 3f
       0.38489863 0.78346556 0.56427085 0.95063865
000200 dc 92 b5 bb e7 17 0a 3e e6 16 c0 bd b2 67 fc 3c
       -0.0055411886 0.1348568 -0.093793675 0.030811165
000210 b7 09 9b bb 2c 09 37 3f e4 fd a6 be 7e 44 cf 3d
       -0.0047313827 0.7149837 -0.32615578 0.10120486
000220 2b 0b a0 3e 26 81 dc bc 40 b7 a3 be fe 14 40 3e
       0.3125852 -0.026917052 -0.31975746 0.18758008
000230 f5 d2 1b 3d 7f 55 32 bf 90 b4 a6 3e 62 e8 04 bd
       0.03804298 -0.69661707 0.32559633 -0.03244818
000240 9a c3 d3 3e e5 b6 65 3e 59 77 b9 3e 84 47 c7 be
       0.4136017 0.2243305 0.36223868 -0.3892175
000250 17 92 10 3e 3f c4 10 3f b1 4e a4 be af ae 16 bf
       0.14118229 0.5654945 -0.32091287 -0.58860296
000260 74 97 46 3e a3 09 54 3e b1 7a 42 3f 66 6b 2e 3f
       0.19393712 0.20706801 0.7596846 0.68132627
000270 ca 37 29 bf ff de 3e bf e5 e7 ed 3e bb 89 48 bf
       -0.6610075 -0.74559015 0.46465984 -0.7833516
000280 c0 1e 33 3e 01 fd 1e 3e 90 1f 41 be 87 f1 28 3f
       0.17492199 0.15526201 -0.18859696 0.6599354
000290 32 bf 23 be 79 7f 3d 3d 02 b4 e4 be ef 78 16 bf
       -0.15990904 0.046264146 -0.44668585 -0.5877828
0002a0 4b 9d 08 bf a0 72 ad bd d1 cd fb 3d bb 77 fb 3e
       -0.5336501 -0.084691286 0.12295116 0.49114785
0002b0 7d af 9b be 44 c9 b8 bd 6c 63 df be 79 58 71 bd
       -0.30407324 -0.09022763 -0.4363054 -0.058922265
0002c0 90 94 26 bd fe 37 0d 3f 4f bf 95 3d 5a 21 d7 bd
       -0.040669024 0.5516356 0.0731188 -0.10504408
0002d0 93 0b 33 3e 1c df c7 3e 70 56 bb 3d bf d6 8a 3e
       0.17484884 0.39037406 0.09147346 0.27116963
0002e0 43 e1 3e be 9f c0 05 3e c0 30 d5 3d dc c0 26 3e
       -0.18640618 0.1306176 0.10409689 0.16284508
0002f0 ed fb 78 3e b5 6d dd 3d f4 43 a3 3f fe 29 f1 3e
       0.24314852 0.108119406 1.2755113 0.4710235
000300 88 27 d0 be ca 3a b9 3d 52 cf 8c bd 43 02 fd 3d
       -0.4065516 0.09044416 -0.06875481 0.12353947
000310 b2 b1 4f 3f a0 fd 2d 3f 54 ab 0a 3f e4 08 e0 bd
       0.81130517 0.67965126 0.54167676 -0.10939196
000320 d4 27 dc be cf 28 00 3e 01 68 f6 3d ec 51 87 be
       -0.42999136 0.12515567 0.12031556 -0.2642969
000330 70 67 9f 3e 1a 86 bc be 79 e6 34 3f 53 7c 26 3f
       0.31133604 -0.3682106 0.70664173 0.65033454
000340 b7 ff 88 3d bd a7 44 bf 1c 8f 13 3f a0 54 25 3f
       0.06689399 -0.7681845 0.5764024 0.6458225
000350 3e 89 e6 3e 7f 78 07 3e b0 4d fe bd 26 91 a4 be
       0.45026582 0.1322956 -0.124171615 -0.3214199
000360 79 a3 a8 3d f8 10 14 bf d3 ae 38 3e cd 6d b5 3d
       0.08234305 -0.5783839 0.1803544 0.088588335
000370 fa 50 0c be 71 dc 96 be 70 69 d5 be 43 b4 18 3f
       -0.13702765 -0.29465058 -0.41682005 0.5965006
000380 a9 f6 23 3e 5e f1 f5 3e 48 d1 5f be 14 33 0a bd
       0.16012062 0.4803571 -0.21857178 -0.03374012
000390 fb 12 03 bf 67 aa cc bd 74 3e 0f bc 24 2c 32 bc
       -0.51200837 -0.09993439 -0.008742917 -0.010874782
0003a0 9a 76 e6 3d 76 07 de be 12 a8 48 be e7 8c aa 3e
       0.1125309 -0.43365067 -0.19595364 0.33310625
0003b0 7c c0 7c 3e af b4 12 bd 59 3a f1 be 6d e7 d3 bc
       0.24682802 -0.035816845 -0.47114828 -0.025867188
0003c0 08 8d d8 be 6e 45 64 be 23 20 59 3e 91 38 43 bf
       -0.42295098 -0.2229211 0.21203665 -0.7625819
0003d0 8e d1 63 be 52 38 7f be 33 aa 00 3c ac 54 3c be
       -0.22247908 -0.24923828 0.007853079 -0.18391675
0003e0 a6 03 27 3e d0 22 a5 3e c5 70 7f 3d f0 47 9f be
       0.16309986 0.32253122 0.062363405 -0.3110957
0003f0 b7 e4 b6 3e 20 c9 c8 3e 4b ff c1 3e 7c 2b ca be
       0.3572137 0.39215946 0.37890086 -0.394863

memory_a.rnn.weight_hh_l0 f4 [256, 64]
000000 e7 d7 45 3d 07 f8 37 3e 3d 4f b8 be d5 56 f3 bd
       0.048301604 0.17965709 -0.35997954 -0.11881796
000010 f4 af 81 3e b0 31 33 bd bd f5 4b be 2f 75 ba bc
       0.25329554 -0.043748558 -0.1991796 -0.022760956
000020 00 eb 1f be a2 c4 1e bf 26 e6 a4 3d 43 bc 3c be
       -0.15616989 -0.6201879 0.0805171 -0.18431191
000030 70 53 ff be c6 1c 19 bf d9 95 30 bf b4 da a1 3e
       -0.49868345 -0.5980953 -0.6897865 0.3161217
000040 81 4a 8f be 28 18 63 be 47 95 06 bf 12 55 63 3e
       -0.2798653 -0.22177184 -0.5257153 0.2220042
000050 f6 34 30 be 09 43 82 3b 6c ea 4c 3e b2 e2 4c be
       -0.17207703 0.0039752764 0.200113 -0.20008352
000060 39 d9 33 3f 0b 0f d9 be 41 9a 05 bf 27 dd 0c 3f
       0.7025333 -0.4239429 -0.521885 0.5502495
000070 b8 72 ad 3e 55 a4 2f 3e 0b c9 f0 3e e8 29 d0 3c
       0.33876586 0.17152531 0.47028384 0.025410607
000080 8a c2 9d bd 3f d9 e7 be 4f 05 ee 3d 10 0d 53 bf
       -0.07703121 -0.45282933 0.11622106 -0.82441807
000090 20 88 02 3e 4f a7 0c 3d 10 fc 4d 3d 1c 44 e2 be
       0.1274724 0.034339245 0.050289214 -0.44192588
0000a0 d5 63 fd 3e e0 06 ec bc 29 14 85 bf d7 61 80 bd
       0.49490228 -0.028811872 -1.0396777 -0.062686615
0000b0 29 dc 1e 3f 39 03 5b be bc 55 04 bb 9f 1b f3 bd
       0.6205469 -0.21387948 -0.0020192703 -0.11870503
0000c0 f1 e1 7f be 94 3a 00 3e 11 21 59 bf a6 2b 55 be
       -0.24988534 0.12522346 -0.8481608 -0.20817432
0000d0 d3 cc 18 3e a6 fe 50 bf c3 87 48 3f 60 6d 89 bf
       0.14921884 -0.8163856 0.78332156 -1.0736504
0000e0 89 ae 11 3d 2c 2d 5b 3e d6 2c 3e 3f 2c 0b e3 be
       0.03556684 0.2140395 0.74287164 -0.4434446
0000f0 87 b9 94 3d 9c 77 d6 be 44 e4 2f bd 78 23 22 be
       0.07261949 -0.4188813 -0.0429423 -0.15833843
000100 d7 8c f3 bb 59 4d 96 3e dd 29 2a 3c 9d 4f 64 bf
       -0.007432561 0.29355887 0.010385958 -0.8918398
000110 7e 94 1a bf 6a 71 1e bf e9 ec 85 3f cd 61 f3 be
       -0.6038283 -0.61891806 1.0462924 -0.47535554
000120 a0 e9 32 bf 52 23 82 3e 68 00 2c bd c4 6e a1 3e
       -0.69887733 0.25417572 -0.041992575 0.3152982
000130 b9 16 42 3e 60 26 b0 3e 1e 0f 13 bf 7b 7d a3 be
       0.1895398 0.34404278 -0.5744494 -0.31931672
000140 83 0d cb 3d fe 2f 44 3f 28 9b c4 3e 9c b5 14 be
       0.099146865 0.7663573 0.38399625 -0.14522403
000150 45 b9 4a bf 73 99 40 bf 80 bf de be ac 52 9d be
       -0.7918895 -0.75234145 -0.43505478 -0.30727136
000160 5f aa db 3e 9d 72 74 be 0b 05 06 bf 5f 0d 5b bf
       0.4290342 -0.23871846 -0.52351445 -0.8556728
000170 33 15 c6 3e 8f 77 1f be 4b 2f 8a 3d 51 96 fd 3e
       0.3868805 -0.15572952 0.06747302 0.49528745
000180 4b 15 35 bf 20 82 02 3e 40 bf c7 be 1b 4d 24 be
       -0.70735615 0.12744951 -0.390131 -0.16045038
000190 7a 9f 14 bf 89 87 90 3e a8 08 e6 3c 60 8d 87 be
       -0.5805584 0.28228405 0.0280803 -0.26475048
0001a0 6d 8c 8d 3e 22 77 58 bf e3 a7 19 be ca c2 18 bd
       0.276462 -0.8455678 -0.1500545 -0.03729514
0001b0 62 7e 40 3f 98 a1 97 3e a2 d1 eb 3e 2a 5b 45 be
       0.75192845 0.29615474 0.46058375 -0.19273058
0001c0 ac ab 44 be b6 9c 7f be a4 1a 00 be 79 59 7f 3f
       -0.19206113 -0.24962124 -0.12510163 0.997459
0001d0 68 d4 4b be d6 bb 8b 3e a2 51 00 be 1f 9f cc 3e
       -0.19905245 0.27291745 -0.1253114 0.3996515
0001e0 7d 1f 68 3e 6b c5 e2 3e b8 4e 84 be e7 22 62 3c
       0.22668262 0.44291243 -0.25841308 0.013802267
0001f0 30 81 b8 be ce be 37 3b cd 16 6f bd 11 ce f7 be
       -0.36036062 0.0028037312 -0.058371354 -0.48399404
000200 1b 23 d2 3e 61 e5 f2 bd 4e 0d bd 3d 46 3a 75 bb
       0.41042408 -0.11860157 0.09231053 -0.0037418767
000210 ad fc b8 3c a9 4b 94 be 2e f7 0e bf b3 13 1e 3f
       0.022581423 -0.28963974 -0.55845916 0.6174881
000220 c1 cb 3d bf ad 2d 92 3d fb 1e ff be 8a c1 86 bd
       -0.7413903 0.07137618 -0.49828324 -0.065798834
000230 37 ab db 3e 9d 48 7c be 50 c4 17 be 1e 49 88 bd
       0.42904064 -0.24637075 -0.14820981 -0.06654571
000240 4e 4d c0 bd 57 59 71 3e 65 69 de 3e 0b ea 87 be
       -0.09389745 0.23569237 0.43439785 -0.26545748
000250 9e ad 22 bf fb 72 71 3f 82 c1 30 3d 6e 33 2f 3e
       -0.6354617 0.9431607 0.043153293 0.17109463
000260 ce 33 ae be 42 c1 4e 3f 4d 03 11 be 6a 42 a0 be
       -0.340239 0.8076364 -0.14161415 -0.3130067
000270 2c 8c 1b bf 6b 59 1a be 88 50 25 3f 58 6f d0 3d
       -0.6076076 -0.15073173 0.64576006 0.10177487
000280 07 15 4d 3f a7 de 8b 3c 5c cd ec be f3 0a ca bd
       0.8011021 0.017073942 -0.46250427 -0.0986537
000290 0b 67 7e 3f 7d 26 b7 3e ff 6c 31 bf 6f f6 b2 be
       0.9937598 0.35771552 -0.6930694 -0.3495364
0002a0 2b b2 86 be 80 c8 f0 3d 24 77 96 3e 07 f1 df 3e
       -0.26307806 0.11756992 0.29387772 0.43738577
0002b0 46 f4 4c bf 4b 11 2e 3d c0 61 cc 3d 0e fd 01 bd
       -0.8006023 0.04249696 0.09979582 -0.031735472
0002c0 73 ef 39 3c f7 03 aa 3e ed f9 28 bf e6 60 95 3e
       0.011348593 0.3320615 -0.66006356 0.2917549
0002d0 32 34 a2 3e 60 e2 b2 be 12 03 b5 3d 9d 55 6d bd
       0.31680447 -0.34938335 0.08838476 -0.057942975
0002e0 38 66 18 bf 20 af 34 be 15 0a 4d be dc 64 49 3e
       -0.59530973 -0.1764493 -0.20023377 0.19667381
0002f0 65 b4 b2 3e ef 4a 10 3e fe 91 2b bf 5d 79 11 3f
       0.34903255 0.14091085 -0.6701964 0.5682581
000300 18 c7 0d 3f 62 29 9f 3e 9c e1 0e 3e 3d 44 e2 3c
       0.5538192 0.3108626 0.1395325 0.02762043
000310 e4 bb 21 3f e6 45 3b bf e6 d1 28 bd bd c5 69 3f
       0.63177323 -0.7315353 -0.0412158 0.9131735
000320 5e 1c 3c bf 72 f5 3c bf ec 9f ac 3d 97 77 da be
       -0.73480785 -0.7381202 0.0842894 -0.42669365
000330 79 27 cc 3e 92 82 9c bf 42 ff 41 bf 60 46 70 3e
       0.39873865 -1.2227347 -0.7578012 0.23464346
000340 48 2d 89 be d1 a8 96 bd 33 3d 50 3d 55 95 aa 3e
       -0.2679236 -0.07356418 0.050839614 0.33317056
000350 5b 94 c1 3e fd 68 57 bf a3 0b 99 be 59 41 d0 bd
       0.378085 -0.84144574 -0.2989169 -0.10168714
000360 34 43 49 be 28 8e 8c be 33 89 82 be f2 a0 b1 3e
       -0.19654542 -0.27452207 -0.254953 0.34693104
000370 b7 78 03 bf bb 99 17 be 8a ef cd 3e 18 8d 59 3d
       -0.5135607 -0.14804737 0.40221816 0.053113073
000380 98 89 23 be 24 9d 8f bc 5d 53 73 bf 2e b8 d4 be
       -0.15970457 -0.017530985 -0.9504908 -0.41546768
000390 ea b4 a0 be dd 1e c4 3d 65 d1 11 bf 05 7e 6b bf
       -0.31388026 0.09576199 -0.56960136 -0.91989166
0003a0 fc f1 a9 be a4 7e 4c bf fd 3c 01 3f fc 8d f4 3d
       -0.33192432 -0.7988074 0.50483686 0.11941144
0003b0 62 bf b3 be ae de 10 bf e0 4e 33 bf d3 3a 4c bf
       -0.3510695 -0.5658978 -0.7004223 -0.7977726
0003c0 4d 0f 93 be ec 23 93 bf 4a 8e c4 3d 3a 58 d6 be
       -0.2872261 -1.1495337 0.09597452 -0.41864187
0003d0 67 db 30 3f f0 36 14 be 70 13 90 be 49 6b e8 be
       0.6908478 -0.14474082 -0.2813983 -0.45394352
0003e0 6f c1 be 3d 04 2d 49 bf c9 6a 2b bd 4c 1d 89 3d
       0.09314238 -0.78584313 -0.041849885 0.06695041
0003f0 f7 5e 42 bd 41 d6 04 bf cf 48 93 bd f2 1c 32 3f
       -0.047453847 -0.51889426 -0.071916215 0.6957542

memory_a.rnn.bias_ih_l0 f4 [256]
000000 0a eb 8a 3d f4 31 eb 3d 77 84 4e bd 68 d6 40 be
       0.067831114 0.11484137 -0.050419297 -0.1883179
000010 d1 51 e0 bd 4b 08 32 3e 28 ef 85 be 81 08 93 bd
       -0.10953105 0.17385976 -0.26159024 -0.07179356
000020 0f 57 63 3d 52 24 a7 3d 8a 64 85 3e ac 20 0c be
       0.055502947 0.081612244 0.26053268 -0.13684338
000030 5d 15 b2 bd a5 fc 9c be 40 05 3a be 2a e0 dd bd
       -0.08695481 -0.30661502 -0.18166065 -0.108337715
000040 69 63 9d 3e 7c 74 62 be 43 f4 26 be eb 78 36 bd
       0.30739906 -0.22114748 -0.16304116 -0.04454891
000050 99 ad 85 be c6 29 8b bd d9 59 d3 bd 5a d3 ee bd
       -0.26109007 -0.06795077 -0.103198715 -0.11661406
000060 56 c7 52 be 8e 40 09 be 97 7e 9b be be 29 2a be
       -0.20583853 -0.13403532 -0.30370018 -0.16617486
000070 ba 7e 9d bd c8 6a 38 be 26 15 8b 3c d1 b8 38 3e
       -0.07690187 -0.18009484 0.016977858 0.18039252
000080 75 5c a3 3c 57 b0 a2 be 25 83 5f be df f2 16 be
       0.019941548 -0.31775162 -0.21827371 -0.14741085
000090 d6 b2 de 3c 23 3c 3e 3d d9 f9 80 be c9 7b 41 3d
       0.027184885 0.04644407 -0.2519062 0.04723719
0000a0 10 b1 5e be 3f 6d 68 be a9 b7 91 be 93 06 32 3e
       -0.21747231 -0.22697924 -0.28460434 0.1738532
0000b0 5d 56 44 be 40 d9 a0 be 01 0c 59 3e 53 44 cf bd
       -0.1917357 -0.3141575 0.21195985 -0.10120454
0000c0 1a 32 35 3e 17 28 3f be d7 37 ea bd fb 22 dd 3d
       0.17694893 -0.18667637 -0.11436432 0.107976876
0000d0 c1 77 4c 3d a0 3b 69 be b3 28 a8 be 71 8b 98 3c
       0.049918894 -0.22776651 -0.3284355 0.018621178
0000e0 79 b5 4c 3e f8 e3 2a 3e 9f 23 6a 3e 0b 35 5e 3d
       0.19991101 0.16688526 0.22865151 0.054249804
0000f0 97 96 54 3d f9 ad 52 3e 5c 96 18 be c9 97 1a be
       0.051901426 0.20574178 -0.14901108 -0.15096964
000100 15 2d 87 3c 9c 82 1a be 05 d8 41 be 86 45 7e 3e
       0.016500989 -0.15088886 -0.18930061 0.24831209
000110 76 17 ee bd 91 84 77 be b4 bb c7 3e 3f 24 d9 3d
       -0.116255686 -0.24171664 0.39010394 0.106026165
000120 cd e4 51 be b5 c3 0c be 67 10 b5 be ac cf bd 3c
       -0.20497437 -0.13746531 -0.35364076 0.023170315
000130 15 3c 29 be 53 57 9c be ed 36 10 be 55 fe 66 be
       -0.16526826 -0.30535373 -0.14083453 -0.22557957
000140 ff 04 3e be 3b 92 cf bd f6 3d 56 bd ea c0 7c 3d
       -0.18556593 -0.10135313 -0.052305184 0.061707415
000150 23 41 a8 bd 0a ec d8 3d fc 86 83 3d 2c 9b 5f be
       -0.08215549 0.10591896 0.064222306 -0.21836537
000160 3c cd 7d bd b1 64 22 3e e4 3f 49 be e8 09 33 3d
       -0.061963305 0.15858723 -0.19653279 0.04371062
000170 f9 ef ea bc d4 5c 41 be 0a dd 5b be 16 06 88 be
       -0.028678881 -0.18883067 -0.21471038 -0.26567143
000180 23 89 9a 3d cc 63 bd bb 41 3c 31 3d 17 d1 18 bc
       0.07545688 -0.005779719 0.043270353 -0.009327195
000190 57 82 aa be 05 4d 27 be 08 47 53 be ec 60 8c be
       -0.33302566 -0.16337974 -0.20632565 -0.27417696
0001a0 d0 55 c1 bd 46 a8 a6 3d 1e b6 7a be a5 50 31 bd
       -0.094401956 0.08137564 -0.24483535 -0.0432898
0001b0 ff de e3 bd 4d 20 8d be f5 5f bd be b5 73 da bd
       -0.111265175 -0.27563706 -0.36987272 -0.106666006
0001c0 fa 4d 10 bc c7 fe 99 3c 53 be b5 bd 37 47 31 be
       -0.008807654 0.018798245 -0.08874192 -0.17312323
0001d0 df 33 5c be 17 02 aa bc c4 66 f8 3c 7f 2d 9f 3d
       -0.21504162 -0.02075295 0.03032244 0.077723496
0001e0 39 3e ae bd af b8 9c be b3 4f 2b bf fb ee 28 be
       -0.08507962 -0.30609652 -0.66918486 -0.16497414
0001f0 93 97 6f bd 4f 65 17 be 1b b0 ab bd 63 58 fe be
       -0.05849416 -0.1478474 -0.08383199 -0.4967681
000200 19 f5 69 bd ab 96 a7 bd df 06 85 3d 40 eb eb 3d
       -0.05711851 -0.081830345 0.06495451 0.1151948
000210 ab 40 05 be 05 3b e0 3d 50 21 f2 3c 4b 9c 36 be
       -0.1301295 0.10948757 0.0295569 -0.17833059
000220 30 e7 1e bb 7f ce 63 3e 55 e3 ec bd c7 4b 11 ba
       -0.0024246685 0.22246741 -0.11566798 -0.0005542603
000230 52 85 c8 bd a2 e8 1e 3e 6b 72 d2 3d 41 f6 6c 3d
       -0.09791054 0.1551843 0.1027573 0.057852034
000240 3f 4b 8e bd 50 91 a1 bd bc 01 32 bd fb ca 57 bc
       -0.06947946 -0.07889044 -0.043458685 -0.013170953
000250 ac df b9 bd a4 b9 db 3d 7d 1a dd bd 46 44 40 bd
       -0.09075865 0.107287675 -0.10796068 -0.04694011
000260 be f5 27 3d 59 e1 ed 3d d8 e7 f6 3d 6e 11 51 3d
       0.041005842 0.11615247 0.120559394 0.051042013
000270 e1 84 3f be 7f ae c2 3d a0 dc d6 bc 2a c3 c2 3c
       -0.18703033 0.09505939 -0.02622825 0.023774702
000280 41 1c 07 3e 9f 4a d9 bc bf 43 af 3c 0c f2 7e 3d
       0.13194372 -0.02652484 0.021394609 0.062242553
000290 4f fc 19 3e 77 36 a6 3d e0 a4 99 3d ba 85 a3 bc
       0.15037654 0.08115857 0.075021505 -0.019961227
0002a0 ff 2e b6 3d e6 6c 3e 3e 8e c9 a4 3c b8 99 ea bc
       0.088956825 0.18596229 0.02011564 -0.028637752
0002b0 86 1e 51 3d 42 2b 9a bb ce 83 76 3d 6f 64 76 3c
       0.0510545 -0.0047048638 0.060184292 0.015038594
0002c0 d8 f5 5b bc 64 42 15 3d 6a 30 99 bc 6a b1 11 3e
       -0.013425313 0.03644027 -0.018699843 0.14227834
0002d0 31 e5 91 bd 2e ef 70 bd 24 fb 08 bc ae 1f 41 3c
       -0.07123793 -0.05882185 -0.008360658 0.011787338
0002e0 f3 24 1f be 66 90 ed 3c c5 fd 85 3b 07 10 00 bd
       -0.15541439 0.028999519 0.0040890896 -0.031265285
0002f0 bb 1b bb bd 93 cb de 3d 13 f1 9e bb 0b 5a 18 bc
       -0.091361485 0.108786725 -0.0048505156 -0.009298812
000300 08 3c 01 3d 02 30 20 bd ab 3a 27 3d c0 57 89 bd
       0.03155139 -0.039108284 0.040827435 -0.0670619
000310 52 61 27 be 48 45 65 3e 75 a1 90 be d2 01 98 3c
       -0.16345719 0.2238971 -0.28248182 0.018555555
000320 45 e6 be bd 13 74 94 bd ac 4a 16 3e af f2 54 be
       -0.09321264 -0.07248702 0.14676923 -0.20795701
000330 6b 02 8e be 88 7e 4a be 9c 32 c0 be f4 d5 d7 3c
       -0.2773622 -0.1977483 -0.37538612 0.026347138
000340 52 2d 9d bb 8a c3 84 be a3 fd 64 be d6 d7 91 be
       -0.0047966624 -0.25930434 -0.2236238 -0.28484982
000350 da f0 91 be d0 34 12 bd 23 0b 09 3e 0a 9c 2a bd
       -0.28504068 -0.035694897 0.13383155 -0.041652717
000360 b6 b2 d9 3b d9 dc ff bb 45 62 de bd c7 2f bd bd
       0.0066436185 -0.0078083095 -0.10858587 -0.092376284
000370 80 44 06 be dc 83 ac bc 4b e6 59 bd ac 59 f0 bd
       -0.13112068 -0.02105897 -0.05319814 -0.117358536
000380 c9 dd 08 bd 42 88 10 bd f8 f2 13 3e 59 8d 16 be
       -0.033414636 -0.035286196 0.14448154 -0.14702357
000390 86 3a 55 bb da 4c 07 be 85 1e a3 be 0f e0 47 3e
       -0.0032536103 -0.1321291 -0.31859222 0.19519065
0003a0 58 5a 1b be 04 84 ea 3d 93 33 1b bd 7a e2 90 3d
       -0.15171182 0.11450961 -0.037890982 0.07074447
0003b0 f0 b8 66 3e bc 1f 0c be b6 d0 b5 bd a2 b5 1f bb
       0.22531486 -0.1368398 -0.08877699 -0.0024369736
0003c0 59 39 54 3e 67 9f 3c 3c b4 81 18 be a7 8e 3f bd
       0.20725001 0.011512614 -0.14893228 -0.046766903
0003d0 36 e0 61 3e 22 a1 1f 3e bb 0e 64 be f6 be 4e be
       0.22058186 0.15588811 -0.22271244 -0.20190033
0003e0 67 bb c3 3c 90 8f 3e 3e 67 f5 84 bd d9 81 55 3e
       0.023893071 0.18609452 -0.06492119 0.20850314
0003f0 49 4a 03 3e 91 29 55 3d 84 6e 2e be a9 35 09 bd
       0.12821306 0.052041594 -0.17034346 -0.03349844
