logs/g1/Apr19_03-18-51_/model_150.pt (torch, 777504 bytes, 48 tensors)

std f4 [12]
0.35056564 0.43310755 0.21895508 0.30096295 0.5913203 0.5595194 0.35186532 0.4209914
0.22804889 0.33643046 0.6255805 0.57361746
00000000: 577d b33e 46c0 dd3e c335 603e d117 9a3e
00000010: c460 173f aa3c 0f3f b127 b43e 2f8c d73e
00000020: a685 693e 9d40 ac3e 0b26 203f 98d8 123f

actor.0.weight f4 [32, 64]
0.14345315 -0.052129854 0.019560395 -0.05357224 0.27319008 0.1022666 -0.29503337 0.026953522
0.27249163 0.2157401 0.25363913 0.13429037 0.26483893 0.23633127 0.03218588 0.07623249
0.1405375 -0.092092566 0.08568874 0.070193335 0.012871441 0.008085673 0.24327235 0.2512777
0.024367038 0.2946649 -0.15886764 0.07509947 -0.02963933 0.1860746 -0.26701263 -0.2884034
0.17489138 -0.12539518 -0.031059466 0.27155602 0.046805628 -0.09826104 0.20650962 0.091415994
0.015729323 -0.119360045 0.1789505 0.05721042 -0.19556242 0.033809986 -0.21484049 -0.09786157
0.04334087 -0.08910082 0.105172545 -0.03701372 0.2542553 -0.08948781 0.011741593 0.040594462
-0.024092177 0.11234307 -0.33246395 -0.15615849 0.15951759 -0.0847137 -0.14084262 -0.08197078
0.17344908 0.31212553 -0.059993744 0.077739984 0.24762161 -0.13893536 -0.02687074 -0.28724694
-0.27119234 0.508757 -0.36141297 0.38840622 0.022859452 -0.175806 -0.028246082 -0.30348986
0.15390266 -0.15162455 -0.14997947 0.015522285 -0.19223136 -0.004294575 0.19479102 -0.00528915
-0.1521641 -0.018275993 -0.23928052 -0.108506106 0.1477364 -0.13299704 -0.08592036 -0.060171735
0.26451808 -0.05972277 -0.18619834 0.107481 0.30719215 0.09404285 -0.13148624 0.109208785
0.3280229 0.08231884 0.005379297 -0.2694517 0.28498948 0.17179257 0.20447905 0.006735453
-0.05779831 -0.1311348 -0.20003864 -0.12085464 0.1253081 -0.17223893 -0.17895061 0.20607515
-0.16981667 0.047043283 0.3091176 -0.09674801 0.0063324217 0.37122738 0.4416595 0.1911017
-0.09477391 0.09455117 0.09126475 -0.16395563 0.2022631 0.11484034 0.027700737 0.21211259
0.21048467 0.34228456 0.09821491 -0.04861558 0.09319813 0.077778116 0.03168824 0.13622805
-0.14212845 -0.15469709 0.02493517 0.2537977 -0.15597875 0.04657092 0.04517403 -0.015083646
0.11829551 -0.051772065 -0.23446544 0.1735292 0.08906874 -0.0041718055 -0.1556558 -0.0859877
0.12006305 -0.24852389 0.05768941 0.23478422 0.19018526 -0.030681552 -0.04013384 0.39495876
-0.058708556 -0.07370779 -0.15123163 0.10260804 0.1460424 0.020523595 -0.15086049 -0.055729177
-0.2607358 -0.013116463 -0.456772 0.102399126 0.3793086 -0.025012879 -0.19090733 0.2716328
-0.0038073321 -0.13125244 -0.121964246 -0.23646261 -0.058619786 -0.2956832 -0.4035989 -0.31027424
0.17608766 -0.056721035 0.023851682 -0.016131435 -0.25262833 0.0685153 0.14449608 0.09038401
-0.28529873 -0.16347274 -0.090391144 -0.14318363 -0.09136127 -0.0728864 0.050787933 -0.10541005
0.0060284245 -0.012437453 0.36867768 -0.19004162 0.31332853 0.13334502 0.005293737 0.14727697
0.121632054 0.12868369 0.06427898 -0.12009531 -0.20605542 -0.122891806 0.08251225 0.029215408
-0.26597542 0.17269056 -0.20637877 0.011229805 -0.15066217 0.24596812 0.1447308 -0.26542264
-0.22459796 0.28602064 -0.07292399 -0.33212084 -0.18458246 0.12986764 0.26727343 -0.03253211
0.025340358 -0.15725042 0.20053759 0.06557992 0.14293995 -0.22675072 -0.014171078 0.08529034
-0.031117588 0.3206957 -0.13007858 0.18059495 -0.092003405 -0.11801603 0.022901503 0.43933287
00000000: 62e5 123e 1d86 55bd 1f3d a03c 916e 5bbd
00000010: 92df 8b3e 2771 d13d 9d0e 97be a2cd dc3c
00000020: 0684 8b3e f9ea 5c3e fddc 813e 6a83 093e
00000030: f898 873e d300 723e 57d5 033d c81f 9c3d
00000040: 10e9 0f3e 079b bcbd 947d af3d 86c1 8f3d
00000050: bde2 523c c579 043c 631c 793e 78a7 803e
00000060: 629d c73c 51de 963e 33ae 22be c0cd 993d
00000070: 2ece f2bc 578a 3e3e e1b5 88be 9ca9 93be
00000080: ba16 333e 9867 00be 6c70 febc 6409 8b3e
00000090: 42b7 3f3d 163d c9bd 4277 533e 4f38 bb3d
000000a0: c8da 803c 0a73 f4bd cd3e 373e 7955 6a3d
000000b0: 8441 48be 577c 0a3d 25ff 5bbe a66b c8bd
000000c0: 3286 313d 7e7a b6bd b464 d73d b39b 17bd
000000d0: c02d 823e 6345 b7bd cf5f 403c 6146 263d
000000e0: f55c c5bc 2014 e63d b738 aabe 03e8 1fbe
000000f0: 9458 233e 607e adbd 0c39 10be 4ce0 a7bd
00000100: a39c 313e ebce 9f3e 00bc 75bd 2436 9f3d
00000110: 8590 7d3e 1245 0ebe 0720 dcbc 0812 93be
00000120: b9d9 8abe e63d 023f 1f0b b9be 2edd c63e
00000130: bf43 bb3c 7d06 34be 5464 e7bc 0663 9bbe
00000140: a998 1d3e 7743 1bbe 3894 19be 2f51 7e3c
00000150: 4cd8 44be 82b9 8cbb 4c77 473e 9b50 adbb
00000160: e8d0 1bbe 89b7 95bc f405 75be 7338 debd
00000170: 3648 173e 6030 08be 04f7 afbd a376 76bd
00000180: ea6e 873e dd9f 74bd c7aa 3ebe 001f dc3d
00000190: 4a48 9d3e 8a99 c03d 54a4 06be dba8 df3d
000001a0: 9ef2 a73e c896 a83d d044 b03b 93f5 89be
000001b0: 24ea 913e 64ea 2f3e f562 513e 13b5 dc3b
000001c0: ecbd 6cbd 3348 06be eed6 4cbe a382 f7bd
000001d0: c450 003e 675f 30be d43e 37be 5d05 533e
000001e0: 6ce4 2dbe 75b0 403d a944 9e3e d223 c6bd
000001f0: 3480 cf3b 8411 be3e 3221 e23e 2ab0 433e
00000200: d318 c2bd 0ba4 c13d 03e9 ba3d fce3 27be
00000210: 0f1e 4f3e 6a31 eb3d a8ec e23c 0b34 593e
00000220: 4b89 573e ec3f af3e e624 c93d 2121 47bd
00000230: a9de be3d 224a 9f3d 87cb 013d 5e7f 0b3e
00000240: 1f8a 11be ea68 1ebe d744 cc3c c6f1 813e
00000250: e5b8 1fbe 26c1 3e3d 6708 393d 6621 77bc
00000260: eb44 f23d f20e 54bd b517 70be a3b1 313e
00000270: ac69 b63d a4b3 88bb 3c64 1fbe 521a b0bd
00000280: 9ee3 f53d 0c7d 7ebe bb4b 6c3d 466b 703e
00000290: edbf 423e e157 fbbc 6263 24bd 0938 ca3e
000002a0: 6278 70bd 1cf4 96bd 77dc 1abe 2a24 d23d
000002b0: 248c 153e 1921 a83c 2c7b 1abe 4744 64bd
000002c0: 2a7f 85be 6fe6 56bc 05de e9be a2b6 d13d
000002d0: bd34 c23e cfe7 ccbc 367d 43be 7413 8b3e
000002e0: 6f84 79bb 0a67 06be 64c8 f9bd 4123 72be
000002f0: 4d1b 70bd ca63 97be 84a4 cebe 44dc 9ebe
00000300: 5350 343e 5154 68bd 9a64 c33c 1226 84bc
00000310: 8058 81be c051 8c3d c8f6 133e 401b b93d
00000320: ad12 92be 6665 27be fe1e b9bd bb9e 12be
00000330: 9e1b bbbd 7745 95bd 0207 503d 39e1 d7bd
00000340: 178a c53b 75c6 4bbc 52c3 bc3e 459a 42be
00000350: 996c a03e 998b 083e 1677 ad3b c6cf 163e
00000360: 3a1a f93d a8c5 033e b3a4 833d 88f4 f5bd
00000370: 3100 53be b3ae fbbd 2ffc a83d 2755 ef3c
00000380: ee2d 88be cbd5 303e f554 53be 37fd 373c
00000390: 2f47 1abe 11df 7b3e 5034 143e 7ae5 87be
000003a0: 02fd 65be 4c71 923e 2c59 95bd be0b aabe
000003b0: 2f03 3dbe 06fc 043e 10d8 883e 6440 05bd
000003c0: 9596 cf3c 4106 21be ba59 4d3e c44e 863d
000003d0: da5e 123e 5731 68be cf2d 68bc b4ac ae3d
000003e0: 50ea febc 3a32 a43e 5233 05be e2ed 383e
000003f0: 486c bcbd 63b2 f1bd ef9b bb3c 3df0 e03e

actor.0.bias f4 [32]
-0.04469027 0.047082223 -0.057919886 -0.014725683 -0.17029074 0.053586762 0.019501956 -0.038178224
-0.10962098 0.02898827 -0.0041324133 0.09127763 -0.0800589 -0.009178194 0.015570082 0.061807923
-0.04129699 0.009794884 -0.13422723 -0.19221552 0.01157055 0.0870004 0.074206986 -0.14004716
-0.075100586 0.055017013 0.027039684 -0.0865476 -0.07553854 0.20568068 -0.056329396 0.0029497186
00000000: 250d 37bd 4ad9 403d 673d 6dbd fe43 71bc
00000010: b260 2ebe cb7d 5b3d 91c2 9f3c c560 1cbd
00000020: f780 e0bd cf78 ed3c 3269 87bb c4ef ba3d
00000030: ecf5 a3bd 2360 16bc a819 7f3c 4e2a 7d3d
00000040: 0827 29bd b97a 203c dd72 09be 25d4 44be
00000050: 6792 3d3c 442d b23d d5f9 973d 8668 0fbe
00000060: 56ce 99bd 8559 613d 5482 dd3c de3f b1bd
00000070: f3b3 9abd f59d 523e a7b9 66bd 1150 413b

actor.2.weight f4 [12, 32]
0.100334555 0.0068516918 0.15576573 -0.16773942 0.0925818 0.021470785 -0.27979788 0.32574815
-0.08351594 0.022617707 0.1650622 -0.057105735 -0.16703492 -0.19309032 0.05768749 -0.106313005
-0.2119437 -0.11350048 0.19513667 -0.19007386 0.0613487 0.13891691 0.13651872 0.19419742
0.059021 0.20643716 0.08988843 0.03407941 0.20534316 -0.27016106 0.08174244 -0.031506054
0.0565569 0.1582447 0.033231106 -0.23002985 0.010246175 0.068975 -0.07890328 0.035786763
0.019065194 0.14514105 0.07093135 0.20085841 -0.037314184 0.010985703 -0.031186236 0.07181802
-0.06277857 0.3107199 -0.14945087 -0.26690248 -0.21290655 0.17030379 0.28593573 -0.35084546
0.17231299 0.2836211 0.08810971 0.060177613 -0.09026529 0.22932366 0.09496168 -0.19101183
0.084618516 -0.034269143 -0.0393936 0.23065843 0.16227642 -0.08253351 -0.02967206 0.111222476
0.030016534 -0.086314626 -0.056432094 0.048240956 0.0016652846 -0.17206934 0.13957007 -0.06771381
0.07323924 -0.054215126 -0.04682049 0.15925874 0.15716477 -0.0025652105 0.090338245 -0.12177018
-0.11286689 -0.04695043 -0.0032830718 0.11140825 -0.058978852 -0.1266237 0.1363036 0.07869315
0.11448767 0.008201733 0.050303478 -0.11501897 0.029904539 -0.053995386 -0.14518993 0.16680738
-0.022786014 -0.084312685 0.18274918 -0.11511688 0.071217865 0.115749635 0.10519003 0.07161191
0.1602208 0.004129032 0.21462978 0.1860355 -0.048704363 -0.06731466 -0.0513154 0.04175394
0.019955426 -0.07618714 -0.010494187 0.023077907 0.036381423 -0.022147294 0.07876344 -0.10603776
-0.051055096 0.030622873 -0.23370433 0.022100803 -0.25763226 0.06755223 -0.043988653 0.21477431
-0.3020538 -0.30329925 0.36917028 -0.11422747 -0.39808804 0.21176404 -0.044924285 0.43407503
0.10974076 0.012913817 -0.25430042 -0.20929962 0.14904214 0.26929116 0.025295412 0.3037509
-0.36822754 0.39484155 -0.09590712 0.13233076 0.26814297 0.11254364 0.27963418 -0.28608227
-0.09960979 0.1889044 -0.10998171 0.035491914 0.19656835 -0.02051295 0.08413183 0.11955058
0.17609145 0.04000177 0.19837117 0.0073195263 -0.1543161 0.098429725 -0.2720188 -0.08365546
-0.122202516 0.04598412 0.04882543 0.17960325 0.016959934 0.116114415 -0.029539166 -0.11893011
-0.14477003 -0.19347683 -0.042897053 -0.017283564 -0.025793562 -0.22823873 0.106600314 -0.15110667
-0.13644303 0.15569013 -0.24977392 0.0026696562 -0.23509441 0.104083024 0.0066982973 0.0026680853
0.33147928 0.17377011 -0.09380743 -0.098507516 0.12650953 0.13199027 0.25501576 0.22830573
-0.039192554 -0.24769686 0.26427338 -0.17922945 -0.006871089 0.090323694 0.116792426 0.08056277
-0.11705803 -0.27040556 -0.04939804 0.16276109 -0.08042592 0.11637678 -0.010225568 -0.034581486
-0.025245585 -0.12834303 0.07930992 -0.08456161 0.06973241 -0.004163638 -0.20556404 -0.22862747
0.18420681 0.09081164 -0.07052657 -0.24018838 0.14410695 -0.07483336 -0.10289073 0.15019016
-0.15186302 0.15091258 -0.06504091 0.10349002 0.11399849 -0.27176574 0.18648814 0.13714823
0.09544027 0.11807157 -0.16675803 0.24578886 -0.0361426 -0.17510998 0.09779882 -0.11386898
00000000: 347c cd3d 2884 e03b 0d81 1f3e e2c3 2bbe
00000010: 879b bd3d 80e3 af3c ab41 8fbe 76c8 a63e
00000020: 680a abbd c548 b93c 1106 293e b4e7 69bd
00000030: 340b 2bbe 78b9 45be b849 6c3d a2ba d9bd
00000040: c507 59be f172 e8bd e8d1 473e b9a2 42be
00000050: c648 7b3d 3c40 0e3e 90cb 0b3e b0db 463e
00000060: 01c0 713d 4364 533e 6d17 b83d da96 0b3d
00000070: 7a45 523e 8d52 8abe 9568 a73d 7e0c 01bd
00000080: 35a8 673d e60a 223e 571d 083d f28c 6bbe
00000090: 93df 273c c442 8d3d 0b98 a1bd 2495 123d
000000a0: 9c2e 9c3c db9f 143e 7544 913d d4ad 4d3e
000000b0: c2d6 18bd 61fd 333c 477a ffbc 5315 933d
000000c0: 0d92 80bd ae16 9f3e a609 19be 71a7 88be
000000d0: 2d04 5abe 1e64 2e3e 2b66 923e 04a2 b3be
000000e0: d172 303e c936 913e dd72 b43d cd7c 763d
000000f0: 02dd b8bd d2d3 6a3e 457b c23d 9b98 43be
00000100: 794c ad3d cd5d 0cbd 2f5b 21bd b931 6c3e
00000110: ca2b 263e 5407 a9bd d212 f3bc 9cc8 e33d
00000120: 3ce5 f53c b9c5 b0bd 5725 67bd 4f98 453d
00000130: ae45 da3a f232 30be 75eb 0e3e 8aad 8abd
00000140: 74fe 953d ae10 5ebd d8c6 3fbd b914 233e
00000150: cdef 203e 171d 28bb 4203 b93d a562 f9bd
00000160: c226 e7bd 184f 40bd ce28 57bb 022a e43d
00000170: cf93 71bd a5a9 01be 2c93 0b3e e029 a13d
00000180: 8378 ea3d 9060 063c 050b 4e3d 118f ebbd
00000190: 5dfa f43c 442a 5dbd abac 14be 8ecf 2a3e
000001a0: bca9 babc 21ac acbd 9a22 3b3e 66c2 ebbd
000001b0: acda 913d 250e ed3d df6d d73d 44a9 923d
000001c0: ec10 243e d54c 873b e9c7 5b3e 1780 3e3e
000001d0: 3a7e 47bd 45dc 89bd 1930 52bd 2e06 2b3d
000001e0: 9079 a33c 0108 9cbd cfef 2bbc e10d bd3c
000001f0: b004 153d 3e6e b5bc ba4e a13d 532a d9bd
00000200: 261f 51bd d2dc fa3c 3050 6fbe be0c b53c
00000210: 60e8 83be d358 8a3d 722d 34bd cced 5b3e
00000220: cca6 9abe 0a4a 9bbe e303 bd3e 17f0 e9bd
00000230: 32d2 cbbe acd8 583e 8702 38bd 153f de3e
00000240: c3bf e03d 7994 533c aa33 82be a452 56be
00000250: 819e 183e 88e0 893e 5338 cf3c 3d85 9b3e
00000260: 5288 bcbe ac28 ca3e f46a c4bd b781 073e
00000270: 094a 893e 487d e63d 362c 8f3e 6079 92be
00000280: 3800 ccbd 2870 413e 173e e1bd f85f 113d
00000290: 3749 493e c60a a8bc 4f4d ac3d efd6 f43d
000002a0: 5151 343e e5d8 233d d021 4b3e a3d8 ef3b
000002b0: 0a05 1ebe 8695 c93d 0c46 8bbe 8e53 abbd
000002c0: 5045 fabd d859 3c3d 2dfd 473d eae9 373e
000002d0: 8fef 8a3c 65cd ed3d 1ffc f1bc a191 f3bd
000002e0: 983e 14be ca1e 46be d2b4 2fbd 4396 8dbc
000002f0: 054d d3bc 6ab7 69be 4451 da3d b5bb 1abe
00000300: b9b7 0bbe 3c6d 1f3e bcc4 7fbe 66f5 2e3b
00000310: 97bc 70be 7b29 d53d 647d db3b 0bdb 2e3b
00000320: a7b7 a93e cbf0 313e 1c1e c0bd 4fbe c9bd
00000330: b78b 013e 7528 073e 6d91 823e fac8 693e
00000340: 5f88 20bd 3fa4 7dbe d74e 873e ed87 37be
00000350: df26 e1bb a1fb b83d de30 ef3d 18fe a43d
00000360: 1fbc efbd 9972 8abe 9955 4abd d8aa 263e
00000370: 58b6 a4bd f356 ee3d 2489 27bc 51a5 0dbd
00000380: d4cf cebc 5b6c 03be 3d6d a23d a32e adbd
00000390: decf 8e3d 216f 88bb 617f 52be 521d 6abe
000003a0: b6a0 3c3e 74fb b93d 3c70 90bd f1f3 75be
000003b0: c690 133e 3c42 99bd 60b8 d2bd 73cb 193e
000003c0: fb81 1bbe d488 1a3e 2b34 85bd 93f2 d33d
000003d0: 0a78 e93d e124 8bbe bff6 3e3e 9670 0c3e
000003e0: 3076 c33d 82cf f13d 9ec2 2abe 13b0 7b3e
000003f0: 430a 14bd 0850 33be bf4a c83d 2434 e9bd

actor.2.bias f4 [12]
0.033563852 0.14102596 -0.005762332 -0.22412671 0.27187923 -0.18274206 -0.15198866 -0.050542526
0.07106249 -0.13937467 -0.099696025 0.17070358
00000000: 407a 093d 1c69 103e f2d1 bcbb 7981 65be
00000010: c133 8b3e bc20 3bbe eaa2 1bbe ae05 4fbd
00000020: 3689 913d 3cb8 0ebe 6e2d ccbd ebcc 2e3e

critic.0.weight f4 [32, 64]
0.008474571 0.08831455 0.12555495 0.09126765 0.08273757 -0.12630264 -0.062608704 0.0232621
-0.047160294 -0.0025794979 0.10921166 -0.13128577 0.0500008 0.09957392 0.05023549 0.10941361
0.091099896 0.005653574 -0.047058802 -0.13037583 0.07645398 0.027459327 0.03307758 -0.04351079
0.0067975344 -0.106776446 -0.11706925 -0.02743669 0.091047384 -0.12593134 0.056200672 0.06095698
-0.022834638 0.02396605 -0.012704901 0.058644038 -0.07426548 0.0882341 -0.0781793 0.11859264
-0.065654814 -0.039395582 -0.06419708 0.023148779 -0.07451727 -0.094868824 -0.12073244 0.094183885
-0.12715943 0.053011335 -0.118389554 0.14336821 -0.06574492 0.11971471 0.09398982 -0.08789748
-0.07919852 -0.09050701 0.04121068 -0.0031309386 0.038862508 -0.06774158 0.005057378 0.052003562
-0.13536698 -0.026040163 0.0007089734 -0.05666957 0.0072183395 -0.030521154 -0.09792637 0.080462575
0.044207674 0.08636334 -0.07205903 -0.1298354 0.0037680645 0.04224241 0.13513543 0.07513445
-0.13122259 0.07746174 -0.08188542 0.09614455 -0.023336885 0.11337883 -0.095972694 -0.042113043
-0.07609707 0.029606497 -0.063714914 0.12911041 0.10223226 -0.030243352 0.13888498 0.086124726
0.0245471 -0.08976078 -0.09784953 0.104980186 0.14555617 -0.101553395 0.12221692 -0.06280767
-0.023452595 -0.028010365 0.019775447 -0.02211967 -0.018791404 0.008651462 0.09151705 0.14847796
0.14641123 -0.1395379 -0.10571163 -0.061148997 -0.01907117 0.11517635 0.11146279 0.08012534
0.16324358 -0.028287156 -0.014478338 -0.13841997 -0.0064823837 0.13642898 -0.15915853 0.1780314
0.04279957 -0.14340137 0.014528044 0.03493346 0.09497472 0.06956557 -0.06524369 0.044678833
-0.070199795 -0.034719486 -0.014343055 0.0026255636 0.08904137 0.04023527 -0.024486983 -0.16411652
-0.10000699 -0.0029888686 -0.0058383895 0.012077043 -0.085444376 0.042466704 -0.11733912 0.030715887
-0.02599945 -0.052074444 -0.07105014 -0.016171834 -0.042702965 -0.023603158 -0.05544305 -0.0805416
0.016776156 0.018264703 -0.12740031 -0.037777804 -0.013754827 -0.048177574 0.027190583 0.017586743
0.09137076 -0.018808633 -0.118011095 -0.11461214 0.085945 0.012971305 -0.0072899438 0.023534464
0.1129115 0.053035323 0.007967698 0.0034111347 -0.0031768938 -0.06360476 -0.015461412 -0.04829771
0.014506133 -0.15906277 0.015236994 -0.10309704 0.14382814 -0.035861347 -0.14467962 0.13127531
-0.024059314 -0.07133244 0.0877724 0.042125743 0.09613432 0.014689005 -0.01628514 0.059684895
0.1406086 -0.023005683 -0.011487412 0.008988867 0.028136538 -0.031618416 0.138387 -0.051599685
0.027673867 0.07493169 0.07586167 -0.026478948 0.13240787 -0.008911294 -0.077415474 0.10589751
-0.09928808 0.102989554 -0.12979431 0.098970294 -0.12532134 -0.038406752 0.124285504 -0.0035126647
-0.14674823 -0.17363718 -0.14386271 0.114914864 -0.08589258 -0.009819591 -0.03696074 0.051403876
0.077525824 -0.07684171 -0.058487274 -0.08179162 -0.041830305 -0.046402615 0.024468698 0.088896684
-0.07381634 0.005662653 -0.07128479 -0.09932488 -0.044730354 0.10046464 0.014351546 -0.019229835
-0.09162122 -0.1968605 -0.13882901 -0.003153945 0.0885137 0.023300182 0.05575998 0.059093527
00000000: edd8 0a3c 42de b43d 7a91 003e 89ea ba3d
00000010: 5172 a93d 7b55 01be fe38 80bd 2990 be3c
00000020: 272b 41bd cb0c 29bb 5daa df3d c76f 06be
00000030: a4cd 4c3d 69ed cb3d bbc3 4d3d 3e14 e03d
00000040: 9592 ba3d 9e41 b93b bbc0 40bd 3e81 05be
00000050: e793 9c3d 62f2 e03c 5b7c 073d 5f38 32bd
00000060: dabd de3b 9cad dabd 01c2 efbd e9c2 e0bc
00000070: 0d77 ba3d 25f4 00be ad32 663d 07ae 793d
00000080: b50f bbbc 7354 c43c 3828 50bc bb34 703d
00000090: 8018 98bd 14b4 b43d 781c a0bd b3e0 f23d
000000a0: 0876 86bd 435d 21bd c279 83bd 82a2 bd3c
000000b0: 839c 98bd 964a c2bd 9242 f7bd 7be3 c03d
000000c0: 1536 02be 6a22 593d 3976 f2bd 1ecf 123e
000000d0: 46a5 86bd fc2c f53d bc7d c03d 9803 b4bd
000000e0: d532 a2bd bd5b b9bd 88cc 283d 6f30 4dbb
000000f0: 4b2e 1f3d 19bc 8abd 5db8 a53b b001 553d
00000100: a49d 0abe 2e52 d5bc 66da 393a 5a1e 68bd
00000110: d287 ec3b 8007 fabc 9f8d c8bd 90c9 a43d
00000120: 1b13 353d 43df b03d af93 93bd 92f3 04be
00000130: a2f1 763b 6106 2d3d f160 0a3e 17e0 993d
00000140: 375f 06be 43a4 9e3d 8bb3 a7bd 6fe7 c43d
00000150: ff2c bfbc 2933 e83d 558d c4bd ba7e 2cbd
00000160: c8d8 9bbd 5389 f23c f77c 82bd 8535 043e
00000170: 265f d13d e8c0 f7bc dd37 0e3e 2962 b03d
00000180: 0017 c93c 80d4 b7bd 5665 c8bd daff d63d
00000190: ad0c 153e 3afb cfbd dd4c fa3d 4fa1 80bd
000001a0: a81f c0bc fe75 e5bc 1e00 a23c 4f34 b5bc
000001b0: 6ef0 99bc ddbe 0d3c 4b6d bb3d 9b0a 183e
000001c0: d3ec 153e 06e3 0ebe 577f d8bd 5f77 7abd
000001d0: 243b 9cbc 94e1 eb3d 9a46 e43d c118 a43d
000001e0: 5329 273e 77ba e7bc 8d36 6dbc f7bd 0dbe
000001f0: 2d6a d4bb 0ab4 0b3e 74fa 22be dd4d 363e
00000200: 9a4e 2f3d cfd7 12be 0807 6e3c 6316 0f3d
00000210: 1b82 c23d 6578 8e3d 7c9e 85bd 2701 373d
00000220: e9c4 8fbd 0536 0ebd 22ff 6abc a611 2c3b
00000230: 525b b63d bdcd 243d ed98 c8bc 290e 28be
00000240: 77d0 ccbd e5e0 43bb f64f bfbb cade 453c
00000250: 76fd aebd 91f1 2d3d 7e4f f0bd e29f fb3c
00000260: ccfc d4bc 034c 55bd bc82 91bd cb7a 84bc
00000270: 4ee9 2ebd 695b c1bc 4018 63bd fff2 a4bd
00000280: 266e 893c dc9f 953c 3a75 02be e6bc 1abd
00000290: ed5b 61bc d955 45bd c9be de3c 1312 903c
000002a0: 9820 bb3d 9014 9abc cdaf f1bd c5b9 eabd
000002b0: ef03 b03d 9985 543c 7be0 eebb 59cb c03c
000002c0: 253e e73d 913b 593d f38a 023c 588d 5f3b
000002d0: 6f33 50bb 3643 82bd dd51 7dbc d2d3 45bd
000002e0: 22ab 6d3c 5ae1 22be 96a4 793c 8a24 d3bd
000002f0: af47 133e 59e3 12bd e526 14be 096d 063e
00000300: 0a18 c5bc be16 92bd 04c2 b33d 0b8c 2c3d
00000310: 12e2 c43d 27aa 703c 6a68 85bc 2678 743d
00000320: b3fb 0f3e 6a76 bcbc b335 3cbc 0a46 133c
00000330: 997e e63c 5082 01bd 52b5 0d3e 315a 53bd
00000340: 4eb4 e23c c975 993d 5d5d 9b3d 61ea d8bc
00000350: ee95 073e ad00 12bc 018c 9ebd cbe0 d83d
00000360: 8d57 cbbd 30ec d23d cde8 04be f0b0 ca3d
00000370: 3d54 00be 6650 1dbd 6689 fe3d bc34 66bb
00000380: 2b45 16be f2cd 31be bf50 13be 7c58 eb3d
00000390: 73e8 afbd 5ae2 20bc 2564 17bd df8c 523d
000003a0: dcc5 9e3d 305f 9dbd 5a90 6fbd 5d82 a7bd
000003b0: 4156 2bbd ab10 3ebd 9472 c83c 770f b63d
000003c0: 052d 97bd c78d b93b c3fd 91bd d86a cbbd
000003d0: 2d37 37bd 68c0 cd3d bf22 6b3c e387 9dbc
000003e0: e8a3 bbbd cd95 49be 3129 0ebe 6bb2 4ebb
000003f0: ac46 b53d 06e0 be3c 9464 643d 0e0c 723d

critic.0.bias f4 [32]
0.027851187 -0.18158942 -0.13067958 -0.09569093 0.07333677 -0.11323048 0.04936931 0.026197867
0.014971471 -0.13391764 -0.027547598 -0.13220271 -0.09966933 0.07037092 -0.014453684 -0.2048041
0.10221512 -0.080179356 -0.044852592 0.17641877 -0.0001464798 -0.12012287 0.12811552 0.1607051
0.06627623 -0.048248578 0.01199561 -0.15984368 -0.08836748 0.14776927 0.15792681 0.0847791
00000000: 2c28 e43c 94f2 39be ded0 05be 9bf9 c3bd
00000010: 9731 963d 62e5 e7bd 7937 4a3d e99c d63c
00000020: e74a 753c b521 09be 80ab e1bc 2660 07be
00000030: 6f1f ccbd a11e 903d 25cf 6cbc 2ab8 51be
00000040: 2956 d13d 1335 a4bd 5ab7 37bd 1fa7 343e
00000050: 5f98 19b9 fb02 f6bd b730 033e e18f 243e
00000060: d5bb 873d 4da0 45bd 3c89 443c 10ae 23be
00000070: 02fa b4bd d450 173e 91b7 213e aaa0 ad3d

critic.2.weight f4 [1, 32]
0.0014343751 -0.13177104 -0.048215225 -0.0315625 0.01476046 -0.050808948 0.016257325 0.0024398766
0.0018398897 -0.13943648 -0.005008169 -0.14337748 0.3177541 0.021680832 0.002374117 -0.21912724
0.048203602 -0.020190306 0.006657922 0.14394917 0.002643233 -0.049908012 0.036055006 0.14865467
0.16407053 -0.006114529 1.3351806e-05 -0.04357779 -0.006642422 0.1686648 0.153434 0.04626645
00000000: a401 bc3a fdee 06be 547d 45bd ae47 01bd
00000010: dbd5 713c 0b1d 50bd 152e 853c 56e6 1f3b
00000020: 7428 f13a 70c8 0ebe 911b a4bb 8cd1 12be
00000030: aab0 a23e 009c b13c 1397 1b3b e462 60be
00000040: 2471 453d 2466 a5bc b32a da3b 6967 133e
00000050: 173a 2d3b 586c 4cbd 6aae 133d ee38 183e
00000060: 1b02 283e 635c c8bb 9201 6037 a07e 32bd
00000070: ada8 d9bb 77b6 2c3e cd1d 1d3e e481 3d3d

memory_a.rnn.weight_ih_l0 f4 [256, 47]
0.6636166 -0.26300487 -0.11272168 0.15010025 -1.0271184 0.16421854 -0.10560979 0.15239686
0.25594258 0.033825446 -0.8616679 -0.43400344 -0.43186864 0.49152827 -0.36855242 -0.004925885
0.61084217 0.13299394 -0.15541811 -0.4311305 0.028766308 0.60543823 0.1731549 0.14229096
-0.4630521 -0.18240866 -0.011665839 0.33734834 -0.12343693 0.46794924 -0.42358178 0.76074505
0.19733295 -0.07776551 -0.22494867 0.19248384 -0.3159419 -0.29176244 -0.23982897 0.49819663
-0.23930351 0.104421526 0.036246486 -0.036334928 0.4495809 -0.36957043 0.0152228335 0.100825734
-0.31926066 -0.14633013 0.02796588 0.020731034 0.069421805 0.23401938 0.3218142 -0.9738998
1.4337779 -0.5103335 -1.0401542 -0.35363412 -0.24283239 0.26380736 0.24478304 0.39835688
0.1260273 -0.5282916 -0.055221934 0.29259256 0.5039122 -0.85787076 -0.23729214 -0.3322761
0.273532 0.12081915 -0.13325143 0.33868226 0.23298752 0.16927738 0.3931371 0.66526777
-0.124301925 -0.17063358 -0.62662196 -0.03787636 0.14720204 0.0318967 0.45855638 0.0056152698
0.35065818 0.006075598 -0.21629871 0.6397093 -0.10647455 -0.28194714 0.44857123 -0.54076356
0.002547451 0.31269687 -0.33253336 -0.05227105 -0.15963084 -0.064935595 -0.082283035 0.06378433
0.37301093 0.16670424 -0.2551675 -0.10659814 -0.11099572 -0.81629336 0.08914206 0.19348824
-0.32566163 0.060536534 -0.5460457 1.2429596 -0.050074924 0.23930877 -0.2963001 -0.5439755
0.09311431 -0.3308568 -0.19776948 -0.45126203 0.41527703 0.7554875 0.5389925 1.0055436
0.03930121 0.19033046 -0.09348388 0.035016246 -0.02745469 0.7482476 -0.24796537 0.16851528
0.4228722 -0.06288066 -0.25514734 0.1893991 -0.014584394 -0.78265226 0.16818663 -0.15602742
0.36210713 0.31793964 0.3083259 -0.3381629 0.17527254 0.5047294 -0.41007832 -0.56827575
0.079195604 0.03400521 0.7988678 0.61737126 -0.71576655 -0.90571666 0.36154637 -0.7059659
0.23425174 0.10367543 -0.18587309 0.60408324 -0.10052698 0.05194708 -0.42700425 -0.4833563
-0.5130051 -0.021099921 0.14373544 0.57641304 0.0226609 -0.061159622 -0.46376932 -0.087329336
-0.033200346 0.504691 0.032424334 -0.020150319 0.08924692 0.23562402 0.12420936 0.269327
-0.11427701 0.10758959 0.13358971 0.1807189 0.25557777 0.19280797 1.1900536 0.4914474
-0.43820706 0.073215954 -0.056919772 0.24689856 0.64465404 0.6002869 0.6054592 -0.016949851
-0.15550888 0.2499251 0.18165247 -0.11644982 0.4353386 -0.32669726 0.67326653 0.46273294
0.024827296 -0.8173275 0.4013249 0.46397412 0.37231004 0.06770089 -0.063451834 -0.30876985
-0.16494764 -0.6154097 0.32936743 0.09601316 0.041275516 -0.28931785 -0.3934816 0.54330856
0.14727524 0.41812488 -0.22017406 -0.016328573 -0.5678333 -0.12633102 0.07144223 0.039030064
0.0766679 -0.39174527 -0.15739298 0.22631851 0.22440676 -0.053742826 -0.48635265 0.037542265
-0.3625397 -0.18356512 0.15215072 -0.5006621 -0.34794742 -0.16493352 -0.11928001 -0.22343978
0.13343596 0.27498606 0.22496101 -0.35910448 0.36788744 0.4265204 0.38226482 -0.33642662
00000000: c7e2 293f 93a8 86be a0da e6bd e1b3 193e
00000010: 9e78 83bf e828 283e f249 d8bd ec0d 1c3e
00000020: e80a 833e 8d8c 0a3d 4496 5cbf b335 debe
00000030: e31d ddbe 98a9 fb3e e7b2 bcbe 5169 a1bb
00000040: 2760 1c3f 902f 083e ed25 1fbe 23bd dcbe
00000050: 52a7 eb3c 00fe 1a3f 854f 313e b9b4 113e
00000060: 2a15 edbe 56c9 3abe 1322 3fbc ecb8 ac3e
00000070: 80cc fcbd 0b97 ef3e b6df d8be 30c0 423f
00000080: a611 4a3e 8643 9fbd f258 66be 7c1a 453e
00000090: 23c3 a1be e361 95be ba95 75be a113 ff3e
000000a0: fb0b 75be f4da d53d 3277 143d efd3 14bd
000000b0: 782f e63e 5638 bdbe 3169 793c b97d ce3d
000000c0: 2276 a3be 91d7 15be b418 e53c 21d4 a93c
000000d0: 052d 8e3d c7a2 6f3e d5c4 a43e 7f51 79bf
000000e0: 0986 b73f 37a5 02bf c623 85bf 880f b5be
000000f0: 0ea9 78be c211 873e 68a8 7a3e 6ff5 cb3e
00000100: 4d0d 013e 1e3e 07bf 6530 62bd b1ce 953e
00000110: 6400 013f 6b9d 5bbf b6fc 72be 1820 aabe
00000120: 630c 8c3e 0870 f73d 1073 08be c367 ad3e
00000130: 4894 6e3e 0d57 2d3e 4449 c93e fd4e 2a3f
00000140: 0292 febd 92ba 2ebe 4c6a 20bf 3e24 1bbd
00000150: 22bc 163e 1da6 023d e7c7 ea3e 4c00 b83b
00000160: 7889 b33e cf15 c73b 697d 5dbe fdc3 233f
00000170: 540f dabd 605b 90be 21ab e53e 7b6f 0abf
00000180: 23f3 263b ce19 a03e d041 aabe 2b1a 56bd
00000190: 4476 23be f4fc 84bd 0284 a8bd 5ca1 823d
000001a0: 4afb be3e 84b4 2a3e 51a5 82be 2050 dabd
000001b0: b951 e3bd 9af8 50bf 1d90 b63d c821 463e
000001c0: 1fbd a6be 28f5 773d a7c9 0bbf 4d19 9f3f
000001d0: 5d1b 4dbd 5c0d 753e a6b4 97be fa41 0bbf
000001e0: b7b2 be3d 1066 a9be 1584 4abe d10b e7be
000001f0: 319f d43e a167 413f 6afb 093f a7b5 803f
00000200: 4efa 203d fde5 423e 7a74 bfbd 326d 0f3d
00000210: a8e8 e0bc 288d 3f3f a2ea 7dbe 458f 2c3e
00000220: b482 d83e 93c7 80bd aca2 82be d6f1 413e
00000230: 62f3 6ebc e65b 48bf 1e39 2c3e a7c5 1fbe
00000240: 1b66 b93e fcc8 a23e e4dc 9d3e b023 adbe
00000250: a57a 333e f235 013f c9f5 d1be 857a 11bf
00000260: 4e31 a23d 0c49 0b3d 9a82 4c3f 0b0c 1e3f
00000270: 7a3c 37bf 0cdd 67bf 9b1c b93e 2eba 34bf
00000280: b0df 6f3e c953 d43d 8455 3ebe 33a5 1a3f
00000290: 17e1 cdbd 76c6 543d 4da0 dabe 7a7a f7be
000002a0: 4d54 03bf bed9 acbc 622f 133e ce8f 133f
000002b0: 5aa3 b93c 8382 7abd 2c73 edbe b9d9 b2bd
000002c0: 16fd 07bd 6e33 013f 61cf 043d 4812 a5bc
000002d0: 17c7 b63d 6c47 713e 7a61 fe3d 3be5 893e
000002e0: 110a eabd ee57 dc3d becb 083e 600e 393e
000002f0: 17db 823e 746f 453e ad53 983f fe9e fb3e
00000300: ad5c e0be 3ff2 953d b524 69bd fad2 7c3e
00000310: 0c08 253f 67ac 193f 60ff 1a3f 6ada 8abc
00000320: b83d 1fbe 5eec 7f3e 1b03 3a3e 3e7d eebd
00000330: b3e4 de3e dd44 a7be 325b 2c3f 55eb ec3e
00000340: 9d62 cb3c 603c 51bf 757a cd3e 048e ed3e
00000350: 6c9f be3e c4a6 8a3d 09f3 81bd 1517 9ebe
00000360: 09e8 28be 7d8b 1dbf d9a2 a83e 8ca2 c43d
00000370: 8410 293d 7821 94be 6c76 c9be 4516 0b3f
00000380: 52cf 163e 7714 d63e 4f75 61be 80c3 85bc
00000390: 865d 11bf eb5c 01be 4e50 923d fddd 1f3d
000003a0: 0f04 9d3d d692 c8be a02b 21be 0ac0 673e
000003b0: e3ca 653e 7021 5cbd 3703 f9be ebc5 193d
000003c0: ce9e b9be 7ff8 3bbe 66cd 1b3e 642b 00bf
000003d0: 2a26 b2be 55e4 28be 1449 f4bd 66cd 64be
000003e0: 70a3 083e f9ca 8c3e 2e5c 663e 8bdc b7be
000003f0: be5b bc3e e260 da3e 37b8 c33e 1c40 acbe

memory_a.rnn.weight_hh_l0 f4 [256, 64]
0.15445143 0.22713853 -0.4093012 -0.32187858 0.26301858 -0.048759535 -0.10867361 0.020269955
-0.34721646 -0.59859896 0.025772993 -0.13432285 -0.45188862 -0.4302078 -0.6110176 0.3720794
-0.27500185 -0.17569636 -0.5823518 0.32657525 -0.27355722 -0.113942795 0.080410816 -0.119627565
0.75886965 -0.18028536 -0.5130827 0.47379044 0.46249044 0.10294011 0.26745266 0.078495175
-0.091346875 -0.37263557 0.07015366 -0.73743784 0.15034981 0.0005436438 0.11742102 -0.38907844
0.49137378 -0.06558302 -0.9591769 0.048234545 0.5882313 -0.23713319 -0.06814867 -0.13412447
-0.21147275 0.14467461 -0.94465387 -0.38485363 0.092732094 -0.80150247 0.85509896 -1.079399
0.026636077 0.24591659 0.7264373 -0.38684943 0.14240023 -0.46035263 0.06334061 -0.06389515
0.07920748 0.24180391 0.0640609 -0.8707193 -0.6246702 -0.6670671 1.124804 -0.4353468
-0.54376006 0.10547281 -0.049235385 0.29627046 0.21257064 0.38430282 -0.6266279 -0.23751605
0.11183494 0.74769807 0.3242008 -0.18440929 -0.82682467 -0.80459005 -0.40928212 -0.30250326
0.43988582 -0.22026534 -0.57976496 -0.80001575 0.4299203 -0.24102312 0.06784799 0.5773976
-0.7626489 0.1341735 -0.3667256 -0.18740594 -0.5974451 0.10103254 0.10854138 -0.3178588
0.21555257 -0.8560102 -0.21749063 0.005487693 0.7091957 0.32679015 0.39432353 -0.2247494
-0.2008521 -0.3066219 -0.21743757 0.94103605 -0.25753212 0.4353211 -0.12875761 0.36850116
0.21633972 0.46385145 -0.27745804 -0.09067076 -0.30123004 -0.14698198 -0.060117483 -0.56128716
0.3302317 -0.20291826 0.07328176 -0.19787647 0.07336358 -0.21057388 -0.37377188 0.64433765
-0.52857786 -0.06077857 -0.4894554 -0.106344186 0.38288414 -0.38381547 -0.13676763 -0.024679048
-0.09943702 0.28723243 0.44495076 -0.09771099 -0.47647718 0.9144264 -0.090632774 0.06438092
-0.42310923 0.73553365 -0.109462894 -0.30319935 -0.5722007 -0.1853412 0.73487043 0.14335094
0.90453273 4.4541925e-05 -0.50167596 -0.15621802 0.95212346 0.29711765 -0.6275381 -0.35662857
-0.2967064 0.17295878 0.28921092 0.46763185 -1.0381128 0.1112417 0.040708646 -0.06196929
-0.08397696 0.38327643 -0.635594 0.25124264 0.36420712 -0.29160312 0.1649316 -0.06458238
-0.5258881 -0.16880053 -0.14716405 0.17983004 0.31392542 0.097146146 -0.6333961 0.4774978
0.62059915 0.50760615 0.24765863 -0.012275136 0.76311624 -0.71304077 -0.012972624 0.9511253
-0.6231937 -0.94923323 -0.039160755 -0.49277535 0.29644117 -1.2274157 -0.87161005 0.22431254
-0.33738014 -0.071838774 0.018085161 0.30004236 0.27254793 -0.9668164 -0.44363615 0.016281975
-0.11216296 -0.16767092 -0.35991317 0.37360656 -0.479588 -0.2865203 0.46456176 0.21093425
-0.13041343 -0.031331643 -1.1259552 -0.4473765 -0.29603115 0.10290291 -0.40092534 -0.8361946
-0.40733755 -0.9326222 0.44087058 0.22513591 -0.3825577 -0.5572758 -0.69219613 -0.7425449
-0.29455304 -1.2129675 -0.012026883 -0.30831337 0.6587833 -0.12737858 -0.33942696 -0.51984906
0.12003296 -0.698254 0.031816006 0.25739703 -0.15933853 -0.5130396 -0.13766366 0.63095737
00000000: 8428 1e3e 0197 683e ed8f d1be 45cd a4be
00000010: 5faa 863e 14b8 47bd 4590 debd 2d0d a63c
00000020: 5bc6 b1be c83d 19bf e221 d33c ee8b 09be
00000030: f25d e7be 3244 dcbe a66b 1cbf 3181 be3e
00000040: 0bcd 8cbe bfe9 33be 0215 15bf df34 a73e
00000050: b10f 8cbe d75a e9bd 6dae a43d 4cff f4bd
00000060: 4845 423f ba9c 38be 6359 03bf a994 f23e
00000070: 8ccb ec3e 44d2 d23d 8eef 883e 14c2 a03d
00000080: 1214 bbbd 17ca bebe b9ac 8f3d bac8 3cbf
00000090: 4df5 193e 5183 0e3a 6f7a f03d 4a35 c7be
000000a0: 5895 fb3e 6450 86bd 9e8c 75bf 9691 453d
000000b0: 5496 163f 0bd3 72be 8891 8bbd ed57 09be
000000c0: 508c 58be 9525 143e d6d4 71bf 890b c5be
000000d0: 53ea bd3d 442f 4dbf c4e7 5a3f bf29 8abf
000000e0: e733 da3c 8fd1 7b3e cbf7 393f 2111 c6be
000000f0: 5ed1 113e 57b3 ebbe b9b8 813d 76db 82bd
00000100: 8837 a23d 729b 773e 5c32 833d 76e7 5ebf
00000110: 63ea 1fbf e9c4 2abf 94f9 8f3f c7e5 debe
00000120: dc33 0bbf 2102 d83d 0bab 49bd c3b0 973e
00000130: 1eac 593e 57c3 c43e b06a 20bf 6837 73be
00000140: b809 e53d 2469 3f3f a6fd a53e cad5 3cbe
00000150: c8aa 53bf 9df9 4dbf 6d8d d1be b5e1 9abe
00000160: b738 e13e 3d8d 61be 7a6b 14bf d5cd 4cbf
00000170: 831e dc3e c4ce 76be e3f3 8a3d 54d0 133f
00000180: f53c 43bf c764 093e 75c3 bbbe 58e7 3fbe
00000190: 29f2 18bf 26ea ce3d f14a de3d 63be a2be
000001a0: d0b9 5c3e 7c23 5bbf ddb5 5ebe 1bd2 b33b
000001b0: d98d 353f 0a51 a73e c6e4 c93e b524 66be
000001c0: 2cac 4dbe 8cfd 9cbe f4a7 5ebe bde7 703f
000001d0: 40db 83be 68e2 de3e 09d9 03be 2fac bc3e
000001e0: 2988 5d3e f07d ed3e fb0e 8ebe 97b1 b9bd
000001f0: d33a 9abe 7282 16be c03d 76bd 84b0 0fbf
00000200: 2114 a93e cec9 4fbe bf14 963d 21a0 4abe
00000210: a53f 963d aea0 57be 075f bfbe 50f3 243f
00000220: e150 07bf f3f2 78bd e699 fabe fbca d9bd
00000230: 6409 c43e 7683 c4be d00c 0cbe b72b cabc
00000240: a3a5 cbbd 2110 933e 96d0 e33e b31c c8bd
00000250: d1f4 f3be d917 6a3f ad9d b9bd 25da 833d
00000260: c6a1 d8be ef4b 3c3f 152e e0bd f23c 9bbe
00000270: bf7b 12bf 15ca 3dbe 7820 3c3f 97ca 123e
00000280: 758f 673f 87d2 3a38 d66d 00bf 9ef7 1fbe
00000290: 5dbe 733f ce1f 983e 56a6 20bf 0598 b6be
000002a0: e7e9 97be 1b1c 313e 7413 943e 716d ef3e
000002b0: e1e0 84bf b0d2 e33d 1cbe 263d 83d3 7dbd
000002c0: 1dfc abbd cf3c c43e 4ab6 22bf e0a2 803e
000002d0: 5b79 ba3e 014d 95be d4e3 283e c443 84bd
000002e0: 9aa0 06bf 0cda 2cbe 2cb2 16be 5e25 383e
000002f0: d5ba a03e 8ff4 c63d 3f26 22bf 977a f43e
00000300: 96df 1e3f 7af2 013f 399a 7d3e a71d 49bc
00000310: 965b 433f d789 36bf 218b 54bc f37c 733f
00000320: 9f89 1fbf f300 73bf 0767 20bd 0d4d fcbe
00000330: 23c7 973e f51b 9dbf d621 5fbf 30b2 653e
00000340: 17bd acbe 3520 93bd 5527 943c 279f 993e
00000350: 678b 8b3e 4881 77bf 4724 e3be c761 853c
00000360: b2b5 e5bd edb1 2bbe 8a46 b8be 5c49 bf3e
00000370: 8f8c f5be cab2 92be 0adb ed3e 26ff 573e
00000380: 198b 05be 9c55 00bd 4d1f 90bf 880e e5be
00000390: 6591 97be c3be d23d 1646 cdbe d910 56bf
000003a0: 8c8e d0be 54c0 6ebf cab9 e13e 078a 663e
000003b0: 9ade c3be a0a9 0ebf c433 31bf 6c17 3ebf
000003c0: a8cf 96be 8542 9bbf 670c 45bc 40db 9dbe
000003d0: 06a6 283f 886f 02be 5fc9 adbe d414 05bf
000003e0: d7d3 f53d c6c0 32bf 8051 023d 8bc9 833e
000003f0: a429 23be 9056 03bf b4f7 0cbe 6c86 213f

memory_a.rnn.bias_ih_l0 f4 [256]
0.056475323 0.076830596 -0.07752387 -0.13591793 -0.07418845 0.16017509 -0.18365142 -0.035690997
0.06302259 0.10985251 0.26150396 -0.117044866 -0.19485293 -0.26858795 -0.17755932 -0.087037124
0.25083125 -0.23773776 -0.16966431 -0.042817138 -0.22244716 -0.072609566 -0.11766679 -0.152013
-0.22061707 -0.18098006 -0.28587225 -0.18052162 -0.05227596 -0.12409863 0.04824723 0.19754998
0.03289356 -0.36755562 -0.2351858 -0.1154922 0.035747163 0.05795586 -0.2523524 0.020889694
-0.23687871 -0.2197533 -0.20234352 0.18265697 -0.19272389 -0.22791536 0.2617313 -0.10272302
0.17442098 -0.16764084 -0.1299977 0.11681577 0.07631953 -0.19874741 -0.29231995 -0.04404715
0.19593836 0.1992141 0.21924703 0.06395645 0.01498493 0.24996042 -0.111452594 -0.060182605
0.031456582 -0.11818451 -0.15898141 0.2227933 -0.09482966 -0.22288008 0.3526127 0.09952158
-0.19053999 -0.1573213 -0.3243331 0.11502086 -0.17491609 -0.3267931 -0.12755373 -0.17347763
-0.15589574 -0.09046187 -0.020654587 0.031176174 -0.08102187 0.16022377 0.107863225 -0.20613283
-0.06851976 0.20138854 -0.15465114 0.018064296 -0.014454372 -0.118953675 -0.22359958 -0.25817847
0.052575674 0.027090123 0.083650194 0.016594527 -0.31389913 -0.2041329 -0.16977248 -0.27445734
-0.07657944 0.07333299 -0.23060903 -0.032259945 -0.057439942 -0.2500003 -0.33696234 -0.13383871
0.0189468 -0.024640815 -0.050978404 -0.15220305 -0.1792768 -0.013997331 0.09290223 0.10548821
-0.068738885 -0.28140455 -0.6213847 -0.14658147 -0.029639417 -0.1267305 -0.061538927 -0.42978466
-0.05228334 -0.08026616 0.067643635 0.10807392 -0.13882431 0.094233416 0.028335612 -0.15547654
-0.003246792 0.19737108 -0.100657776 -0.0045325975 -0.10076205 0.14127836 0.10960666 0.029108698
-0.05601727 -0.0893369 -0.056236345 0.010461933 -0.091837004 0.10468409 -0.12587692 -0.08601498
0.049962785 0.08457258 0.0902854 0.061279807 -0.16397966 0.09668384 -0.008005488 0.029804226
0.12668364 -0.012171768 0.026858155 0.049299337 0.13677037 0.06383111 0.076512456 -0.021309061
0.10770501 0.1549563 0.03232959 -0.054532602 0.058264658 -0.010573191 0.055316143 0.018228423
-0.0026707966 0.037793446 -0.024042988 0.1417691 -0.064108245 -0.076452665 0.006944518 0.017461099
-0.15104802 -0.00036444102 -0.003956 -0.043912176 -0.087462746 0.11226816 -0.0035039976 -0.0030191536
0.031362195 -0.04468661 0.055286158 -0.04773095 -0.15834321 0.21266311 -0.2892754 0.02741329
-0.10900542 -0.07236233 0.07639523 -0.19475299 -0.32546782 -0.1581174 -0.31696334 0.05996608
-0.029923072 -0.2420273 -0.23819204 -0.25163502 -0.24992447 -0.014979857 0.10442095 -0.077846475
-0.0069825565 -0.039751813 -0.10880757 -0.06414636 -0.10245218 -0.026282698 -0.021194186 -0.13254221
-0.021112917 -0.0065745013 0.13301122 -0.15616037 -0.045836154 -0.079376996 -0.29391623 0.15390363
-0.1618158 0.09137766 0.03531653 0.03408526 0.20684454 -0.11383012 -0.02964583 0.020684889
0.09568839 0.017619265 -0.11685078 -0.06273339 0.17153074 0.17776927 -0.23474467 -0.20808196
0.01861016 0.23669216 -0.060250577 0.21612294 0.069611095 0.08016099 -0.1481423 0.01066463
00000000: ab52 673d 5c59 9d3d d6c4 9ebd 122e 0bbe
00000010: 1df0 97bd f004 243e 1e0f 3cbe b930 12bd
00000020: fd11 813d 5afa e03d d9e3 853e 38b5 efbd
00000030: 8787 47be 5c84 89be 1cd2 35be 8540 b2bd
00000040: f46c 803e 8771 73be 7bbc 2dbe 0661 2fbd
00000050: 30c9 63be 53b4 94bd 49fb f0bd 4ca9 1bbe
00000060: 71e9 61be d652 39be d95d 92be a9da 38be
00000070: 511f 56bd 6c27 febd e39e 453d 8b4a 4a3e
00000080: 66bb 063d 4030 bcbe 8cd4 70be 2d87 ecbd
00000090: 9e6b 123d 2063 6d3d 5534 81be dd20 ab3c
000000a0: 5590 72be 0207 61be 2433 4fbe 6e0a 3b3e
000000b0: 6959 45be a562 69be a501 863e 7260 d2bd
000000c0: 6a9b 323e 0aaa 2bbe 1e1e 05be 1b3d ef3d
000000d0: 6a4d 9c3d 7184 4bbe f6aa 95be c96a 34bd
000000e0: 11a4 483e c8fe 4b3e 4b82 603e 99fb 823d
000000f0: 5a83 753c a0f5 7f3e 4241 e4bd 0982 76bd
00000100: 9ed8 003d b80a f2bd 06cc 22be ed23 643e
00000110: 0e36 c2bd ad3a 64be a789 b43e f8d1 cb3d
00000120: ea1c 43be d618 21be fd0e a6be 0f90 eb3d
00000130: 341d 33be 6d51 a7be 729d 02be 1fa4 31be
00000140: 22a3 1fbe 1344 b9bd cf33 a9bc 2d65 ff3c
00000150: cbee a5bd b311 243e 65e7 dc3d 7c14 53be
00000160: 1754 8cbd cc38 4e3e de5c 1ebe 93fb 933c
00000170: 08d2 6cbc fc9d f3bd 4af7 64be f82f 84be
00000180: 9759 573d 1bec dd3c cb50 ab3d 3ff1 873c
00000190: 63b7 a0be 3708 51be d6d8 2dbe ac85 8cbe
000001a0: aed5 9cbd 9b2f 963d c624 6cbe 0123 04bd
000001b0: 2546 6bbd 0a00 80be 5486 acbe 040d 09be
000001c0: 5236 9b3c 89db c9bc bbce 50bd 1edb 1bbe
000001d0: 5694 37be 1055 65bc 8643 be3d 340a d83d
000001e0: f9c6 8cbd 4214 90be 1113 1fbf 7419 16be
000001f0: 5dce f2bc a4c5 01be 3e10 7cbd bc0c dcbe
00000200: 0e27 56bd 9662 a4bd bf88 8a3d dc55 dd3d
00000210: f627 0ebe 73fd c03d 1620 e83c 3e35 1fbe
00000220: 21c8 54bb a51b 4a3e aa25 cebd 2f86 94bb
00000230: 555c cebd 46ab 103e 7579 e03d 5d75 ee3c
00000240: 5d72 65bd 44f6 b6bd 1558 66bd 8768 2b3c
00000250: 0a15 bcbd 9d64 d63d e1e5 00be 9f28 b0bd
00000260: c7a5 4c3d 6434 ad3d 8de7 b83d 8900 7b3d
00000270: 49ea 27be 2d02 c63d 7329 03bc fe27 f43c
00000280: 5bb9 013e 186c 47bc a205 dc3c 1aee 493d
00000290: 880d 0c3e e3b9 823d 90b2 9c3d 5790 aebc
000002a0: 7294 dc3d ddac 1e3e 086c 043d 945d 5fbd
000002b0: eca6 6e3d 2d3b 2dbc 2e93 623d c653 953c
000002c0: 8808 2fbb 4dcd 1a3d cdf5 c4bc eb2b 113e
000002d0: 2f4b 83bd 3793 9cbd d78e e33b 940a 8f3c
000002e0: 55ac 1abe 7212 bfb9 55a1 81bb 41dd 33bd
000002f0: ab1f b3bd d9ec e53d 53a3 65bb fedc 45bb
00000300: a575 003d 4f09 37bd bd73 623d 8781 43bd
00000310: b924 22be 5cc4 593e e81b 94be d691 e03c
00000320: 3c3e dfbd b432 94bd 1a75 9c3d 546d 47be
00000330: b8a3 a6be 87e9 21be 0549 a2be fe9e 753d
00000340: 3b21 f5bc 01d6 77be 9de8 73be 4ed6 80be
00000350: 33ec 7fbe 136e 75bc a7da d53d f96d 9fbd
00000360: eecd e4bb ccd2 22bd 81d6 debd 2b5f 83bd
00000370: 73d2 d1bd d04e d7bc 6e9f adbc 25b9 07be
00000380: fff4 acbc ea6e d7bb 1834 083e 81e8 1fbe
00000390: b1be 3bbd 6890 a2bd 307c 96be ea98 1d3e
000003a0: 0bb3 25be 3624 bb3d 11a8 103d fc9c 0b3d
000003b0: 0ecf 533e c41f e9bd d0db f2bc 5b73 a93c
000003c0: 46f8 c33d 4756 903c 764f efbd 5d7a 80bd
000003d0: c1a5 2f3e 2609 363e e860 70be 7013 55be
000003e0: 5674 983c 6e5f 723e 4fc9 76bd 554f 5d3e
000003f0: 4390 8e3d 722b a43d 9db2 17be b3ba 2e3c

memory_a.rnn.bias_hh_l0 f4 [256]
8.782619e-05 0.07985212 -0.0710523 -0.18185565 -0.14956798 0.2765897 -0.10437612 0.08491581
0.009896919 0.060516488 0.38541248 -0.1311012 -0.13766071 -0.34805727 -0.03766055 -0.02982448
0.1998531 -0.10878151 -0.22553484 -0.06193836 -0.13954532 -0.080063336 -0.063708685 -0.12255006
-0.14592233 -0.23044096 -0.3515301 -0.18956392 0.011914477 -0.042710204 -0.106573865 0.17848733
-0.07855229 -0.17044881 -0.19524525 0.028972328 -0.027273666 -0.09693497 -0.23977162 -0.0907992
-0.12990648 -0.04036955 -0.39069632 0.11683757 -0.17998776 -0.35691494 0.21319267 -0.14620815
0.05212548 -0.10221678 0.02730422 0.008183003 0.042606145 -0.1612495 -0.23929518 0.1026619
0.06586111 0.10691616 0.076427996 -0.055857513 -0.020153714 0.25230733 -0.0147024635 -0.061335936
-0.07726382 -0.071558505 -0.10771306 0.15349592 0.10723204 0.009585308 0.32234326 -0.07583427
-0.06282156 -0.0865861 -0.112785555 0.14916882 -0.37805453 -0.54799217 0.041725207 -0.24293898
-0.25566095 -0.102663435 -0.036321286 -0.0065071373 -0.1274128 0.096743464 0.19615039 -0.0671261
0.077630505 0.24813353 -0.21754661 0.021337353 0.055828996 -0.12208532 -0.17564005 -0.026664166
0.0086798165 -0.10415574 0.10943916 -0.13423747 -0.19731002 -0.22995785 -0.29642144 -0.17901215
0.020046882 0.14000456 -0.24092655 0.10136147 -0.026553461 -0.18696891 -0.281482 -0.27484736
0.023920834 -0.16116528 -0.10719033 -0.19241187 -0.24224362 -0.00082134985 0.25270092 -0.11930895
-0.026244985 -0.2093655 -0.3884168 -0.21727791 -0.02452816 -0.116371 -0.023722854 -0.46221167
-0.010520824 0.13593152 0.027683858 0.08351826 0.06152713 -0.10595201 0.096813165 -0.034313645
-0.1838223 0.039181363 -0.04732349 -0.12031717 0.07095527 0.026166042 -0.008212995 -0.17556816
-0.0060032234 -0.005548891 0.03528358 -0.04397537 -0.04138775 0.041822 0.024590228 -0.01229945
0.05330926 -0.056464784 -0.098914206 0.07110562 -0.047162168 0.13317905 -0.11681232 -0.060540035
-0.06440077 -0.02678583 -0.010120111 -0.12740692 0.0157243 0.04056346 0.03219915 -0.05481304
-0.01782801 0.16914257 0.14525239 -0.06295661 0.07664249 -0.023201672 0.05666698 0.0005871746
0.059711635 -0.0024091674 -0.092451826 0.036541477 -0.06429541 0.100372925 -0.13183755 0.0005177998
-0.03892678 0.016094822 0.12442772 0.07177966 0.025052954 -0.09634031 -0.08824933 0.16315547
0.18277028 -0.0027194787 0.106503405 -0.03657839 -0.09170201 0.2145009 -0.18970135 -0.0036869103
-0.14810681 -0.057591956 0.15775408 -0.17418899 -0.15512183 -0.28785008 -0.22016518 -0.045950506
-0.055341817 -0.24569961 -0.10460722 -0.05254508 -0.04423505 -0.14511225 0.063540086 -0.25178552
-0.04150701 -0.20250729 -0.21479633 -0.12754443 -0.15876518 -0.025531176 -0.07418377 -0.18669981
0.16905072 -0.06717896 0.029024875 -0.041345708 -0.03625057 -0.046864554 -0.0776391 0.13548996
-0.16925819 0.08188169 -0.17210315 0.006780896 0.21045259 0.018412808 0.09914321 0.13995752
0.060019907 -0.05872713 0.06769644 -0.1263337 0.14378689 0.27360275 -0.2205006 -0.23253146
-0.106919445 0.15688826 -0.15383156 0.09128099 0.061853215 0.13750473 -0.1344049 0.04052222
00000000: 542f b838 8289 a33d de83 91bd 5e38 3abe
00000010: 5928 19be 2a9d 8d3e 26c3 d5bd 57e8 ad3d
00000020: b026 223c 23e0 773d c954 c53e 653f 06be
00000030: eef6 0cbe 9034 b2be f341 1abd 7852 f4bc
00000040: 4ba6 4c3e d7c8 debd 9bf2 66be 14b3 7dbd
00000050: f8e4 0ebe 3ff8 a3bd b379 82bd 87fb fabd
00000060: aa6c 15be b7f8 6bbe c1fb b3be 0b1d 42be
00000070: f034 433c e5f0 2ebd 6643 dabd 62c5 363e
00000080: 06e0 a0bd 228a 2ebe 5fee 47be 6057 ed3c
00000090: 066d dfbc d785 c6bd b186 75be eef4 b9bd
000000a0: 3406 05be 8b5a 25bd 5909 c8be 8948 ef3d
000000b0: b64e 38be 8ebd b6be 2e4f 5a3e 97b7 15be
000000c0: 8781 553d 0857 d1bd 19ad df3c 0112 063c
000000d0: c883 2e3d 971e 25be cc09 75be 6740 d23d
000000e0: 31e2 863d dcf6 da3d 4886 9c3d d9ca 64bd
000000f0: 6719 a5bc 6d2e 813e 9ae2 70bc 643b 7bbd
00000100: 7e3c 9ebd 448d 92bd aa98 dcbd 092e 1d3e
00000110: 799c db3d b20b 1d3c 2d0a a53e ff4e 9bbd
00000120: 97a8 80bd 0e54 b1bd 1dfc e6bd b6bf 183e
00000130: 5d90 c1be 3749 0cbf 0de8 2a3d ffc4 78be
00000140: fee5 82be 3541 d2bd a1c5 14bd d339 d5bb
00000150: 8078 02be 7021 c63d a6db 483e 6979 89bd
00000160: befc 9e3d b716 7e3e 8ac4 5ebe accb ae3c
00000170: f2ac 643d de07 fabd fcda 33be cf6e dabc
00000180: ca35 0e3c 9b4f d5bd a321 e03d 8c75 09be
00000190: a30b 4abe 127a 6bbe 8dc4 97be f64e 37be
000001a0: 5c39 a43c 5b5d 0f3e 73b5 76be 9a96 cf3d
000001b0: a586 d9bc c774 3fbe 691e 90be cbb8 8cbe
000001c0: a0f5 c33c 8308 25be 9b86 dbbd 9e07 45be
000001d0: b60e 78be db4f 57ba 0462 813e 4058 f4bd
000001e0: b9ff d6bc e963 56be 91de c6be 1a7e 5ebe
000001f0: 48ef c8bc eb53 eebd 6e56 c2bc 02a7 ecbe
00000200: 895f 2cbc a231 0b3e 42c9 e23c 9f0b ab3d
00000210: df03 7c3d 5efd d8bd fb45 c63d 778c 0cbd
00000220: ea3b 3cbe a37c 203d 47d6 41bd d968 f6bd
00000230: ff50 913d 2b5a d63c cc8f 06bc 24c8 33be
00000240: b0b6 c4bb 79d3 b5bb 8485 103d 841f 34bd
00000250: 3486 29bd 8c4d 2b3d 7271 c93c a283 49bc
00000260: d05a 5a3d 9e47 67bd 8893 cabd d39f 913d
00000270: 1e2d 41bd 1760 083e 4c3b efbd d4f8 77bd
00000280: 8de4 83bd f56d dbbc d2ce 25bc f676 02be
00000290: 3fd0 803c df25 263d 42e3 033d a383 60bd
000002a0: 0c0c 92bc b633 2d3e 0bbd 143e 65ef 80bd
000002b0: bdf6 9c3d 6f11 bebc a31b 683d 9fec 193a
000002c0: 3094 743d 1fe3 1dbb 6257 bdbd 84ac 153d
000002d0: 50ad 83bd 5290 cd3d 6c00 07be f5bc 073a
000002e0: b071 1fbd 4ad9 833c f6d3 fe3d 3701 933d
000002f0: da3b cd3c 124e c5bd 11bc b4bd 3a12 273e
00000300: 2228 3b3e 4839 32bb 751e da3d 39d3 15bd
00000310: 43ce bbbd 20a6 5b3e 1241 42be 17a0 71bb
00000320: 50a9 17be 8be5 6bbd 498a 213e 995e 32be
00000330: 42d8 1ebe 1661 93be fb72 61be 9936 3cbd
00000340: 1aae 62bd ae98 7bbe 4f3c d6bd 8339 57bd
00000350: d02f 35bd 4e98 14be 4e21 823d 08ea 80be
00000360: 4103 2abd 125e 4fbe 92f3 5bbe 029b 02be
00000370: 5793 22be c226 d1bc a9ed 97bd 3c2e 3fbe
00000380: a21b 2d3e 1f95 89bd 93c5 ed3c 1e5a 29bd
00000390: 7a7b 14bd 0cf5 3fbd 4001 9fbd e1bd 0a3e
000003a0: 0552 2dbe 96b1 a73d cf3b 30be 4732 de3b
000003b0: e280 573e 75d6 963c 980b cb3d 0651 0f3e
000003c0: 6fd7 753d dc8b 70bd 6ea4 8a3d 9f5d 01be
000003d0: df3c 133e a915 8c3e e9ca 61be ba1c 6ebe
000003e0: 95f8 dabd 51a7 203e 0586 1dbe 87f1 ba3d
000003f0: cc59 7d3d 0ace 0c3e 70a1 09be a1fa 253d
