logs/g1/Apr19_03-18-51_/model_50.pt (torch, 777438 bytes, 48 tensors)

std f4 [12]
0	0x3f1ae731	0.6050902
1	0x3f27b59e	0.655115
2	0x3ef2e483	0.47439966
3	0x3effc8bc	0.49957836
4	0x3f49c55b	0.78816766
5	0x3f36ed65	0.71455985
6	0x3f1f618d	0.62258226
7	0x3f251eb3	0.6449997
8	0x3eebea40	0.46077156
9	0x3f0da8c5	0.55335647
10	0x3f48e580	0.7847519
11	0x3f427368	0.75957346

actor.0.weight f4 [32, 64]
0	0x3d0ea3f8	0.03482434
1	0xbd857fbb	-0.06518503
2	0x3dfbc531	0.12293471
3	0x3d809c71	0.06279839
4	0x3e02e893	0.12784033
5	0x3d687f0a	0.05676178
6	0xbea5350b	-0.3226703
7	0xbdea06cb	-0.11427077
8	0x3e0e85cb	0.13918225
9	0x3e49f191	0.19721057
10	0x3e66eadf	0.22550534
11	0x3de41a2e	0.11137806
12	0x3e3cc574	0.18434697
13	0x3db489da	0.088153556
14	0xbd59b97d	-0.05315541
15	0x3c413f2f	0.011794849
16	0x3decb6c0	0.11558294
17	0xbe0d69ec	-0.13809937
18	0xbc9bdd26	-0.01902635
19	0x3dcb38d4	0.099229485
20	0xbda7b55c	-0.081888884
21	0xbdafa5d0	-0.08576548
22	0x3e0f3736	0.13985905
23	0x3dc41c6b	0.09575733
24	0x3d103f9f	0.035216924
25	0x3dbe9d20	0.09307313
26	0xbdfcf358	-0.12351102
27	0x3e04c3ba	0.12965289
28	0xbe85fe80	-0.2617073
29	0x3e1599b6	0.14609417
30	0xbe9e5ea2	-0.30931574
31	0xbe247ff8	-0.16064441
32	0x3e441a7b	0.19150726
33	0xbe703edc	-0.23461479
34	0xbdb3f5a4	-0.087870866
35	0x3e31adf0	0.17351508
36	0xbcd31d86	-0.025770914
37	0xbbe9b947	-0.0071326825
38	0x3d8ccb7c	0.06874749
39	0x3e2c03cb	0.16798322
40	0xbc4f8553	-0.012666064
41	0xbd8cb318	-0.06870097
42	0x3cdd94e3	0.027048534
43	0x3dc35c2c	0.09539065
44	0xbdfe1fe6	-0.12408428
45	0x3e111b16	0.14170489
46	0xbe72d0d4	-0.23712474
47	0xbe98e7a0	-0.29864216
48	0x3d72a8f1	0.059243146
49	0x3d0a4baf	0.033763584
50	0x3e052097	0.13000713
51	0xbc98f49e	-0.01867133
52	0x3e4b0190	0.19824815
53	0xbdff5ec1	-0.12469245
54	0x3db74ceb	0.08950218
55	0x3cc79e56	0.024367493
56	0x3bb785af	0.005600653
57	0x3e363530	0.17793727
58	0xbe773fa7	-0.24145375
59	0xbe43c0b6	-0.19116482
60	0x3d8d6dd6	0.06905715
61	0xbdb67305	-0.08908657
62	0xbe1f3055	-0.15545781
63	0xbde6288b	-0.11238202
64	0x3c822ac7	0.015889538
65	0x3e912847	0.28351042
66	0xbddadcb6	-0.106866285
67	0x3c947beb	0.018125495
68	0x3e0fbb16	0.14036211
69	0x3bd7f6c5	0.0065906965
70	0x3d73d6e6	0.059531115
71	0xbeaccf8c	-0.33752096
72	0xbe1b2868	-0.15152133
73	0x3ea11e99	0.31468657
74	0xbe99831b	-0.29982838
75	0x3e5aee5b	0.21379988
76	0xbd0fcf2b	-0.03510968
77	0xbe2ff2a6	-0.17182407
78	0x3d14df95	0.036346037
79	0xbdbec041	-0.09314013
80	0x3dd7dbc9	0.105399676
81	0xbe2ca7b9	-0.16860856
82	0xbe955ce4	-0.29172432
83	0x3d53c345	0.051699895
84	0xbe05732f	-0.1303222
85	0x3d8cf17d	0.06881998
86	0x3dd672e2	0.10471131
87	0xbca5277c	-0.02016043
88	0xbde7ae9f	-0.11312603
89	0xbd2d3eae	-0.042296104
90	0xbda31a08	-0.079639494
91	0xbdb84ece	-0.08999406
92	0x3e2a3918	0.16623342
93	0xbe096461	-0.13417198
94	0xbe12c1c8	-0.14331734
95	0xbe0eec13	-0.13957243
96	0x3d86cf43	0.06582501
97	0xbd6515c7	-0.05592897
98	0xbe1ffd67	-0.15624009
99	0x3d444dde	0.047925822
100	0x3e7ccb53	0.24686937
101	0x3d249d5d	0.040189136
102	0xbdd0f11c	-0.10202238
103	0xbc181c5d	-0.009284106
104	0x3e8bd924	0.27314103
105	0x3c95bf80	0.01827979
106	0x3d27f8c7	0.041008737
107	0x3d3ffcf7	0.046872105
108	0x3e9e969c	0.3097428
109	0x3e19a190	0.15003037
110	0x3d21f472	0.03953976
111	0x3d9e7aac	0.077382416
112	0xbe36ceba	-0.17852297
113	0xbe59ba9f	-0.21262597
114	0xbe745c0b	-0.23863237
115	0xbdd4bb0f	-0.10387241
116	0xbd4fc90f	-0.050728854
117	0xbe0a4aae	-0.1350505
118	0x3c3645af	0.011125012
119	0x3e7f12ec	0.24909562
120	0xbe00f0bd	-0.12591834
121	0x3d9e268f	0.07722198
122	0x3ea0f4ff	0.31436917
123	0xbe12f875	-0.14352591
124	0xbcf80825	-0.030277321
125	0x3ea16c1a	0.31527787
126	0x3ec0de07	0.37669393
127	0x3d9d8331	0.076910384
128	0xbe13a7cb	-0.14419477
129	0x3d92e36b	0.07172283
130	0x3e1f04bf	0.15529154
131	0xbe237bd1	-0.15965201
132	0x3e0cd65d	0.13753648
133	0x3e05d897	0.13070904
134	0x3c86f2a0	0.016473114
135	0x3e336cc0	0.17521954
136	0x3e4b8823	0.19876151
137	0x3e8934e8	0.26798177
138	0x3e0a3a7d	0.13498874
139	0x3da514b9	0.08060593
140	0x3d48b0ba	0.048996665
141	0xbc5025cc	-0.012704324
142	0xbc71a083	-0.014747742
143	0x3dec3a82	0.11534597
144	0xbdf1568d	-0.117840864
145	0xbdb4d4f7	-0.08829682
146	0xbde0d2ba	-0.10977693
147	0x3e82f0ec	0.25574434
148	0xbe656a09	-0.2240373
149	0x3cd1c9f0	0.025608987
150	0x3d8bc9ba	0.06825586
151	0xbd1de404	-0.03854753
152	0x3d17b36d	0.037036348
153	0xbd2fd79a	-0.042930223
154	0xbe6a0128	-0.22852004
155	0x3daf56a2	0.08561446
156	0x3cb92cec	0.022604428
157	0x3d1e5f86	0.038665317
158	0xbe3b1711	-0.18270518
159	0xbc970eab	-0.018439611
160	0x3e44e762	0.1922889
161	0xbe4dca27	-0.20096646
162	0xbc78c518	-0.01518371
163	0x3e2ea657	0.17055641
164	0x3e02c5da	0.12770787
165	0x3aab1051	0.0013051127
166	0xbd3072a7	-0.04307809
167	0x3ecfb90d	0.4057087
168	0xbd83df45	-0.0643907
169	0xbc21b337	-0.009869388
170	0xbe429ec7	-0.19005881
171	0x3d2ed337	0.0426819
172	0x3e0bc73b	0.13650219
173	0x3e0be6e2	0.13662294
174	0xbe0cdabc	-0.13755316
175	0xbdacca34	-0.08437005
176	0xbe7a8f84	-0.2446881
177	0x3ce51bd9	0.02796738
178	0xbe8c970e	-0.27458996
179	0xbc46bd78	-0.012130134
180	0x3e0ba648	0.1363765
181	0xbd8ecc5f	-0.069725744
182	0xbe505663	-0.20345454
183	0x3e8e9c17	0.27853462
184	0x3d67c1bb	0.05658124
185	0xbc88de5f	-0.016707597
186	0xbe0f2806	-0.13980111
187	0xbe894d59	-0.26816824
188	0x3c3b3041	0.011425079
189	0xbe54962f	-0.20760415
190	0xbe9674ed	-0.29386082
191	0xbe81bde4	-0.25340188
192	0x3e621ac5	0.22080524
193	0xbb7ce3f3	-0.0038588017
194	0xbd5b4d4e	-0.05354052
195	0x3d7800f1	0.060547773
196	0xbdc2cc6e	-0.09511648
197	0x3dbb3c4f	0.09142362
198	0x3d0486db	0.03235517
199	0x3e01db63	0.12681346
200	0xbe8d44be	-0.2759151
201	0xbe0733d3	-0.13203363
202	0xbe1e45d6	-0.15456328
203	0xbe4eb72b	-0.2018706
204	0xbd93790d	-0.07200823
205	0xbd9d0e79	-0.07668776
206	0xbdb2fcb7	-0.08739608
207	0xbe62c80a	-0.22146621
208	0x3dc625b2	0.096751586
209	0x3db6ebc3	0.08931687
210	0x3ec3779f	0.381772
211	0xbe6edb8b	-0.23325936
212	0x3e3dc30b	0.18531434
213	0x3e1afd68	0.1513573
214	0xbdb05b8a	-0.0861121
215	0x3e812f37	0.25231335
216	0x3e06d994	0.13168937
217	0x3e3fff15	0.1874965
218	0x3c77bb1a	0.015120292
219	0xbd554bfc	-0.052074417
220	0xbe757b28	-0.23972762
221	0xbe33f833	-0.17575149
222	0x3d7ca5af	0.061681446
223	0x3db2982b	0.0872043
224	0xbe65f37c	-0.22456163
225	0x3e6d6f95	0.23187096
226	0xbe00854a	-0.12550846
227	0xbd8b2e22	-0.067959085
228	0xbe052bce	-0.13004991
229	0x3e5a0c5c	0.21293777
230	0x3e129645	0.14315136
231	0xbe8594b3	-0.2609001
232	0xbe0b92e2	-0.1363025
233	0x3e30abf5	0.17253096
234	0xbde05f22	-0.10955645
235	0xbe1f4f62	-0.15557626
236	0xbe84aa03	-0.2591096
237	0x3ddcceaf	0.10781609
238	0x3e66c3c8	0.22535622
239	0xbd9f5fd1	-0.077819474
240	0xbca8fd01	-0.020628454
241	0xbe4cfe8c	-0.20018977
242	0x3e3bbe26	0.18334255
243	0xbc20b106	-0.009807831
244	0x3e2b47a2	0.16726544
245	0xbe1bdd00	-0.15221024
246	0xbdf04349	-0.117315836
247	0x3d6174df	0.055043098
248	0x3c0b4dca	0.008502433
249	0x3e71cc81	0.23613168
250	0xbd443a25	-0.047907013
251	0x3e207eb0	0.15673327
252	0xbe098ad6	-0.13431868
253	0xbdb02256	-0.08600299
254	0xbda481fa	-0.080326036
255	0x3e6bd646	0.23030958

actor.0.bias f4 [32]
0	0xbd23679d	-0.039893735
1	0x3905f5e5	0.00012775471
2	0xbd8b9601	-0.0681572
3	0xbd01d9df	-0.03170192
4	0xbe100252	-0.14063385
5	0x3d86ebae	0.06587921
6	0x3c8e2761	0.017352762
7	0xbd6e2d8c	-0.058148906
8	0xbd9cb39a	-0.07651444
9	0x3d416401	0.04721451
10	0xbd432b3b	-0.04764865
11	0x3d025d64	0.031827345
12	0xbca3b876	-0.019985419
13	0xbd0c690b	-0.034279864
14	0x3d8edfe1	0.06976295
15	0x3d84c889	0.064835615
16	0xbd1e2d53	-0.038617443
17	0xbd295262	-0.041338332
18	0xbd5d73bc	-0.05406545
19	0xbe27dc15	-0.16392548
20	0x3c1379b5	0.009001185
21	0x3be87c7d	0.0070949183
22	0x3db55394	0.08853832
23	0xbdc9a4c0	-0.09845877
24	0xbd4fa674	-0.05069585
25	0x3d1ccb7a	0.038279988
26	0x3a6e1494	0.0009082046
27	0xbd157282	-0.036486156
28	0xbd8f2036	-0.069885656
29	0x3e22968e	0.15877745
30	0xbd4e0afb	-0.05030344
31	0x3ca32b93	0.019918239

actor.2.weight f4 [12, 32]
0	0x3dfd9cd5	0.12383429
1	0x3d4337db	0.04766069
2	0x3db1f826	0.08689909
3	0xbe186373	-0.14881687
4	0x3d846f84	0.064665824
5	0x3db4bc90	0.08825028
6	0xbe3abc98	-0.18236005
7	0x3e90b11b	0.2826012
8	0xbdd20678	-0.1025514
9	0x3d71d3a1	0.059039716
10	0x3e10df2b	0.14147632
11	0xbdbdb40f	-0.09262859
12	0xbe28474f	-0.16433452
13	0xbdf56975	-0.11983005
14	0x3d071c45	0.032985944
15	0xbdd4d76c	-0.10392651
16	0xbdfc9c33	-0.1233448
17	0xbe221335	-0.1582764
18	0x3e5a7f88	0.21337712
19	0xbe47c952	-0.19510391
20	0xbccf23e2	-0.025285665
21	0x3dd03f31	0.10168303
22	0x3deb9463	0.11502912
23	0x3e300f08	0.17193234
24	0x3de027a5	0.109450616
25	0x3e509d67	0.20372544
26	0x3d37a070	0.04483074
27	0x3c7492ae	0.014927549
28	0x3e584f8a	0.21124092
29	0xbe627565	-0.22115095
30	0x3dc315e6	0.09525661
31	0xbd2dc838	-0.04242727
32	0x3d3b5bd3	0.045741867
33	0x3dd2ed7b	0.10299202
34	0x3d75433a	0.059878565
35	0xbe8cd16b	-0.27503523
36	0x3d943ced	0.07238183
37	0x3d9b239a	0.0757515
38	0xbd80f99a	-0.06297608
39	0x3d88667d	0.06660173
40	0x3b394c2b	0.002827416
41	0x3da18433	0.07886543
42	0x3dc5c33e	0.0965638
43	0x3deac5dc	0.1146352
44	0xbbb3bec4	-0.0054853875
45	0xbccf511d	-0.025307233
46	0x3d0ea221	0.034822587
47	0x3d90494e	0.07045232
48	0xbd31c0a4	-0.043396607
49	0x3e7c135f	0.24616764
50	0xbdc04071	-0.09387291
51	0xbe62b8e3	-0.22140841
52	0xbdad5a0f	-0.08464443
53	0x3daa6de9	0.08321745
54	0x3e6fe307	0.23426448
55	0xbe6aeded	-0.22942324
56	0x3da94908	0.08265883
57	0x3e6806bc	0.22658819
58	0x3c9f373b	0.019435516
59	0x3cfcbb9d	0.03085118
60	0xbbc8ed14	-0.0061317775
61	0x3e467e79	0.19384183
62	0x3d3d7b32	0.046260066
63	0xbe3e46be	-0.18581674
64	0x3dc7062a	0.097179726
65	0xbd8f25ee	-0.069896564
66	0x3c5e126d	0.013554198
67	0x3e39a331	0.18128659
68	0x3e05c70e	0.13064215
69	0xbd59730f	-0.053088244
70	0xbd1df121	-0.038560037
71	0x3df669e5	0.120319165
72	0x3c80d15e	0.015724834
73	0xbd3ac449	-0.04559735
74	0x3cbe5908	0.023235813
75	0x3d56d357	0.052447643
76	0xbbfa6e13	-0.0076425164
77	0xbe29e4b9	-0.16591157
78	0x3e116139	0.14197244
79	0xbdbc1bfb	-0.09185024
80	0x3d235bbc	0.039882407
81	0xbcd246ff	-0.02566862
82	0xbd1721de	-0.036897533
83	0x3e061aa9	0.13096108
84	0x3e2609f2	0.16214731
85	0xbc5979f5	-0.013273706
86	0x3da9370f	0.08262455
87	0xbda195d1	-0.07889903
88	0xbd14d9eb	-0.036340635
89	0xbca22625	-0.01979358
90	0x3c13196f	0.008978232
91	0x3d51777d	0.051139344
92	0xbb222141	-0.002473906
93	0xbded45ff	-0.11585616
94	0x3d508942	0.05091215
95	0x3db53159	0.08847303
96	0x3deff4ae	0.11716591
97	0xbc10edb6	-0.008845737
98	0x3da8ca1e	0.08241676
99	0xbe2e2e8e	-0.17009947
100	0xbc4bd1c0	-0.012440145
101	0xbccaf161	-0.024773302
102	0xbe18d3d6	-0.14924559
103	0x3e5174b4	0.20454675
104	0xbd68fc5a	-0.056881286
105	0xbe0a278e	-0.13491651
106	0x3e1cd90a	0.15317169
107	0xbe20bc3c	-0.15696806
108	0x3d6a633a	0.057223536
109	0x3dd2d032	0.10293616
110	0x3dce98b7	0.10087722
111	0x3da2a1cd	0.07941017
112	0x3e0eefe3	0.13958697
113	0xbd475706	-0.048666976
114	0x3e33a0dd	0.17541833
115	0x3e21c248	0.15796769
116	0xbb93da1f	-0.004512086
117	0xbcbd5dcd	-0.023116017
118	0xbd5a1f9e	-0.05325281
119	0x3cc258a5	0.02372391
120	0xbcfe1245	-0.031014571
121	0xbdf2a672	-0.11848153
122	0xbdaf31b2	-0.085544005
123	0x3b31992c	0.0027099354
124	0x3d91da77	0.07121747
125	0x3c9cf547	0.019159926
126	0x3d1340e3	0.035950553
127	0xbdd8c012	-0.105835095
128	0xbd660207	-0.056154277
129	0x3c39530b	0.011311303
130	0xbdc9c39d	-0.098517634
131	0x3d4aed97	0.04954299
132	0xbe310f5d	-0.17291017
133	0x3d40f9c6	0.047113203
134	0xbd4db599	-0.050222013
135	0x3d22a96a	0.039712347
136	0xbe34979e	-0.17635962
137	0xbe2f65de	-0.17128703
138	0x3e3e0793	0.18557577
139	0xbd70df56	-0.05880674
140	0xbe922676	-0.28544968
141	0x3e1dddbe	0.15416619
142	0xbdbf66cb	-0.09345778
143	0x3e9425a1	0.2893496
144	0x3cd43ee6	0.025908899
145	0x3e0ba147	0.13635741
146	0xbe4837a8	-0.19552481
147	0xbe07ba67	-0.132547
148	0x3e0dbaad	0.13840742
149	0x3e24399a	0.16037598
150	0xbd12c8e0	-0.0358361
151	0x3e097d30	0.13426661
152	0xbe405e65	-0.18786009
153	0x3e7f7e34	0.24950486
154	0xbd4bdd78	-0.049771756
155	0x3db850d7	0.08999794
156	0x3dcbad3b	0.099451505
157	0x3da11a77	0.07866376
158	0x3d9b17d5	0.07572905
159	0xbe2de369	-0.16981281
160	0xbd4e3bfd	-0.050350178
161	0x3dfaf71f	0.12254166
162	0xbe307868	-0.17233431
163	0x3d0e21a9	0.03470007
164	0x3e496465	0.19667204
165	0xbd8e36e2	-0.06944062
166	0x3e209435	0.15681536
167	0x3e4133b0	0.18867373
168	0x3e4332e6	0.19062385
169	0x3afde703	0.0019371215
170	0x3e4bc565	0.19899519
171	0x3db99ee7	0.09063511
172	0xbdc3aa22	-0.09553935
173	0x3d9b1b0f	0.075735204
174	0xbe0ef9b7	-0.13962446
175	0xbd699c49	-0.05703381
176	0xbd69f91b	-0.05712233
177	0x3cd65143	0.026161795
178	0x3db31f47	0.087462
179	0x3e0ed08c	0.13946742
180	0xbd54c957	-0.051949825
181	0x3de05aac	0.10954794
182	0xbc8dd46f	-0.01731321
183	0xbdb8e6f2	-0.09028424
184	0xbdf4edb2	-0.11959399
185	0xbe3e590f	-0.1858866
186	0x3d6877c9	0.05675486
187	0x3cc68688	0.024234071
188	0xbb91de2c	-0.004451534
189	0xbe0a4b50	-0.13505292
190	0x3d09876f	0.033576425
191	0xbdf0d950	-0.11760199
192	0xbdb2809a	-0.08715935
193	0x3de706d4	0.11280599
194	0xbe567649	-0.2094356
195	0x3cd8eb48	0.026479378
196	0xbe608f59	-0.21929683
197	0x3dfdd500	0.12394142
198	0x3cef4cde	0.029211458
199	0xbcb2e671	-0.021838399
200	0x3e80cab7	0.2515466
201	0x3e1b949b	0.15193407
202	0xbdb54cec	-0.08852562
203	0xbdcf408d	-0.10119734
204	0x3d72f1c2	0.05931259
205	0x3ddf0dd5	0.1089131
206	0x3e868c57	0.26278946
207	0x3e5fa372	0.21839693
208	0xbd5c5cfd	-0.053799618
209	0xbe5302cc	-0.20606536
210	0x3e474a6d	0.19461985
211	0xbe40de55	-0.18834813
212	0x3c857973	0.016293263
213	0x3dc6adbe	0.097011074
214	0x3dbc2f9d	0.09188769
215	0x3d9df3f3	0.07712545
216	0xbdd45a64	-0.10368803
217	0xbe543dae	-0.20726654
218	0xbd300454	-0.042972878
219	0x3e1f552f	0.15559839
220	0xbd9f10c0	-0.07766867
221	0x3daf7976	0.08568089
222	0x3c8c2f04	0.017112263
223	0xbd2c67a5	-0.04209103
224	0xbc86357b	-0.016382923
225	0xbdfeca70	-0.12440956
226	0xbcb5dda1	-0.022200407
227	0xbddec3b0	-0.10877168
228	0x3d162c11	0.03666312
229	0xbc99a822	-0.01875693
230	0xbe319d00	-0.17345047
231	0xbe4f0f7d	-0.20220752
232	0x3e2158d4	0.15756541
233	0x3e0798ce	0.13241884
234	0xbd4af3ba	-0.049548842
235	0xbe12be61	-0.14330436
236	0x3d7583e5	0.059940238
237	0xbda46671	-0.08027352
238	0xbdc41f16	-0.09576242
239	0x3d97c3db	0.07410403
240	0xbe24cf3e	-0.16094682
241	0x3e0e8254	0.13916904
242	0xbdde11c5	-0.10843233
243	0x3c5b9018	0.013401054
244	0x3d59fc1e	0.053218953
245	0xbe1a1c48	-0.15049851
246	0x3e301dc0	0.17198849
247	0x3d21a309	0.039462123
248	0x3d82cc10	0.06386578
249	0x3e2e8a17	0.17044865
250	0xbdcfd1d2	-0.10147442
251	0x3e2e7b74	0.17039281
252	0xbd86a492	-0.06574358
253	0xbe186284	-0.1488133
254	0x3d308454	0.043094948
255	0xbdeee7ab	-0.11665281

actor.2.bias f4 [12]
0	0x3d51ddee	0.05123704
1	0x3dac85c2	0.0842395
2	0x3c5c472a	0.013444701
3	0xbe34ca51	-0.17655303
4	0x3e3807ec	0.17971772
5	0xbe3aa2f7	-0.18226229
6	0xbde20add	-0.11037228
7	0x3ca84cf7	0.020544512
8	0x3d13df53	0.03610165
9	0xbde26349	-0.110540934
10	0xbdb13e9a	-0.086545184
11	0x3e207a63	0.15671687

critic.0.weight f4 [32, 64]
0	0xbb0882a8	-0.002082983
1	0x3dd43d84	0.10363296
2	0x3e014f0f	0.12627815
3	0x3db580b9	0.088624425
4	0x3da8546b	0.082192264
5	0xbe0b7951	-0.13620497
6	0xbd5ffd8f	-0.05468517
7	0x3d02887e	0.03186845
8	0xbd14f15b	-0.036362987
9	0xbc57eefb	-0.013179536
10	0x3e02966f	0.12752698
11	0xbe109ec4	-0.14123064
12	0x3d99425e	0.07483362
13	0x3db18d0c	0.08669481
14	0x3d6341a2	0.055482514
15	0x3dea2594	0.11432949
16	0x3db9a9ce	0.09065591
17	0x3b2b856e	0.002617206
18	0xbd554d0d	-0.052075434
19	0xbe02b4c5	-0.1276427
20	0x3d9dbf33	0.07702484
21	0x3cceb591	0.025233062
22	0x3cc80aaf	0.024419157
23	0xbd1bead4	-0.038065746
24	0x3c4bec7e	0.012446521
25	0xbde39d36	-0.1111397
26	0xbdffb620	-0.124859095
27	0xbd07e5c9	-0.033178125
28	0x3da29034	0.07937661
29	0xbded7a77	-0.11595624
30	0x3da9cf15	0.08291451
31	0x3d5b82f4	0.053591684
32	0xbc80bf9d	-0.015716368
33	0xbb1e2b9e	-0.0024134885
34	0xbcdcb101	-0.02693987
35	0x3d92f561	0.071757086
36	0xbd6a08c6	-0.057137273
37	0x3db4f36c	0.088354915
38	0xbd9d3ecb	-0.076779924
39	0x3dfbc7b0	0.12293947
40	0xbdbab577	-0.09116643
41	0xbd08d809	-0.033409152
42	0xbd283e7a	-0.041075207
43	0x3bca7d8d	0.0061795176
44	0xbd9a718d	-0.07541189
45	0xbdc760a6	-0.09735231
46	0xbdfc7b8a	-0.12328251
47	0x3de79691	0.11308015
48	0xbe0117e2	-0.12606767
49	0x3d14034c	0.036135957
50	0xbdfe6aad	-0.124226905
51	0x3e041079	0.12896909
52	0xbd87dca2	-0.06633879
53	0x3df63a7c	0.12022874
54	0x3ded19e9	0.115772076
55	0xbd7ff1f3	-0.0624866
56	0xbd4dda18	-0.05025682
57	0xbe192374	-0.1495493
58	0x3cba047b	0.022707215
59	0xbb662366	-0.0035116314
60	0x3cfa195f	0.030529676
61	0xbd6f5aa3	-0.058436047
62	0xbc0e6c2e	-0.008692784
63	0x3d9782a1	0.07397962
64	0xbde4dbac	-0.111747116
65	0xbcce58f0	-0.025188893
66	0x3d15d6c8	0.036581784
67	0xbd292b02	-0.04130078
68	0x3d01d669	0.031698618
69	0xbae91cc8	-0.0017785067
70	0xbdc8dbfc	-0.09807584
71	0x3d342ed4	0.04398997
72	0x3beeb5e5	0.007284867
73	0x3dbbe89a	0.091752246
74	0xbdccb8e6	-0.09996204
75	0xbdbd8d3e	-0.092554554
76	0xbd1693d5	-0.036762077
77	0x3db54fae	0.08853088
78	0x3de1826c	0.11011204
79	0x3d8a9c70	0.06768119
80	0xbdff00cf	-0.12451326
81	0x3da584f3	0.08081999
82	0xbd92ce14	-0.071682125
83	0x3dea4d73	0.114405535
84	0xbca8d42e	-0.020608988
85	0x3de00c4a	0.10939844
86	0xbdca9bff	-0.09893035
87	0xbd883bd2	-0.06652035
88	0xbd3924c9	-0.045201097
89	0x3cda02a3	0.026612585
90	0xbca34110	-0.019928485
91	0x3dddacc3	0.10823967
92	0x3d9cfaa7	0.07664996
93	0xbd1f62cf	-0.03891259
94	0x3db75a9b	0.089528285
95	0x3d57c5d4	0.052678898
96	0x3bc38015	0.0059661963
97	0xbb8d34ac	-0.0043092575
98	0xbdaf6ff5	-0.08566276
99	0x3db969e0	0.09053397
100	0x3d99551f	0.07486939
101	0xbd288761	-0.041144732
102	0x3de2328a	0.11044796
103	0xbd016b6c	-0.031596586
104	0x3c30a08c	0.010780465
105	0xbd6b061a	-0.057378866
106	0xbc690ca3	-0.014224204
107	0x3c3c0911	0.011476771
108	0xbd66cc1e	-0.056347005
109	0x3d1283a1	0.035770062
110	0x3d84ecdb	0.06490489
111	0x3dcdc54b	0.10047396
112	0x3dac3990	0.08409417
113	0xbd800aa4	-0.062520295
114	0xbdc6698a	-0.09688099
115	0xbc45856e	-0.012055738
116	0xbc92e92a	-0.017933447
117	0x3db5a6f2	0.08869733
118	0x3d9a8c1e	0.075462565
119	0x3d84c6a1	0.06483198
120	0x3e08be24	0.13353783
121	0x3d9d5147	0.07681518
122	0x3c194945	0.009355848
123	0xbdd36d20	-0.10323548
124	0xbc5635d7	-0.01307436
125	0x3d80f65f	0.062969916
126	0xbe1bc973	-0.15213566
127	0x3db346e0	0.08753753
128	0x3d61763d	0.0550444
129	0xbe0fc008	-0.14038098
130	0xb957e476	-0.00020589106
131	0x3d2801ad	0.041017223
132	0x3dd583ab	0.10425504
133	0x3db18535	0.08667985
134	0xbdb84030	-0.08996618
135	0x3d0b2666	0.033972166
136	0xbdca4a2a	-0.09877427
137	0xbd267d54	-0.040646866
138	0xbd5d15d5	-0.0539759
139	0xbd1848e4	-0.03717889
140	0x3db54bd6	0.08852355
141	0x3d449680	0.04799509
142	0xbcb5c3ef	-0.022188155
143	0xbe20039e	-0.1562638
144	0xbdb830f6	-0.089937136
145	0xbab1a1c3	-0.0013552237
146	0x3ba97744	0.0051716883
147	0x3cf07c0f	0.02935603
148	0xbdb63e48	-0.08898598
149	0x3d73de36	0.05953809
150	0xbdf685a1	-0.120372064
151	0x3c9282dd	0.017884666
152	0xbc46e0a2	-0.012138518
153	0xbd24f3f8	-0.04027173
154	0xbd5c28ce	-0.053749852
155	0xbcd7c41e	-0.026338633
156	0xbd86301e	-0.065521464
157	0xbd4e3ce7	-0.05035105
158	0xbd981f6f	-0.074278705
159	0xbdb4ae0a	-0.08822258
160	0x3b1d89ad	0.002403836
161	0x3da3f80b	0.08006295
162	0xbdd8901a	-0.1057436
163	0xbd55b68d	-0.052176047
164	0xbda41ab8	-0.08012909
165	0xbcb7a14a	-0.022415776
166	0x3c3211db	0.010868515
167	0x3ce295dd	0.027659351
168	0x3dbd2675	0.09235851
169	0xbd439000	-0.04774475
170	0xbdd9f6b7	-0.1064276
171	0xbdd94ae1	-0.10609985
172	0x3d861774	0.06547442
173	0x3ccbb886	0.024868261
174	0xbd32608e	-0.043549113
175	0x3a9863d6	0.0011626433
176	0x3ded5489	0.115883894
177	0x3da54208	0.08069235
178	0xbb9fd962	-0.004878209
179	0x3d1f2b8c	0.03885989
180	0xbca920e4	-0.020645566
181	0xbdca7872	-0.09886254
182	0xbc2a9c65	-0.010413264
183	0xbd93969c	-0.07206461
184	0x3bf3bd0f	0.007438309
185	0xbce28240	-0.027649999
186	0x3cc8cdd3	0.024512207
187	0xbdbd93c4	-0.092567
188	0x3df0a951	0.117510445
189	0xbd803c75	-0.06261531
190	0xbe046694	-0.12929755
191	0x3d69c782	0.05707503
192	0xbbb6de44	-0.0055806953
193	0xbd7df19e	-0.061998002
194	0x3d913d76	0.07091801
195	0x3d2fe80a	0.0429459
196	0x3dd97bca	0.10619314
197	0x3d2e5467	0.04256096
198	0xbc5cf547	-0.013486213
199	0x3d51f808	0.05126193
200	0x3df8486b	0.12123188
201	0xbcb1d89d	-0.021709735
202	0xbd225473	-0.03963132
203	0x3b01428a	0.0019723498
204	0x3cfcfa2d	0.030881012
205	0xbd8040cd	-0.0626236
206	0x3e0438f2	0.12912348
207	0xbd43a6d7	-0.047766533
208	0x3cf718d4	0.030163206
209	0x3da1a74e	0.07893239
210	0x3d943a7b	0.07237717
211	0xbc7cad62	-0.015422197
212	0x3debceda	0.11514063
213	0x3cbae1e8	0.022812799
214	0xbda57334	-0.08078614
215	0x3dc44d3e	0.09585045
216	0xbdc1969d	-0.09452555
217	0x3dc43cdd	0.09581921
218	0xbdbd2f0e	-0.092374906
219	0x3daf9b70	0.08574569
220	0xbe094e57	-0.1340879
221	0xbd3e1d90	-0.04641491
222	0x3dceabb3	0.10091343
223	0xbb92efed	-0.004484168
224	0xbe235102	-0.15948871
225	0xbdf4e3a0	-0.119574785
226	0xbdd4f413	-0.10398116
227	0x3d997b52	0.074942246
228	0xbe15007a	-0.14550963
229	0x3b93c266	0.004509258
230	0xbd5d94d2	-0.054097004
231	0x3d90bfbb	0.0706782
232	0x3d939745	0.07206587
233	0xbdc56fc9	-0.09640462
234	0xbd2e8a65	-0.042612452
235	0xbdb00538	-0.085947454
236	0xbd767134	-0.060166553
237	0xbd5481ae	-0.051881485
238	0xbc1d9a72	-0.009619342
239	0x3d9d4438	0.07679027
240	0xbd9b78ba	-0.07591386
241	0x3d014daa	0.031568207
242	0xbdbcf735	-0.092268385
243	0xbd81522e	-0.06314503
244	0xbd9b1e3d	-0.07574127
245	0x3d6ab716	0.05730351
246	0x3d19e768	0.0375742
247	0xbcf81050	-0.030281216
248	0xbda32b7b	-0.079672776
249	0xbc970089	-0.018432872
250	0xbe177870	-0.14792037
251	0xbbb074e6	-0.005385029
252	0x3da574ee	0.08078943
253	0x3c37cf4a	0.011218855
254	0x3d2e5440	0.042560816
255	0xbc8fba4a	-0.017544884

critic.0.bias f4 [32]
0	0x3c217911	0.009855525
1	0xbdcc7514	-0.099832684
2	0xbd9651c5	-0.07339815
3	0xbd2eea09	-0.042703662
4	0x3d1efcf0	0.03881544
5	0xbd11f041	-0.035629515
6	0x3c2f9f0b	0.010719071
7	0x3cb41b25	0.0219856
8	0x3c8c7deb	0.017149886
9	0xbd2d9ec6	-0.042387746
10	0xbc8d81bd	-0.017273778
11	0xbd81ea26	-0.063434884
12	0xbcc2770a	-0.023738403
13	0x3d213331	0.03935546
14	0xbbedfde2	-0.007262931
15	0xbda6d9d5	-0.08147017
16	0x3d85615c	0.065127105
17	0xbd24f190	-0.040269434
18	0xbd4b8bcf	-0.04969388
19	0x3dde57f5	0.1085662
20	0xbb8d26ff	-0.004307627
21	0xbd5ead34	-0.054364398
22	0x3dc090e7	0.09402638
23	0x3dd0e55d	0.101999976
24	0x3d872540	0.06598902
25	0xbd569d5b	-0.05239616
26	0x3c41e5a8	0.0118345395
27	0xbdc18260	-0.09448695
28	0xbd2c43a9	-0.042056713
29	0x3dad9fc6	0.0847774
30	0x3dcd7198	0.10031432
31	0x3d21ee0e	0.039533667

critic.2.weight f4 [1, 32]
0	0x3d3390ce	0.04383927
1	0xbdb8e4c4	-0.090280086
2	0xbd3dafb5	-0.046310145
3	0xbcc2443c	-0.023714177
4	0x3ce20005	0.0275879
5	0xbd46c647	-0.048528936
6	0x3d34528b	0.04402403
7	0x3cdcf269	0.026971059
8	0xbc733700	-0.014844656
9	0xbdc7c608	-0.09754568
10	0xbba405f8	-0.0050055943
11	0xbdf07143	-0.11740353
12	0x3daae4d9	0.083444305
13	0x3d6a78cd	0.05724411
14	0x3afb807f	0.0019188075
15	0xbe064b17	-0.13114582
16	0x3d582edc	0.052779064
17	0xbcc37fcb	-0.023864647
18	0x3b22e969	0.0024858362
19	0x3e00bb2e	0.12571403
20	0xbc19fff7	-0.009399406
21	0xbd425b78	-0.047450513
22	0x3d65919d	0.05604707
23	0x3e142ab3	0.14469413
24	0x3daca2b3	0.0842947
25	0x3ca1020b	0.019654294
26	0x3b7710f5	0.0037699316
27	0xbcf47b6c	-0.029844008
28	0xbc63a35d	-0.013893929
29	0x3e0dfabe	0.13865182
30	0x3e0307aa	0.12795892
31	0x3d8378c9	0.06419522

memory_a.rnn.weight_ih_l0 f4 [256, 47]
0	0x3eae8b00	0.34090424
1	0xbec7e681	-0.39043048
2	0x3d92229f	0.0713551
3	0x3de7c6e0	0.11317229
4	0xbf500ec0	-0.81272507
5	0x3d643f9b	0.05572472
6	0xbe96383c	-0.29339778
7	0xbdb58262	-0.08862759
8	0x3f087683	0.53305835
9	0xbe162322	-0.1466184
10	0xbf0512b3	-0.5198166
11	0xbed3b532	-0.4134918
12	0xbef92561	-0.4866133
13	0x3eafd8b2	0.34345013
14	0xbe37c2c0	-0.17945385
15	0x3bdd8a22	0.0067608515
16	0x3eea4b31	0.45760491
17	0x3eb58459	0.35452536
18	0x3bb80120	0.0056153685
19	0xbe28e3d7	-0.16493164
20	0x3e1858f7	0.14877687
21	0x3f45a999	0.7721191
22	0x3e8c05ec	0.27348268
23	0x3e61f55f	0.22066258
24	0xbf03db4e	-0.5150651
25	0xbeb2e180	-0.34937668
26	0xbda1a70e	-0.07893191
27	0x3e97b114	0.29627287
28	0xbe161972	-0.14658144
29	0x3e96bbd2	0.2944017
30	0xbeb583b3	-0.3545204
31	0x3f2b4252	0.6689807
32	0x3e830004	0.2558595
33	0xb80d53d6	-3.3695098e-05
34	0x3bdbdec6	0.0067099063
35	0x3e1f9dd3	0.15587549
36	0xbee444f6	-0.44583863
37	0xbe671170	-0.22565246
38	0xbe2075b9	-0.15669908
39	0x3eb72caf	0.35776278
40	0xbebc0315	-0.367211
41	0x3e662c9c	0.22477955
42	0xbde2cf1b	-0.110746585
43	0xbd85732e	-0.065161094
44	0x3f00b8b5	0.5028184
45	0xbe972c53	-0.29526004
46	0x3dcdbdac	0.10045943
47	0x3cbeec01	0.023305895
48	0xbde5e5d9	-0.112254806
49	0xbe0c9f78	-0.13732708
50	0x3e34260e	0.17592642
51	0xbcb61194	-0.022225179
52	0xbd8d9686	-0.06913476
53	0x3dc2325d	0.09482262
54	0x3eb31df0	0.34983778
55	0xbf5db043	-0.8659708
56	0x3f9346d6	1.1505992
57	0xbee590bd	-0.4483699
58	0xbf836023	-1.0263714
59	0xbe659aa5	-0.22422273
60	0xbe49f0a9	-0.19720711
61	0x3ec579e3	0.38569555
62	0x3da5a78b	0.08088597
63	0x3ef05ba9	0.4694493
64	0xbd03e90f	-0.032204684
65	0xbea9cd54	-0.33164465
66	0x3da24e88	0.07925135
67	0x3ef49542	0.47770125
68	0x3f04dcd4	0.51899457
69	0xbf178766	-0.59190977
70	0xbe2553ec	-0.16145295
71	0xbf1c5d5b	-0.6107995
72	0x3e2d47ff	0.16921996
73	0x3e654dc5	0.22392948
74	0xbe32f423	-0.17475943
75	0x3ebaf594	0.36515486
76	0x3f38fe64	0.7226317
77	0x3e1eb19f	0.15497445
78	0x3ec4d97b	0.38447174
79	0x3f2f06d5	0.683698
80	0xbe0c7820	-0.13717699
81	0xbd487cfc	-0.04894732
82	0xbf2ea903	-0.6822664
83	0xbe6d56cc	-0.23177642
84	0xbda8ad26	-0.082361504
85	0xbcfcac13	-0.03084377
86	0x3ec8f2f4	0.3924786
87	0x3dd09d19	0.10186214
88	0x3ee3786e	0.44427818
89	0x3ddaa6c7	0.106763415
90	0xbe1d4ea5	-0.15362032
91	0x3f25aa1f	0.6471271
92	0xbd878756	-0.0661761
93	0x3aee8ce9	0.0018199953
94	0x3e4690a6	0.19391116
95	0xbf298428	-0.6621728
96	0x3cbce5dc	0.023058824
97	0x3dd4aca5	0.10384492
98	0x3dbb255d	0.09137986
99	0xbd25337e	-0.04033231
100	0xbe5e1e97	-0.21691357
101	0x3d997638	0.074932516
102	0x3df65a58	0.120289505
103	0xbdd8486e	-0.1056069
104	0x3d2c174f	0.042014416
105	0x3e495b0b	0.19663636
106	0xbe53cd58	-0.20683801
107	0xbcad4254	-0.021149792
108	0x3ea9538f	0.33071563
109	0xbf28d98e	-0.6595696
110	0x3ce372a9	0.027764635
111	0x3e9c0241	0.3047047
112	0xbe72f8d8	-0.23727739
113	0x3e31c688	0.1736089
114	0xbebe0b58	-0.3711803
115	0x3f8b84dd	1.0899922
116	0xbe3e459f	-0.18581246
117	0x3b973bf7	0.0046153027
118	0xbe868915	-0.2627646
119	0xbdae156f	-0.08500182
120	0x3dbf5b45	0.0934358
121	0xbdf23b74	-0.11827746
122	0xbea6cbdd	-0.3257741
123	0xbe9ea180	-0.3098259
124	0x3f063d7c	0.5243757
125	0x3e919b2b	0.28438696
126	0x3ef8f9c0	0.48628044
127	0x3f7fdfff	0.99951166
128	0xbe6441ff	-0.222908
129	0x3e8d7c0a	0.27633697
130	0xbb737701	-0.003714979
131	0x3e0e5483	0.13899426
132	0x3d420f24	0.04737772
133	0x3f2a27cc	0.66466975
134	0xbe01a0cd	-0.12658997
135	0x3e333506	0.17500696
136	0x3edd7296	0.43251485
137	0x3d99cc9a	0.07509728
138	0xbdac0507	-0.083993964
139	0x3d7afa8e	0.061274104
140	0xbe9bdfd0	-0.30444193
141	0xbf1ed752	-0.620473
142	0x3e24cbf9	0.16093434
143	0xbed8a74c	-0.42315137
144	0x3e9bd507	0.30435964
145	0x3e8d9b73	0.2765766
146	0x3ea6442a	0.3247388
147	0xbea4a445	-0.32156578
148	0x3e25fb28	0.1620909
149	0x3e93a7a8	0.2883885
150	0xbee30859	-0.44342306
151	0xbebae21c	-0.36500633
152	0x3e444f61	0.19170906
153	0xbe53d7ee	-0.2068784
154	0x3eb7123d	0.35756102
155	0x3ecd7975	0.40131727
156	0xbf288da1	-0.6584111
157	0xbf319957	-0.69374603
158	0x3f24d2e9	0.64384323
159	0xbf192f71	-0.59838015
160	0x3ef8e7ec	0.48614442
161	0x3e97a726	0.29619712
162	0xba2718ce	-0.00063742406
163	0x3f09b749	0.53795296
164	0x3d32b798	0.04363212
165	0x3e599d47	0.21251403
166	0xbf2684a0	-0.6504612
167	0xbf0b9a81	-0.5453263
168	0xbea578e5	-0.32318798
169	0x3dd7af3d	0.10531471
170	0x3ed097f3	0.40740928
171	0x3ee20f7d	0.44152442
172	0x3e6f27ea	0.2335507
173	0x3e487bac	0.19578427
174	0xbed2a111	-0.4113851
175	0xbe32b99e	-0.1745362
176	0x3e4a8ce1	0.19780304
177	0x3ed45f84	0.41479123
178	0xbdf4f3e6	-0.119605824
179	0xbe1f5c6a	-0.15562597
180	0x3de0b925	0.109728135
181	0x3e8393fa	0.25698835
182	0x3ed1a727	0.4094784
183	0x3d8c7e4b	0.06860026
184	0x3d665c2f	0.056240257
185	0x3ea2396b	0.3168443
186	0xbc97d0c7	-0.01853217
187	0x3dbe9bca	0.09307058
188	0x3e646020	0.22302294
189	0x3e6685c6	0.22511968
190	0x3f1ad4e5	0.604811
191	0x3ecf1d9d	0.4045228
192	0xbf20b386	-0.6277393
193	0x3dfdc67c	0.123913735
194	0x3e4c51ae	0.19953033
195	0x3e134826	0.14382991
196	0x3eff765a	0.49894983
197	0x3f1e6bd0	0.6188326
198	0x3f069307	0.52568096
199	0x3dbec349	0.093145914
200	0xbf009ff4	-0.5024407
201	0x3f004b64	0.50115037
202	0x3e3c069e	0.183619
203	0x3d0a7aa5	0.03380837
204	0x3f16173c	0.586292
205	0xbe4d1167	-0.2002617
206	0x3ea10ef6	0.31456727
207	0x3e94f3e3	0.2909232
208	0x3e4de1f6	0.20105729
209	0xbf1f9d80	-0.623497
210	0x3ef83c58	0.4848354
211	0x3e8327b9	0.25616243
212	0x3da51989	0.08061511
213	0xbc7fc389	-0.015610584
214	0xbe8d05f4	-0.27543604
215	0xbead0c34	-0.33798373
216	0xbc99cfc4	-0.018775828
217	0xbea9170f	-0.33025405
218	0x3e6dc7b9	0.2322072
219	0x3e77eeec	0.24212235
220	0x3f0bf1a9	0.5466562
221	0xbe572b6f	-0.21012662
222	0xbe9e02a5	-0.30861393
223	0x3f0245de	0.5088786
224	0xbdd32216	-0.10309236
225	0x3eb65864	0.35614312
226	0xbe88e716	-0.26738805
227	0x3dad67ec	0.08467087
228	0xbe13c91b	-0.14432184
229	0xbc2a837a	-0.010407323
230	0x3d69c412	0.057071753
231	0xbe0f0f32	-0.1397064
232	0x3eb23ef0	0.34813643
233	0xbe72206b	-0.23645179
234	0xbcaa0e4d	-0.020758772
235	0xbcbc9cd9	-0.02302401
236	0x3e36ade1	0.17839767
237	0xbd97012d	-0.07373271
238	0xbec60781	-0.386776
239	0x3e919e29	0.2844098
240	0xbe1d3185	-0.15350921
241	0xbe62370a	-0.22091308
242	0x3da59ca0	0.080865145
243	0xbedc2ec6	-0.43004435
244	0xbeb29b47	-0.34884092
245	0xbe90ff55	-0.28319803
246	0xbbf323e9	-0.0074200523
247	0x3e78d799	0.24300994
248	0x3ea48946	0.3213598
249	0x3e9211b6	0.28529137
250	0x3eb5b4ce	0.35489506
251	0xbed43a02	-0.41450506
252	0x3ef07fd0	0.46972513
253	0x3f2a38e7	0.66493076
254	0x3db49641	0.08817721
255	0xbe3c75ee	-0.18404362

memory_a.rnn.weight_hh_l0 f4 [256, 64]
0	0x3e7704d1	0.24122931
1	0x3d3c37c8	0.045951635
2	0xbed384de	-0.41312307
3	0xbebbeef4	-0.36705744
4	0x3e8375bc	0.25675762
5	0xbe0d5bec	-0.13804597
6	0xbe4cf13a	-0.20013896
7	0xbdc290aa	-0.09500249
8	0xbf0019aa	-0.5003916
9	0xbeeda7b4	-0.4641701
10	0xbe1d74bf	-0.15376566
11	0xbd8cd444	-0.06876424
12	0xbf116f65	-0.568106
13	0xbea58d1c	-0.3233422
14	0xbf393723	-0.72349757
15	0x3ecd16c0	0.4005642
16	0xbeb11aeb	-0.3459085
17	0xbe2e6085	-0.17029007
18	0xbee955a0	-0.4557314
19	0x3ec8b4bc	0.3920039
20	0xbe250331	-0.16114499
21	0x3d1de668	0.03854981
22	0x3e0b7216	0.13617739
23	0xbe482e31	-0.1954887
24	0x3f3aa09c	0.7290132
25	0xbe0561ac	-0.1302554
26	0xbe84b2c3	-0.25917634
27	0x3ec0d3e5	0.37661663
28	0x3f0b2669	0.54355484
29	0x3a992954	0.001168529
30	0x3efe423c	0.49659908
31	0x3e080016	0.13281283
32	0xbe35360d	-0.176964
33	0xbe74e8d9	-0.2391695
34	0xbda33b99	-0.07970352
35	0xbf23e8e7	-0.64027256
36	0x3e28eae6	0.16495857
37	0x3e1980bd	0.14990516
38	0x3e82c55d	0.255412
39	0xbf1d4e6a	-0.61447775
40	0x3e6fb96b	0.23410575
41	0x3db3e3c4	0.08783677
42	0xbf180bb6	-0.5939287
43	0x3e557158	0.20844018
44	0x3ed3f02d	0.41394177
45	0x3d8eab8e	0.06966315
46	0x3dca16ee	0.09867655
47	0x3e383421	0.17988636
48	0xbe184800	-0.14871216
49	0x3e16c533	0.14723663
50	0xbfb4501f	-1.4086951
51	0xbe80c56a	-0.25150615
52	0x3e3d19ad	0.18466826
53	0xbef74f92	-0.48302895
54	0x3f57afd0	0.84252644
55	0xbf446a24	-0.7672446
56	0xbe941332	-0.28920895
57	0x3dd59b13	0.10429969
58	0x3f032672	0.5123054
59	0xbecd7a1e	-0.4013223
60	0x3e1e96f2	0.15487269
61	0xbf021a5a	-0.5082146
62	0xbd84cc09	-0.06484229
63	0xbdcfc458	-0.101448715
64	0xbe53570f	-0.20638679
65	0x3e0303e8	0.12794459
66	0x3daed69d	0.08537028
67	0xbf5bb6e4	-0.85825944
68	0xbf62ac5d	-0.88544255
69	0xbe6e5054	-0.2327283
70	0x3f7013a6	0.9377998
71	0xbf091f92	-0.535638
72	0xbf06cde4	-0.52657914
73	0x3daaec1f	0.08345818
74	0xbe28d98e	-0.1648924
75	0x3e8f0166	0.27930754
76	0x3e378b09	0.17924131
77	0x3ec1b28e	0.3783154
78	0xbef33290	-0.47499514
79	0xbede3b21	-0.43404487
80	0xbba0920a	-0.0049002217
81	0x3f25fe05	0.6484073
82	0x3e1a1ebd	0.15050788
83	0xbc2e53b5	-0.0106400745
84	0xbf5dd1e0	-0.8664837
85	0xbf40e2f1	-0.75346285
86	0xbecfdf0c	-0.4059986
87	0xbe89e071	-0.26929048
88	0x3eb838a2	0.35980707
89	0x3c3872de	0.011257855
90	0xbf0a7972	-0.5409156
91	0xbf195c6a	-0.5990664
92	0x3f49018c	0.78517985
93	0xbda3f798	-0.08006209
94	0x3e329096	0.17437968
95	0x3e55220b	0.20813768
96	0xbeac537a	-0.33657438
97	0x3e3378e0	0.17526579
98	0xbeeaac0b	-0.45834383
99	0xbd470f45	-0.048598547
100	0xbebe892a	-0.37214023
101	0x3ea7b836	0.3275773
102	0xbda8a410	-0.082344174
103	0xbec618db	-0.38690838
104	0x3e692f33	0.22771911
105	0xbf365c1c	-0.712343
106	0xbe29a7ec	-0.16567963
107	0x3e4f3c92	0.2023795
108	0x3e17b62e	0.1481559
109	0x3e69a8e6	0.22818336
110	0x3d923d78	0.071406305
111	0xbe24226c	-0.16028756
112	0xbe82f382	-0.25576407
113	0xbe3dd681	-0.18538858
114	0xbeafcb30	-0.34334707
115	0x3f40214c	0.75050807
116	0xbeb061ec	-0.34449708
117	0x3de2a0c2	0.11065818
118	0xbe1ddbf3	-0.15415935
119	0x3ea05e83	0.31322107
120	0x3d81ee42	0.06344272
121	0x3f349336	0.70537126
122	0xbe170c8e	-0.14750883
123	0xbe258e25	-0.16167505
124	0xbec5893d	-0.38581267
125	0xbdfea5ec	-0.12433991
126	0xbe304c20	-0.1721654
127	0xbf421096	-0.7580656
128	0x3ef74c19	0.48300245
129	0xbe214861	-0.15750267
130	0x3e2c344f	0.16816829
131	0xbe8b754b	-0.27237925
132	0xbd6bcd88	-0.057569057
133	0xbdcafea4	-0.0991185
134	0xbee9953e	-0.45621675
135	0x3f2cee4b	0.67551106
136	0xbe8569ba	-0.26057225
137	0xbe1779db	-0.14792578
138	0xbecbf483	-0.39834985
139	0xbdd1a029	-0.10235626
140	0x3e823f82	0.25439078
141	0xbeac3ca2	-0.3364001
142	0xbdbf2bd8	-0.093345344
143	0xbe2de877	-0.1698321
144	0x3e5cdf58	0.21569574
145	0x3dae997a	0.08525367
146	0x3ea0f8b9	0.3143976
147	0xbda2f340	-0.079565525
148	0xbed3bb15	-0.4135367
149	0x3f2d3f8b	0.67675084
150	0xbe34fcaa	-0.17674509
151	0xbda0a857	-0.07844608
152	0xbea5d647	-0.32390043
153	0x3f16be8a	0.5888449
154	0xbe001e9a	-0.12511674
155	0xbe860ff7	-0.26184055
156	0xbee45c39	-0.4460161
157	0xbe94e3f3	-0.2908016
158	0x3f11cd46	0.5695385
159	0x3ee15df6	0.44017
160	0x3f43d8ba	0.76502573
161	0xbe1b1b0a	-0.15147033
162	0xbedf30eb	-0.4359201
163	0xbe1bb8a0	-0.15207148
164	0x3f3e00b7	0.7421984
165	0xbad66ad0	-0.0016358737
166	0xbf3c72c2	-0.73612607
167	0xbec0b04b	-0.376345
168	0xbdd9c27e	-0.106327996
169	0x3d518eb5	0.051161487
170	0x3f096d5e	0.53682506
171	0x3e0ce4c3	0.1375914
172	0xbf35245b	-0.707586
173	0x3d036ff6	0.032089196
174	0xbdce7115	-0.100801624
175	0xbdfbfb1d	-0.123037554
176	0x3df6d2fa	0.12051959
177	0x3e3152bb	0.17316715
178	0xbf30eecf	-0.69114393
179	0x3f00d176	0.5031961
180	0x3e4a039b	0.19727938
181	0xbe9a84e2	-0.30179507
182	0x3e9e6622	0.30937296
183	0xbe547d04	-0.20750815
184	0xbf0453ac	-0.51690173
185	0xbe6528a8	-0.2237879
186	0xbe185239	-0.14875115
187	0x3e397559	0.18111171
188	0x3e95ef70	0.2928424
189	0xbdbb603f	-0.09149217
190	0xbf0b75a1	-0.5447636
191	0x3eacb99e	0.33735365
192	0x3f350448	0.7070966
193	0x3ec1fca3	0.3788806
194	0x3ea61b1e	0.32442564
195	0x3e43429b	0.19068377
196	0x3eaac0d9	0.33350256
197	0xbf0844a6	-0.5322975
198	0xbd2b83e4	-0.041873828
199	0x3f8e26fa	1.1105645
200	0xbf2ef6b1	-0.6834517
201	0xbf7d3b9b	-0.98919076
202	0xbdf1c4a7	-0.118050866
203	0xbf2eae2a	-0.68234503
204	0x3ec9b1ed	0.3939356
205	0xbf7c70ab	-0.9860942
206	0xbf4c0872	-0.79700387
207	0x3eb2b114	0.34900725
208	0xbf0112b1	-0.50419146
209	0x3daa1f28	0.08306724
210	0x3d71f9e2	0.059076197
211	0x3e9396d3	0.28826007
212	0x3e60e56f	0.21962522
213	0xbf682ec4	-0.9069636
214	0xbedfe1ba	-0.43726903
215	0xbc93b461	-0.018030347
216	0xbdcffca5	-0.1015561
217	0xbe37be80	-0.17943764
218	0xbed4197e	-0.414257
219	0x3e9dac8d	0.30795708
220	0xbe422085	-0.18957718
221	0xbe4d51da	-0.20050755
222	0x3ed0b25e	0.40761083
223	0x3e36042c	0.17775029
224	0xbe809366	-0.25112456
225	0xbe9f5d2f	-0.3112578
226	0xbf6617c8	-0.8988004
227	0xbed7e389	-0.42165783
228	0xbe64685a	-0.22305432
229	0x3e942019	0.2893074
230	0xbf05f956	-0.5233358
231	0xbf428e8b	-0.75998753
232	0xbe4058a8	-0.1878382
233	0xbf62f993	-0.8866207
234	0x3e34a94d	0.17642708
235	0x3e8b3f84	0.27196896
236	0xbef76858	-0.48321795
237	0xbefe236e	-0.49636406
238	0xbee211f9	-0.44154337
239	0xbf05130c	-0.5198219
240	0xbf311d6e	-0.6918553
241	0xbf84109d	-1.031757
242	0x3e06d17a	0.13165846
243	0xbecf3e78	-0.40477347
244	0x3f1e039b	0.6172425
245	0xbdbbe3f5	-0.09174339
246	0xbe4c159e	-0.19930121
247	0xbf0c1d5f	-0.54732317
248	0x3e20faee	0.15720722
249	0xbf4130e1	-0.7546521
250	0x3e4a79e9	0.19773068
251	0x3ebf1150	0.37317896
252	0xbe7d8148	-0.24756348
253	0xbf01333b	-0.50468796
254	0xbec51c62	-0.38498217
255	0x3f18c509	0.5967565

memory_a.rnn.bias_ih_l0 f4 [256]
0	0x3e196b2d	0.1498229
1	0x3e564e19	0.2092823
2	0xbc05e5c4	-0.008172456
3	0xbe3e1bd2	-0.185653
4	0xbe16126a	-0.14655462
5	0xbca0e6b1	-0.019641252
6	0xbe58e5ab	-0.21181361
7	0xbca0f728	-0.019649103
8	0x3da56975	0.08076755
9	0x3d30f742	0.043204553
10	0x3e1d24b0	0.15346026
11	0xbdcb85d8	-0.09937638
12	0xbe51e9ef	-0.20499395
13	0xbddb7621	-0.10715891
14	0xbd98f3da	-0.07468386
15	0xbe268a55	-0.16263707
16	0x3e462a7a	0.19352141
17	0xbe35ca94	-0.17753059
18	0xbe562b3f	-0.20914935
19	0x3d21d6b9	0.039511416
20	0xbe906e7b	-0.2820929
21	0xbe2b35a2	-0.16719678
22	0xbc5e5646	-0.013570374
23	0xbd7db24a	-0.061937608
24	0xbe1efebb	-0.1552686
25	0xbe1d1292	-0.15339115
26	0xbe700457	-0.23439156
27	0xbdd75db2	-0.10515918
28	0xbe1918c7	-0.14950858
29	0xbddebace	-0.10875474
30	0x3d5b11db	0.053483825
31	0x3daeae74	0.08529368
32	0x3e076a81	0.13224222
33	0xbe9b2c66	-0.3030731
34	0xbe02f27c	-0.12787813
35	0xbe4ff021	-0.20306446
36	0x3dce6328	0.10077506
37	0x3b943deb	0.0045239828
38	0xbde083b2	-0.10962619
39	0x3d91850d	0.071054555
40	0xbec31759	-0.3810375
41	0xbe6911c5	-0.22760685
42	0xbdc04254	-0.09387651
43	0x3dc9f14e	0.09860478
44	0xbe84e98c	-0.25959432
45	0xbe0682e2	-0.13135865
46	0x3e6a3aa9	0.2287394
47	0xbdfb28d6	-0.12263648
48	0x3b2d09cf	0.0026403551
49	0xbe00a7d7	-0.12564026
50	0xbe3a1f98	-0.18176115
51	0x3d610f4f	0.05494624
52	0xbdddf9b6	-0.10838644
53	0xbe3a4f96	-0.18194422
54	0xbe525da1	-0.20543529
55	0xbded70bc	-0.11593768
56	0x3ea886cc	0.32915342
57	0x3e099ac4	0.13437945
58	0x3e1cf3c7	0.15327369
59	0x3d64d8af	0.055870708
60	0x3ccf8944	0.025334008
61	0x3e449bac	0.19200009
62	0xbd9ab07f	-0.07553195
63	0xbc8400f3	-0.016113734
64	0xbd24b08b	-0.040207427
65	0xbdeee8d5	-0.11665503
66	0xbd2c7451	-0.042103115
67	0x3e5b4d24	0.21416146
68	0x3d861ed2	0.06548847
69	0xbe52c504	-0.20582968
70	0x3e6afdef	0.2294843
71	0x3dce4f9d	0.10073779
72	0xbddb9d07	-0.1072331
73	0xbd0b0bb7	-0.03394672
74	0xbe93d8f7	-0.2887647
75	0x3d6ab767	0.057303812
76	0xbe0e7a69	-0.13913883
77	0xbe31ffc6	-0.17382726
78	0xbd4b93a0	-0.049701333
79	0xbdd9efe0	-0.10641456
80	0xbe318148	-0.17334473
81	0xbdbbc3f8	-0.091682374
82	0xbd075dd9	-0.033048484
83	0x3db292b5	0.087193884
84	0x3d2f8648	0.04285267
85	0x3d84419c	0.064578265
86	0x3e0b8971	0.13626648
87	0xbe65f650	-0.22457242
88	0xbd4fd430	-0.050739467
89	0x3e6be1b1	0.23035313
90	0xbd1c67df	-0.038184997
91	0x3dd7c758	0.10536069
92	0xbd49de54	-0.049284294
93	0xbdb86cd1	-0.0900513
94	0xbe787b7f	-0.2426586
95	0xbe847303	-0.25868997
96	0xbd94cf2f	-0.0726608
97	0x3dc0e884	0.09419349
98	0x3df766fa	0.12080188
99	0x3d2d34b5	0.042286593
100	0xbe8855e2	-0.26628023
101	0xbdd08f61	-0.10183597
102	0xbd93c46b	-0.07215198
103	0xbe8b765f	-0.27238747
104	0xbd8ca68a	-0.06867702
105	0x3dc1ea24	0.09468487
106	0xbe149686	-0.14510545
107	0x3cc09548	0.023508683
108	0x3cd80571	0.026369782
109	0xbe51f881	-0.20504953
110	0xbe905d58	-0.28196216
111	0x3be63cbe	0.007026284
112	0x3d46e91d	0.048562158
113	0x3c3ca5b1	0.011514113
114	0xbd32395f	-0.043511745
115	0xbc9613d9	-0.018320011
116	0x3d5ce804	0.053932205
117	0x3d38d368	0.045123488
118	0x3def6642	0.11689426
119	0x3e82f1f5	0.25575224
120	0xbdbd6ab0	-0.09248865
121	0xbe831af1	-0.25606492
122	0xbf09e949	-0.5387159
123	0xbe016a18	-0.12638128
124	0xbd723aaf	-0.059137996
125	0xbcfa67f6	-0.03056715
126	0xbd45bcef	-0.048275884
127	0xbe46a4c2	-0.19398788
128	0xbdbfc975	-0.09364597
129	0xbdbf2575	-0.09333316
130	0x3d557853	0.052116703
131	0x3ddf8a13	0.109150074
132	0xbdf0e021	-0.11761499
133	0x3d6d4845	0.05793025
134	0xbc81bf92	-0.015838418
135	0xbdc15f54	-0.094420105
136	0x3d9a23b6	0.075263426
137	0x3e1a739b	0.15083162
138	0xbd5634f1	-0.052296583
139	0x3d793109	0.06083778
140	0xbdb63fc3	-0.0889888
141	0x3da3e4c5	0.08002619
142	0x3cdc5dff	0.02690029
143	0x3d7f960c	0.062398955
144	0xbd6f206b	-0.058380526
145	0xbdb58472	-0.088631526
146	0xbdbecc22	-0.09316279
147	0x3c0add2a	0.008475581
148	0xbd8be6ea	-0.06831153
149	0x3dbb1b60	0.09136081
150	0xbd90d7dd	-0.07072423
151	0xbc123e0b	-0.008925925
152	0x3d8f28d6	0.06990211
153	0x3d0dd673	0.034628343
154	0x3df99abd	0.12187717
155	0x3d5edc6b	0.054409426
156	0xbddca18a	-0.10772999
157	0x3d799d42	0.06094099
158	0x3ba8d082	0.005151809
159	0xbd371a72	-0.044702955
160	0x3dbdcec4	0.09267953
161	0xbc48701e	-0.012233762
162	0x3d2d7c7b	0.042355042
163	0x3d17de8b	0.037077468
164	0x3dae643e	0.085152134
165	0x3d360bcf	0.044444855
166	0x3c83fcfd	0.016111845
167	0xbd51d52c	-0.051228687
168	0x3e05dbcf	0.13072132
169	0x3dbd4d62	0.09243275
170	0xbd5d9642	-0.054098375
171	0xbcc68c7b	-0.024236908
172	0x3d15e810	0.036598265
173	0xbc54ddc6	-0.012992328
174	0x3d2f5daf	0.042813953
175	0x3d341b5a	0.043971397
176	0x3d09a70a	0.033606566
177	0x3d1f4eb4	0.038893417
178	0x3bfea4fa	0.0077711316
179	0x3e0f5329	0.13996567
180	0xbd0c38ef	-0.034233984
181	0xbdd49ccd	-0.1038147
182	0x3ce8cece	0.028418925
183	0xbcda33f0	-0.026636094
184	0xbde6354f	-0.112406366
185	0x3c09f22a	0.008419553
186	0xbc8a9ad6	-0.016919535
187	0xbd28f725	-0.04125132
188	0xbda9f0bf	-0.08297872
189	0x3e14b294	0.14521247
190	0xbc0faea2	-0.008769663
191	0xbce21dfd	-0.02760219
192	0xbd07ba55	-0.033136684
193	0x3dbd6367	0.09247475
194	0x3d05a6b4	0.032629684
195	0x3d3cd5fd	0.046102513
196	0xbe39c2e4	-0.18140751
197	0x3d68b850	0.0568164
198	0xbe9f4741	-0.3110905
199	0x3bcfe4d7	0.0063444185
200	0xbe65cdde	-0.22441813
201	0xbd867067	-0.06564408
202	0x3e21aafe	0.15787885
203	0xbe33b690	-0.17550111
204	0xbe696a22	-0.22794393
205	0xbdfa02e5	-0.12207583
206	0xbe9e094d	-0.3086647
207	0x3d31d902	0.043419845
208	0xbd823a96	-0.06358831
209	0xbe4875e5	-0.19576223
210	0xbe884b35	-0.26619878
211	0xbe90ab71	-0.282558
212	0xbe9292d1	-0.28627637
213	0xbd7489ca	-0.05970172
214	0xbd9745d3	-0.07386365
215	0x3d16ffb9	0.03686497
216	0xbcfc1bd8	-0.030774996
217	0xbe169ba9	-0.14707817
218	0xbc70328f	-0.014660492
219	0xbd27009e	-0.040772073
220	0xbe009766	-0.12557754
221	0xbe169e41	-0.14708807
222	0xbd81ca91	-0.063374646
223	0xbe9aec8f	-0.30258605
224	0x3b7c7fe7	0.0038528384
225	0xbccd9e39	-0.02509986
226	0x3e10d2d8	0.1414293
227	0xbe7bd202	-0.2459183
228	0xbd220b35	-0.03956147
229	0xbdb173ba	-0.08664651
230	0xbe42202a	-0.18957582
231	0x3e13cf8d	0.14434643
232	0xbe1108ca	-0.14163509
233	0x3d133b68	0.035945326
234	0x3de388ad	0.11110053
235	0xbca96100	-0.020676136
236	0x3e77886a	0.24173132
237	0xbd6ac51c	-0.057316884
238	0x3a831fd0	0.0010003988
239	0xbd59204f	-0.053009328
240	0xbe0a792a	-0.13522783
241	0x3d9f894d	0.0778986
242	0xbe19fd59	-0.1503805
243	0xbd8e088b	-0.06935223
244	0x3dee1846	0.116257235
245	0x3e2fb853	0.17160158
246	0xbd9a7b49	-0.07543046
247	0xbe4964bb	-0.19667332
248	0x3df8b8c0	0.12144613
249	0x3e66cc99	0.22538985
250	0xbc730d3d	-0.014834699
251	0x3e668fee	0.22515842
252	0xba7b5774	-0.00095879217
253	0x3d0d2ebc	0.034468397
254	0xbd5ea8e9	-0.054360304
255	0xbdb80ec2	-0.0898719
